models/speechcmds_tau3_75%/model_best.pth (torch, 323271 bytes, 165 tensors)

cnn_head.0.weight f4 [48, 1, 5, 5]
0	0x3e352dac	0.17693204
1	0x3db24119	0.08703823
2	0xbd26be38	-0.04070875
3	0x3d993b55	0.0748202
4	0x3c3fd5ac	0.011708658
5	0xbda46fea	-0.080291584
6	0xbe3a30ae	-0.18182632
7	0xbeb63fc9	-0.3559554
8	0xbe703a64	-0.23459774
9	0xbeb594ee	-0.35465187
10	0x3d945afc	0.072439164
11	0x3cf7c4ef	0.030245272
12	0xbb09a0eb	-0.0021000456
13	0x3dd99bdd	0.10625432
14	0x3d6927d4	0.05692275
15	0x3d4339a0	0.047662377
16	0x3a8f2511	0.0010921081
17	0xbd8bcd3c	-0.06826255
18	0x3d5cc696	0.053900324
19	0x3d8435f0	0.064556
20	0xbdf14449	-0.117806025
21	0xbc2923a8	-0.0103234425
22	0x3b24c73c	0.0025143167
23	0x3d86c79d	0.06581042
24	0xbcb6e617	-0.022326512
25	0xb3ee8982	-1.1107751e-07
26	0xb40e873a	-1.3273976e-07
27	0xb40c3436	-1.305751e-07
28	0xb4289055	-1.5698727e-07
29	0xb479720d	-2.3231424e-07
30	0xb3480bc1	-4.657682e-08
31	0xb2dd6ae1	-2.5776389e-08
32	0xb20c67b4	-8.172652e-09
33	0xb344600f	-4.572217e-08
34	0xb3f590fa	-1.14350726e-07
35	0xb2d0a30a	-2.4288529e-08
36	0x33af2de9	8.1574235e-08
37	0x34217e16	1.5040163e-07
38	0x33764f2d	5.734835e-08
39	0xb306b1d9	-3.1361058e-08
40	0xb2eec932	-2.779834e-08
41	0x327d68b2	1.4750343e-08
42	0x33cb4c96	9.466855e-08
43	0x33421660	4.5189495e-08
44	0xb1f2894e	-7.0587367e-09
45	0xb3c3aba6	-9.111618e-08
46	0xb307589d	-3.151273e-08
47	0x3302e863	3.0479338e-08
48	0xb218e78f	-8.900215e-09
49	0xb1862fb0	-3.9053347e-09
50	0xafa7ae66	-3.050104e-10
51	0xaf9cebc3	-2.8543753e-10
52	0xaf8f2700	-2.603926e-10
53	0xabf0e4c4	-1.7116521e-12
54	0xaeef8590	-1.0892187e-10
55	0x2f1faf1c	1.4523177e-10
56	0x2ea1a05b	7.349917e-11
57	0x2e9be10c	7.08856e-11
58	0x2f73bb8a	2.2167349e-10
59	0x2e774d2c	5.622984e-11
60	0x2e3c3846	4.2796232e-11
61	0xaf0e0c62	-1.2919224e-10
62	0xaecaca09	-9.221785e-11
63	0xaecc3810	-9.286805e-11
64	0xae8501ab	-6.048436e-11
65	0xaed30b01	-9.597124e-11
66	0xaf33bb9c	-1.6346607e-10
67	0xafca513c	-3.6801306e-10
68	0xafbeb8a1	-3.4691985e-10
69	0xafe6c78c	-4.1978543e-10
70	0x2e7694b6	5.6066006e-11
71	0xaf1112e3	-1.3194383e-10
72	0xaedd7330	-1.0070378e-10
73	0xaf7010eb	-2.1833883e-10
74	0xaf9a7d45	-2.8101446e-10
75	0xb0d6408a	-1.5588892e-09
76	0xae03dd04	-2.9982253e-11
77	0x3050c373	7.594771e-10
78	0xb066f67c	-8.402379e-10
79	0xb12ee851	-2.545239e-09
80	0xb10b81a7	-2.030086e-09
81	0xb0fe603b	-1.8508283e-09
82	0xb09b78b7	-1.1312044e-09
83	0xb08da049	-1.0304656e-09
84	0x2fd04880	3.7886494e-10
85	0xb11ba470	-2.264894e-09
86	0xb1173f01	-2.2009206e-09
87	0xb0e6a351	-1.678112e-09
88	0xad40eae4	-1.0966093e-11
89	0x313fda72	2.791833e-09
90	0xb003a919	-4.7897825e-10
91	0xafc3bc11	-3.5603923e-10
92	0xaf0d89b5	-1.2872799e-10
93	0xb081b4dc	-9.437389e-10
94	0xb060eb88	-8.1825435e-10
95	0xb057058b	-7.822442e-10
96	0xb00653cb	-4.8867993e-10
97	0xb0982a1b	-1.1071423e-09
98	0xb1501eda	-3.028552e-09
99	0xb169caf9	-3.402134e-09
100	0xb1ebb463	-6.8599078e-09
101	0xb1e754f3	-6.7326424e-09
102	0xb219c60e	-8.9508045e-09
103	0xb27f4c15	-1.4860253e-08
104	0xb1f82bf7	-7.222748e-09
105	0xb2940910	-1.7233589e-08
106	0xb29223fc	-1.7013e-08
107	0xb2a10883	-1.8746737e-08
108	0xb304e354	-3.09404e-08
109	0xb2d337e6	-2.4589053e-08
110	0x31885fd4	3.9690153e-09
111	0x304e63e7	7.5084333e-10
112	0x2fefa475	4.35907e-10
113	0xb1e90809	-6.782106e-09
114	0x30ba205f	1.3542482e-09
115	0x3122fa95	2.3716542e-09
116	0xb10453a6	-1.9256077e-09
117	0xb183b545	-3.8332097e-09
118	0xb1d20f7c	-6.1135648e-09
119	0x302566a6	6.017252e-10
120	0xb18d14f3	-4.1060217e-09
121	0xb202a6eb	-7.604949e-09
122	0xb22eab38	-1.0167064e-08
123	0xb233593e	-1.0439463e-08
124	0xb2066124	-7.821914e-09
125	0x2ea6925d	7.5748054e-11
126	0x2e1effc6	3.6152213e-11
127	0xaea56798	-7.521733e-11
128	0x300bbd1c	5.0836646e-10
129	0x2eaa8f8d	7.756205e-11
130	0x2e363aa8	4.1434106e-11
131	0xaeace32c	-7.862008e-11
132	0xaf9f4931	-2.8973937e-10
133	0x2fa19ab5	2.9395655e-10
134	0xaf6cf4f7	-2.1551104e-10
135	0x2fb5520d	3.298201e-10
136	0x2f4e2de8	1.87519e-10
137	0xac856e6b	-3.792346e-12
138	0x2fe6bf98	4.1972892e-10
139	0xaec2fb94	-8.866788e-11
140	0x2fd725e1	3.9135187e-10
141	0x2f46e92b	1.8090833e-10
142	0x2ec0b6b6	8.763605e-11
143	0x2f8d71fa	2.5728736e-10
144	0x2f078f16	1.2329013e-10
145	0x2fc4d937	3.5806533e-10
146	0x2fa6410e	3.0241448e-10
147	0x2f356dcd	1.6500863e-10
148	0x3006f97d	4.910346e-10
149	0x2f74c495	2.226151e-10
150	0xb218a0a0	-8.884086e-09
151	0xb274eb3c	-1.4256155e-08
152	0xb2426763	-1.1315794e-08
153	0xb2a9afbc	-1.9754104e-08
154	0xb27e3f25	-1.4799103e-08
155	0xb2883f28	-1.5861204e-08
156	0xb1d76a77	-6.269427e-09
157	0x31b7f19f	5.35347e-09
158	0xb1dd7650	-6.445397e-09
159	0xb219ae37	-8.945384e-09
160	0xb22bcc39	-9.999945e-09
161	0x3201554b	7.528182e-09
162	0x32f14e4e	2.8091701e-08
163	0x32072b8c	7.867936e-09
164	0xb1e8ab28	-6.771547e-09
165	0xb2448c81	-1.1440648e-08
166	0xb1f5cab8	-7.153485e-09
167	0x3181612d	3.7654417e-09
168	0xb28ab817	-1.6149029e-08
169	0xb3167000	-3.502646e-08
170	0xb21ee5bb	-9.249045e-09
171	0xb1d40cb3	-6.171456e-09
172	0x306b62c5	8.563286e-10
173	0xb1ffb9f3	-7.4426167e-09
174	0xb2b45dd7	-2.0997431e-08
175	0x3dbe3d47	0.092890315
176	0xbd4604e2	-0.0483445
177	0x3d5433b5	0.051807124
178	0xbd0b3dc1	-0.03399444
179	0x3d1cc6af	0.038275417
180	0xbe38dd97	-0.1805328
181	0xbe0318de	-0.12802455
182	0x3e6bdc91	0.23033358
183	0xbdf25b7b	-0.11833855
184	0x3a3f5445	0.0007298629
185	0xbf3d586f	-0.73963064
186	0xbda190a6	-0.078889176
187	0x3f5a6122	0.8530446
188	0x3e7a292c	0.24429768
189	0xbd810548	-0.062998354
190	0xbf0bc0e8	-0.54591227
191	0xbd98d862	-0.07463147
192	0x3f2b4b54	0.66911817
193	0x3e106fb9	0.14105119
194	0xbdf2d4c8	-0.11856991
195	0xbccabd4a	-0.024748463
196	0xbe247f15	-0.16064103
197	0x3e8394d9	0.256995
198	0xbdbd0e74	-0.09231272
199	0xbc3b869a	-0.011445666
200	0xb341ab0c	-4.509188e-08
201	0xb342e605	-4.5378346e-08
202	0xb2fd13db	-2.9462106e-08
203	0xb31b3d66	-3.614459e-08
204	0xb3262dc3	-3.8691507e-08
205	0xb35c0642	-5.1228433e-08
206	0xb33b6a49	-4.3635996e-08
207	0xb2ec8ec0	-2.7538931e-08
208	0xb305722b	-3.107031e-08
209	0xb3346815	-4.2004178e-08
210	0xb2c17a6b	-2.2523826e-08
211	0xb31c0bdc	-3.6332366e-08
212	0xb2c74cc1	-2.3201553e-08
213	0xb2df38ab	-2.5986386e-08
214	0xb313c0eb	-3.4401562e-08
215	0xb222c57d	-9.474545e-09
216	0xb231ee2a	-1.0356908e-08
217	0x324204da	1.1293389e-08
218	0xb27bc51a	-1.4654939e-08
219	0xb2bb7c48	-2.1826182e-08
220	0x3293a01a	1.7185858e-08
221	0x329d3d96	1.8305212e-08
222	0x33183873	3.5441598e-08
223	0x327cffe3	1.47265125e-08
224	0x31dc6786	6.414612e-09
225	0x3c09b5d6	0.0084051695
226	0x3e17fe2b	0.14843051
227	0x3e42d585	0.19026764
228	0xbcee24de	-0.029070314
229	0xbe6a2169	-0.22864307
230	0x3e01e399	0.12684478
231	0x3ec6b214	0.38807738
232	0x3e992a31	0.29915002
233	0xbe1ba764	-0.15200573
234	0xbec5f928	-0.38666654
235	0x3e35ae80	0.17742348
236	0x3e80e575	0.25175062
237	0x3e1932f1	0.14960839
238	0xbdfbea0b	-0.123004995
239	0xbea3c2eb	-0.31984648
240	0xbd66a656	-0.056310974
241	0xbd91c37d	-0.071173646
242	0x3d99d7f4	0.07511893
243	0xbcc95e08	-0.02458097
244	0xbdf6bf7d	-0.12048242
245	0xbdb808c2	-0.089860454
246	0x3bc794b0	0.006090723
247	0x3e441ae4	0.19150883
248	0x3d84d2ab	0.06485494
249	0x3da3f4ea	0.08005698
250	0xb0c7aecf	-1.4528839e-09
251	0xb02f4e19	-6.377561e-10
252	0xb109a572	-2.0030169e-09
253	0x2f57e512	1.9635518e-10
254	0x2f00be5c	1.1709161e-10
255	0x2f222d1a	1.4749837e-10

cnn_head.1.weight f4 [48]
0	0x3eb25192	0.34827858
1	0x32c3db40	2.2800691e-08
2	0x2ef95e64	1.1339976e-10
3	0x304963d1	7.326522e-10
4	0x318be946	4.0719526e-09
5	0x2f00c294	1.171066e-10
6	0x320c73ae	8.175375e-09
7	0x3ee56930	0.44806814
8	0xb284fcef	-1.5481843e-08
9	0x3ea091a1	0.31361106
10	0xb0ac6e3b	-1.2545976e-09
11	0x3e7ba405	0.24574287
12	0x3e9172b4	0.28407824
13	0x3622401f	2.4177205e-06
14	0x2faad91f	3.1077094e-10
15	0x37db858f	2.6169027e-05
16	0x2ef0da56	1.0952721e-10
17	0x2faa266b	3.0950117e-10
18	0x34549614	1.9798637e-07
19	0x349fa0c3	2.9733027e-07
20	0x3f04f75e	0.5193995
21	0x3019aeae	5.590931e-10
22	0x2f93cb78	2.6883717e-10
23	0x30c9f6c1	1.4694806e-09
24	0x3eaf29a7	0.34211466
25	0x3e82004b	0.2539085
26	0x3e59f081	0.21283151
27	0x33b4230a	8.388277e-08
28	0x323594ac	1.0569391e-08
29	0x3141d872	2.8208231e-09
30	0x3eaf3496	0.34219807
31	0x303ea5fe	6.9357486e-10
32	0x30b9f623	1.3530478e-09
33	0x2f51be24	1.9075991e-10
34	0x3ebffe9c	0.3749894
35	0x33e383d0	1.0594488e-07
36	0x3e85064b	0.25981364
37	0x2f038e2a	1.1964887e-10
38	0x2f1e6b2f	1.4408096e-10
39	0x3d11ec8a	0.03562597
40	0x2fec4afd	4.2981432e-10
41	0x32302dbd	1.0254948e-08
42	0x2fac4581	3.1336003e-10
43	0x310d6d0a	2.0580182e-09
44	0x32cffe08	2.4213492e-08
45	0x3e65d1dc	0.22443336
46	0x38babf8d	8.90485e-05
47	0x3f0f2291	0.5591212

cnn_head.1.bias f4 [48]
0	0x3d7497f0	0.05971521
1	0xb3e90c0d	-1.08521e-07
2	0xaff8dd9d	-4.5268403e-10
3	0xb13427ee	-2.6216145e-09
4	0xb2e7a513	-2.6967006e-08
5	0xafda31c4	-3.968933e-10
6	0xb30c7e76	-3.2711306e-08
7	0x3ea4c42a	0.3218091
8	0xb3b4193a	-8.386492e-08
9	0x3e5d7254	0.21625644
10	0xb1b7ca58	-5.349005e-09
11	0x3dd5d8f6	0.10441773
12	0x3c46dc18	0.012137435
13	0xb7259c31	-9.8711325e-06
14	0xb0d2daf6	-1.5341743e-09
15	0xb8eb992f	-0.00011234206
16	0xb00d4903	-5.1399257e-10
17	0xb0a0868f	-1.1679776e-09
18	0xb5e23111	-1.6852592e-06
19	0xb5de4eab	-1.6563184e-06
20	0xbeac8ab5	-0.33699575
21	0xb153c998	-3.0819134e-09
22	0xb08353bc	-9.555303e-10
23	0xb1cd3e8e	-5.973397e-09
24	0x3e772e5b	0.24138777
25	0x3e147a78	0.14499843
26	0xbe040ce2	-0.1289554
27	0xb501dc3b	-4.837672e-07
28	0xb32d2777	-4.0315594e-08
29	0xb269bb58	-1.3604982e-08
30	0xbdeea455	-0.116524376
31	0xb1a31e96	-4.7474016e-09
32	0xb19a13fa	-4.484261e-09
33	0xb0882728	-9.906431e-10
34	0x3e83f5d9	0.25773504
35	0xb4e86127	-4.3284055e-07
36	0xbe75c800	-0.24002075
37	0xb0333328	-6.519252e-10
38	0xb00daada	-5.1538296e-10
39	0xbdf9e093	-0.12201037
40	0xb11ee2be	-2.3120914e-09
41	0xb32100d5	-3.748649e-08
42	0xb09b9859	-1.1321034e-09
43	0xb215f95d	-8.72964e-09
44	0xb3d1a37d	-9.762059e-08
45	0x3e07049d	0.13185354
46	0xb99b8bfa	-0.00029668194
47	0xbe89afb9	-0.26891878

cnn_head.1.running_mean f4 [48]
0	0x3fd6e9d1	1.6790105
1	0x3607568c	2.0166945e-06
2	0x320ec9ed	8.3114005e-09
3	0x33993174	7.133613e-08
4	0x351a1c8c	5.741101e-07
5	0xb23f878a	-1.1148481e-08
6	0x350bd69a	5.209382e-07
7	0xbf32afa9	-0.69799286
8	0x35bb1349	1.3938198e-06
9	0xbfd34dd5	-1.6508127
10	0xb3779a01	-5.7649235e-08
11	0xbf1ea77d	-0.61974317
12	0xbf91b07a	-1.1381981
13	0x391402c0	0.00014115404
14	0x32aa3511	1.9814737e-08
15	0xba7c131b	-0.0009615884
16	0xb21bf032	-9.0768015e-09
17	0x324ca78e	1.191246e-08
18	0xb81b8e3f	-3.7087357e-05
19	0xb8055f66	-3.1798518e-05
20	0xc0565b30	-3.3493156
21	0x35b42e89	1.3424589e-06
22	0x3291ae5b	1.695951e-08
23	0x33539980	4.9266873e-08
24	0xbf7c4e41	-0.98556906
25	0x3ffbc001	1.966797
26	0xbf5beb3c	-0.85905814
27	0xb61e4fd8	-2.359031e-06
28	0xb55abb26	-8.1483665e-07
29	0x33c1ddde	9.02762e-08
30	0xbea99b11	-0.3312612
31	0xb33e1bab	-4.4262986e-08
32	0xb3d0f5cd	-9.730466e-08
33	0x31f8a080	7.2359967e-09
34	0xbdd40a88	-0.10353571
35	0xb6320c02	-2.6531056e-06
36	0xbf030bb3	-0.51189727
37	0xb2bf45e7	-2.2267114e-08
38	0x32ba9a7d	2.1723503e-08
39	0x403e5d6a	2.9744515
40	0x334d3f14	4.778765e-08
41	0xb4e9870c	-4.3497892e-07
42	0x328ef9df	1.6644604e-08
43	0x341eb3c2	1.4780292e-07
44	0x35cc0e7b	1.5203399e-06
45	0x3e93253e	0.2873935
46	0x3bad70c1	0.0052929823
47	0xc052b9f8	-3.2926006

cnn_head.1.running_var f4 [48]
0	0x40e53bf0	7.1635666
1	0x2d13b4d8	8.396138e-12
2	0x24e09be5	9.740861e-17
3	0x2800e62e	7.15534e-15
4	0x2b0cf14b	5.0072853e-13
5	0x254aaa94	1.7578501e-16
6	0x2adbb67c	3.902884e-13
7	0x4137699b	11.463283
8	0x2c5e8736	3.1623155e-12
9	0x412d4a30	10.830612
10	0x27b83976	5.113256e-15
11	0x40b70e9e	5.7205343
12	0x40f5f4bd	7.6861253
13	0x33181d4c	3.5416903e-08
14	0x264532a4	6.8416736e-16
15	0x35d5d28a	1.5931012e-06
16	0x250fe44b	1.2480622e-16
17	0x25717f65	2.0946581e-16
18	0x310522fc	1.9373934e-09
19	0x311bb725	2.2659574e-09
20	0x4184bf2b	16.593344
21	0x2c316c6e	2.5213403e-12
22	0x2600fb0c	4.4749153e-16
23	0x27c176a8	5.369691e-15
24	0x41724db4	15.1439705
25	0x40cbfe9d	6.3748307
26	0x4001e829	2.029795
27	0x2e0e5195	3.235952e-11
28	0x2b8bdcc0	9.937814e-13
29	0x28c3180e	2.1659781e-14
30	0x4036655b	2.8499362
31	0x275f6bca	3.10059e-15
32	0x28729f8b	1.3468294e-14
33	0x24f25956	1.0510211e-16
34	0x41a705fa	20.877918
35	0x2d48c07f	1.14114265e-11
36	0x3f99eb1d	1.2024876
37	0x2684d80a	9.217897e-16
38	0x263d739f	6.5729243e-16
39	0x414d962e	12.849165
40	0x27ad5063	4.81043e-15
41	0x2a9f5d6b	2.8308895e-13
42	0x25f1ae2b	4.1924857e-16
43	0x2930c27f	3.924855e-14
44	0x2c63fc3f	3.2398665e-12
45	0x4092558a	4.572942
46	0x382c25f6	4.104335e-05
47	0x41a54d53	20.662756

BCBlocks.0.0.f2.0.block.0.weight f4 [24, 48, 1, 1]
0	0xbb4f92d0	-0.00316732
1	0x33af69c7	8.168313e-08
2	0x2e559b30	4.8568427e-11
3	0xafd47e1d	-3.8652184e-10
4	0xb0143b04	-5.392595e-10
5	0x2dd07d1d	2.3702424e-11
6	0xb1056688	-1.941233e-09
7	0x3e116227	0.14197598
8	0xb34f9fa3	-4.8341132e-08
9	0x3e5d8ce7	0.21635781
10	0xae95b5c8	-6.8080264e-11
11	0xbc0b2960	-0.008493751
12	0x3d982d97	0.074305706
13	0x35dcebbf	1.6459888e-06
14	0xafd3a912	-3.8500808e-10
15	0x380d279e	3.3653916e-05
16	0x2f532fbd	1.9207298e-10
17	0x2de23181	2.571521e-11
18	0x34b385c6	3.343868e-07
19	0x359fda89	1.1910025e-06
20	0xbdd9082e	-0.10597263
21	0xb1e70ca9	-6.724424e-09
22	0x2f15f239	1.3637526e-10
23	0x300f48fa	5.2126803e-10
24	0xbe0f570a	-0.13998047
25	0x3dac1a4d	0.08403454
26	0x3c84a3e1	0.016191425
27	0xb321a955	-3.763974e-08
28	0x2f908eca	2.6294905e-10
29	0x306731c0	8.410801e-10
30	0x3cfaaaa6	0.03059895
31	0x3032fbcb	6.511384e-10
32	0x2dace00b	1.9653631e-11
33	0xad4b1395	-1.1543562e-11
34	0xbd35cf94	-0.044387415
35	0xb300db37	-3.0001697e-08
36	0x3d4cbab9	0.04998276
37	0xb002193a	-4.7329574e-10
38	0xae36cc96	-4.1563718e-11
39	0x3ba6c9fc	0.0050899964
40	0xb0146fdb	-5.400104e-10
41	0xb242336d	-1.1303979e-08
42	0x2c4c696c	2.9048665e-12
43	0x31434b4b	2.8419034e-09
44	0xb14f3985	-3.015516e-09
45	0x3c957f89	0.01824929
46	0x3884fc73	6.341273e-05
47	0xbb8b6edf	-0.00425516
48	0xbc435b1b	-0.011923577
49	0x31d0fc0c	6.082251e-09
50	0x2f77c378	2.2533964e-10
51	0xafe2edf2	-4.127823e-10
52	0xb1d111da	-6.08473e-09
53	0x2f1d9bf5	1.4334474e-10
54	0xb23cb765	-1.0984739e-08
55	0xbecdf06e	-0.40222496
56	0x32bba379	2.1844004e-08
57	0x3dbe1d01	0.09282876
58	0xb065bd00	-8.35783e-10
59	0x3c2ffe7b	0.010741825
60	0xbc7f8b80	-0.015597224
61	0x341e73a7	1.4756971e-07
62	0xb08c4149	-1.0204896e-09
63	0xb8455b18	-4.7053298e-05
64	0x2f8045a8	2.3332558e-10
65	0x2f6d1cf3	2.1565309e-10
66	0xb5232c2c	-6.078651e-07
67	0xb5a4561d	-1.2244014e-06
68	0x3e54efcb	0.20794599
69	0xb2056280	-7.764015e-09
70	0x2fa1de9c	2.9443903e-10
71	0x313061f5	2.5667053e-09
72	0xbdc08a08	-0.09401327
73	0x3d4b5680	0.04964304
74	0x3bb475fe	0.00550723
75	0xb425cfa0	-1.5442356e-07
76	0xb1669872	-3.355606e-09
77	0x318c899c	4.0901806e-09
78	0x3d1a6393	0.037692618
79	0xb0083755	-4.9555143e-10
80	0xb099d0fd	-1.1191613e-09
81	0x2f46a475	1.8066422e-10
82	0x3e1c04ab	0.15236156
83	0x33b03bef	8.2065405e-08
84	0x3c25acd5	0.010112007
85	0xafbd22f7	-3.4403744e-10
86	0x2f40ecc4	1.7546414e-10
87	0xbc91e460	-0.017809093
88	0x30c6c43c	1.4462169e-09
89	0x313405c2	2.619672e-09
90	0x2f3a7c1a	1.6960691e-10
91	0x30e5fde4	1.6734103e-09
92	0x335e8a37	5.181411e-08
93	0x3d0de738	0.034644336
94	0xb8ff7718	-0.000121815305
95	0xbe20e95a	-0.15714017
96	0xbc682f4d	-0.014171434
97	0xafb575ec	-3.3007497e-10
98	0x2e36aedc	4.1537315e-11
99	0x303b9812	6.824631e-10
100	0x301895cd	5.551016e-10
101	0x2f3f0754	1.7373952e-10
102	0x304d8180	7.4762596e-10
103	0x3ea2b977	0.31782123
104	0x3317fd35	3.5387718e-08
105	0x3df56e0f	0.11983883
106	0x2fb472a9	3.282328e-10
107	0x3d801caa	0.06255467
108	0xbcdd1c1a	-0.026990939
109	0xb6c20e04	-5.783282e-06
110	0x2e4d6118	4.669784e-11
111	0xb881efc1	-6.195857e-05
112	0x2f9e2c2f	2.8771427e-10
113	0xaf55f113	-1.9457884e-10
114	0x34a50e88	3.0744218e-07
115	0xb55c42a9	-8.205339e-07
116	0xbd92cbf1	-0.07167805
117	0xb1b34e37	-5.2184777e-09
118	0xaf2ed384	-1.5900353e-10
119	0x2f84bc3a	2.4144403e-10
120	0x3d67d84d	0.056602765
121	0xbd8be3ee	-0.068305835
122	0xbd577689	-0.05260328
123	0x32b0e797	2.0594412e-08
124	0xb2f77e28	-2.8811954e-08
125	0xb101f0d4	-1.8908866e-09
126	0x3bb677f3	0.0055684983
127	0xb04c4c34	-7.432306e-10
128	0xb04685a8	-7.222192e-10
129	0xaf16424e	-1.3665977e-10
130	0xbe42efaa	-0.19036737
131	0x33c82bd6	9.3211995e-08
132	0xbdb7c55b	-0.089731894
133	0xaf8e6436	-2.5900854e-10
134	0xadbd8723	-2.1546825e-11
135	0x3bc6b799	0.006064367
136	0xb009de57	-5.0156274e-10
137	0xb2081a82	-7.922269e-09
138	0x30206e0a	5.8364036e-10
139	0x30d9f4c0	1.585839e-09
140	0x32a1c75e	1.8833529e-08
141	0x3d2ee355	0.04269727
142	0x38bc0c93	8.966881e-05
143	0x3e384aad	0.17997237
144	0x2fbc91f5	3.430071e-10
145	0x30dedff6	1.6216279e-09
146	0x2e5c990c	5.015814e-11
147	0x30b11664	1.2884809e-09
148	0xafce8b79	-3.7570283e-10
149	0xae84263b	-6.009456e-11
150	0x31b10905	5.1524034e-09
151	0x318f4d81	4.170659e-09
152	0x2fa5e255	3.0174144e-10
153	0xb11a8d8b	-2.2490407e-09
154	0x30737fb3	8.8584357e-10
155	0x3181bc4a	3.7758e-09
156	0x317cc1ed	3.678106e-09
157	0x30629877	8.2434987e-10
158	0x2f7edda7	2.3179912e-10
159	0x31271b05	2.4317057e-09
160	0x2ddff4b1	2.546083e-11
161	0x2fab95bd	3.1211114e-10
162	0x30b06b13	1.2836118e-09
163	0x2feea8aa	4.341179e-10
164	0xb0cccc73	-1.4901061e-09
165	0x3066fa5c	8.4029295e-10
166	0x2e89f29d	6.2731355e-11
167	0x310d4ed0	2.0563e-09
168	0x309ab44e	1.125622e-09
169	0x2f5d7310	2.0140711e-10
170	0x3269bddc	1.3605554e-08
171	0x3085da3d	9.739051e-10
172	0x314ba681	2.9635034e-09
173	0x30ceeeb8	1.5056321e-09
174	0xaecfefd0	-9.4558694e-11
175	0x301acbd4	5.631453e-10
176	0x2fe0d157	4.0894108e-10
177	0x2e82687a	5.930274e-11
178	0xb1b99b35	-5.4018536e-09
179	0x31917636	4.2334944e-09
180	0x306bd90b	8.580094e-10
181	0x2fe5df0f	4.181335e-10
182	0x2d376a62	1.0425967e-11
183	0x3067c717	8.4320234e-10
184	0x307646cb	8.959488e-10
185	0x309915fe	1.1138466e-09
186	0x2fd9646d	3.9543427e-10
187	0x30ee08b5	1.7319254e-09
188	0x30430448	7.094667e-10
189	0x315eebe4	3.243934e-09
190	0x31bce731	5.4978035e-09
191	0x30267f7b	6.057161e-10
192	0xbdcfaaa3	-0.10139968
193	0xb2b95c51	-2.1578815e-08
194	0xaf7a9132	-2.2788951e-10
195	0x310165d4	1.8829853e-09
196	0xb21b747f	-9.048676e-09
197	0x2f3bc896	1.7078813e-10
198	0xb27c08b1	-1.4670307e-08
199	0x3d1794ba	0.03700707
200	0x330e519f	3.3136185e-08
201	0xbd9a0120	-0.07519746
202	0xb111ec07	-2.1234443e-09
203	0xbe0164fc	-0.12636179
204	0x3e7a8e03	0.24468236
205	0x371d139d	9.362496e-06
206	0x30e3909c	1.6557524e-09
207	0xb7c0a17a	-2.2963377e-05
208	0xaf22dc20	-1.4812018e-10
209	0xaf626ce3	-2.0593265e-10
210	0xb57f1c6e	-9.5036273e-07
211	0xb5238973	-6.0922247e-07
212	0x3ded0c9f	0.11574673
213	0x31a31518	4.7463224e-09
214	0xb0859ffc	-9.722494e-10
215	0xb13d0065	-2.7503344e-09
216	0x3e90f860	0.28314495
217	0x3dd6817a	0.104739144
218	0xbdfb9770	-0.12284744
219	0xb36051c3	-5.2228426e-08
220	0xae874c81	-6.152679e-11
221	0x30a4a94d	1.1980689e-09
222	0x3da1a0f5	0.07892028
223	0xb13b1064	-2.7221398e-09
224	0xb0d9d30a	-1.5848809e-09
225	0x2f07c3c2	1.2347726e-10
226	0xbeaedad2	-0.34151322
227	0x341c47b8	1.4554723e-07
228	0x3aceb714	0.0015771114
229	0xafadea91	-3.1635186e-10
230	0x2f528faf	1.9150435e-10
231	0x3d389d03	0.045071613
232	0xafa86779	-3.0632544e-10
233	0x315af025	3.1859682e-09
234	0xb01d83f1	-5.730377e-10
235	0xb091b518	-1.0601608e-09
236	0x3307fa14	3.165958e-08
237	0xbde7de00	-0.1132164
238	0x37423435	1.15754565e-05
239	0x3e4fcf13	0.20293836
240	0xbdd56d4d	-0.10421238
241	0xb349cbde	-4.6984376e-08
242	0x2e02c6b3	2.9735058e-11
243	0x2fdc8bc7	4.0117085e-10
244	0xb2597159	-1.2656835e-08
245	0xafd773c7	-3.9190537e-10
246	0x323ae311	1.0878254e-08
247	0x3de3b545	0.11118559
248	0xb35b5220	-5.1064603e-08
249	0x3e05155f	0.12996434
250	0xb0e192fb	-1.6412679e-09
251	0xbd89e6de	-0.067334875
252	0xbdc5c1f4	-0.09656134
253	0x34f2be3f	4.5214435e-07
254	0xafd1e2f8	-3.817815e-10
255	0xb76bfa19	-1.4065322e-05

BCBlocks.0.0.f2.0.block.1.weight f4 [24]
0	0x3da2b190	0.079440236
1	0x3e427cea	0.18992963
2	0x3eaadab8	0.33369994
3	0xb1103ef9	-2.0990554e-09
4	0x3e94d3d8	0.29067874
5	0x3dfc48fc	0.12318608
6	0x3df97d07	0.1218205
7	0x3e6d5c01	0.23179628
8	0xbe53bf7c	-0.20678514
9	0x3deea12a	0.11651833
10	0x3e9068d9	0.28204992
11	0x3e829222	0.25502115
12	0xbdd6235c	-0.10455963
13	0x3ed5841f	0.41702363
14	0x36f0d89a	7.177773e-06
15	0xbe7106d1	-0.23537757
16	0x35a89d10	1.2562687e-06
17	0x3e8c9aac	0.27461755
18	0xaf3c2664	-1.711214e-10
19	0x3e32c25c	0.17456955
20	0x3e78b5d4	0.24288112
21	0x312f615d	2.5521196e-09
22	0x3ec0c364	0.3764907
23	0xb200f6fc	-7.506738e-09

BCBlocks.0.0.f2.0.block.1.bias f4 [24]
0	0x3e2a8eb6	0.16656002
1	0x3db9f3b0	0.09079683
2	0xbd5ba6d8	-0.05362591
3	0xb2eb91e1	-2.7423939e-08
4	0xbd177d5e	-0.036984794
5	0x3e09fd0d	0.13475437
6	0x3e74979c	0.2388596
7	0x3d8f001e	0.06982444
8	0x3d35d257	0.04439005
9	0x3e8346ea	0.2564004
10	0x3e0346bb	0.1281995
11	0x3e621316	0.22077593
12	0x3e05b863	0.13058619
13	0xbd0aaaa4	-0.03385414
14	0xb70d6b10	-8.429182e-06
15	0xbe4d8f28	-0.20074141
16	0xb62e8d32	-2.6010207e-06
17	0xbd83687d	-0.06416414
18	0xb090b740	-1.0529462e-09
19	0xbd2606bc	-0.040533766
20	0x3e417104	0.18890768
21	0x34d68765	3.995912e-07
22	0x3c713470	0.014721975
23	0x2f9ede20	2.8897862e-10

BCBlocks.0.0.f2.0.block.1.running_mean f4 [24]
0	0x3d9e8089	0.0773936
1	0xbdbb0b5c	-0.09133026
2	0x3debfdbf	0.115230076
3	0x30c36d63	1.4219207e-09
4	0xbc68bcfe	-0.0142052155
5	0x3d199b57	0.03750166
6	0x3da98d79	0.08278937
7	0x3d8f27b5	0.069899954
8	0x3d17425f	0.03692853
9	0x3d081c5c	0.03323017
10	0xbdb95ef4	-0.09051314
11	0x3dd42153	0.103579186
12	0xbd81d439	-0.063393064
13	0xbd980d42	-0.07424404
14	0x368d689c	4.2143056e-06
15	0x3dbc822a	0.09204514
16	0xb54edf68	-7.706608e-07
17	0xbe0b5bb4	-0.136092
18	0x2f5548c3	1.9398087e-10
19	0x3dc8e008	0.098083556
20	0xbc816058	-0.01579301
21	0xb4623a16	-2.1069022e-07
22	0x3dd713a0	0.1050179
23	0xaf746a71	-2.2229486e-10

BCBlocks.0.0.f2.0.block.1.running_var f4 [24]
0	0x3b8cd5a3	0.0042979284
1	0x3d0c307f	0.034225937
2	0x3cdf81b7	0.027283533
3	0x2337110e	9.924061e-18
4	0x3d135351	0.03596813
5	0x3c5c4d26	0.013446128
6	0x3c9b5eac	0.018966042
7	0x3c9f2aeb	0.019429645
8	0x3c527ad0	0.012846664
9	0x3cf42823	0.029804295
10	0x3c3358f8	0.010946505
11	0x3d1c779b	0.038200002
12	0x3b8fb852	0.0043859864
13	0x3d121f6d	0.0356745
14	0x2da5cca0	1.88492e-11
15	0x3bd11639	0.006380823
16	0x2a6c94f7	2.1012693e-13
17	0x3d0e9c9e	0.03481733
18	0x1e8e25fb	1.5050543e-20
19	0x3c091da5	0.008368884
20	0x3cb9503d	0.022621268
21	0x28e592bd	2.5487745e-14
22	0x3d1b902d	0.037979294
23	0x2240a22d	2.6106707e-18

BCBlocks.0.0.f2.1.block.0.weight f4 [24, 1, 3, 1]
0	0x3dcc9f61	0.099913366
1	0xbd6420f6	-0.055695496
2	0xbe5a1940	-0.21298695
3	0xbe219e39	-0.15783013
4	0x3da916e9	0.08256323
5	0x3eaaa665	0.33330074
6	0xbe25552b	-0.1614577
7	0xbd764e08	-0.06013301
8	0xbd2c1464	-0.042011634
9	0xb148d525	-2.922499e-09
10	0xafed08a4	-4.3116188e-10
11	0xb202dae8	-7.616769e-09
12	0xbdfe3e78	-0.12414259
13	0x3f060030	0.52344036
14	0xbe1610b2	-0.14654806
15	0xbea576a3	-0.32317075
16	0xbdce4a60	-0.1007278
17	0x3eccba39	0.39985827
18	0x3ed8dc54	0.42355597
19	0xbeab0774	-0.33404124
20	0xbc9ed8e9	-0.01939054
21	0xbdeb0f65	-0.11477546
22	0xbe039ab6	-0.12851986
23	0xbd8cf048	-0.068817675
24	0xbc12d903	-0.008962872
25	0x3e8b59b9	0.2721689
26	0xbe8252af	-0.25453708
27	0x3ee4faa8	0.44722486
28	0xbed4e872	-0.41583592
29	0xbcce45aa	-0.025179703
30	0xbbf494e6	-0.007464039
31	0xbc2ee91c	-0.010675695
32	0xbe65f57d	-0.22456928
33	0xbe59d7c4	-0.21273714
34	0x3f202e61	0.6257077
35	0xbe3c61ce	-0.18396685
36	0xbe03b190	-0.12860703
37	0xbe1ad122	-0.1511884
38	0x3cc3edbd	0.023917073
39	0xbe013a8a	-0.12619987
40	0xbd638085	-0.055542488
41	0xbdec4089	-0.115357466
42	0xb5614a90	-8.3927534e-07
43	0xb63c1d42	-2.8031213e-06
44	0xb6cf910c	-6.1859664e-06
45	0xbdd4130c	-0.103551954
46	0xbdc5c6d4	-0.09657064
47	0x3ea93902	0.33051306
48	0x357a22a0	9.3182643e-07
49	0xb5b9dd25	-1.3847936e-06
50	0xb444a25b	-1.8312987e-07
51	0xbd9742b0	-0.073857665
52	0x3ef14cd8	0.4712894
53	0xbdeebcf9	-0.116571374
54	0x307ddbbc	9.2353125e-10
55	0x2ef9ef3c	1.13657056e-10
56	0xafbcec5a	-3.436494e-10
57	0xbc12c660	-0.008958429
58	0x3e2b5763	0.16732554
59	0x3cd9c093	0.026581084
60	0x3efb5773	0.49090156
61	0xbe704f53	-0.2346776
62	0xbe1d185b	-0.15341322
63	0x3289f5ac	1.6060618e-08
64	0xb49f5f8e	-2.9685583e-07
65	0x3389eb22	6.42233e-08
66	0xbda42a63	-0.08015897
67	0xbe120845	-0.14260967
68	0xbdc29d57	-0.095026664
69	0xb18c9bc9	-4.092247e-09
70	0xb1854a94	-3.879288e-09
71	0x31dab769	6.3654864e-09

BCBlocks.0.0.f2.1.block.1.ssnorm.weight f4 [120]
0	0x3e3ced0e	0.18449804
1	0x3dcf1e3d	0.10113189
2	0xbdbe5652	-0.09293808
3	0x3d818c88	0.06325632
4	0xb854f189	-5.0769686e-05
5	0x3e5df54a	0.21675602
6	0x3e43c872	0.19119433
7	0x3e2783d0	0.16358876
8	0x3e003bdd	0.12522836
9	0x3ddfe41d	0.10932181
10	0x3df9f193	0.1220428
11	0x3e241349	0.16022982
12	0x3e0c27d6	0.13687071
13	0x3e320a0d	0.17386647
14	0x3e32bb92	0.17454365
15	0x32280a05	9.781165e-09
16	0x30b7af32	1.3364796e-09
17	0x30f21bd9	1.7615732e-09
18	0x31d8df49	6.311812e-09
19	0x311f17c5	2.3151057e-09
20	0x3e2a8530	0.1665237
21	0x3e920c49	0.28524998
22	0x3e4a6935	0.19766696
23	0x3e5b35bc	0.21407217
24	0x3e7ba390	0.24574113
25	0xbbe5e813	-0.007016191
26	0x3e15e891	0.14639498
27	0x3e303f8e	0.17211744
28	0x3e354e06	0.17705545
29	0x3e3ef381	0.18647577
30	0x3e2f2305	0.17103203
31	0x3e55b971	0.20871522
32	0x3e13099d	0.14359136
33	0x3e284c58	0.16435373
34	0x3e1ca39a	0.15296784
35	0xbd3086ec	-0.04309742
36	0xbe098074	-0.13427907
37	0x3e133bca	0.14378276
38	0x3df7c796	0.12098615
39	0x3e184c86	0.14872941
40	0x3e1956cb	0.14974515
41	0xbe0da337	-0.13831793
42	0x3dec52ba	0.11539216
43	0xbd8022aa	-0.06256612
44	0x3dc86027	0.097839646
45	0xbe4788aa	-0.19485727
46	0x3e4dda6a	0.2010285
47	0x3e5a7ccb	0.21336667
48	0x3daf60e5	0.08563403
49	0x3ae2c938	0.00173024
50	0x3e2e6f59	0.17034663
51	0x3df1f13f	0.11813592
52	0x3dddf321	0.10837389
53	0x3d89d28a	0.0672961
54	0x3d302dd2	0.043012448
55	0x3e72925e	0.23688647
56	0x3e749458	0.23884714
57	0x3e7b6780	0.24551201
58	0x3e6dfdf0	0.232414
59	0x3e8b3426	0.27188224
60	0x3ddac6be	0.10682438
61	0xbdae37cc	-0.08506736
62	0x3c8bb3d6	0.017053526
63	0x3c10f2a8	0.008846916
64	0x3c22924b	0.009922574
65	0xbd9d5f37	-0.076841764
66	0x3e0382d6	0.12842879
67	0x3e39931f	0.18122528
68	0x3e25bd42	0.16185477
69	0x3e8edd2d	0.2790312
70	0xb5c11adc	-1.4387438e-06
71	0xb61b649a	-2.3155358e-06
72	0x36cd891f	6.125439e-06
73	0xb6331ebd	-2.669097e-06
74	0xb53f439b	-7.1251424e-07
75	0x3e870b0e	0.26375622
76	0x3e6d669e	0.23183677
77	0x3e13b388	0.14423954
78	0x3dbefb6b	0.09325298
79	0xbdd1c01c	-0.1024172
80	0xb5082555	-5.0718273e-07
81	0x3489d377	2.56721e-07
82	0x35c02258	1.431511e-06
83	0x34e4a279	4.2586524e-07
84	0x3469a8ad	2.176118e-07
85	0x3e6aebf3	0.2294157
86	0x3e7322ad	0.23743697
87	0x3e16c745	0.14724453
88	0x3df4a6e5	0.11945895
89	0x3e03ee27	0.12883817
90	0x2fe01731	4.076184e-10
91	0x2ff8a3a5	4.5227214e-10
92	0x2ff3d95a	4.435588e-10
93	0x2ff9194c	4.531081e-10
94	0x2f719447	2.1971501e-10
95	0x3dcfcc29	0.10146362
96	0x3dfa9624	0.12235668
97	0x3d918bc6	0.07106738
98	0x3d4b8140	0.04968381
99	0x3e208a87	0.15677844
100	0x3e26b28d	0.16279049
101	0x3e649a5a	0.22324505
102	0x3e7b1f3a	0.2452363
103	0x3e717f3e	0.23583695
104	0x3e8e15b3	0.2775093
105	0xaea1ac14	-7.3519996e-11
106	0xb22381ba	-9.517345e-09
107	0xb21b627b	-9.044579e-09
108	0xb13f16c2	-2.7807094e-09
109	0x33da9faf	1.0180462e-07
110	0x3e125d95	0.14293511
111	0x3e69b671	0.22823502
112	0x3e5b592c	0.21420735
113	0x3e6518e5	0.22372778
114	0x3e82b3f3	0.25527915
115	0x31005d5c	1.867952e-09
116	0x3042276c	7.063281e-10
117	0x30c1075c	1.404469e-09
118	0x31dadc41	6.369675e-09
119	0x3118af3b	2.2218518e-09

BCBlocks.0.0.f2.1.block.1.ssnorm.bias f4 [120]
0	0xbce189a7	-0.027531458
1	0x3c5c1aec	0.013434153
2	0xbd889630	-0.06669271
3	0xbb8576e4	-0.0040730108
4	0xbc974262	-0.018464271
5	0x3dd83caf	0.105584495
6	0x3cb93fdb	0.022613456
7	0x3d319ae1	0.043360595
8	0xbcccd505	-0.02500392
9	0xbd18c134	-0.037293628
10	0xbd3afa21	-0.045648698
11	0x3d773c8f	0.060360488
12	0x3e03e995	0.12882073
13	0x3dc8454c	0.09778842
14	0x3e06bf29	0.1315886
15	0x3d527f0f	0.051390704
16	0x3d32b6ca	0.043631352
17	0x3d054d60	0.032544494
18	0x3c19e414	0.009392757
19	0xbc8b63e0	-0.017015398
20	0xbc942f6c	-0.018089019
21	0x3d8e9b8e	0.069632635
22	0x3d5327b5	0.05155154
23	0x3cbf1af2	0.023328278
24	0xbbcbeba6	-0.00622316
25	0xbc91afb9	-0.017783986
26	0x3db7f0de	0.08981489
27	0x3c33af0d	0.010967028
28	0x3ca7c651	0.020480307
29	0xbb88debb	-0.004176942
30	0xbdd0e108	-0.10199171
31	0x3de3e831	0.11128271
32	0x3d8b2df2	0.06795873
33	0xbc3c7bc2	-0.011504116
34	0xbb7eb421	-0.003886469
35	0x3e1c1cd9	0.1524538
36	0x3e27153e	0.16316697
37	0x3e300ec3	0.17193131
38	0x3dcf3285	0.10117058
39	0x3db68a64	0.08913115
40	0xbcc0b159	-0.023522066
41	0x3c828b14	0.015935458
42	0xbd37643a	-0.044773318
43	0x3c6f6787	0.014612085
44	0x3d3f4468	0.046696097
45	0x3d8c0c0d	0.06838236
46	0x3d8969f5	0.06709663
47	0x3db1185b	0.086472236
48	0x3d9a8617	0.07545107
49	0xbd07ebd2	-0.03318388
50	0xbc785d46	-0.015158957
51	0xbd5a03eb	-0.053226393
52	0xbd6e72d2	-0.05821497
53	0xbcf603f5	-0.030031184
54	0xbc95a5e9	-0.018267589
55	0x3e123130	0.14276576
56	0x3e4946d0	0.19655919
57	0x3e46f5d0	0.19429708
58	0x3e2697d1	0.16268851
59	0x3e4a7ac9	0.19773401
60	0x3cdbdca3	0.026838606
61	0x3cb1c026	0.021698069
62	0x3d2ee8a1	0.04270232
63	0xbc2238b7	-0.009901217
64	0xbc9cf7aa	-0.019161064
65	0x3cb6f3d3	0.022333061
66	0x3d81f1ae	0.06344925
67	0x3e054a8d	0.1301672
68	0x3df453ec	0.11930069
69	0x3e1f8ee2	0.15581849
70	0xbc2938a7	-0.010328448
71	0xbc99103e	-0.018684503
72	0x3dba49ee	0.09096132
73	0xbc52d7d8	-0.012868844
74	0xbbe76668	-0.0070617683
75	0xbb425d4e	-0.0029657665
76	0xbd9be046	-0.07611136
77	0xbc9c8897	-0.0191081
78	0xbd96d598	-0.073649585
79	0x3ce0a7d0	0.02742377
80	0x3d5228c5	0.051308412
81	0xbcf19d11	-0.02949384
82	0x3c1af828	0.009458579
83	0x3d400e74	0.046888784
84	0x3dc4d987	0.096118025
85	0xbd0146db	-0.031561714
86	0xbd57442a	-0.05255524
87	0x39c76ce2	0.00038037362
88	0xbbf4449e	-0.007454469
89	0xbda65ec4	-0.08123544
90	0xbb7b994b	-0.003839093
91	0x3d1de7ea	0.03855125
92	0x3c21b72c	0.009870332
93	0x3b025f14	0.0019893097
94	0xbbf3ef28	-0.007444281
95	0x3c4820cf	0.012214853
96	0xbd367aaa	-0.044550575
97	0x3c83296c	0.016010962
98	0x3b772094	0.0037708627
99	0x39debc9b	0.00042483662
100	0x3e6266c7	0.22109519
101	0x3e82e828	0.25567746
102	0x3e5cdada	0.2156786
103	0x3e668472	0.22511461
104	0x3e75e6da	0.24013844
105	0x39bb1981	0.0003568642
106	0x3aa86fed	0.0012850739
107	0x35d5c471	1.5926909e-06
108	0x39243996	0.00015661711
109	0x3a042720	0.00050412305
110	0x3de01a69	0.10942537
111	0x3d7cb556	0.061696373
112	0x3da3d364	0.07999304
113	0x3dc18916	0.09449975
114	0x3d740b91	0.059581343
115	0x3c9f5ea0	0.0194543
116	0x3d69e626	0.057104252
117	0x3c982957	0.0185744
118	0x3c6f1381	0.014592052
119	0xbbab8f14	-0.005235562

BCBlocks.0.0.f2.1.block.1.ssnorm.running_mean f4 [120]
0	0xbd054712	-0.03253848
1	0xbce4b0b6	-0.027916294
2	0xbce7a1ff	-0.028275488
3	0xbce496bb	-0.027903905
4	0xbca476bc	-0.020076148
5	0x3d119733	0.035544585
6	0x3cfe664c	0.031054638
7	0x3cf8513c	0.030312173
8	0x3cfc8a58	0.030827686
9	0x3cbde728	0.023181513
10	0xbcbc6356	-0.022996586
11	0xbcdc8b20	-0.026921809
12	0xbcaf1c84	-0.021375902
13	0xbca184ae	-0.019716587
14	0xbc8fdb88	-0.017560735
15	0x80000004	-6e-45
16	0x80000004	-6e-45
17	0x80000004	-6e-45
18	0x80000004	-6e-45
19	0x80000004	-6e-45
20	0x3cdbed7d	0.026846642
21	0x3cca978a	0.024730463
22	0x3c981540	0.01856482
23	0x3c906826	0.017627787
24	0x3c9aa53d	0.01887762
25	0x3c26e2be	0.0101858955
26	0xbbff9292	-0.007799455
27	0xbbaca023	-0.005268113
28	0xbb7ccd0f	-0.0038574373
29	0xbc7c4725	-0.015397822
30	0xbc0a233a	-0.00843125
31	0x3c94d83e	0.018169519
32	0x3c8bc977	0.01706384
33	0x3c8ad723	0.016948288
34	0x3ca2a52c	0.01985415
35	0xbcf1b1ff	-0.02950382
36	0xbd10b391	-0.035327498
37	0xbd0e4d2e	-0.034741573
38	0xbd10013b	-0.035157423
39	0xbd0a83b0	-0.033816993
40	0x3a2865a0	0.0006423835
41	0x3b2542fb	0.0025216925
42	0x3a521a15	0.0008014751
43	0x3abf4238	0.0014591878
44	0x3be39288	0.006944958
45	0xbce2327d	-0.027611965
46	0x3b14f6f7	0.002273021
47	0x3ad921e4	0.0016565886
48	0x3aeb0f57	0.0017933649
49	0x3bafbf06	0.005363348
50	0xbd22bab6	-0.039728843
51	0xbd3a6d0d	-0.045514155
52	0xbd465932	-0.048424907
53	0xbd4be4aa	-0.049778618
54	0xbd1cf0bd	-0.038315523
55	0x3d8170e2	0.06320359
56	0x3d4f2b46	0.05057838
57	0x3d676b84	0.05649902
58	0x3d710965	0.05884685
59	0x3da29e42	0.079403415
60	0xbd08a71b	-0.03336249
61	0xbd0acfd4	-0.033889607
62	0xbd0b6d91	-0.034040038
63	0xbd0b64ae	-0.034031563
64	0xbd0c92cb	-0.03431968
65	0xbcf4cd8a	-0.029883165
66	0xbd0fc504	-0.035099998
67	0xbd0656f8	-0.032797784
68	0xbd00e7b7	-0.03147098
69	0xbce43ceb	-0.02786108
70	0x80000004	-6e-45
71	0x80000004	-6e-45
72	0x80000004	-6e-45
73	0x80000004	-6e-45
74	0x80000004	-6e-45
75	0x3bed8053	0.0072479635
76	0x3b056704	0.0020355592
77	0x3ab64daa	0.0013908644
78	0x3a82846f	0.0009957681
79	0x39e7550c	0.00044123118
80	0x80000004	-6e-45
81	0x80000004	-6e-45
82	0x80000004	-6e-45
83	0x80000004	-6e-45
84	0x80000004	-6e-45
85	0x3cc54640	0.02408135
86	0x3cbf53c7	0.023355378
87	0x3c8d4892	0.017246518
88	0x3c82c26e	0.015961852
89	0x3c7824bd	0.015145478
90	0x00000004	6e-45
91	0x00000004	6e-45
92	0x00000004	6e-45
93	0x00000004	6e-45
94	0x00000004	6e-45
95	0x3c170600	0.009217739
96	0x3bed9fa5	0.007251697
97	0x3bfa2327	0.007633585
98	0x3bf26758	0.0073975734
99	0x3be026dc	0.00684057
100	0x3b439525	0.0029843536
101	0x3ca30327	0.019898964
102	0x3cba216c	0.022721015
103	0x3cb30ba6	0.02185614
104	0x3cc9cd6f	0.024634091
105	0xa9c67bef	-8.8144654e-14
106	0xa9c2df0b	-8.6540225e-14
107	0xa9c2df0b	-8.6540225e-14
108	0xa9c2df0b	-8.6540225e-14
109	0xa9d1517c	-9.2956e-14
110	0xbd199ff2	-0.03750605
111	0xbd32a9f5	-0.043619115
112	0xbd1ed883	-0.0387807
113	0xbd185290	-0.037188113
114	0xbd07ea11	-0.033182207
115	0xa046e44c	-1.684679e-19
116	0xa108fb97	-4.641157e-19
117	0xa108fb71	-4.641137e-19
118	0xa108fb79	-4.6411414e-19
119	0xa1885b2d	-9.239852e-19

BCBlocks.0.0.f2.1.block.1.ssnorm.running_var f4 [120]
0	0x39b5d20c	0.00034679507
1	0x396a5652	0.00022348136
2	0x3952ed13	0.00020115478
3	0x394ed0bb	0.00019723449
4	0x39cde28d	0.0003926944
5	0x3ad74f1a	0.0016426772
6	0x3aa9e2be	0.0012961251
7	0x3a993eee	0.0011691728
8	0x3a8dc701	0.0010816754
9	0x3a98bf6c	0.0011653728
10	0x3b30ae1d	0.0026959248
11	0x3b82a4d7	0.0039869356
12	0x3b4f2a9b	0.0031611088
13	0x3b523306	0.003207387
14	0x3b4f058d	0.0031589002
15	0x00000004	6e-45
16	0x00000004	6e-45
17	0x00000004	6e-45
18	0x00000004	6e-45
19	0x00000004	6e-45
20	0x3b76efdf	0.0037679595
21	0x3b77cb28	0.00378103
22	0x3b2b0c80	0.002609998
23	0x3b1de43f	0.0024092344
24	0x3b32dabb	0.0027291018
25	0x3aca7268	0.0015445473
26	0x3a4e3d97	0.0007867454
27	0x3a20c270	0.0006132489
28	0x39ea90e3	0.00044739907
29	0x3a9d5398	0.0012003062
30	0x3b775790	0.00377414
31	0x3a9246d1	0.0011160021
32	0x3a780f59	0.0009462736
33	0x3a53ae54	0.0008074988
34	0x3a3d296f	0.0007215952
35	0x3b2569df	0.0025240106
36	0x3b4ea4ad	0.003153126
37	0x3b3a514e	0.002842981
38	0x3b47e671	0.0030502344
39	0x3b4474be	0.002997681
40	0x3a7f42e7	0.0009737447
41	0x3a039f4e	0.00050209917
42	0x39fbb252	0.0004800731
43	0x39dadc56	0.00041744363
44	0x39e4316c	0.0004352437
45	0x3b8598bf	0.0040770466
46	0x3a7299aa	0.0009254465
47	0x3a52e888	0.0008045514
48	0x3a2a72f5	0.0006502115
49	0x3a12ebb2	0.00056045793
50	0x3a677950	0.00088300277
51	0x3a584126	0.0008249454
52	0x3a3e02e5	0.0007248356
53	0x3a3ac4fd	0.00071246905
54	0x3a6b802f	0.00089836394
55	0x3c12ce86	0.008960372
56	0x3b7b2dd0	0.0038326867
57	0x3b88b889	0.004172389
58	0x3b8992ae	0.004198394
59	0x3bd89cef	0.006610505
60	0x39ce69d0	0.00039370218
61	0x39ca4d13	0.00038585867
62	0x39c2b064	0.00037133985
63	0x39c6f0a8	0.00037944806
64	0x39cac449	0.00038674686
65	0x3b79d0c9	0.003811883
66	0x3bb3ce4d	0.0054872395
67	0x3ba4c156	0.0050279303
68	0x3bab23b4	0.005222762
69	0x3b97f890	0.0046377853
70	0x00000004	6e-45
71	0x00000004	6e-45
72	0x00000004	6e-45
73	0x00000004	6e-45
74	0x00000004	6e-45
75	0x3a9d2448	0.0011988962
76	0x3a679a1f	0.00088349165
77	0x39e6d606	0.00044028478
78	0x3972cf6d	0.0002315619
79	0x38fbdc2b	0.00012009622
80	0x00000004	6e-45
81	0x00000004	6e-45
82	0x00000004	6e-45
83	0x00000004	6e-45
84	0x00000004	6e-45
85	0x3b14ed4b	0.0022724445
86	0x3b138cf6	0.002251444
87	0x3ac21330	0.0014806744
88	0x3aa45c9a	0.0012539804
89	0x3aa3b195	0.0012488837
90	0x00000004	6e-45
91	0x00000004	6e-45
92	0x00000004	6e-45
93	0x00000004	6e-45
94	0x00000004	6e-45
95	0x39d37077	0.0004032885
96	0x39c98087	0.00038433468
97	0x39d1e155	0.00040031472
98	0x39e641b2	0.00043917965
99	0x39ed20f5	0.00045228717
100	0x3c51430f	0.012772336
101	0x3bc9b083	0.006155075
102	0x3bc7d534	0.006098414
103	0x3bc4f2fd	0.006010412
104	0x3ba9f59f	0.005186751
105	0x0f1ca501	7.7231724e-30
106	0x000e388f	1.305986e-39
107	0x000e0d81	1.290541e-39
108	0x000d35e8	1.2132e-39
109	0x111c8ced	1.2349656e-28
110	0x3b9c3bce	0.0047678715
111	0x3bd37955	0.006453673
112	0x3bc669e5	0.006055104
113	0x3bcea3cc	0.006306147
114	0x3bca4c0d	0.0061736167
115	0x02b27978	2.622447e-37
116	0x00000004	6e-45
117	0x00000004	6e-45
118	0x00000004	6e-45
119	0x0357e850	6.3449503e-37

BCBlocks.0.0.f1.0.block.0.weight f4 [24, 1, 1, 3]
0	0x30608487	8.167906e-10
1	0x303dcc8c	6.904848e-10
2	0x2fa23a4f	2.950906e-10
3	0x3cabe77e	0.020984408
4	0xbe3065e7	-0.17226373
5	0x3df33a03	0.11876299
6	0xbbc85f55	-0.00611488
7	0xbe1b34fa	-0.15156928
8	0x3dbbdd0a	0.09173019
9	0x2f5891bc	1.9696861e-10
10	0xb1649a81	-3.3266192e-09
11	0xb28357d5	-1.5290349e-08
12	0xbc8b1388	-0.016977087
13	0xbdfdfa47	-0.12401252
14	0x3c570c39	0.013125473
15	0x3d479ca4	0.04873337
16	0x3d153a7e	0.036432736
17	0xbceb1574	-0.028696753
18	0x3d936e79	0.07198805
19	0x3d181fac	0.03713958
20	0xbb6709a2	-0.0035253544
21	0x3d0f2226	0.034944676
22	0xbe5f3f1b	-0.21801417
23	0x3ddfd711	0.109296925
24	0x3370ae7f	5.6038058e-08
25	0x32c1e2c7	2.2571284e-08
26	0xb4028cb3	-1.215838e-07
27	0xb4b87a57	-3.4361685e-07
28	0x32d30af9	2.4568623e-08
29	0x3388bfb2	6.367863e-08
30	0x3db87be9	0.09008009
31	0x3ccd73d5	0.025079647
32	0xbca9bc5f	-0.020719705
33	0xbd5084ab	-0.050907772
34	0x3e1e8509	0.15480436
35	0x3bbb9119	0.005724084
36	0xb40abc0d	-1.2920664e-07
37	0xb430a431	-1.645101e-07
38	0x330e564d	3.314044e-08
39	0xbdb07f71	-0.086180575
40	0x3e75ac7b	0.23991577
41	0xbcab8b58	-0.020940468
42	0x31e1abae	6.5678796e-09
43	0xb1dbd7c1	-6.3982672e-09
44	0xb2925e17	-1.7039424e-08
45	0x3ca7ba39	0.02047454
46	0x3dd2e776	0.10298054
47	0x3cc9cb32	0.024633024
48	0x3246dc51	1.1575211e-08
49	0x3262f645	1.3210927e-08
50	0x3275c92b	1.4306617e-08
51	0xbb8acbd5	-0.0042357245
52	0x3e01b4d7	0.12666641
53	0xbb73dc3f	-0.0037210134
54	0x2ea02013	7.281655e-11
55	0xaf7e0298	-2.3102087e-10
56	0xae1d7ab3	-3.5806646e-11
57	0x3d710099	0.05883846
58	0x3e019234	0.12653428
59	0x3cf054fe	0.029337402
60	0xbda79b4d	-0.08183918
61	0xbd7786bc	-0.060431227
62	0xbd051672	-0.03249211
63	0x2d852d46	1.5140455e-11
64	0x2f004030	1.1664336e-10
65	0x2dc8d37c	2.2831285e-11
66	0x3e166571	0.14687134
67	0xbdb6428e	-0.08899413
68	0x3ccb9ada	0.024854112
69	0xafbc6048	-3.4265413e-10
70	0xb0438fe5	-7.1145073e-10
71	0x2fc45f85	3.5720063e-10

BCBlocks.0.0.f1.0.block.1.weight f4 [24]
0	0x309513b9	1.0846782e-09
1	0xbe60a338	-0.21937263
2	0x3e5ebb05	0.2175103
3	0xb2c4bf2e	-2.2904342e-08
4	0x3e3e1324	0.18561989
5	0x3d7a8051	0.06115753
6	0xbdc3de45	-0.09563879
7	0x3e604e50	0.21904874
8	0xb37a9b9a	-5.834918e-08
9	0xb3a0be88	-7.485238e-08
10	0xbe097e3c	-0.13427061
11	0x3e68448d	0.226824
12	0xb2f71490	-2.8763935e-08
13	0x3e8f2b29	0.27962616
14	0xb27d4dbf	-1.4744216e-08
15	0x3e07caef	0.13261007
16	0x32bd0ab0	2.2007356e-08
17	0x3e2691a1	0.1626649
18	0xad9f55f7	-1.8114383e-11
19	0xbe91715f	-0.28406808
20	0x3e1a4000	0.15063477
21	0xaec360b9	-8.884755e-11
22	0x3e373dd2	0.17894676
23	0x301701f9	5.4936283e-10

BCBlocks.0.0.f1.0.block.1.bias f4 [24]
0	0xb5a0bc35	-1.1975704e-06
1	0xbc311497	-0.010808132
2	0x3c7982de	0.015228955
3	0x36564084	3.1926038e-06
4	0xbc8c8933	-0.017155265
5	0xbbf252b4	-0.007395113
6	0x3d541b9e	0.05178415
7	0xbc25c1db	-0.0101170195
8	0x378695e8	1.604385e-05
9	0xb79ad903	-1.8459285e-05
10	0x3a987f57	0.001163463
11	0x3d3b7131	0.045762245
12	0xb7ff718a	-3.045124e-05
13	0xbd01b407	-0.031665828
14	0xb7a52e0e	-1.9690979e-05
15	0xbd079fb2	-0.03311128
16	0xb6437ba7	-2.912924e-06
17	0xbbadc29b	-0.00530274
18	0xb4810213	-2.4029632e-07
19	0xbda06bf4	-0.078330904
20	0xbd26898e	-0.040658526
21	0x349fd31c	2.976966e-07
22	0x3c3f4f9e	0.011676697
23	0xb59f8b7b	-1.1887017e-06

BCBlocks.0.0.f1.0.block.1.running_mean f4 [24]
0	0xae254688	-3.75793e-11
1	0xba903016	-0.0011000659
2	0xbba4a273	-0.0050242483
3	0xaff0f396	-4.3828824e-10
4	0xbb44b442	-0.0030014669
5	0x3a92f0a2	0.001121063
6	0x3aafa442	0.0013400393
7	0xbc27a4b2	-0.0102321375
8	0xae9ef622	-7.22873e-11
9	0xb2649e63	-1.330736e-08
10	0xbb55c8d8	-0.0032620933
11	0x3ca11ad2	0.01966611
12	0xb15ca8e7	-3.2110223e-09
13	0x3c50ac94	0.012736458
14	0xaf1aea6a	-1.4089499e-10
15	0xbb8b92ad	-0.0042594285
16	0x30ba0c86	1.353684e-09
17	0xbb85edcb	-0.004087185
18	0xabd6136c	-1.5211005e-12
19	0xba0bc3f6	-0.00053316297
20	0xbd24af36	-0.040206157
21	0x29a00fdc	7.1081785e-14
22	0x3bd7b321	0.006582633
23	0xad802198	-1.4566834e-11

BCBlocks.0.0.f1.0.block.1.running_var f4 [24]
0	0x1d2af250	2.2624585e-21
1	0x38cc3bfa	9.7386495e-05
2	0x3996f5ca	0.00028793357
3	0x1cc774db	1.3198922e-21
4	0x39b5f989	0.00034708928
5	0x369ab461	4.6105565e-06
6	0x36c6c56f	5.923844e-06
7	0x38c3c78b	9.335492e-05
8	0x21e8afd0	1.5767469e-18
9	0x2483d973	5.718057e-17
10	0x387e667a	6.0653758e-05
11	0x39a7ed09	0.00032029327
12	0x2369c0af	1.2671758e-17
13	0x3a04ccf6	0.0005065942
14	0x1b8c87f9	2.3248927e-22
15	0x37cd8f6c	2.450469e-05
16	0x1d96f121	3.995399e-21
17	0x392c2dfa	0.00016420326
18	0x139de068	3.9853654e-27
19	0x395344dc	0.0002014818
20	0x375829a9	1.2884303e-05
21	0x0dfb49c4	1.5486828e-30
22	0x39c6e21e	0.00037933973
23	0x17a3fca2	1.0597402e-24

BCBlocks.0.0.f1.1.weight f4 [24, 24, 1, 1]
0	0x34496243	1.8755331e-07
1	0x3cc3944b	0.023874423
2	0xbcb1cbcd	-0.021703625
3	0xb505e5bf	-4.9880686e-07
4	0xbc15a5bd	-0.009133753
5	0x3c21c87f	0.009874462
6	0x3bc5c629	0.0060355854
7	0x3d205cea	0.03915111
8	0xb624bc6c	-2.454758e-06
9	0x364303b3	2.9059418e-06
10	0x3c96d631	0.018412681
11	0xbca2a8e5	-0.019855926
12	0x369ff8bb	4.7675253e-06
13	0x3d1fff28	0.039061695
14	0x364e2ac7	3.0721292e-06
15	0x3badd3b9	0.0053047803
16	0x34f4e3e6	4.561436e-07
17	0x3d69341f	0.056934472
18	0x3321cb05	3.767038e-08
19	0x3c5222c2	0.01282567
20	0xbd2a2ab7	-0.041544642
21	0xb347f505	-4.6556142e-08
22	0xbc814b19	-0.01578288
23	0x3447d07d	1.8609167e-07
24	0xb44fb190	-1.9342974e-07
25	0xbe4e0628	-0.20119536
26	0xbc2e655c	-0.010644283
27	0x350a21c7	5.145816e-07
28	0xbd3d4b4c	-0.046214387
29	0xb9433d0c	-0.00018619391
30	0x3c1bd55d	0.009511319
31	0xbcb5d9e1	-0.02219862
32	0x362fe52d	2.621043e-06
33	0xb6432d8d	-2.9083778e-06
34	0x3d0926d7	0.033484306
35	0xbd800327	-0.06250601
36	0xb6a603ca	-4.9476266e-06
37	0xbe1c16b7	-0.1524304
38	0xb6556955	-3.1800785e-06
39	0xbd2d5d56	-0.04232534
40	0xb4fdcc38	-4.727351e-07
41	0xbd6335f0	-0.05547136
42	0xb3268484	-3.877041e-08
43	0xbca6f933	-0.0203825
44	0xbd786833	-0.060646247
45	0x334ed7db	4.8159432e-08
46	0x3bd944da	0.006630522
47	0xb44e15ba	-1.9193149e-07
48	0xb30e483c	-3.3127648e-08
49	0xbd89a5a2	-0.06721045
50	0xbc42edd3	-0.011897522
51	0x33ba8d48	8.686999e-08
52	0xbca6e89b	-0.020374587
53	0xbb8c934f	-0.0042900215
54	0xbdb36bf9	-0.087608285
55	0xbde88142	-0.11352779
56	0x34dcb72a	4.1111463e-07
57	0xb5208c83	-5.9809116e-07
58	0x3d0ecc60	0.034862876
59	0xbd4e7501	-0.050404552
60	0xb56005e9	-8.3455103e-07
61	0xbe7b2443	-0.24525551
62	0xb512428c	-5.4486077e-07
63	0x3d839e45	0.06426672
64	0xb3b17979	-8.2643005e-08
65	0x3b0226b1	0.0019859488
66	0xb1e4c212	-6.6577366e-09
67	0xbc37e829	-0.011224785
68	0x3c3b1eca	0.011420915
69	0x320d5cc6	8.228374e-09
70	0x3a2bebc9	0.0006558267
71	0xb30d3ca7	-3.2884284e-08
72	0x34be6aea	3.5468048e-07
73	0x3d94361a	0.072368816
74	0xbddfa3d7	-0.10919922
75	0xb57dcacb	-9.454495e-07
76	0xbcd00540	-0.025393128
77	0x3d42139b	0.04738198
78	0x3d12e408	0.035862
79	0xbd8bd911	-0.068285115
80	0xb69e5cbe	-4.7195635e-06
81	0x36ba7189	5.556449e-06
82	0x3d2023e4	0.039096728
83	0xbdd5bc70	-0.10436332
84	0x37177a77	9.028815e-06
85	0xbd0b226c	-0.033968374
86	0x36c39f9c	5.830034e-06
87	0xbdd8e8ea	-0.105913
88	0x35667380	8.584975e-07
89	0x3d389012	0.04505927
90	0x3398c6a4	7.114184e-08
91	0xbe0ddd86	-0.13854036
92	0xbc8b7899	-0.017025279
93	0xb3bd8c0f	-8.826475e-08
94	0x3b99396c	0.0046760347
95	0x34bd4432	3.5253612e-07
96	0xb4f05146	-4.4762618e-07
97	0xbc0e41ef	-0.008682712
98	0xbd78c2bf	-0.0607326
99	0x35a0a6a1	1.1969424e-06
100	0x3e3a5212	0.1819537
101	0x3c53a8c0	0.012918651
102	0x3cf4e540	0.029894471
103	0x3dc04796	0.09388654
104	0x36c72db0	5.935981e-06
105	0xb6e8b9bb	-6.9357607e-06
106	0x3c0d98d7	0.008642397
107	0x3ce70413	0.028200185
108	0xb73ec519	-1.1370773e-05
109	0x3de34c50	0.1109854
110	0xb6f6dd0b	-7.357104e-06
111	0x3c3106f6	0.010804882
112	0xb592081f	-1.0880211e-06
113	0xbc93adc6	-0.018027198
114	0xb3c0dcf7	-8.98089e-08
115	0x3daf8808	0.08570868
116	0xbd09ea56	-0.033670746
117	0x33eebfd7	1.1117634e-07
118	0x3dcfc104	0.10144237
119	0xb4ee87d4	-4.4429783e-07
120	0x340528ca	1.2401429e-07
121	0x3af43ca2	0.0018633793
122	0xbd8d7728	-0.06907493
123	0xb4af1eb4	-3.261863e-07
124	0xbd0450cb	-0.032303613
125	0xbc9cf3f5	-0.019159297
126	0x3b75c02e	0.0037498581
127	0x3dbaa264	0.09113005
128	0xb5e4d342	-1.7048808e-06
129	0x35ec5e17	1.7610754e-06
130	0x3d32fa5e	0.0436958
131	0xbd2c0004	-0.041992202
132	0x36518864	3.1222817e-06
133	0xbc8724b0	-0.016496986
134	0x36096b9d	2.047723e-06
135	0xbd0c8add	-0.034312118
136	0x34ad48d8	3.2276762e-07
137	0xbc2b7468	-0.010464765
138	0x32d58bcf	2.4860041e-08
139	0xbda89393	-0.082312725
140	0x3d1f3a44	0.038873926
141	0xb30498e1	-3.0872688e-08
142	0xbcfd632b	-0.030931076
143	0x3404595f	1.2325971e-07
144	0x33bf44af	8.906624e-08
145	0x3d896185	0.067080535
146	0xbd130809	-0.035896335
147	0xb47bc707	-2.3448602e-07
148	0x3d00ceb7	0.03144714
149	0xbd0261d7	-0.03183159
150	0x3d8e5c5b	0.06951209
151	0x3d3b1012	0.045669623
152	0xb5a30eaa	-1.2148714e-06
153	0x35b041eb	1.3132207e-06
154	0xbd21a912	-0.03946788
155	0xbdb5b083	-0.088715576
156	0x36173758	2.2532968e-06
157	0x3ce483d7	0.027894897
158	0x35c4f632	1.467479e-06
159	0x3b97e660	0.004635617
160	0x346ce47d	2.2062336e-07
161	0x3cb65868	0.022258952
162	0x32995c05	1.785339e-08
163	0x3d374f3e	0.044753306
164	0xbd4828c0	-0.048866987
165	0xb2bec029	-2.2206295e-08
166	0xbdcf2f89	-0.101164885
167	0x33bd5272	8.815995e-08
168	0xb3e5fc3a	-1.0709523e-07
169	0xbbbc242e	-0.0057416176
170	0xbaab7704	-0.0013081734
171	0x34981791	2.8329353e-07
172	0x3bcaaf62	0.006185458
173	0x3bb5eec2	0.005552144
174	0xbce335f8	-0.027735695
175	0x3e1b1b5e	0.15147159
176	0x35cb8a37	1.5164904e-06
177	0xb5cd515b	-1.5297368e-06
178	0x3d708d2c	0.058728382
179	0xbcb880cc	-0.022522353
180	0xb635af0e	-2.7072997e-06
181	0xbcac4b93	-0.02103213
182	0xb5ecd826	-1.7646278e-06
183	0xbce825c8	-0.028338328
184	0xb487d453	-2.5300196e-07
185	0x3d4771e8	0.048692614
186	0xb2b8228a	-2.1436126e-08
187	0xbd8e92dd	-0.06961606
188	0x3bac9079	0.005266246
189	0x32e4823e	2.660192e-08
190	0xbc672ad8	-0.014109336
191	0xb3e336fa	-1.05805114e-07
192	0x33d1bac5	9.766294e-08
193	0xbd8ebc3b	-0.06969496
194	0xbd83398f	-0.06407463
195	0xb48a8e26	-2.580793e-07
196	0x3d9ebfa8	0.07751399
197	0xbcb9e55c	-0.022692375
198	0xbbbb0617	-0.005707513
199	0xbd0f2e01	-0.034955982
200	0xb5d39da1	-1.5766601e-06
201	0x35dbbcf0	1.637176e-06
202	0xbd0b24e4	-0.03397073
203	0xbc9742d2	-0.01846448
204	0x362675c7	2.4804483e-06
205	0x3ca73ec6	0.020415675
206	0x35d80129	1.6093592e-06
207	0xbcf1a5cf	-0.029498009
208	0x347bfee1	2.3468921e-07
209	0xb9d8be91	-0.00041340714
210	0x32a82b71	1.9577529e-08
211	0xbd23a8fc	-0.039956078
212	0x3d8c2c7a	0.06844421
213	0xb2d14aeb	-2.4364871e-08
214	0xbce3b5f7	-0.027796729
215	0x33d061da	9.703554e-08
216	0x34168bc2	1.4020682e-07
217	0xbddd8c58	-0.10817784
218	0xbd359a5f	-0.044336673
219	0xb4c970b7	-3.7521178e-07
220	0x3c32255a	0.010873163
221	0xbc8f6730	-0.017505258
222	0xbd0b0d24	-0.03394808
223	0xbd5aca77	-0.05341574
224	0xb5f6f7c4	-1.8400538e-06
225	0x360b03ca	2.071482e-06
226	0xbc05320e	-0.00812961
227	0xbda99a92	-0.08281435
228	0x366f7d14	3.568658e-06
229	0x3d8b2046	0.06793265
230	0x361a44a4	2.2987742e-06
231	0x3d4f0e79	0.05055091
232	0x34b9bc37	3.459588e-07
233	0xbd966e94	-0.0734531
234	0x32f22c08	2.8192531e-08
235	0x3d833fec	0.064086765
236	0xbd33cb22	-0.043894894
237	0xb315f349	-3.4913032e-08
238	0x3c0762c0	0.00826329
239	0x3415ca78	1.3950364e-07
240	0x34af1db7	3.261791e-07
241	0xbd348df9	-0.04408071
242	0xbdeeaf94	-0.116545826
243	0xb569031d	-8.6803794e-07
244	0x3d3ac0cc	0.04559402
245	0x3c3e291f	0.011606484
246	0x3c36a67e	0.011148093
247	0xbbdf085b	-0.006806416
248	0xb690ba68	-4.313235e-06
249	0x36a97a7a	5.0508506e-06
250	0xbcd6a971	-0.026203843
251	0xbd4ebe70	-0.050474584
252	0x370c0a9a	8.347119e-06
253	0xbd77b866	-0.06047859
254	0x36b3ebae	5.3620524e-06
255	0xbd7cc741	-0.06171346

BCBlocks.0.1.f2.0.block.0.weight f4 [24, 1, 3, 1]
0	0xbe0e1951	-0.13876845
1	0xbc998124	-0.018738337
2	0x3d0eeb4c	0.034892365
3	0x3e2a1805	0.16610725
4	0x3dd46384	0.103705436
5	0xbe812595	-0.25223985
6	0xbd0d0e73	-0.034437608
7	0x3e27e812	0.16397122
8	0x3dc3d668	0.09562379
9	0x3d411459	0.047138546
10	0x3db34a2e	0.08754383
11	0x3d8649c9	0.06557042
12	0xbe225d59	-0.15855922
13	0x3e88cda2	0.26719385
14	0x3b823d93	0.0039746254
15	0xbcb46766	-0.02202196
16	0xbca01275	-0.019540051
17	0x3e68daa6	0.22739658
18	0xbe28dc45	-0.16490276
19	0x3e531407	0.20613109
20	0xbc3f3ebe	-0.011672674
21	0x3d194f41	0.037429098
22	0xbe7a034b	-0.24415319
23	0xbcbac1d2	-0.022797499
24	0x3cb57b41	0.022153499
25	0x3e2e5012	0.17022732
26	0xbd57679f	-0.052589055
27	0xbdbb01e3	-0.09131219
28	0x3e663cd9	0.22484149
29	0xbd0c6fe8	-0.03428641
30	0x3ba559a3	0.005046086
31	0xbe1f7d79	-0.15575208
32	0xbd25d6cb	-0.040488046
33	0x3e5c8f04	0.21538931
34	0x3e06bb9f	0.1315751
35	0x3d8ec751	0.0697161
36	0xbe2fa465	-0.17152555
37	0x3cd2ac78	0.025717005
38	0x3d389263	0.04506148
39	0xbb5aea1d	-0.0033403703
40	0x3e27f16d	0.1640069
41	0x3d8f97b3	0.07011356
42	0xbded6f9d	-0.11593554
43	0xbd4c4955	-0.049874622
44	0xbccd256e	-0.025042262
45	0xbd921c2f	-0.07134282
46	0x3deb558c	0.11490926
47	0xbe24a82c	-0.16079777
48	0x3ce3ced0	0.027808577
49	0x3d8fd97c	0.07023904
50	0x3dc6b823	0.0970309
51	0xbd87917f	-0.06619548
52	0x3e8a0242	0.26954848
53	0xbd86321b	-0.065525256
54	0xb3f0ac24	-1.1207183e-07
55	0xb30be703	-3.2573563e-08
56	0xb2e63148	-2.6797935e-08
57	0x3dee011d	0.11621306
58	0x3dd18d14	0.10231987
59	0xbcb8e165	-0.022568414
60	0x3db6debb	0.08929201
61	0x3e947ad6	0.28999966
62	0xbe141f6c	-0.14465111
63	0x33f4abb2	1.13933666e-07
64	0x343de110	1.7683874e-07
65	0xb48a5e13	-2.577295e-07
66	0x3bcc4238	0.00623348
67	0x3e2fbed7	0.17162643
68	0x3d7f856f	0.06238311
69	0x3d6029e4	0.05472745
70	0x3d3d1e72	0.046171613
71	0x3d300ea2	0.042982705
