models/speechcmds_tau3_30%/model_best.pth (torch, 323271 bytes, 165 tensors)

cnn_head.0.weight f4 [48, 1, 5, 5]
000000 56 ff 29 3d 11 2e 5c 3d a1 8b 09 3e 85 2a ac 3d
       0.041503273 0.05375487 0.1343217 0.084065475
000010 58 15 b5 bb 6d 0c 20 3d 23 f1 a6 3c 90 a2 f7 3c
       -0.005526226 0.03907435 0.020378655 0.030228883
000020 7b 70 aa 3d c5 c5 65 3d 2d f1 e2 3b 2b a3 97 bd
       0.08322235 0.05609681 0.006925723 -0.07404169
000030 8d fc fd bd f9 56 03 bd fa b6 60 bb ab 27 88 3d
       -0.12401686 -0.032065365 -0.003428875 0.06648191
000040 59 a0 c2 3d dd f4 e4 3d 5a 8e 1c 3e 94 ed ab 3d
       0.0950324 0.111795165 0.15288678 0.08394924
000050 c6 b1 ad 3d 41 a8 dc 3c fb e9 f7 bc 1a a4 16 3d
       0.08481173 0.026935698 -0.030262938 0.036777593
000060 91 2d a7 3c 88 86 42 3d b9 31 6b bd c1 3a 1b bd
       0.02040747 0.04749158 -0.057420466 -0.03789783
000070 51 86 2a bd 24 29 e3 3d 6b 10 d2 bb a3 44 d0 bd
       -0.041632 0.11091831 -0.0064106486 -0.101693414
000080 cc 41 14 3e 2f 5f e7 bd a5 c0 25 39 ce 30 7e be
       0.14478225 -0.11297452 0.00015807392 -0.24823305
000090 13 48 25 3e 73 4e 52 3f 42 22 71 3d f4 4e 5c be
       0.16140775 0.82150954 0.05887056 -0.21514493
0000a0 c4 f8 42 be 17 ca 2c bb ed 10 cd 3e 43 4e 44 be
       -0.19040209 -0.0026365572 0.40051976 -0.1917048
0000b0 26 5b 98 be 5e db 90 bd d5 98 72 bc 4e 94 23 3e
       -0.2975704 -0.07073091 -0.014806946 0.15974542
0000c0 3d a6 a6 bd b2 78 8d bc 85 d5 27 3d 23 8f 5f bd
       -0.08137176 -0.017269466 0.040975112 -0.054579865
0000d0 16 88 40 3e 7b 69 59 3d 80 eb b3 bd f5 4b 0c be
       0.18801913 0.05307911 -0.087851524 -0.1370085
0000e0 fc 55 46 be ff d9 7a 3e d2 55 5c 3e 13 2c 83 3d
       -0.19368738 0.24497221 0.21517113 0.06404891
0000f0 12 ec 02 bd 97 d1 39 bc a7 73 6a 3e 55 53 35 3e
       -0.031963415 -0.011341474 0.2289568 0.1770757
000100 30 57 8b 3d f5 7a fd 3d 4d f3 97 3b 21 d0 07 3d
       0.06803739 0.12376968 0.004637158 0.03315747
000110 08 88 66 bd 04 48 05 3d 33 b4 c5 bc 68 e4 cd bd
       -0.056282073 0.032539383 -0.024133777 -0.10053331
000120 ed 88 f6 3c aa dc 25 3c df c8 07 3d 76 64 58 bb
       0.030094588 0.010123411 0.03315055 -0.0033018864
000130 e3 d3 34 bc b3 c0 fa bb 03 b7 f5 bb c5 6f be bb
       -0.011036846 -0.007652366 -0.0074986233 -0.005811664
000140 03 0f 03 3c 6f 9c 27 bb ec 5e 39 3b 7b 8a 8d 3b
       0.007999185 -0.002557542 0.0028285338 0.0043194867
000150 f4 69 f3 3b b9 28 28 3c 14 17 ea ba 2b 8f 85 ba
       0.007428402 0.010263615 -0.0017859661 -0.0010189762
000160 42 4e d7 ba 11 d7 43 3b fd 7c 3c 3c 62 70 8b 3a
       -0.0016426521 0.0029882828 0.011504409 0.0010638351
000170 a7 6e c2 38 78 f4 a3 ba b5 de 47 3a fc 57 ed 3b
       9.2712515e-05 -0.001250877 0.00076244335 0.0072431546
000180 2f 06 77 ba b2 93 81 bb 69 1a 8f bb a8 21 6a bb
       -0.00094232237 -0.003954374 -0.004367162 -0.0035725627
000190 ee 33 23 3d 33 80 da 3c d7 3a 01 3d 54 4b 7d 3c
       0.039844446 0.026672458 0.031550255 0.015459854
0001a0 56 42 2c 3d b3 3f 69 bc 0a 11 f9 bc 17 26 03 bd
       0.04205545 -0.0142363785 -0.030403633 -0.032018747
0001b0 ef 62 68 bd ce 07 aa bc 88 32 57 3c e9 b1 1b 3c
       -0.056734975 -0.020755675 0.013134606 0.009502866
0001c0 52 19 48 3c 1d 4a c5 bc 00 f4 4b 3c 53 fa e6 3b
       0.012213068 -0.024083192 0.012448311 0.007048884
0001d0 2d 39 9e 3a f9 f2 08 3c e5 12 b1 39 4a 6d 2c 3d
       0.0012071483 0.00835871 0.00033774148 0.042096414
0001e0 ec 71 bb 3b b4 a2 dc 3b e3 c1 94 3c ab 12 86 3c
       0.0057203677 0.006733263 0.018158859 0.016366323
0001f0 51 cc 17 3d 4f 7f 6c 3d 50 00 e5 3d 67 71 74 be
       0.037060086 0.0577386 0.111817 -0.23871385
000200 cb ec ff 3d 74 9a 9b 3d 52 45 54 3e 8d 95 6c 3e
       0.124963365 0.07597819 0.20729569 0.23103924
000210 85 22 9b be 5a 09 0a 3e eb 63 7c 3d 8f a8 2f bd
       -0.30299774 0.1348013 0.061618727 -0.04288536
000220 c5 c8 14 3c 95 2a fb be 36 5e f6 3c 2b 64 b3 bd
       0.00908107 -0.49055925 0.03007422 -0.0875934
000230 87 2b 19 bb 2e c7 b2 3d c5 da 95 be 49 ec 9f 3e
       -0.0023371892 0.08729397 -0.2926847 0.3123496
000240 00 f0 bd 3d 82 e4 ca 3c 16 26 10 3e b3 3b ef bd
       0.09274292 0.024767164 0.14077029 -0.116813086
000250 89 1d 68 3e e3 c5 aa bd 44 7a ba 3d a1 3d 94 3e
       0.22667517 -0.08338525 0.091053516 0.2895327
000260 32 62 be 3e 45 a4 be 3d 4b 81 87 bc 95 c1 83 3d
       0.37184292 0.09308676 -0.016541144 0.06433407
000270 74 1c 4c 3e e8 a8 02 3e fe b7 e4 bd ac 2b 88 be
       0.19932729 0.12759745 -0.11167906 -0.2659582
000280 dd 37 84 bd 68 49 cd bd 9e a6 03 be 2a d1 1b be
       -0.064559676 -0.10023767 -0.12856528 -0.15216509
000290 c9 68 7d be 8b b6 b0 3c 84 07 82 bc 27 cd 80 3c
       -0.24747004 0.021571418 -0.015872724 0.015722824
0002a0 6d 1c da 3c d2 eb 4e bd 03 4f 40 3d 0f f8 a8 3c
       0.026624883 -0.050517865 0.04695035 0.020626096
0002b0 de b2 6d 3c af 7f c4 3b 77 32 6d bc 09 2b 44 3c
       0.014507977 0.0059966664 -0.014477364 0.011973151
0002c0 0d 61 e5 bb 89 b1 6a 3b f3 84 de 3c 3c e5 0d 3d
       -0.0070000947 0.0035811386 0.027163005 0.034642443
0002d0 dd 2f f6 3c 57 6f c4 3c b5 cd 2e 3d 42 fd 3c 3d
       0.03005212 0.023978872 0.042676646 0.046139963
0002e0 ec 13 af 3c 43 8a 04 3d ed b5 6f 3c 33 5c 03 3d
       0.021371804 0.03235842 0.014630777 0.03207035
0002f0 98 6b 4d 3d 74 d7 53 3d a2 d1 4e 3c 47 18 1e bc
       0.050151438 0.051719144 0.012623223 -0.009649343
000300 ad 00 c2 bb ca 59 b4 ba cf 77 a9 3b d9 a7 8e bd
       -0.0059204907 -0.0013759669 0.005171753 -0.06965608
000310 52 42 5b bd 01 16 a5 bd 8a f7 b6 bd 71 24 aa bd
       -0.053530045 -0.080608375 -0.08933933 -0.08307732
000320 49 9f 09 3e 26 fd 80 3e 19 73 0a bd b7 65 82 3e
       0.13439669 0.25193137 -0.033801172 0.25468227
000330 18 e2 e3 3d 77 78 24 be 1f 49 39 be da f4 17 bf
       0.11127108 -0.16061579 -0.180943 -0.5935799
000340 dd 80 81 be 41 fa a9 be 5b e7 47 3e 4a 81 68 3e
       -0.25293627 -0.3319874 0.19521849 0.2270557
000350 fc 56 2c b9 63 38 8c 3e de c3 63 3e bd fa b7 3d
       -0.00016435602 0.2738677 0.22242686 0.089833714
000360 ca 47 08 3d 1e 6f 0e be 05 88 1a 3d e3 b9 42 3d
       0.03327159 -0.13909575 0.037727375 0.047540557
000370 44 54 ef bc bb e4 4b 3d 5a 8b 7e bc 83 5c b9 3d
       -0.029214986 0.04977868 -0.015536154 0.09050848
000380 04 ac 6e bc 06 9f 0c 3a ce 08 e5 39 a9 76 d4 39
       -0.014567379 0.00053642725 0.00043684844 0.000405242
000390 5a cc a1 37 a6 3b 2e b9 c8 f0 e8 b9 c7 cd c3 b9
       1.9287854e-05 -0.00016616154 -0.00044429884 -0.00037346614
0003a0 2e 77 3b b9 1d fb d1 b9 1d 6f 12 ba 27 fc 2b ba
       -0.00017878108 -0.0004005068 -0.0005586015 -0.0006560706
0003b0 92 3e 29 ba 9a 15 af b9 96 a9 8f b9 d5 52 92 b9
       -0.0006456162 -0.00033394695 -0.00027401437 -0.00027909005
0003c0 b1 57 20 39 17 6e 88 b9 1f dc 54 b9 23 ad fe b8
       0.00015291457 -0.00026021965 -0.00020299897 -0.00012143913
0003d0 fb 0a fb b6 5f 0a 1a 3a bb 17 42 39 b6 6c 63 38
       -7.481661e-06 0.0005876179 0.00018510122 5.4222262e-05
0003e0 41 65 86 b8 13 24 2e 36 ae cd 8f ba 0f a6 bf bb
       -6.408478e-05 2.5949018e-06 -0.0010971332 -0.005848653
0003f0 20 be 2a bb b1 c7 6d bb 1c fe b7 bb e2 d3 1f 3b
       -0.0026053265 -0.0036282355 -0.005615009 0.0024387767

cnn_head.1.weight f4 [48]
000000 9d 7a c0 3e bf ca ea 3e 9b bb be 3e be 7a ec 3c
       0.37593547 0.45857808 0.37252507 0.028867122
000010 bb cc 19 3d c4 e9 c1 3e 98 2c a0 3e 06 24 d3 3d
       0.03754876 0.37873662 0.31284022 0.10309605
000020 89 4e bf 3e 1d e0 7a 39 af f7 d5 3c 46 24 ca 3a
       0.37364605 0.00023925347 0.026119081 0.0015422187
000030 16 bf e6 3d 89 25 d4 3e f9 11 71 3c f5 12 05 3a
       0.112669155 0.41434887 0.014713758 0.0005076372
000040 25 e4 c9 3d 20 58 e1 3b 54 82 01 3b cb cb 88 3e
       0.09857968 0.0068769604 0.001976152 0.26717982
000050 4e e1 1a 3b 55 ea b7 3e db 07 3e 3e 8e 1e 4d 3d
       0.0023632827 0.3592097 0.18557684 0.050077967
000060 34 6d 90 3e 98 c9 65 38 23 e1 9c 3b 72 b1 94 3e
       0.28208315 5.4785603e-05 0.0047875806 0.2904163
000070 80 3d b5 3e 66 df a2 3e 01 2c 5c 3e 19 61 15 37
       0.35398483 0.31811064 0.21501161 8.903699e-06
000080 57 82 e4 3c 60 f5 54 3e bd 78 c9 3e 86 a9 0b 3f
       0.027894182 0.20796728 0.39349928 0.5455555
000090 92 d8 98 3a 0d fb 24 3e f9 f9 3f 3e 6c 1e 96 3d
       0.0011661223 0.16111393 0.18747701 0.07330021
0000a0 02 b9 34 3d a4 14 e9 3e 63 7d ed 3c 7a c2 80 3e
       0.04412175 0.4552356 0.028990453 0.25148374
0000b0 45 85 11 3e 06 8a 94 3e 25 b7 89 3e fb 21 19 3e
       0.14210995 0.29011554 0.2689754 0.14954369

cnn_head.1.bias f4 [48]
000000 e5 71 78 be 75 0e 6b be a2 30 74 bd be 93 6f bb
       -0.24262197 -0.22954734 -0.059616692 -0.0036556567
000010 5d b5 3f bc 8e 06 26 be 33 6d cb bd e1 ba 70 3c
       -0.011700955 -0.16213438 -0.099329375 0.014692993
000020 17 27 3c be 24 74 7a ba dc cf fa bb 57 8a b0 bb
       -0.18374287 -0.00095540495 -0.0076541733 -0.005387585
000030 f2 d8 91 bc ab d7 2a be d5 31 1b bc 73 3f 03 bb
       -0.017803643 -0.16683833 -0.00947233 -0.0020026832
000040 6e 79 c8 3b 45 b7 0e bd 5e c7 ec bb 0e 5e 2c 3e
       0.006117991 -0.03484275 -0.007225915 0.16832754
000050 5c 95 59 bc a4 52 8c 3e ff 1a 13 bd cd bb 18 3c
       -0.013280239 0.274068 -0.035914417 0.009322119
000060 cc cb da 3d 18 eb 96 b9 23 23 87 bc 87 3a 8d 3e
       0.106834024 -0.00028785388 -0.016496247 0.27583715
000070 4a ab a9 3b 16 34 3f 3e 72 be 92 3d 8a b4 38 b9
       0.00517789 0.18672213 0.07165231 -0.00017614863
000080 f2 eb db ba 4d ff b4 3d d3 7f 60 3e f3 2b b2 be
       -0.0016778691 0.08837757 0.21923761 -0.34799156
000090 61 1d 75 bb fa c4 4e 3e 34 98 11 3d e7 66 8e 3c
       -0.0037401544 0.20192328 0.035545543 0.017383052
0000a0 0d 91 41 bc e5 07 47 bd 34 4a c2 3c 74 1c 35 3e
       -0.011814368 -0.048591513 0.023717023 0.17686635
0000b0 cf 50 29 ba 39 fa 39 3e 56 32 e2 bd 06 65 9e 3b
       -0.000645888 0.18161859 -0.11044757 0.0048338203

cnn_head.1.running_mean f4 [48]
000000 47 d8 32 c0 82 65 4c bf f7 93 24 c0 06 88 1a bb
       -2.7944505 -0.7984239 -2.571531 -0.0023579611
000010 73 2e fd be b7 36 1d bf 71 e4 06 bf 66 d1 02 be
       -0.494495 -0.61411613 -0.52692324 -0.12775192
000020 41 bc 6b bf 1b 87 00 3c 13 36 a5 3b 10 77 8e bd
       -0.9208413 0.007844712 0.0050418465 -0.06956303
000030 63 d7 31 bc 67 d5 4c bf 8b 75 18 be 5e 54 eb 3c
       -0.010854575 -0.80013126 -0.14888589 0.028726753
000040 57 f9 15 3e ce ca d8 3e a8 a3 ee bd 80 fc c0 3f
       0.14645897 0.42342228 -0.11652309 1.5077057
000050 bb dc ad be 85 2c 63 bf 58 a1 7f 3e fa b7 cb bd
       -0.33957466 -0.88739806 0.24963892 -0.099472
000060 fa cf 3b bf ed 5a 07 bc 8b 39 a8 be 87 49 37 be
       -0.7336422 -0.0082614245 -0.32856402 -0.17899142
000070 17 c6 ca 3f fc 1a b5 bf fd bd 22 bf 5f 40 49 ba
       1.5841702 -1.414886 -0.6357115 -0.00076771335
000080 38 ea db 3d 6e 25 61 be 12 37 80 bb 98 a7 87 c0
       0.10738033 -0.21986935 -0.003912815 -4.239208
000090 d6 e8 a6 3d 9f 34 4d 3f 66 c1 1f be 62 06 a5 3e
       0.08149879 0.8015842 -0.1560112 0.32231432
0000a0 6f 27 2f 3c 1b 9a 47 c0 d0 c1 9b 3e 88 d2 9b 3f
       0.010690554 -3.1187809 0.30421305 1.2173624
0000b0 38 89 cd be cb 9a 1b 3f af 58 12 c0 b6 d6 25 3f
       -0.40143752 0.6078307 -2.2866628 0.6478075

cnn_head.1.running_var f4 [48]
000000 3a 89 39 41 bc b2 95 40 a5 b9 32 41 67 e1 d6 3b
       11.596003 4.678068 11.170323 0.006557632
000010 68 5b ca 3e c3 9e 57 40 5d 1b c3 40 cb 0a 77 3f
       0.39522862 3.369065 6.0970902 0.96500844
000020 6f 34 b6 40 63 34 fa 38 9c c5 57 3c 78 8e f2 3b
       5.6939006 0.00011930687 0.013169672 0.0074022375
000030 c1 7e 9b 3e 47 c6 de 40 1f 02 48 3d 3a e2 a1 3a
       0.30370143 6.961704 0.048830148 0.0012350746
000040 4a fb a1 3d 66 46 90 3e 52 62 d0 3c fb 83 a0 40
       0.07909258 0.2817871 0.025437508 5.016111
000050 53 20 3c 3e e5 1c 59 41 ea e0 72 3f e1 87 32 3e
       0.18371706 13.569554 0.9487444 0.17434646
000060 a1 49 0d 41 41 77 e9 38 55 33 2b 3e cc 0a fa 40
       8.830476 0.000111325186 0.167188 7.813818
000070 5d 9b b6 40 ff e0 b7 40 4c c2 11 40 55 a2 a1 36
       5.7064652 5.7462153 2.277484 4.817072e-06
000080 08 e9 fd 3c e7 c3 d2 3f 8a f0 c0 41 8d 91 da 41
       0.030994907 1.6466035 24.11745 27.32107
000090 11 0a 2c 3c 69 56 27 40 2c 73 4f 40 8e 15 97 3e
       0.010500447 2.614649 3.2414045 0.29508632
0000a0 57 26 8b 3c 0f f0 b1 41 6d ea 3d 3e d9 5c 8b 40
       0.016986055 22.242216 0.18546458 4.355084
0000b0 03 f9 20 3f 60 a3 f4 40 20 78 03 41 f7 5a 37 3f
       0.6287996 7.644943 8.216827 0.71623176

BCBlocks.0.0.f2.0.block.0.weight f4 [24, 48, 1, 1]
000000 19 95 a0 b9 0f 5e 27 3d 1b c4 a5 bd 27 f5 a5 bb
       -0.00030628665 0.040861186 -0.08094045 -0.005064625
000010 4f 5b 9d 3b a6 bb d1 3c dc be 3a bc 7b 5d 54 bd
       0.0048021446 0.025602173 -0.0113980435 -0.051846962
000020 e3 52 c2 3c 1e 51 2a 38 a6 53 46 bb a9 e4 68 ba
       0.023721164 4.0606705e-05 -0.003026226 -0.00088841707
000030 a0 7a 05 bd 3b 61 16 bd 47 78 09 bc a8 fb 5d ba
       -0.032587647 -0.03671382 -0.008390493 -0.00084679807
000040 35 94 e0 bb ec e5 88 38 34 33 18 bb 56 71 5f bc
       -0.006853605 6.527812e-05 -0.0023223879 -0.013637861
000050 a6 0d ed 3a c0 9a 1c be e0 18 19 bd b1 67 c8 bc
       0.0018085733 -0.15293407 -0.03737724 -0.024463506
000060 a5 e3 33 3d 6b 3e 0d 38 ee a9 02 bb 8b a2 3a bd
       0.04391827 3.367515e-05 -0.0019937712 -0.04556517
000070 ae ba 56 bb 8b 19 14 be 99 ac f5 bb f9 a7 40 37
       -0.0032765078 -0.14462869 -0.007497382 1.1483201e-05
000080 73 0c b6 bb 9f 57 dd 3c 1c 4f 85 3d 27 e8 a1 bb
       -0.0055556833 0.02701932 0.065092295 -0.004941005
000090 df 02 ad 3a ea 3f e3 bc a8 28 df bd a5 6c 23 bc
       0.0013199708 -0.027740438 -0.108964264 -0.009974633
0000a0 99 56 39 bc 05 25 82 3d cc cb 36 bc 68 91 39 bc
       -0.01131215 0.06354717 -0.011156987 -0.011326171
0000b0 b8 a6 f3 bc 0a 89 e1 bc 69 e6 89 bc 10 62 50 bc
       -0.029742584 -0.027531166 -0.016833501 -0.012718692
0000c0 96 8c 39 ba e1 9f 28 bd 90 08 ed bd 0e a3 db ba
       -0.0007078139 -0.041168097 -0.11573899 -0.0016756968
0000d0 cd f8 27 ba 21 58 35 bd 63 0e 6b 3c c0 5b ca bc
       -0.00064076186 -0.0442735 0.014346692 -0.024701953
0000e0 ca 0f 82 bd 3a 31 29 b9 5b 39 03 3b 74 7e 31 b7
       -0.06350668 -0.00016135434 0.00200232 -1.0579464e-05
0000f0 a7 ff 65 bd 8d 74 bd bd 8c 0b 13 bc 39 fb c3 ba
       -0.056152012 -0.09250746 -0.008974921 -0.001495219
000100 ef a1 46 bc e1 18 0c bc 30 d6 91 3a 38 28 d1 bd
       -0.012123569 -0.0085508535 0.0011126455 -0.10212749
000110 c8 51 93 ba 3d d3 83 be 60 b0 2e bd 2d 2a 1f bb
       -0.0011239583 -0.257471 -0.042648673 -0.0024286613
000120 46 e7 f3 3b a6 a6 94 b9 c2 d2 bc ba 4c 1e 98 3d
       0.0074433414 -0.00028352923 -0.0014406072 0.07427654
000130 84 a3 1b be ee 27 62 be 6e 5e 82 3d 4e ff 3a b9
       -0.15199095 -0.22085544 0.06365667 -0.0001783345
000140 d8 60 bb ba d9 8a 92 3d 5f 95 8b 3c d1 7b 10 3e
       -0.001429583 0.07155389 0.017039 0.14109732
000150 cd d7 cd 39 84 36 7a bd 30 f3 04 bd 92 7e b6 3b
       0.0003926143 -0.061087146 -0.032458484 0.0055692876
000160 e1 ff 18 bb 0a ef ca 3e 40 a7 3f bb e3 e3 17 bc
       -0.0023345875 0.39635497 -0.0029243976 -0.009270641
000170 6e 8e 17 bc 9a be e1 bc 6e 07 d6 bc fe 41 c0 bc
       -0.0092502665 -0.027556706 -0.02612659 -0.023468968
000180 c5 b3 b6 bc fc 80 6e bd ab 0d 9c bb cc 79 a4 bb
       -0.022302518 -0.058228478 -0.0047623715 -0.005019402
000190 eb 7e 5a 3b 13 5e d3 bc d6 90 30 3d 95 ca 57 3d
       0.003333981 -0.025801694 0.043106876 0.05268343
0001a0 f8 7c 3b 3d de eb 10 39 c2 58 7b 39 3a b5 e8 39
       0.045773476 0.00013820778 0.0002397029 0.00044385513
0001b0 2e 97 07 3c b3 3a cb 3c f1 2c 52 3b 99 f7 6b b9
       0.00827579 0.024808263 0.0032070244 -0.00022503584
0001c0 8e fb 68 3c ce 92 fa ba ad 2d 8b 3a a1 f2 97 bc
       0.014220132 -0.0019117238 0.0010618471 -0.018548312
0001d0 63 e9 c5 3a 16 76 2d bd f4 e1 03 bc eb 55 c8 3c
       0.0015099462 -0.042348944 -0.008049477 0.024455031
0001e0 28 5d 86 bd fd 7d 64 b8 c7 cb c1 3a 17 63 f4 bb
       -0.06560737 -5.447677e-05 0.0014785462 -0.0074581015
0001f0 b3 64 fb bc ac 6b 1d bd 9b c9 28 bc ef 32 14 b7
       -0.030687666 -0.038432762 -0.010301973 -8.833346e-06
000200 50 7a ed b9 15 80 0f 3a ed 60 15 bd 81 ec ae 3b
       -0.00045295293 0.0005474103 -0.03646939 0.005338252
000210 77 87 46 39 81 33 38 3d cf eb c0 3d a1 8b cb bb
       0.00018933216 0.044970993 0.09419977 -0.0062117134
000220 ab 6b 65 3a 76 ea 6c bc ec 79 99 3b 2d 04 a6 bc
       0.00087517005 -0.014460197 0.0046837237 -0.020265663
000230 0e 25 86 3c 81 dd 30 3d 26 26 10 bb 55 aa 87 3b
       0.01637509 0.043179993 -0.0021995394 0.004140178
000240 07 e8 ff bd 92 5b 59 3e c3 40 ad bd 2d 7e fc bb
       -0.124954276 0.21226338 -0.08459618 -0.007705471
000250 1c f7 c0 bb ab 5e 63 3e a4 1c e4 bd 29 6d 12 bd
       -0.0058888327 0.22204082 -0.11138275 -0.035748634
000260 e8 e1 8b 3d 29 52 75 37 01 61 ad bb 05 55 18 ba
       0.068301976 1.4622267e-05 -0.005291105 -0.0005811009
000270 0c c0 22 bd fc 80 4f bd bb c6 3a bc c5 c8 51 ba
       -0.03973393 -0.05066012 -0.01139992 -0.0008002634
000280 70 f8 80 bc 85 f4 15 38 e9 88 85 bb 94 13 0f be
       -0.015743464 3.5752095e-05 -0.004075159 -0.13972312
000290 3c 21 bb bb 50 f8 3f be ba 25 94 bc 0d 0a 4d bc
       -0.005710749 -0.18747067 -0.018084396 -0.012514603
0002a0 41 6c 27 3d 02 d0 cc 38 a8 6c 70 3a 41 31 bd bd
       0.040874723 9.7662225e-05 0.00091714645 -0.0923791
0002b0 cf 5f c9 bd 98 1f f6 bb ad 70 51 3d 47 4b d9 37
       -0.09832727 -0.0075110905 0.051132847 2.590347e-05
0002c0 f5 60 31 bc c1 66 12 3e 9f 15 78 bd 49 36 43 be
       -0.010826339 0.1429701 -0.060567494 -0.19063677
0002d0 30 d2 57 ba 25 8c 2c b8 f3 aa 7c bd de 84 85 bc
       -0.00082329195 -4.1138515e-05 -0.061686467 -0.016298708
0002e0 95 29 be bb e0 2e 6d 3e 76 b9 a3 bb f7 d3 63 3d
       -0.005803297 0.23162413 -0.004996474 0.055622067
0002f0 1c 1d 97 bc c2 bf 84 3c 94 b2 bc bd 6d a7 82 bc
       -0.018446498 0.016204719 -0.092137486 -0.015948975
000300 da a0 2f 3e b8 3f 8b be 07 2a 80 3e db 1f 1a 3c
       0.17151204 -0.2719705 0.25032064 0.009407009
000310 e9 8c 9b bb ca 8b 76 be 26 37 31 3d 70 d3 c2 3c
       -0.0047470224 -0.24076763 0.043265484 0.023782462
000320 df 6f a6 bd 66 bc 22 39 2e 7b 6b 3c 3a 57 56 3a
       -0.081268065 0.00015519708 0.01437263 0.000817645
000330 fe 68 ab bd 3e c8 80 bd 06 59 7d bb 93 7b 02 3b
       -0.08369635 -0.06288193 -0.0038657798 0.0019910082
000340 75 b2 62 3c 75 92 a5 bc 4a fc 7e 3b 2c 16 f1 3d
       0.013836493 -0.020211438 0.00389077 0.11771807
000350 c0 2e 64 3a 35 a3 5e 3e 55 f3 80 bc 9f 29 fd 3b
       0.0008704476 0.21741946 -0.01574103 0.007725909
000360 78 21 8d be 22 2c a5 b9 83 a3 58 ba df f5 a7 be
       -0.27564597 -0.00031504134 -0.0008264111 -0.32804772
000370 f2 f4 1d bc 68 d9 b6 bc 75 43 b4 bc 66 6c b5 b7
       -0.009640919 -0.022320464 -0.022004822 -2.1627358e-05
000380 09 e5 21 bc bc 4f 1c be 6d 2e 90 be 3f 03 a1 3d
       -0.009881266 -0.15264791 -0.2816042 0.07861947
000390 5e 6a 5f 39 0d 0b 86 bb 73 6d 53 3d 63 e0 86 3c
       0.00021306562 -0.004090673 0.05161805 0.016464418
0003a0 c8 c1 d3 3c 5c c1 8d be 57 63 b4 bc 81 b8 17 be
       0.025849238 -0.27686584 -0.022020025 -0.14816476
0003b0 b6 ba 1a 3e 6d cd 03 3e 4b 52 d3 3d ff 1c 9a 3d
       0.15110287 0.12871332 0.103184305 0.07525062
0003c0 35 d4 9b 3d 53 a5 ad 3d b1 4a 98 3e 43 52 39 bc
       0.07608835 0.08478799 0.29744485 -0.011311117
0003d0 4d 6a 57 bc 3b c7 69 be b5 0f f4 3d b4 18 c5 3c
       -0.013147903 -0.22829907 0.119170584 0.02405963
0003e0 05 ee 40 3c 94 c2 93 38 6f 58 2f 3b a5 f0 cc b9
       0.011775498 7.045749e-05 0.0026755591 -0.00039089206
0003f0 ad 27 90 bc f1 72 0d 3e ec ad 4a bb 53 6a 92 3a
       -0.017597044 0.13813378 -0.003092642 0.0011170603

BCBlocks.0.0.f2.0.block.1.weight f4 [24]
000000 fd ad 23 3e 92 49 85 3e 52 1e 8f 3d 94 4e 49 3e
       0.1598434 0.26032692 0.06988205 0.19658881
000010 dd e9 b5 3e ab 13 8e 3e 29 18 d8 3e 83 51 bf 3e
       0.35529986 0.2774938 0.42205933 0.37366876
000020 bf b2 95 3e 70 65 94 bd cf 6c a3 3e aa 30 67 3e
       0.29237935 -0.0724591 0.31918952 0.22577158
000030 63 b2 31 3e 75 3f dc b4 26 80 4c 3e 7d 43 4a 3e
       0.17353205 -4.1024364e-07 0.1997076 0.19752307
000040 1b 55 38 3e 36 21 8a 3e 0e 80 06 3e 28 09 45 3e
       0.18001215 0.26978463 0.13134786 0.19241774
000050 ab 7e 67 be 96 af a7 3e c2 b5 81 3e c6 c7 97 39
       -0.22606914 0.3275115 0.25333983 0.00028949807

BCBlocks.0.0.f2.0.block.1.bias f4 [24]
000000 23 ef aa bd 48 f5 1f be 82 0b 2d 3d 91 3f 11 be
       -0.08346393 -0.15620911 0.042247303 -0.14184405
000010 1d 09 fb bc 52 22 cc 3d 6e bf ed bd 71 21 cf 3d
       -0.030643994 0.099674836 -0.11608778 0.101138
000020 30 3d 06 be 32 ef 45 3e 02 06 07 be 8d 97 71 3e
       -0.13109279 0.19329527 -0.13185886 0.23592968
000030 b2 b8 69 3e 66 b8 6f b9 02 e4 33 3d 83 2d 44 bd
       0.22824362 -0.0002286151 0.043918617 -0.047894966
000040 85 d3 0d 3e 24 a7 5b 3d 52 95 80 3e 0f 76 aa bd
       0.1385022 0.053626195 0.25113922 -0.08323299
000050 9c bf f8 bc 92 ba 4d bc 5a bc fe 3d 3b bd b1 ba
       -0.030364804 -0.012556689 0.12438269 -0.0013560423

BCBlocks.0.0.f2.0.block.1.running_mean f4 [24]
000000 34 6f d1 bd d7 45 f9 bd 0c 0d fa bc 2e 18 b9 bd
       -0.102262884 -0.12171524 -0.0305238 -0.09037815
000010 74 d6 34 be 5e 05 eb bd d3 9b 50 be 49 da 7e bd
       -0.17659932 -0.11475633 -0.20371942 -0.06221989
000020 f0 f1 0e bd 31 4f 9a bd 59 3b b6 bc 3c 1a c7 3d
       -0.0348987 -0.07534636 -0.022245096 0.09721801
000030 23 9e 18 bd 20 ea bf 38 d8 63 60 bb 2f 34 0d 3d
       -0.037260186 9.151199e-05 -0.00342392 0.034473594
000040 de 84 03 bc 69 16 71 be 3f 50 cd bd 13 61 9e 3d
       -0.0080272835 -0.23543705 -0.10025071 0.07733359
000050 8e f9 77 3b 7d a5 cf bd 38 c8 ac 3b c4 3a 93 b9
       0.0037837955 -0.10138986 0.0052728914 -0.0002808181

BCBlocks.0.0.f2.0.block.1.running_var f4 [24]
000000 60 90 d8 3b 92 25 bd 3c 25 84 e9 3a 16 0d ea 3b
       0.0066090077 0.023089204 0.0017815871 0.0071426732
000010 7e 11 8f 3d 7f a7 90 3d 89 08 b5 3d 29 bb 7a 3d
       0.06985758 0.07063197 0.088395186 0.061213646
000020 f7 a0 73 3d 4e cf 15 3c df 8c 47 3c b8 c8 1c 3d
       0.05947968 0.009143664 0.012179582 0.038277358
000030 24 58 52 3c 39 af a1 31 65 44 4c 3c 68 82 39 3c
       0.012838397 4.705637e-09 0.012467478 0.011322595
000040 ee dd 1e 3c 13 d9 11 3d a2 b8 35 3d 93 f1 9e 3c
       0.009696467 0.03560741 0.044365533 0.019402301
000050 b3 66 3e 3c af 78 41 3d 47 71 a3 3c 54 40 64 34
       0.011621165 0.047234233 0.019951476 2.1257557e-07

BCBlocks.0.0.f2.1.block.0.weight f4 [24, 1, 3, 1]
000000 f4 45 d6 bd 39 50 82 bc 33 ad 2c bd 3a 0f 86 bd
       -0.10462561 -0.015907394 -0.042157363 -0.06545873
000010 1a 4c ac 3e 90 69 9c bd 72 c1 c7 bc ab cb 69 3c
       0.3365181 -0.07637322 -0.024384234 0.01426975
000020 46 41 e1 3d d0 f1 82 bd f2 a6 f3 bd 8f 4f 5e bd
       0.10998778 -0.06393778 -0.11897077 -0.05427509
000030 c7 5d 95 be 44 a5 0d 3f d1 19 06 bd 63 75 9e bd
       -0.2917311 0.553303 -0.032739464 -0.077372335
000040 03 d7 88 3e 14 94 90 3e 93 55 f7 3e ff b3 52 be
       0.2672654 0.28237975 0.48307475 -0.20576476
000050 30 cd 14 be 73 59 d7 bc f1 6d 81 be 7a f3 f2 bd
       -0.14531398 -0.02628777 -0.2527919 -0.11862846
000060 38 f1 36 be fb 22 0f 3f 8e f6 04 be cd 24 10 bd
       -0.17865455 0.5591275 -0.12984678 -0.035191346
000070 e7 d2 f0 bd 5d af ca bd a2 3a 87 bc 13 c3 4f be
       -0.117589764 -0.09896729 -0.01650745 -0.20289259
000080 11 14 1e be 87 9c 20 be 70 cd 0f 3f cf f1 58 be
       -0.15437342 -0.1568471 0.5617285 -0.21185993
000090 71 b6 9f 3e 51 a0 91 be 7d 46 28 be 4e 22 4e b8
       0.3119388 -0.28442624 -0.16433139 -4.9146176e-05
0000a0 ba 90 c3 b8 c0 8e b3 b8 c7 64 93 be 94 71 25 3e
       -9.325282e-05 -8.5619744e-05 -0.28787825 0.16156608
0000b0 ae 3a 8a bb 9f c0 db bd 33 42 57 bd 0d 71 82 bd
       -0.004218421 -0.10730099 -0.052553367 -0.06369219
0000c0 9e 47 7f 3e 79 82 f1 3d 6a 88 99 be 93 12 84 be
       0.24929664 0.11792464 -0.29986888 -0.2579542
0000d0 83 30 03 3f 25 ec 59 bd a1 3a 00 3f 98 91 a1 be
       0.512459 -0.05320372 0.5008946 -0.31556392
0000e0 5c 8b 5d bd 0c 4a 92 bd 8d ba a8 bd 9a 50 8d bd
       -0.05408798 -0.071430296 -0.08238707 -0.06900139
0000f0 ba e8 8d 3e a4 c2 f4 bd b5 fd 14 bd 84 5f af 3e
       0.2771662 -0.11951187 -0.036374766 0.3425256
000100 55 0e 95 be 6e 1c e5 bc a2 56 92 bd 4c 42 1a be
       -0.29112497 -0.027967658 -0.0714543 -0.15064353
000110 4f 9a 75 bd 4d 76 20 ba d9 84 91 39 6d 1b 43 ba
       -0.059961613 -0.0006121144 0.00027755534 -0.00074427464

BCBlocks.0.0.f2.1.block.1.ssnorm.weight f4 [120]
000000 1b 1e b2 3d cc 7a 6d 3d 7c d3 c3 39 b1 ac 01 bd
       0.086971484 0.057978436 0.00037350866 -0.031658832
000010 90 f1 c1 bc 47 b5 d1 3d 65 22 e4 3d 00 66 47 3e
       -0.023674756 0.10239654 0.11139373 0.19472504
000020 29 df 92 3d d5 2c 87 3e ec 4d a5 3b b0 e2 72 bb
       0.07171471 0.26401392 0.0050446894 -0.0037061386
000030 bf 69 9f bb f5 e3 07 3e 5d c1 d3 3b 8b 95 d7 bd
       -0.004864901 0.13270552 0.0064622597 -0.1052657
000040 97 61 c0 bd 0e e3 09 be cd 11 13 be d9 a8 68 be
       -0.09393614 -0.1346552 -0.14362259 -0.2272066
000050 cc ef 42 3e 0f 82 25 3e e8 6c 43 3e ff 7f 24 3e
       0.19036788 0.16162895 0.19084513 0.16064452
000060 94 0e 8c 3e 87 ed 82 3e 05 b1 9a 3e b8 72 6a 3e
       0.27354872 0.25571844 0.3021318 0.22895324
000070 c8 0a 8d 3e de 0e 58 3e 75 18 18 3e e7 ae 21 3e
       0.27547288 0.21099421 0.1485308 0.15789376
000080 a7 b3 5d 3e c2 42 80 3e c8 a0 7e 3e 55 66 85 3e
       0.21650563 0.25050932 0.2486602 0.26054636
000090 9e 43 4f 3e a7 44 3b 3e cb 12 48 3e 1a fe 39 3e
       0.20240638 0.18287908 0.19538419 0.18163338
0000a0 64 55 8c 3e 57 62 aa 3e ac 68 58 3e 19 6f 82 bb
       0.27408898 0.33278152 0.21133679 -0.003980529
0000b0 79 96 1b be 85 f3 1b 3e 45 74 26 3e e2 14 35 be
       -0.1519412 0.15229614 0.16255291 -0.17683747
0000c0 c6 4d 25 bd 1b c3 59 3d 3e 5c 4d 3e 8f ec 8d 3e
       -0.040357374 0.053164583 0.20054719 0.27719542
0000d0 bf 52 0a 3e dd d1 ce 3d 50 f1 ee bd be dc 68 3e
       0.13508128 0.10098622 -0.116671205 0.22740456
0000e0 01 82 96 3e 98 dd 55 3e 3b d6 3f 3e ff 5e 49 3e
       0.2939606 0.20885313 0.18734066 0.19665144
0000f0 ae 6f 73 3e 60 5e 30 3e a1 d2 35 3e f9 ef 65 3e
       0.23773071 0.17223501 0.1775613 0.22454824
000100 b4 a8 a2 3d 3a bd 52 39 d5 e4 3a 39 0d 3d 4f 39
       0.07942334 0.00020097653 0.00017823589 0.00019763802
000110 4d 55 4b 39 d0 1b 49 39 71 b6 21 3e 87 34 4b be
       0.00019391366 0.00019179215 0.15792252 -0.19844256
000120 9a 9e a8 3d ff 66 c9 3d 86 48 06 3d e4 a8 2a 3e
       0.08233376 0.09834098 0.032784007 0.16665989
000130 19 85 1f 3d b6 b8 dc 3d fc c7 df 3d 44 09 17 3e
       0.03894529 0.10777418 0.10926816 0.14749628
000140 0d fa 9f 3e 3f ea d7 3d ae 8a ca 3d 52 bb 77 3d
       0.3124546 0.10542726 0.09889732 0.060481377
000150 c6 2a 6a 3d 70 57 2f 3e 92 28 49 3e ae 1d 68 3e
       0.0571697 0.17123199 0.19644383 0.22667572
000160 10 6f 71 3e 1b f1 49 3e 19 94 5e 3e 29 13 5c 3e
       0.23577523 0.1972088 0.21736182 0.21491684
000170 d6 71 81 3e ad 52 4b 3e 91 5e 49 3e 7e c7 2c 3e
       0.25282162 0.19855757 0.1966498 0.16872975
000180 7a 1e 1f 3e a0 52 e3 3c 3f 6e e0 bc a4 ea c9 3c
       0.1553897 0.02774936 -0.02739632 0.024648018
000190 31 b2 ac 3d c7 34 15 3e 1f 2d 07 3e 2e 82 02 3e
       0.08432425 0.14570914 0.13200806 0.12744972
0001a0 8d da c9 3d 3a 18 44 3e 72 f7 15 3e b2 cb 39 3e
       0.098561384 0.19149867 0.14645174 0.1814411
0001b0 49 67 65 3e 10 24 26 be a0 e0 57 3e 30 65 e8 3d
       0.22402681 -0.16224694 0.21081781 0.11347425
0001c0 ba 3c 09 3e 9e 28 4a 3e ef 66 59 3e 99 3f 28 3a
       0.13402072 0.19742057 0.21230672 0.0006418168
0001d0 95 e2 25 3a 33 36 78 39 b7 5b af 38 88 f0 fd 38
       0.0006328014 0.00023671314 8.3617335e-05 0.000121087825

BCBlocks.0.0.f2.1.block.1.ssnorm.bias f4 [120]
000000 3b d8 95 3d ca 1c a9 3d b0 af 0b bd 49 9b a1 bc
       0.07316633 0.08257444 -0.034103096 -0.019727366
000010 a8 d6 56 3d f8 e9 b1 bc f3 cc 89 3c 0a 76 78 bd
       0.052450806 -0.02171801 0.01682136 -0.060659446
000020 20 91 a6 3a ae 05 69 bb 8a f3 80 bc 9a f1 87 bc
       0.0012708046 -0.0035556364 -0.015741128 -0.016594697
000030 38 66 2c bc 58 1b 8a 3c 3d 26 a9 bc 7a 0b 48 bd
       -0.010522418 0.016858742 -0.020648116 -0.04883907
000040 75 78 f6 bc c0 08 01 bd 83 82 8a bd 1e f7 2f bd
       -0.030086735 -0.031502485 -0.067631744 -0.04296028
000050 bd 3e 94 3d 3a fe c5 bd b8 94 fe bd f7 ce dc bd
       0.07238529 -0.096676305 -0.124307096 -0.10781663
000060 dc 7f a3 bd 0d a4 ad 3d e5 92 00 3e ea 57 b4 3d
       -0.079833716 0.08478556 0.12556036 0.08805831
000070 6b 5b c7 3d 42 e8 01 3e ef fa c9 bd 96 d6 3e 3a
       0.097342335 0.12686256 -0.09862315 0.00072799006
000080 13 7b 34 bd f4 7f 1e be e0 f5 f7 bd f8 10 ff 3d
       -0.044062685 -0.15478498 -0.12107444 0.124544084
000090 dd c6 29 3e eb 30 3d 3e ee 90 47 3e bc 5f 36 3e
       0.16579767 0.18475692 0.1948888 0.17809957
0000a0 21 58 75 bd 4b 9b ac bd 1b c5 cc bd cd 72 a9 bd
       -0.0598985 -0.08428057 -0.099985324 -0.0827385
0000b0 53 b3 92 3d c6 09 7d bc 2c 59 1e 3c c4 8c fa 3d
       0.0716311 -0.015444225 0.009664815 0.1223388
0000c0 1b 55 51 bc a8 38 a5 bc 7a 13 0d 3c 30 94 87 3d
       -0.012776638 -0.020168617 0.008610601 0.066200614
0000d0 f0 b1 a5 3d f4 77 a4 3c 3d ee 44 bb 0a 59 0f 3e
       0.080905795 0.02007673 -0.0030049228 0.1399881
0000e0 ff 3d 5a 3e 63 e0 15 3e 2b 7f 15 3e 31 1a 2b 3e
       0.21312712 0.14636378 0.14599292 0.1670921
0000f0 1b 36 21 3e 14 54 fe 3d 71 e4 0e 3e fc 38 1b 3e
       0.15743296 0.124183804 0.13954331 0.15158457
000100 69 6e 8b 3c a8 64 24 3d bf d8 9d 3d 6d 7c ad bc
       0.017020421 0.040135056 0.07707357 -0.021177495
000110 06 d1 37 3d df ba 0d 3d 2e a8 53 bc c2 71 f5 bd
       0.044877075 0.034602042 -0.012918515 -0.11984588
000120 2b 9b 9f 3c e5 34 cb 3b f6 80 24 3d 8e 26 a7 3d
       0.01948317 0.006201374 0.04016205 0.081616506
000130 44 89 92 bc 12 3a 95 3d 76 c9 ec 3d ab 00 8a 3d
       -0.017887719 0.07286467 0.11561863 0.06738409
000140 7e 6b 8f 3d 3b 5f f3 3d 8c e9 49 3e dd fd e7 3d
       0.070029244 0.11883398 0.19717997 0.113277175
000150 e1 68 00 3e 79 33 e3 3c 48 84 ca bd c9 fa 16 be
       0.12540008 0.027734505 -0.09888512 -0.14744104
000160 15 b6 1c be c1 e4 b4 bd 35 90 e7 bd 6a 2a 97 bb
       -0.15303834 -0.08832694 -0.11306802 -0.0046132104
000170 c7 ae 32 bd 3f b4 2d bd 70 53 4f bd 9f 33 b2 3d
       -0.043623712 -0.042408224 -0.05061668 0.08701252
000180 9f 5e be 3d 78 68 fa 3c a7 50 1e bc 8d ed ab bc
       0.09295391 0.030567393 -0.009662784 -0.020987296
000190 36 7d 9a bc 89 3f 66 bd e3 b1 9f bd e3 aa ee bd
       -0.018858533 -0.056212936 -0.07797601 -0.11653688
0001a0 93 a6 1d bd 8c a1 22 bd 45 9f 98 bd 48 25 ba bd
       -0.038488936 -0.039704844 -0.07452253 -0.09089142
0001b0 aa 75 db bd 4b 37 0e bd 04 35 3d 3e 43 5f 10 3e
       -0.10715802 -0.0347207 0.18477255 0.1409884
0001c0 62 72 71 3d e4 b6 87 3d 2b 5d 9b bc c0 b4 00 bb
       0.058946975 0.066266805 -0.018965324 -0.0019638985
0001d0 24 83 9a 3c 74 16 3d bb d4 4d 1b bb a1 53 f0 ba
       0.01886136 -0.0028852494 -0.0023697512 -0.001833547

BCBlocks.0.0.f2.1.block.1.ssnorm.running_mean f4 [120]
000000 3f 1a 24 bb f9 e2 71 bb fa 66 7c bb fb 87 7e bb
       -0.0025040058 -0.0036908968 -0.0038513527 -0.0038838375
000010 b2 98 68 bb da 26 ef 3b 1d 97 04 3c 9e 41 c0 3b
       -0.0035491404 0.0072983326 0.008092669 0.005867197
000020 c9 6e a3 3b e4 d7 a4 3b aa fc 95 3b 5a 58 a4 3b
       0.004987572 0.005030619 0.004577239 0.005015415
000030 09 5b a2 3b 8e a3 a3 3b c2 45 71 3b 61 45 da bb
       0.0049547 0.0049938625 0.003681526 -0.0066611026
000040 c0 c3 c5 bb 2c 1a c1 bb 78 06 b8 bb 36 c6 ac bb
       -0.006035298 -0.0058930125 -0.0056160055 -0.005272652
000050 e4 9e c5 3c 94 a4 af 3c 68 b2 98 3c 10 75 92 3c
       0.024123617 0.021440782 0.018639758 0.017878085
000060 78 4d c8 3c b3 e0 b8 3d 3b 87 9c 3d e6 e4 86 3d
       0.024451002 0.09027233 0.07642981 0.06586628
000070 2b 43 82 3d 76 d6 4b 3d 92 98 85 ba 9c d0 5f 3c
       0.063604675 0.049765073 -0.0010192564 0.013660576
000080 19 98 19 3c e9 66 07 3c cf 68 38 3c 51 76 a3 bd
       0.009374642 0.008264282 0.011255457 -0.079815514
000090 f9 3e 9d bd 45 10 89 bd e9 2e 83 bd 81 22 62 bd
       -0.07678027 -0.06692556 -0.06405432 -0.055208687
0000a0 cf 20 b9 3c ab 94 8a 3c f9 26 20 3c a9 4d 13 3c
       0.022598652 0.016916594 0.009774917 0.008990684
0000b0 87 be 0f 3c 3e 0c 48 bd 2e b8 47 bd 09 3b 44 bd
       0.008773453 -0.0488398 -0.04875963 -0.047907863
0000c0 c2 95 44 bd 42 6d 33 bd 00 ab 3b bd c3 6b 1c bd
       -0.047994383 -0.04380537 -0.045817375 -0.038188707
0000d0 bb 7d 9c bc 21 34 7a bc 9a a1 4d bc 2d e4 5b 3d
       -0.019102922 -0.015271218 -0.012550736 0.053684402
0000e0 32 ae 36 3d 62 c5 4f 3d 41 86 55 3d 06 11 8c 3d
       0.04459972 0.05072535 0.052129988 0.068391845
0000f0 06 5c 57 bd e8 54 0e bd c2 4e fa bc 6c 4a 04 bd
       -0.052577995 -0.03474894 -0.030555133 -0.032297537
000100 e5 07 93 bc 04 00 00 80 04 00 00 80 04 00 00 80
       -0.0179481 -6e-45 -6e-45 -6e-45
000110 04 00 00 80 04 00 00 80 81 1e b3 bb 64 d0 56 bc
       -6e-45 -6e-45 -0.005466283 -0.013111208
000120 28 9a 3c bc fe 26 36 bc 0a 87 38 bc be bf 35 bc
       -0.011511363 -0.011117695 -0.011262665 -0.011093078
000130 db c5 32 bc d3 1a 41 bc 55 8e 52 bc dd 94 52 bc
       -0.01091143 -0.011786181 -0.012851317 -0.012852875
000140 1b ff db ba 09 f6 65 3c 6f a2 45 3c 4e 10 11 3c
       -0.0016784401 0.01403571 0.012062653 0.008853985
000150 12 bb c4 3c cb d7 04 3d ad e3 e2 3c 18 43 c0 3c
       0.024014983 0.03243236 0.027696455 0.023469493
000160 b1 19 bb 3c df 9e de 3c 71 90 d8 3a 7d c1 0f 3d
       0.022839399 0.027175365 0.0016522539 0.035096634
000170 8d 0f 0b 3d 48 b5 08 3d 78 17 14 3d f7 88 fa bb
       0.033950377 0.03337601 0.036155194 -0.007645722
000180 4b 8d 11 bc 79 96 02 bc c3 1f 00 bc b3 a7 ed bb
       -0.0088837845 -0.007970446 -0.007820073 -0.0072526573
000190 18 32 6c 3b 72 04 15 3c dd 17 06 3c fb 21 e5 3b
       0.00360406 0.009095298 0.0081844 0.006992576
0001a0 ce b1 fe 3b 3d e6 d5 bb 55 0a 38 3b d7 38 14 3b
       0.007772661 -0.0065276907 0.002808233 0.0022616887
0001b0 68 68 f8 3a 55 14 99 3b de a4 1a bd 31 40 2c bd
       0.0018952014 0.004671613 -0.037754886 -0.042053405
0001c0 e2 f8 42 bd d8 01 4f bd 43 57 63 bd 04 00 00 80
       -0.047600634 -0.050538868 -0.05550314 -6e-45
0001d0 04 00 00 80 04 00 00 80 04 00 00 80 04 00 00 80
       -6e-45 -6e-45 -6e-45 -6e-45

BCBlocks.0.0.f2.1.block.1.ssnorm.running_var f4 [120]
000000 10 b3 35 38 3e 50 94 38 dc 64 98 38 df 4b 9f 38
       4.3320528e-05 7.072136e-05 7.266711e-05 7.595843e-05
000010 e6 e2 95 38 7f 04 43 3a 0a ca 52 3a 16 9f 18 3a
       7.147137e-05 0.00074393296 0.00080409704 0.00058220455
000020 cd 92 f5 39 15 90 09 3a 6b 21 01 38 85 b6 02 38
       0.00046839417 0.0005247605 3.078712e-05 3.11644e-05
000030 71 2c 10 38 a7 55 17 38 fd 77 04 38 da 9c ad 39
       3.4373665e-05 3.6080975e-05 3.1583e-05 0.00033113995
000040 2b 26 cf 39 ed 75 d4 39 b3 dd d8 39 6b 58 d8 39
       0.00039510554 0.00040523653 0.0004136391 0.00041264607
000050 75 45 4c 3b 9a 7d 55 3b 05 f5 2a 3b 8a ca 0b 3b
       0.003116933 0.0032576085 0.0026085984 0.002133044
000060 2a 0a 13 3b 5d c5 0a 3c dd bd f6 3b 5e f4 ae 3b
       0.0022436478 0.008469907 0.0075299577 0.0053391894
000070 01 72 98 3b fd 03 78 3b a6 3f 55 3b 76 ed 4f 3b
       0.004652262 0.0037844174 0.0032539158 0.003172723
000080 d4 a1 0c 3b 4b d3 d3 3a 2f 8a 9d 3a 9a 46 0c 3c
       0.0021458762 0.0016160993 0.0012019331 0.008561755
000090 ed 07 24 3c 7a f6 0b 3c 7c dc 07 3c ee 45 f6 3b
       0.010011655 0.008542651 0.008292314 0.0075156605
0000a0 4b 57 48 3b cd ef 17 3b 89 4d 95 3a f9 96 57 3a
       0.0030569609 0.0023183704 0.0011390905 0.0008224096
0000b0 36 0f 29 3a b1 33 6e 39 15 21 6c 39 97 bd 63 39
       0.0006449105 0.00022716705 0.00022519038 0.00021719035
0000c0 f6 db 6a 39 ce 77 8c 39 56 7d 0f 3c e0 9e 0a 3c
       0.00022397921 0.00026792142 0.00875791 0.00846073
0000d0 de 79 40 3b 9e 85 ed 3a aa 05 ac 3a fe 14 8e 3b
       0.0029369514 0.0018121486 0.0013124247 0.0043359986
0000e0 1c e0 2a 3b a8 26 33 3b 54 20 41 3b 90 e6 89 3b
       0.002607352 0.0027336273 0.0029468732 0.0042083934
0000f0 49 9c b6 3b f0 c5 8a 3b 4f 6e 77 3b a4 e9 7c 3b
       0.00557283 0.004235022 0.0037754958 0.003859141
000100 0b fe 70 3b 04 00 00 00 04 00 00 00 04 00 00 00
       0.0036772515 6e-45 6e-45 6e-45
000110 04 00 00 00 04 00 00 00 8b d2 8d 3a 51 9f 69 3a
       6e-45 6e-45 0.0010820193 0.00089119846
000120 ca b6 31 3a bc 39 24 3a 3c 0c 11 3a 14 35 ed 39
       0.0006779252 0.00062647066 0.0005533134 0.0004524371
000130 72 83 02 3a 42 60 07 3a 93 83 16 3a b2 ce 0b 3a
       0.00049786933 0.0005164185 0.0005741652 0.0005333229
000140 3a 0b 50 3b 4e 8a 46 3b df 81 33 3b 6b 2d 27 3b
       0.0031744973 0.0030294838 0.0027390642 0.002550925
000150 8a 1a 18 3b f9 02 6e 3b 6e 42 60 3b 59 5c 2c 3b
       0.0023209178 0.003631769 0.0034219283 0.002630016
000160 54 cc 0f 3b 57 8a 02 3b f0 30 8d 3b e6 f5 85 3a
       0.0021941857 0.0019918883 0.0043088123 0.0010220378
000170 ac d8 63 3a fe 29 38 3a fe e0 2b 3a d7 95 11 3a
       0.00086916494 0.00070253003 0.0006556659 0.0005553639
000180 3e a6 4e 3a 2e 0e 49 3a bb 83 56 3a ab 5f 4a 3a
       0.00078830484 0.00076696544 0.00081830815 0.0007719944
000190 14 97 57 3a 9d da 66 3a 1d fa 3d 3a 59 d2 20 3a
       0.00082241115 0.00088063796 0.00072470476 0.000613486
0001a0 cb a5 0c 3a 91 e3 f1 3a a7 05 b5 3a 67 6d 90 3a
       0.0005365281 0.0018454661 0.0013810889 0.0011018933
0001b0 51 ce 79 3a 28 82 3f 3a c9 3d 1d 3b 92 b7 2d 3b
       0.000952934 0.00073054666 0.0023993126 0.0026507122
0001c0 ad f4 38 3b a0 75 4b 3b 4a 64 51 3b 04 00 00 00
       0.002822201 0.0031045452 0.0031950646 6e-45
0001d0 04 00 00 00 04 00 00 00 04 00 00 00 04 00 00 00
       6e-45 6e-45 6e-45 6e-45

BCBlocks.0.0.f1.0.block.0.weight f4 [24, 1, 1, 3]
000000 22 ad 9d 3c 53 f7 ea 3c 8f 39 09 3d ba 11 a5 be
       0.019247595 0.028682387 0.033502158 -0.32240087
000010 f5 a8 04 3e ba be 1e 3e 95 b2 2d 38 7f 29 dd b8
       0.12955077 0.15502444 4.141273e-05 -0.000105458304
000020 0c c2 e9 b8 e7 9f f8 3d 87 37 f7 bc 50 8a 06 be
       -0.0001114645 0.12139874 -0.030177845 -0.131387
000030 a7 38 95 bd b2 a9 51 3e f1 96 bc 3c dc 92 ed bd
       -0.07286196 0.2047489 0.023021193 -0.11600277
000040 4a ef 7f bd 86 f1 d8 bc 86 bb 81 bd f8 b2 c1 bc
       -0.062484063 -0.026482355 -0.063345954 -0.02364491
000050 86 f4 77 bc 34 f7 fc bd 2f 38 ee bb 39 85 79 3d
       -0.0151339825 -0.12351838 -0.007269881 0.060918067
000060 9b 42 c2 b7 99 c4 c5 b7 c5 63 a7 38 3a 07 f3 3d
       -2.3157618e-05 -2.3575778e-05 7.981764e-05 0.11866613
000070 21 9f ad bc 34 81 c0 bd e6 4b 9b 3c f7 1f 0f bd
       -0.021194043 -0.093996435 0.01895709 -0.034942593
000080 9b 43 b0 bd 7c df c7 bc 7e 54 d1 3d 9e 07 28 3d
       -0.08606645 -0.024398558 0.10221194 0.04102289
000090 65 b7 6d 38 ba 3a 2d b8 d9 3a 64 38 c6 30 bf 38
       5.6676003e-05 -4.1301108e-05 5.4414242e-05 9.1166745e-05
0000a0 7e be 10 b8 14 0b fa b8 ea 33 1f 3e b2 6f c8 bd
       -3.4509685e-05 -0.000119229924 0.15547147 -0.09786929
0000b0 3a 2a af bd 32 a9 49 bb 44 7b c2 bd 76 3b 85 b8
       -0.08552976 -0.0030771014 -0.09496167 -6.35301e-05
0000c0 5b 36 5e bd 2f 4b bb bd 4b c1 5c bd 54 55 ba 3c
       -0.054251056 -0.091451995 -0.053895276 0.022745766
0000d0 34 b2 d4 3d 13 a3 90 3c 78 d9 3a bc 8a 0b f8 bc
       0.10385552 0.017655885 -0.011404388 -0.03027894
0000e0 c1 45 af bc 73 f1 f9 3b 78 cf 52 bd 88 6d 62 bd
       -0.021395566 0.00762766 -0.05146739 -0.05528024
0000f0 2e 30 92 bb 92 ab b4 bb 94 e9 75 bb 8f f0 23 3d
       -0.00446131 -0.005513617 -0.0037523257 0.040024336
000100 c4 5a 3d 3d e8 95 e5 3c 0e 57 d3 3b 89 be b6 3c
       0.04622914 0.028025582 0.0064495867 0.022307651
000110 87 b8 0c 3c 87 7c f4 b9 f3 bb a7 b9 61 ca 16 39
       0.008588917 -0.00046632087 -0.00031992755 0.00014380507

BCBlocks.0.0.f1.0.block.1.weight f4 [24]
000000 5f 62 5f bd d4 28 ca 3e da d6 cb 38 03 1d 52 3e
       -0.054537173 0.39484274 9.7198135e-05 0.2051888
000010 29 68 49 3e dd f7 73 3e 8a 62 bf 3d 3a d6 3a 3e
       0.1966864 0.23825021 0.09344967 0.18245783
000020 81 03 06 b8 df 73 16 be 80 0c 08 3e 32 b9 6a 3e
       -3.1951353e-05 -0.14692639 0.13286018 0.22922209
000030 2e a0 18 38 e1 76 0a 38 73 20 2d 3e cf 2d 14 3e
       3.6388803e-05 3.301248e-05 0.1690691 0.144706
000040 34 b1 2e 3e f6 18 45 3e 09 d7 7d 3d ae 67 e2 3d
       0.17059785 0.19247803 0.06197265 0.110549316
000050 39 cf 0b 3c b7 a7 9d 3d 0c e4 37 3d 53 6b c0 39
       0.008533292 0.07698005 0.044895217 0.00036701057

BCBlocks.0.0.f1.0.block.1.bias f4 [24]
000000 6f 26 0e 3c 36 fc e2 3c a2 9a ee b9 c8 83 f5 3c
       0.0086761555 0.027708154 -0.00045510108 0.029970065
000010 af ad 73 bd 09 74 24 3d fe ca 23 3b b9 d2 0e 3d
       -0.05949181 0.040149722 0.002499282 0.03486893
000020 a7 d0 06 ba 13 92 ea bb ae fb 14 bd ce bf db ba
       -0.0005142786 -0.0071585267 -0.036372833 -0.0016765536
000030 a8 6c d5 b9 a5 88 18 ba aa 71 0d 3d f3 43 30 3d
       -0.0004070748 -0.00058187015 0.034532227 0.04303355
000040 1b 1c 9c 3b 06 27 cb bb 4e 7e e3 3c 00 70 46 3c
       0.0047640926 -0.0061997203 0.027770188 0.012111664
000050 45 2e 28 3b d8 c5 83 3c 9f 22 68 bc 54 42 aa b8
       0.0025662344 0.01608555 -0.014168411 -8.118586e-05

BCBlocks.0.0.f1.0.block.1.running_mean f4 [24]
000000 5d bf 24 3b e6 a9 93 b9 2b b4 d9 35 73 83 10 3b
       0.0025138475 -0.0002816461 1.6220196e-06 0.0022051006
000010 bb 51 2a bc 9a 26 af bc 4f 8f 0a 3c 53 60 3a bc
       -0.010395463 -0.021380711 0.008457019 -0.011375505
000020 79 96 dc b5 ad c4 54 38 a5 9c 63 bb de 6f 9d 3c
       -1.6435071e-06 5.0727907e-05 -0.0034730819 0.019218381
000030 f3 52 08 37 e5 be 12 b6 f7 5c d2 39 5f 6c cd bb
       8.125545e-06 -2.186681e-06 0.00040123585 -0.0062690224
000040 fa 26 cb bc 15 3c 59 bc b8 b6 4f 3b e1 62 71 bb
       -0.024798859 -0.013258954 0.0031694602 -0.0036832618
000050 8f 29 5c 3a 60 2b 01 bc 40 0f 52 3b 86 51 a8 b5
       0.00083985267 -0.007883877 0.0032052547 -1.2540702e-06

BCBlocks.0.0.f1.0.block.1.running_var f4 [24]
000000 66 33 98 35 bd b7 8c 3a 87 49 c6 2c f9 fb c3 39
       1.1339841e-06 0.0010735911 5.6356616e-12 0.00037381033
000010 b4 a7 60 39 7a 33 a8 3a 9b ee 8f 37 f8 0b e4 39
       0.00021424779 0.0012832724 1.7158038e-05 0.00043496466
000020 5e 80 53 2d 64 6c aa 37 a1 18 f6 38 73 4f 81 39
       1.2022465e-11 2.0316053e-05 0.000117347816 0.00024663992
000030 2f f9 63 2c 30 ac 9a 2a 55 78 29 37 12 11 c9 38
       3.2396965e-12 2.7475374e-13 1.0101202e-05 9.5876065e-05
000040 40 d2 51 37 76 1a d6 38 9f 87 9d 37 da 87 0a 38
       1.2506323e-05 0.00010209244 1.8779012e-05 3.3028286e-05
000050 2e 0b 44 34 57 59 6e 36 d6 3b 0b 38 37 c6 22 28
       1.825799e-07 3.5516766e-06 3.319591e-05 9.0357875e-15

BCBlocks.0.0.f1.1.weight f4 [24, 24, 1, 1]
000000 46 fe 2d 3c 07 0a a5 3d 61 d5 01 b8 09 3b 68 bc
       0.010619706 0.08058553 -3.095472e-05 -0.014174231
000010 1e e7 e7 bd de 53 96 bc 7e ab c8 3b 7f f3 c3 3b
       -0.11323379 -0.018350538 0.006123959 0.0059799547
000020 46 e2 be b8 82 14 31 3d ad f6 cd bb fa 9c 8f 3d
       -9.102053e-05 0.04323245 -0.0062855096 0.07012363
000030 c8 bd 91 b8 0f 33 81 b8 a6 0a 27 3d 19 cb 4a 3d
       -6.949488e-05 -6.16071e-05 0.04078164 0.049510095
000040 69 32 a3 bd f4 0f 85 3c a7 f2 5c 3c 2d a4 08 3d
       -0.07968599 0.016242959 0.013485587 0.033359695
000050 4b d1 83 39 b2 05 4e 3b 7c 31 68 bc 1f 9a 86 b8
       0.00025142203 0.00314365 -0.014171954 -6.418325e-05
000060 8b 8f c5 bc e5 69 53 be 71 a0 5c 37 9a ef c8 bb
       -0.024116298 -0.20645864 1.31503775e-05 -0.0061320784
000070 90 cb 38 3c 00 49 7f bd b9 e7 80 3c 3b d5 5f bd
       0.011279002 -0.062325478 0.015735494 -0.05464671
000080 78 a3 7e b7 e9 b4 75 bd 78 51 f5 3c 9e 7c 9b bd
       -1.517764e-05 -0.059986982 0.029946074 -0.07592128
000090 8e b3 ea b6 42 34 22 b8 de 69 2c 3d b4 7b 6b bd
       -6.9946464e-06 -3.867248e-05 0.04209315 -0.05749102
0000a0 ef 80 22 3d 5c 0d 12 bd 4d c1 92 bc 0f b9 8f bd
       0.039673742 -0.03565727 -0.017914439 -0.07017719
0000b0 6d 90 53 ba a3 8b f2 3b 95 62 e6 b8 95 1c 59 37
       -0.00080705323 0.0074019 -0.00010985617 1.2940863e-05
0000c0 e6 2c 2a bb 88 01 27 3a ae 00 44 b8 14 90 8e bc
       -0.0025966703 0.00063707726 -4.6730675e-05 -0.017402686
0000d0 5d 84 f4 3b 5d d4 ec bc 86 f5 43 bc fb 4f 4e 3c
       0.007462068 -0.028909856 -0.011960393 0.012592311
0000e0 25 45 e6 37 e1 97 4f bb d6 b9 34 3d 58 ae 0f 3c
       2.7450335e-05 -0.003167622 0.04412254 0.008769594
0000f0 31 0f 90 b7 04 37 93 37 d2 ae 3a 3b 06 13 6a 3c
       -1.7173212e-05 1.7549384e-05 0.0028485549 0.014286762
000100 c9 5a e6 3b 55 72 d7 3c 63 ac 8d bb d6 58 f4 ba
       0.0070298654 0.026299635 -0.0043235286 -0.0018642198
000110 db 04 3d ba c5 73 c6 3b 98 2d 83 bb 0b cf 1e b9
       -0.00072105014 0.0060562813 -0.004003238 -0.00015145184
000120 b4 34 b8 3c 15 82 20 3e df ae 1f 39 07 61 91 bd
       0.022486068 0.15674622 0.00015228566 -0.070985846
000130 fd 97 d8 3d 51 77 45 bd 56 0b a1 bc 2f 45 1b 3c
       0.105758645 -0.048209492 -0.019658726 0.009476944
000140 3f 65 25 39 9f 0d 83 bd 11 48 f9 3b b5 9a 09 bd
       0.00015773343 -0.063990824 0.007607468 -0.033594806
000150 e1 8a de 38 d2 22 6e 39 87 d0 23 3c ea d7 90 bd
       0.00010611653 0.0002271042 0.009998447 -0.07072432
000160 3c 01 b3 bd 93 9b 79 bd fe 13 1a bc ca 74 fd 3c
       -0.0874047 -0.060939383 -0.009404181 0.030939478
000170 3f d2 65 39 2a 7e a7 37 fa 6f 31 3c 83 75 cb 38
       0.00021917465 1.9966701e-05 0.01082992 9.7016826e-05
000180 a0 14 73 bb 68 83 a7 3d 72 5d 14 b9 74 bf 63 bc
       -0.003709115 0.08179361 -0.00014149191 -0.013900626
000190 44 e9 53 be 3f 5f 3b 3d 2f 93 8a bb 9a 7f 09 bc
       -0.20694453 0.04574513 -0.0042289714 -0.008392239
0001a0 52 57 2b b9 3e d3 8a 3d e0 94 51 bc e1 0a bf bc
       -0.0001634036 0.067785725 -0.012791842 -0.023320617
0001b0 ca 05 dc b8 72 77 48 b9 a2 0f ea bc 31 74 bf bb
       -0.00010491496 -0.00019117983 -0.028571907 -0.0058427085
0001c0 dd 39 3c 3a 56 a2 7a bd 68 ba e4 3c 83 84 56 bc
       0.0007180253 -0.061189972 0.027920917 -0.013093117
0001d0 7c f6 89 3b 4f c5 5d 3c f4 01 d2 bb 70 ae 00 38
       0.0042102914 0.013535812 -0.0064089242 3.0680036e-05
0001e0 08 ed 0f 3d cc 41 b4 3d 73 5e e7 36 81 81 dd bb
       0.03513816 0.08801612 6.895332e-06 -0.006759823
0001f0 d7 b6 f8 b9 6f eb b7 3d 29 99 c4 3c db 09 2f be
       -0.00047438472 0.08980452 0.023998814 -0.17093603
000200 fe ad b5 b5 3c 09 b0 bb b1 4b b5 bc fc 9f 12 bd
       -1.3536189e-06 -0.0053721946 -0.022130819 -0.035797104
000210 77 cd a1 b7 9a dd 1f b8 ac 92 7b bd 01 f3 6d bc
       -1.9288373e-05 -3.8114937e-05 -0.061419174 -0.014523269
000220 4d 85 a1 ba eb 31 09 be ab cd a8 3c 2d db 22 3d
       -0.0012323052 -0.13397948 0.020605883 0.039759804
000230 09 51 98 3a 0a e9 07 bd 91 65 38 bc 41 54 3f b8
       0.001162083 -0.033181228 -0.011254684 -4.5616416e-05
000240 1a b8 9a 3c bb f0 6f be 50 9e 8e b9 57 a7 38 3c
       0.018886615 -0.23431675 -0.00027202303 0.011270366
000250 1f b1 19 bd b0 29 4c 3b a4 b7 77 3d 3f 36 8d bb
       -0.03752243 0.0031152777 0.060477868 -0.004309445
000260 64 8e 92 b9 d6 a6 0a be 27 89 24 bd c2 f5 84 3b
       -0.0002795338 -0.13540205 -0.04016986 0.004057617
000270 d3 2f 7a b9 07 d5 93 b9 bf 08 fa 3d 1b 10 42 3d
       -0.00023859674 -0.00028196743 0.122086994 0.04737864
000280 26 33 2f 3d 74 80 9e bd 53 17 98 3c 7b e3 95 3d
       0.04277339 -0.07739344 0.01856581 0.07318779
000290 58 0a 0a 3b 57 ca 00 bc 83 7b a3 bc 52 30 01 b9
       0.0021063294 -0.007860742 -0.019956356 -0.000123204
0002a0 98 83 c3 3a a4 4b 7a be d9 d9 fb b7 08 7e 2e 3e
       0.0014916537 -0.24442917 -3.0022975e-05 0.17040265
0002b0 96 5a ce bd 98 cc 82 bd 5d 81 63 3d 17 33 55 bd
       -0.10075872 -0.063866794 0.055543292 -0.052050676
0002c0 77 7d 3b b8 66 07 65 bd 07 19 37 3d b0 aa bc 3c
       -4.4701123e-05 -0.05591526 0.044701602 0.023030609
0002d0 41 fa cb b7 0f 44 4c b8 fe 50 56 bd 65 a8 a0 ba
       -2.431602e-05 -4.8700775e-05 -0.052323334 -0.0012257217
0002e0 4f 9e 10 bc bd 59 1c bd be a9 13 3d 72 7f 46 bc
       -0.008826806 -0.03817152 0.03605055 -0.012115346
0002f0 32 7e 70 3b 3d de 25 bd 7b a1 22 bc c2 2e 13 b9
       0.0036696312 -0.040495146 -0.009926195 -0.00014036431
000300 65 dc b8 3b 25 77 0c be d7 a5 1f 39 4e b7 05 3d
       0.0056415075 -0.13717325 0.00015225202 0.032645516
000310 af 97 d8 bc 34 75 a2 3d 98 39 d6 3c 17 a8 a0 3c
       -0.026439516 0.07932511 0.02615051 0.019611401
000320 73 b1 49 39 e5 f1 46 bc 69 40 dd bd 12 64 1d bb
       0.00019234959 -0.012142633 -0.10803301 -0.0024015945
000330 b0 f3 34 39 a3 00 46 39 7a 7d ce bb 6c 26 45 bc
       0.00017256918 0.00018882989 -0.006301579 -0.012033086
000340 1b ef 50 be 02 5f 59 bd 73 2b 12 ba 65 21 3d 3c
       -0.20403711 -0.053069122 -0.00055759324 0.011543606
000350 ac cb 98 3a 3a 90 04 3b a0 57 57 3c f5 ed 23 38
       0.0011657379 0.0020227567 0.01314345 3.9083843e-05
000360 35 68 2b 3b ec 62 d9 3d aa ec 49 39 90 46 9a bd
       0.0026154642 0.10614571 0.00019257018 -0.0753299
000370 e2 3c f4 3d bc 1f f3 bb 13 34 27 ba d4 e5 b9 3b
       0.11925675 -0.0074195545 -0.0006378304 0.0056731496
000380 4c 7d 1a 39 59 a4 31 3d 85 9f 08 3d 8e 42 8c bd
       0.00014733261 0.043369625 0.033355255 -0.06848632
000390 a4 88 e0 38 96 56 3a 39 4c fc 9f bc 70 08 c1 bc
       0.00010706604 0.00017770598 -0.019529484 -0.023563594
0003a0 b9 ae df 3c bd 5d 2b 3d 90 95 67 ba 6e 95 12 3c
       0.027304994 0.041837443 -0.0008834237 0.00894676
0003b0 88 d9 82 3a 49 3b 0e 3c 93 e2 f2 3b d8 89 11 b9
       0.0009983042 0.008681127 0.0074122637 -0.00013879628
0003c0 49 ad 3e b8 b9 2b 1d 3d 87 3d de 38 a4 3b 05 3d
       -4.5460914e-05 0.038371775 0.00010597245 0.03252758
0003d0 41 62 d6 3c 83 19 c5 bc 9b 72 22 bb 25 5c 84 3c
       0.026169898 -0.024060016 -0.0024787548 0.01615722
0003e0 2b 9d 4b 38 cf e2 41 bb fe 19 0c bd 22 b2 f3 bc
       4.8545346e-05 -0.0029584651 -0.034204476 -0.029748026
0003f0 a7 d5 78 38 5d 72 a4 38 06 8f 8d 3c 98 57 93 bc
       5.9326787e-05 7.841431e-05 0.017280113 -0.017986104
