model.pth (torch, 323271 bytes, 165 tensors)

cnn_head.0.weight f4 [48, 1, 5, 5]
-0.09256935 -0.08218265 0.17683904 -0.016096957 0.0013603744 -0.27003112 0.06465582 0.41336617
-0.08927436 -0.12416804 -0.33617526 0.14520365 0.71066463 -0.07409713 -0.28818494 0.030623032
0.0010116907 0.11201362 -0.18813702 -0.051512215 -0.04067551 -0.017266562 0.09798302 -0.05689359
0.05436835 5.369867e-09 4.0608494e-09 7.885539e-10 3.870622e-09 2.8174947e-09 1.0040158e-08 7.4099766e-09
3.374059e-09 7.565777e-09 5.2378475e-09 9.1907336e-11 -2.3811704e-09 -7.783866e-09 -6.8166384e-10 -5.830222e-09
6.860528e-09 6.361583e-09 2.8415188e-09 9.632544e-09 6.5879835e-09 -3.0596192e-09 -3.094628e-09 -5.586044e-09
3.012242e-09 1.903268e-09 0.056416944 -0.03620048 0.043169484 0.0048226896 -0.03301206 0.30560488
0.052873477 0.0885069 -0.098706335 -0.3238854 0.63610226 0.24110529 0.04119337 -0.18852913
-0.5524098 0.47032067 0.16174138 -0.033363607 -0.175361 -0.41026697 0.09411874 0.08020995
0.13126844 -0.019459896 -0.066107266 -0.14786127 -0.023257418 0.13941914 0.07763702 0.003114868
-0.07427782 0.035781022 0.1115295 0.052149553 -0.005473408 -0.10305086 0.06251642 0.022934496
0.0029716543 -0.028076751 -0.21551482 0.024104375 -0.025245303 -0.034138825 -0.002253292 -0.16384993
0.026923502 0.069894016 -0.01157516 -0.0066362815 -9.5034564e-11 -1.2264066e-10 -1.9551595e-10 -2.5306368e-10
-2.2612372e-10 1.5970575e-10 9.186591e-11 4.376787e-11 -1.6027938e-11 4.704658e-11 5.1954707e-10 4.4957404e-10
3.5377234e-10 2.8881136e-10 3.1044575e-10 2.8856095e-10 2.6435737e-10 1.3088632e-10 -2.8389315e-11 -8.9235314e-11
1.2073084e-10 1.1857862e-10 5.3498768e-11 5.0666485e-12 1.3157685e-11 -2.5584253e-11 -2.4856226e-11 -2.099569e-11
-1.7572614e-11 -2.3629498e-11 1.5134125e-11 1.5768886e-11 2.0719546e-11 1.6990144e-11 1.5222032e-11 5.2023864e-11
3.8242035e-11 2.8741322e-11 1.4289471e-11 1.1842678e-11 4.6910812e-11 3.2733025e-11 2.335957e-11 1.7513801e-11
1.0650013e-11 4.102366e-12 -5.508599e-12 -1.1828677e-11 -2.0650514e-11 -2.6448625e-11 0.017794771 0.09955182
0.104158126 0.07011263 0.05523007 0.00581745 0.09565802 0.10147488 0.0015792021 -0.034676142
-0.03426844 0.06697613 0.13936341 0.013061528 0.11021899 0.051561646 0.07704428 0.10419666
0.030667473 0.016853582 -0.049859155 -0.070174575 -0.049936958 -0.041922357 -0.1833948 -2.5287452e-13
-1.3208269e-13 5.7047005e-14 -3.895339e-15 -7.199139e-14 -1.8392934e-13 -1.553019e-13 -1.8445652e-13 -4.724271e-13
-2.703749e-13 -3.031887e-13 -1.2638283e-13 -1.0316774e-13 -3.73887e-13 -3.1978052e-13 -7.5143765e-13 -1.6351609e-13
4.767567e-13 2.7609637e-13 5.8741884e-14 -6.3163304e-13 -2.372786e-13 3.7324543e-13 3.2152954e-14 -2.5753228e-13
6.538204e-13 4.389205e-13 2.4044186e-13 4.0656557e-13 6.758579e-13 -4.899009e-13 -6.093839e-13 -1.2944014e-12
-1.3036048e-12 -9.305368e-13 1.2220013e-12 1.0117161e-12 6.081533e-13 5.5475926e-13 8.8581594e-13 6.908584e-13
3.4113947e-13 -5.4339796e-14 -1.05478845e-14 2.8605354e-13 3.4804906e-13 1.7533765e-13 -1.6047073e-13 2.0284845e-13
6.0130606e-13 -2.7956835e-11 3.0141067e-10 1.185341e-09 1.0870025e-09 1.4154099e-09 -7.6543424e-11 3.3852468e-10
1.3407825e-09 1.0945278e-09 1.424361e-09 -8.1949836e-10 -3.21381e-10 -7.60477e-11 2.240974e-11 7.7149687e-10
-1.8557297e-09 -8.7162455e-10 -9.601253e-10 -4.3342555e-10 -3.662843e-10 -7.551894e-10 -6.4210165e-11 -3.0300387e-10
-1.334778e-10 -2.8715208e-10 -1.1200013e-11 4.1236975e-12 1.866086e-11 -4.3915973e-12 -2.4900361e-11 -2.6791507e-11
00000000: 0095 bdbd 614f a8bd 4b15 353e c4dd 83bc
00000010: 974e b23a 8541 8abe 456a 843d bba4 d33e
00000020: 7ad5 b6bd d04b febd 2a1f acbe 44b0 143e
00000030: 1eee 353f 3cc0 97bd fa8c 93be 27dd fa3c
00000040: b59a 843a 6667 e53d fea6 40be 79fe 52bd
00000050: 5d9b 26bd 9b72 8dbc 52ab c83d 4109 69bd
00000060: 59b1 5e3d da81 b831 9c87 8b31 8cc1 5830
00000070: 5afe 8431 e49d 4131 157d 2c32 d89a fe31
00000080: 13dd 6731 a4fa 0132 98f8 b331 3b1b ca2e
00000090: fea1 23b1 ceb9 05b2 d45f 3bb0 2d53 c8b1
000000a0: d8b9 eb31 1395 da31 8744 4331 607c 2532
000000b0: 845c e231 6441 52b1 46a9 54b1 5def bfb1
000000c0: ecff 4e31 a5ca 0231 7415 673d f446 14bd
000000d0: 7cd2 303d a707 9e3b a737 07bd 3e78 9c3e
000000e0: dc91 583d 1b43 b53d 8c26 cabd 4fd4 a5be
000000f0: 99d7 223f 4ee4 763e 61ba 283d c80d 41be
00000100: bb6a 0dbf dfcd f03e 889f 253e 47a8 08bd
00000110: d591 33be 830e d2be 53c1 c03d 1d45 a43d
00000120: 3c6b 063e 5c6a 9fbc 3f63 87bd f268 17be
00000130: 5786 bebc e4c3 0e3e 2800 9f3d d022 4c3b
00000140: f81e 98bd 1f8f 123d 9469 e43d c59a 553d
00000150: 465a b3bb 540c d3bd 9c08 803d 20e1 bb3c
00000160: 16c0 423b 3701 e6bc ebaf 5cbe 8a76 c53c
00000170: 3dcf cebc 27d5 0bbd f7ab 13bb 47c8 27be
00000180: ad8e dc3c 9824 8f3d bda5 3dbc 2a75 d9bb
00000190: b4fb d0ae 47d8 06af d9f8 56af 8c1f 8baf
000001a0: 2ba0 78af 2c99 2f2f e903 ca2e 3e7e 402e
000001b0: b5fb 8cad bde9 4e2e e0cf 0e30 ec27 f72f
000001c0: 087d c22f 96c6 9e2f 5bab aa2f 58a3 9e2f
000001d0: fe54 912f 39e9 0f2f 0eb7 f9ad 043b c4ae
000001e0: b6be 042f ea60 022f 424a 6b2e 5044 b22c
000001f0: f278 672d 9e0a e1ad 3fa3 daad 17ae b8ad
00000200: 0292 9aad e6d8 cfad 051f 852d 60b4 8a2d
00000210: 4540 b62d 6772 952d f8e4 852d aacd 642e
00000220: b430 282e b4cf fc2d 0e62 7b2d ae56 502d
00000230: e150 4e2e 1cf6 0f2e 1379 cd2d 930d 9a2d
00000240: 655b 3b2d d456 902c 0cd1 c1ac a017 50ad
00000250: d3a4 b5ad 02a5 e8ad 57c6 913c d3e1 cb3d
00000260: db50 d53d 3697 8f3d ed38 623d 4fa0 be3b
00000270: 5ae8 c33d 10d2 cf3d 3bfd ce3a 9208 0ebd
00000280: 105d 0cbd c82a 893d 48b5 0e3e 0500 563c
00000290: 7eba e13d 4e32 533d 64c9 9d3d 0f65 d53d
000002a0: 5a3a fb3c 8610 8a3c 1d39 4cbd b0b7 8fbd
000002b0: b28a 4cbd c7b6 2bbd d9cb 3bbe 0f5b 8eaa
000002c0: 3eb6 14aa 5c75 8029 2958 8ca7 361c a2a9
000002d0: 0616 4faa bada 2eaa f9ad 4faa f6f9 04ab
000002e0: 2135 98aa 19ae aaaa 5f4b 0eaa 2750 e8a9
000002f0: cc7a d2aa 3b05 b4aa ca82 53ab 4e1a 38aa
00000300: f131 062b ae6d 9b2a 6446 8429 f5c9 31ab
00000310: 7393 85aa 561e d22a d5cd 1029 50fa 90aa
00000320: ba08 382b 1c17 f72a 535b 872a 46e0 e42a
00000330: b23c 3e2b 15e5 09ab bd86 2bab ba2b b6ab
00000340: 5077 b7ab 1ff6 82ab 3dfb ab2b ea62 8e2b
00000350: 102e 2b2b 9e26 1c2b c455 792b 9875 422b
00000360: 610b c02a 85b9 74a9 8803 3ea8 a908 a12a
00000370: 28ef c32a a369 452a 8aac 34aa 1663 642a
00000380: ab40 292b 32e9 f5ad c8b3 a52f 7be9 a230
00000390: 8065 9530 4f88 c230 1e52 a8ae 1d1b ba2f
000003a0: 9746 b830 466e 9630 3fc3 c330 1243 61b0
000003b0: 5bae b0af 0d3b a7ae 401e c52d 4411 5430
000003c0: af0c ffb0 2097 6fb0 68f5 83b0 3947 eeaf
000003d0: ef5d c9af bb95 4fb0 1c33 8dae 0194 a6af
000003e0: a9c2 12af 10dd 9daf 6008 45ad f716 912c
000003f0: 8524 a42d fe83 9aac a106 dbad 1ca9 ebad

cnn_head.1.weight f4 [48]
0.38066545 2.8881735e-09 0.3581813 0.2624131 2.0269644e-10 1.0330933e-11 0.24957085 1.6868661e-13
3.1028026e-13 2.3446876e-09 7.2402874e-12 1.4444759e-13 0.2589623 0.26687822 3.7694625e-13 9.350502e-13
1.1457666e-09 2.0375822e-13 0.45911577 8.243142e-14 4.0288758e-10 0.2990114 0.28724957 1.9559408e-08
-0.2422084 0.17735896 1.2300131e-13 2.3045984e-12 -3.4204143e-11 0.29046085 0.22410195 0.31536192
7.9375465e-11 1.8728842e-10 0.3923383 8.922181e-14 0.20015642 9.152054e-12 0.3429024 4.3599108e-10
0.19323362 1.5320831e-13 1.9008352e-11 1.765685e-13 7.678758e-14 6.621751e-13 6.1544053e-13 1.1623207e-11
00000000: 95e6 c23e 4979 4631 8a63 b73e 035b 863e
00000010: fadd 5e2f 63be 352d 808f 7f3e 9bec 3d2a
00000020: 19ac ae2a 2e20 2131 b6be fe2c 2fa2 222a
00000030: b596 843e 43a4 883e ae33 d42a bc98 832b
00000040: 1479 9d30 4f69 652a 3911 eb3e 7a9e b929
00000050: 637d dd2f 0618 993e 6012 933e 9803 a832
00000060: 7b05 78be 969d 353e b77c 0a2a f42b 222c
00000070: 716e 16ae 49b7 943e fb7a 653e 1e77 a13e
00000080: 6a8c ae2e 01ed 4d2f 91e0 c83e dfe8 c829
00000090: cef5 4c3e 3001 212d e790 af3e 4ab0 ef2f
000000a0: 09df 453e 4a7f 2c2a 0133 a72d 68cc 462a
000000b0: 07e9 ac29 bf62 3a2b 2a3b 2d2b 457a 4c2d

cnn_head.1.bias f4 [48]
-0.09409407 -1.1160951e-08 0.25763503 -0.2229289 -7.493932e-10 -4.6801302e-11 -0.06324436 -6.1373123e-13
-1.6440334e-12 -2.3454494e-09 -2.5860624e-11 -4.922308e-13 0.051770553 -0.12192375 -1.527563e-12 -3.8137826e-12
-4.2371058e-09 -7.0719873e-13 -0.29538065 -3.889475e-13 -1.8050381e-09 0.17477581 -0.12142741 -8.3612406e-08
0.122433364 0.07510385 -5.638113e-13 -9.920949e-12 -1.9271056e-10 -0.16920765 0.16043219 0.2048163
-1.1765342e-09 -9.480423e-10 -0.2404346 -3.5730766e-13 -0.11675402 -3.1911477e-11 -0.19560869 -1.7997348e-09
0.1870679 -9.353342e-13 -9.641386e-11 -6.385685e-13 -3.3171838e-13 -3.630819e-12 -2.6133893e-12 -5.2440535e-11
00000000: 64b4 c0bd 62be 3fb2 bde8 833e 7947 64be
00000010: dcfd 4db0 95d5 4dae 4286 81bd ffbf 2cab
00000020: 8c60 e7ab 952d 21b1 f378 e3ad f88c 0aab
00000030: 5c0d 543d 29b3 f9bd 42fc d6ab 802f 86ac
00000040: fa95 91b1 0a0f 47ab 223c 97be 3ef5 daaa
00000050: 2215 f8b0 6ef8 323e efae f8bd 688e b3b3
00000060: 58be fa3d 0cd0 993d e3b2 1eab fb87 2ead
00000070: 33e3 53af c544 2dbe 5648 243e 5dbb 513e
00000080: 9eb3 a1b0 464c 82b0 7d34 76be 7625 c9aa
00000090: bb1c efbd 2159 0cae a54d 48be 8a5a f7b0
000000a0: ba8e 3f3e f7a2 83ab 2e04 d4ae b6bd 33ab
000000b0: a8bd baaa 057f 7fac a3e6 37ac cba2 66ae

cnn_head.1.running_mean f4 [48]
-0.3717287 -1.6910623e-07 -1.3762044 0.6165443 -6.783614e-09 -5.818876e-10 -2.0843947 1.0582125e-11
-1.3566869e-11 -3.4231957e-09 3.0666747e-10 -8.199543e-12 -0.93032825 -0.10138194 3.0472416e-11 -1.7202954e-10
-7.558831e-08 1.2173654e-11 -2.6582196 8.6713735e-12 -3.409329e-08 -1.0195179 0.5089874 -7.2064137e-07
-1.7732071 0.18391655 7.314289e-12 1.0090404e-10 4.168886e-09 -0.6529881 0.394569 -1.2479222
8.433011e-08 7.56211e-09 -2.0580957 4.425414e-12 -0.16485542 5.9977684e-10 -2.4112203 -1.4648994e-08
-0.06644594 8.891047e-12 -2.4283948e-09 7.4067375e-12 7.620026e-12 4.5739416e-11 3.3069984e-11 5.844075e-10
00000000: 3953 bebe 9193 35b4 7727 b0bf d9d5 1d3f
00000010: 4d15 e9b1 b3f2 1fb0 b966 05c0 a729 3a2d
00000020: bfab 6ead 7f3d 6bb1 9c97 a82f 753f 10ad
00000030: fe29 6ebf 56a1 cfbd e404 062e 0326 3daf
00000040: 1d53 a2b3 4329 562d 4520 2ac0 658c 182d
00000050: f86d 12b3 907f 82bf 004d 023f 1972 41b5
00000060: 73f8 e2bf 9f54 3c3e a1ac 002d ede3 dd2e
00000070: e93d 8f31 3a2a 27bf f304 ca3e eabb 9fbf
00000080: f818 b533 83ea 0132 d7b7 03c0 96b4 9b2c
00000090: dccf 28be 8bdd 2430 6f51 1ac0 f5aa 7bb2
000000a0: cf14 88bd b769 1c2d c6e0 26b1 fb4c 022d
000000b0: 8c0d 062d 012a 492e 7e71 112e 06a4 2030

cnn_head.1.running_var f4 [48]
3.586937 4.6415925e-14 22.38039 1.7926285 7.9011644e-17 6.652137e-19 8.244698 1.6754475e-22
3.0392344e-22 3.7417942e-16 1.4697053e-19 1.0456322e-22 7.0256057 1.6775546 1.3951583e-21 4.550627e-20
1.0299622e-14 2.2757804e-22 13.168864 1.1932219e-22 1.697452e-15 5.5136685 2.7305171 9.491785e-13
5.581004 3.2460508 8.7506056e-23 1.9306927e-20 2.7134689e-17 1.693077 5.2142615 16.69173
1.1308066e-14 1.10877546e-16 7.0071793 2.987713e-23 0.5929829 6.0037503e-19 9.073276 4.2984336e-16
2.022532 1.3875627e-22 9.070261e-18 8.558103e-23 9.407094e-23 4.2659283e-21 1.668403e-21 5.103475e-19
00000000: 6090 6540 eb09 5129 0a0b b341 da74 e53f
00000010: 3e30 b624 2056 4421 48ea 0341 978c 4a1b
00000020: e0b5 b71b 23b3 d725 1e83 2d20 80d1 fc1a
00000030: c3d1 e040 1cba d63f 93d4 d21c b4e5 561f
00000040: 9f8a 3928 ff8f 891b abb3 5241 6e40 101b
00000050: eda0 f426 f96f b040 cbc0 2e40 c295 852b
00000060: 9697 b240 4cbf 4f40 a093 d31a 4959 b61e
00000070: f945 fa23 bfb6 d83f 3bdb a640 aa88 8541
00000080: 40b5 4b28 8daa ff24 d03a e040 187a 101a
00000090: bacd 173f 0e33 3121 232c 1141 afc9 f725
000000a0: 2a71 0140 fcbe 271b 1951 2723 18ec ce1a
000000b0: 1773 e31a 8729 a11d 371f fc1c c4a0 1621

BCBlocks.0.0.f2.0.block.0.weight f4 [24, 48, 1, 1]
-1.4318163e-12 -6.888157e-13 -1.8890445e-12 -1.133503e-12 2.7335096e-12 2.7037681e-14 2.2722323e-12 -1.08930185e-13
-4.0329507e-13 7.533389e-14 -4.7498854e-12 6.4050467e-15 4.734006e-12 4.801829e-12 1.325317e-13 -1.1598452e-12
1.0763613e-12 1.3928409e-13 -6.812783e-12 -1.0541575e-13 -5.626951e-13 -1.641819e-12 5.501241e-12 -8.4832925e-14
-9.486327e-13 -9.774302e-15 -7.692104e-14 -5.1467524e-14 9.651103e-13 -1.6711829e-12 4.3230415e-12 -4.9033854e-12
5.4450808e-14 -3.6715281e-13 -8.255219e-14 1.7696544e-14 5.6865623e-12 1.3591668e-14 -3.421646e-12 -1.3898297e-12
-1.893998e-12 2.9112512e-13 1.7505302e-12 -1.8211981e-14 4.4191833e-14 1.9943322e-12 5.679221e-13 1.3415487e-12
0.14406408 -2.02227e-11 0.0697153 -0.01768847 8.420661e-12 -1.16847435e-11 -0.39726117 4.1881036e-13
-5.162588e-13 -2.891834e-09 1.0458405e-11 -8.674567e-14 0.04394791 0.012141923 -1.0471976e-12 7.0215004e-13
5.605872e-10 5.0008175e-13 -0.002155595 5.110802e-13 -9.229403e-10 0.06586649 -0.025045885 -4.611301e-08
0.066585794 -0.048924077 -5.4032015e-14 1.6117691e-12 -1.0859396e-10 -0.020138783 -0.28037217 -0.035622586
1.1434597e-09 -2.3884156e-10 0.18995386 9.397865e-14 -0.046118118 -2.7026128e-11 -0.1862247 -4.1390594e-10
0.020023452 2.1530258e-13 -2.1608795e-11 2.5380764e-13 -8.833414e-14 -2.8230383e-13 4.3487832e-13 -1.0017163e-11
0.014050567 -2.154552e-09 -0.23545966 -0.05554788 1.423654e-10 -3.405519e-11 0.12209969 -1.1523631e-13
6.676303e-13 -6.172057e-11 2.2707395e-11 -9.090569e-14 0.0075057084 0.093714885 9.855053e-13 -8.166296e-12
-9.1369085e-10 -8.247973e-13 -0.0329595 1.2110054e-13 1.2397811e-09 0.053681917 -0.1738454 -6.0184924e-08
-0.10892753 -0.07189651 -1.651905e-13 -5.855895e-12 -1.7614822e-10 -0.06325523 0.084683634 0.10735503
1.176625e-09 -9.682908e-10 0.27781898 -5.4545842e-14 0.18358485 8.984044e-12 0.12677327 -4.8742288e-11
0.20674084 -9.7325936e-14 -2.2498503e-11 -1.7119943e-13 3.1513434e-13 5.213275e-13 -1.3405093e-12 -2.106022e-11
9.117227e-11 2.6192045e-11 3.670368e-12 6.2734366e-13 2.3844421e-11 7.0353207e-12 -1.1469324e-11 7.0923444e-14
4.641874e-15 -6.4601513e-15 -4.4281384e-13 -1.1352286e-14 9.476017e-12 1.2824536e-10 -1.1342603e-12 -4.3699213e-13
-2.8211962e-11 3.2191182e-13 1.669664e-10 -2.0998361e-13 1.2588029e-11 -6.4893736e-11 3.8493136e-11 -3.900427e-14
-4.3006734e-11 -1.3605454e-10 1.03920724e-13 -2.343912e-13 2.3835826e-11 -9.073495e-12 -5.449072e-11 -1.2718249e-11
1.9743766e-11 9.261076e-13 -2.8763195e-11 3.0553268e-14 -7.1850574e-11 -5.3929678e-12 -8.4841205e-12 7.346723e-12
-2.776891e-10 -2.469915e-13 8.785987e-12 -2.2627489e-13 -1.1897971e-13 -1.2734844e-13 -1.6165095e-13 -4.5219267e-12
0.2233859 -3.004021e-09 0.24957208 0.08232293 -3.862323e-11 2.0497727e-11 0.078465246 -2.1998333e-13
5.2663823e-14 -3.8992035e-11 1.5030614e-11 -1.2217817e-13 0.084594816 -0.15508778 -2.6575698e-13 -2.2981612e-12
-4.3023715e-10 -3.0146344e-13 -0.037139397 2.6213824e-13 2.0296653e-10 -0.23663977 -0.14868774 -7.102544e-10
-0.15049519 -0.037635073 1.6256446e-13 9.979295e-13 1.01884765e-10 -0.14305826 0.10069378 -0.05579358
4.511055e-09 -3.8192363e-10 0.094822764 3.1446663e-13 -0.054419328 -3.5783657e-12 0.10350613 1.2716503e-09
-0.20379809 -1.488373e-13 -5.928811e-11 -1.3304637e-13 2.6553868e-13 2.1767655e-12 1.6069415e-12 1.8075659e-11
0.113194615 -4.065444e-09 -0.094312266 -0.20528528 2.0892643e-10 -2.1926467e-12 0.12852716 2.1835843e-13
1.7161294e-13 3.6729708e-10 7.0184965e-12 -4.0852857e-13 0.014905415 0.11784124 -1.057171e-12 -8.947025e-12
00000000: 9e82 c9ab 67e2 41ab 00ee 04ac c086 9fab
00000010: 885a 402c a688 f328 e6e4 1f2c fa49 f5a9
00000020: f208 e3aa 08a3 a929 2a1f a7ac 21c4 e627
00000030: 2390 a62c 08f3 a82c a937 152a d43b a3ab
00000040: 017c 972b e8d1 1c2a 18b4 efac 0b60 eda9
00000050: 7562 1eab c310 e7ab c68e c12c da06 bfa9
00000060: 1882 85ab 0314 30a8 f635 ada9 04ca 67a9
00000070: c3d3 872b b632 ebab 7f1a 982c c585 acac
00000080: 8239 7529 4cb0 ceaa 19e4 b9a9 7465 9f28
00000090: 0014 c82c 81d8 7428 e5c6 70ac e499 c3ab
000000a0: 3c47 05ac 8de3 a32a 7f5d f62b f809 a4a8
000000b0: b705 4729 b256 0c2c 1adb 1f2b 63ce bc2b
000000c0: 8985 133e 79e1 b1ad e5c6 8e3d 69e7 90bc
000000d0: 4923 142d 688f 4dad d165 cbbe efc4 eb2a
000000e0: 5e50 11ab afb9 46b1 78fc 372d 7955 c3a9
000000f0: b902 343d ebee 463c 4561 93ab 3ea3 452b
00000100: d117 1a30 b0c2 0c2b e244 0dbb 36db 0f2b
00000110: 26b2 7db0 03e5 863d 072d cdbc ca0d 46b3
00000120: 225e 883d 9d64 48bd ac56 73a9 1ad6 e22b
00000130: f7cc eeae 17fa a4bc f18c 8fbe fde8 11bd
00000140: e927 9d30 f64d 83af 4483 423e 019f d329
00000150: 5ae6 3cbd 6eb9 edad b0b1 3ebe 158c e3af
00000160: 3908 a43c be68 722a ae12 bead 89e1 8e2a
00000170: 2ae9 c6a9 45ec 9eaa 92d0 f42a 4b39 30ad
00000180: 5934 663c 480f 14b1 561c 71be 2c86 63bd
00000190: 4c88 1c2f bcc6 15ae 670f fa3d 9bbe 01aa
000001a0: d5eb 3b2b 98b9 87ae 82bc c72d 90b3 cca9
000001b0: 72f2 f53b 97ed bf3d 92b2 8a2b baa9 0fad
000001c0: 4727 7bb0 e928 68ab 8a00 07bd db58 082a
000001d0: eb64 aa30 92e1 5b3d 8704 32be 033f 81b3
000001e0: 6615 dfbd 7a3e 93bd ecfc 39aa 3709 ceac
000001f0: 51ad 41af f58b 81bd 9d6e ad3d f4dc db3d
00000200: d0b6 a130 b414 85b0 4a3e 8e3e 13a7 75a9
00000210: abfd 3b3e 8a0c 1e2d dad0 013e f05e 56ae
00000220: dfb3 533e 9528 dba9 20e6 c5ad e0c0 40aa
00000230: a567 b12a 9bbd 122b f0a8 bcab 663f b9ad
00000240: 6d7d c82e 3e63 e62d bc23 812c e094 302b
00000250: ddbc d12d 8988 f72c 3ec5 49ad 95b4 9f29
00000260: bb3d a727 61c0 e8a7 3348 f9aa 2e81 4ca8
00000270: 30b4 262d dc01 0d2f 09a2 9fab 3401 f6aa
00000280: b127 f8ad 6238 b52a dd94 372f a86b 6caa
00000290: 7173 5d2d edb3 8eae 6b4b 292e dda8 2fa9
000002a0: 4725 3dae f397 15af 3802 ea29 55f3 83aa
000002b0: 82a9 d12d 649f 1fad 19a7 6fae e7bd 5fad
000002c0: 02ab ad2d 8b56 822b f500 fdad 8599 0929
000002d0: 4700 9eae 89bf bdac 1541 15ad b33e 012d
000002e0: 44a9 98af 3a0b 8baa 9190 1a2d 4cc3 7eaa
000002f0: 91f5 05aa b061 0faa b700 36aa e519 9fac
00000300: 46bf 643e 4c6f 4eb1 d38f 7f3e ed98 a83d
00000310: e4dd 29ae c74c b42d 63b2 a03d e1ad 77aa
00000320: 412d 6d29 217d 2bae ef35 842d 768f 09aa
00000330: 0c40 ad3d 55cf 1ebe 9e9b 95aa feb7 21ac
00000340: 7f86 ecaf 76b5 a9aa 7b1f 18bd 1a92 932a
00000350: 002a 5f2f b251 72be 9941 18be b63b 43b0
00000360: 691b 1abe 3c27 1abd 0408 372a 3372 8c2b
00000370: 060c e02e dd7d 12be 8a38 ce3d cf87 64bd
00000380: a9ff 9a31 f9f6 d1af 7032 c23d 6b07 b12a
00000390: cde6 5ebd 1bce 7bac 06fb d33d 38c6 ae30
000003a0: 72b0 50be 6e93 27aa 3d60 82ae 01cc 15aa
000003b0: 287c 952a 1f2d 192c 2b28 e22b c4fe 9e2d
000003c0: 94d2 e73d 06b0 8bb1 ca26 c1bd 4e36 52be
000003d0: 90b7 652f 364b 1aac a09c 033e 88d9 752a
000003e0: 1038 412a 78ec c92f fff0 f62c 2cfb e5aa
000003f0: d735 743c bf56 f13d 99c8 94ab d265 1dad

BCBlocks.0.0.f2.0.block.1.weight f4 [24]
-3.6887014e-13 0.14858377 0.22282898 -3.4152675e-10 0.23201744 0.18521674 -0.15003715 0.39709425
0.21842268 0.21047619 -1.2905069e-12 0.16732052 1.1721014e-13 0.38528648 0.24802074 0.13290659
2.7178842e-08 0.24668181 0.19174993 0.22299255 0.24254051 -7.669733e-06 0.21269861 1.1014865e-09
00000000: caa7 cfaa 5826 183e 482d 643e 9ec1 bbaf
00000010: fb95 6d3e 75a9 3d3e 57a3 19be f04f cb3e
00000020: 32aa 5f3e 1287 573e 699f b5ab 1256 2b3e
00000030: 86f7 032a 4544 c53e 26f9 7d3e aa18 083e
00000040: e876 e932 289a 7c3e 185a 443e 2958 643e
00000050: 8a5c 783e 41ad 00b7 aacd 593e 1c63 9730

BCBlocks.0.0.f2.0.block.1.bias f4 [24]
-9.11048e-12 0.25318977 -0.022355763 -2.0550254e-11 -0.013464542 -0.026295664 0.063066415 -0.0074302903
0.1448283 0.11319682 -1.5849072e-11 0.14201218 -6.7180316e-13 -0.012681902 -0.03889788 0.2636506
-1.4286477e-06 0.18499112 0.15821968 -0.06980991 -0.12458747 -0.00035563795 0.08824319 -2.362461e-08
00000000: f445 20ad 17a2 813e 6f23 b7bc 0fc3 b4ad
00000010: 629a 5cbc 016a d7bc f728 813d cb79 f3bb
00000020: df4d 143e bcd3 e73d f068 8bad a46b 113e
00000030: 8518 3dab c1c7 4fbc 6253 1fbd 36fd 863e
00000040: f6bf bfb5 506e 3d3e 5704 223e 80f8 8ebd
00000050: b727 ffbd eb74 bab9 d8b8 b43d 11ef cab2

BCBlocks.0.0.f2.0.block.1.running_mean f4 [24]
-1.2444619e-12 -0.029410833 0.020590743 -8.3499416e-11 -0.02222402 0.055805594 0.049964983 0.030212687
-0.06539787 0.022568634 4.578014e-12 -0.07410152 -1.4505407e-13 0.0508886 -0.0807623 -0.0066667083
-8.5040074e-07 0.011207625 -0.085598834 -0.031600725 -0.107069 -1.5343136e-05 0.04209758 3.3736864e-09
00000000: 7724 afab fdee f0bc ebad a83c fe9d b7ae
00000010: 260f b6bc 6894 643d 15a8 4c3d 9980 f73c
00000020: 52ef 85bd dbe1 b83c 1613 a12c 8ac2 97bd
00000030: fd50 23aa 9170 503d b466 a5bd 6774 dabb
00000040: 1847 64b5 30a0 373c 714e afbd c36f 01bd
00000050: fe46 dbbd 22b5 80b7 836e 2c3d 85d6 6731

BCBlocks.0.0.f2.0.block.1.running_var f4 [24]
1.0045419e-23 0.0051036626 0.014624499 3.632008e-21 0.013759534 0.007263315 0.009052963 0.03081415
0.008515555 0.0071011125 2.6790032e-23 0.01565166 1.8319375e-26 0.02270661 0.013749622 0.02240316
4.5212407e-13 0.018107811 0.009738271 0.008499463 0.01145095 4.745809e-09 0.015427416 5.2634746e-17
00000000: 814e 4219 a03c a73b 989b 6f3c a036 891d
00000010: ab6f 613c 1a01 ee3b e152 143c f56d fc3c
00000020: d484 0b3c 73b0 e83b 748c 011a e937 803c
00000030: 226d b514 3603 ba3c 1846 613c d586 b73c
00000040: f285 fe2a d556 943c 458d 1f3c 5541 0b3c
00000050: c49c 3b3c 9410 a331 46c3 7c3c 24bc 7224

BCBlocks.0.0.f2.1.block.0.weight f4 [24, 1, 3, 1]
3.908681e-12 4.33929e-12 3.4342727e-13 -0.27572766 0.37057436 -0.0027765003 -0.15554188 0.41602543
-0.09430668 -1.769182e-10 -1.9109475e-10 -1.4679573e-10 -0.13792656 0.3543207 -0.050716978 -0.22569855
0.07696961 0.3496086 -0.10842563 0.3166972 -0.05624789 -0.111071736 -0.09768732 -0.09837584
-0.32104012 0.22727066 0.094579935 -0.10559429 -0.12024806 -0.054817323 -7.3770556e-12 -1.4457891e-12
-4.8346613e-12 0.05094263 0.23601967 0.08226947 -8.585966e-14 -2.2727318e-13 -2.041642e-13 -0.12478435
-0.09012691 -0.077490024 -0.09030802 -0.11050293 -0.051157404 0.49178332 -0.31472352 -0.06157963
-1.1089715e-09 -5.1843585e-07 -8.0205444e-07 0.47588858 -0.22105025 -0.030228721 0.2997468 -0.26387537
-0.08032546 0.39951828 -0.14628299 -0.037319742 0.32299915 -0.13293941 -0.06527119 0.00015144714
-7.666685e-05 -0.00019140179 -0.38857183 0.16148832 0.16908388 -2.2531084e-09 -1.966931e-08 2.4120896e-08
00000000: 4586 892c daac 982c 1655 c12a 2d2c 8dbe
00000010: ecbb bd3e f2f5 35bb 5f46 1fbe 4901 d53e
00000020: dc23 c1bd 0c86 42af 641c 52af 5367 21af
00000030: 9f3c 0dbe 8669 b53e 9bbc 4fbd 851d 67be
00000040: 3ea2 9d3d e6ff b23e 420e debd 2326 a23e
00000050: 3064 66bd 9479 e3bd 4a10 c8bd 4679 c9bd
00000060: 5f5f a4be a4b9 683e 20b3 c13d d241 d8bd
00000070: 9d44 f6bd 2188 60bd 4ec7 01ad 0b7a cbab
00000080: c21a aaac 38a9 503d 24af 713e e57c a83d
00000090: b956 c1a9 09e3 7faa 53de 65aa f08e ffbd
000000a0: 7594 b8bd 17b3 9ebd 69f3 b8bd 5c4f e2bd
000000b0: 6d8a 51bd 06cb fb3e 7123 a1be ec3a 7cbd
000000c0: 776a 98b0 a42a 0bb5 c34c 57b5 aba7 f33e
000000d0: ff5a 62be 39a2 f7bc 6a78 993e ac1a 87be
000000e0: ad81 a4bd a98d cc3e 35cb 15be 96dc 18bd
000000f0: 2560 a53e 4521 08be e7ac 85bd c8cd 1e39
00000100: 34c8 a0b8 07b3 48b9 e3f2 c6be 325d 253e
00000110: 5324 2d3e 1ad5 1ab1 45f5 a8b2 6932 cf32

BCBlocks.0.0.f2.1.block.1.ssnorm.weight f4 [120]
1.2618362e-12 4.3569722e-12 4.7962237e-12 4.9082947e-12 2.1043813e-12 0.18900135 0.16026781 0.18344659
0.17925075 0.15413578 0.2521955 0.16923961 0.13589424 0.08199493 0.053084556 1.3195266e-10
1.7651221e-10 2.2880219e-10 1.1937806e-10 6.16983e-11 0.25061968 0.25404912 0.1898016 0.11491802
0.15500991 0.25028536 0.1670732 0.09313329 0.08893749 0.09631663 0.1409086 0.14879364
0.13473208 0.14152168 0.2501955 0.12714885 0.21316288 0.19475654 0.24320413 0.26972377
0.2648135 0.19313379 0.20901766 0.267931 0.20364605 -0.10324534 0.108292855 0.011269389
0.15418458 0.16056187 3.4242659e-12 1.3526047e-11 -6.0878256e-12 6.8617976e-12 5.419302e-12 0.23225409
0.23805882 0.15287304 0.17407937 0.13454847 4.375456e-13 3.7606813e-13 3.7760563e-13 3.0449664e-13
4.3581927e-13 0.09588167 0.20321299 0.18820934 0.20123854 0.32289368 -0.071749 0.090858646
0.06360919 0.118808605 0.16914518 0.21905509 0.19793114 0.13219129 0.1123308 0.050567694
2.4332797e-08 -4.948668e-07 -8.321166e-09 -8.553774e-07 -7.5262676e-07 0.24234399 0.21011667 0.18340199
0.19778761 0.14585263 0.16456486 0.1399856 0.16750328 0.22134188 0.2514195 0.15473293
0.1898887 0.13976619 0.13489191 0.13220325 -0.1439889 0.14879346 0.16359547 0.08930418
0.063604064 -0.00012512544 -0.0001605872 0.00013925809 -7.7180724e-05 0.00013973948 -0.0034202854 -0.16203928
-0.15200272 -0.12338074 -0.008509104 -1.3782985e-08 -1.5711908e-08 8.922655e-10 -1.7763133e-10 1.4521444e-08
00000000: 7196 b12b 1e4c 992c 8bc0 a82c fdb1 ac2c
00000010: 2a15 142c 9289 413e 3f1d 243e 6cd9 3b3e
00000020: 828d 373e c5d5 1d3e c51f 813e 264d 2d3e
00000030: dc27 0b3e f5ec a73d 316f 593d 5f15 112f
00000040: c513 422f 1792 7b2f f041 032f 0ead 872e
00000050: 3951 803e ba12 823e 5a5b 423e 245a eb3d
00000060: ebba 1e3e 6725 803e 3d15 2b3e abbc be3d
00000070: dc24 b63d a741 c53d 584a 103e 5c5d 183e
00000080: 35f7 093e 0feb 103e a019 803e 4f33 023e
00000090: 5f47 5a3e 426e 473e 810a 793e 3c19 8a3e
000000a0: a395 873e ddc4 453e ba08 563e 412e 893e
000000b0: 9788 503e 4b72 d3bd a5c8 dd3d 3ea3 383c
000000c0: 90e2 1d3e 556a 243e 17f6 702c e6f3 6d2d
000000d0: 4232 d6ac 946d f12c bcac be2c 04d4 6d3e
000000e0: b1c5 733e c08a 1c3e dd41 323e 13c7 093e
000000f0: f750 f62a 21b5 d32a b592 d42a 976a ab2a
00000100: 2d58 f52a 9c5d c43d 1117 503e f3b9 403e
00000110: 7a11 4e3e 5252 a53e 24f1 92bd 1914 ba3d
00000120: 8945 823d ed51 f33d 6534 2d3e fa4f 603e
00000130: 76ae 4a3e 275d 073e b10d e63d 1220 4f3d
00000140: 6304 d132 fdd6 04b5 e0f4 0eb2 169d 65b5
00000150: 1e08 4ab5 0629 783e d328 573e bbcd 3b3e
00000160: d688 4a3e 645a 153e b183 283e 6358 0f3e
00000170: fb85 2b3e 72a7 623e 0fba 803e 4f72 1e3e
00000180: 2f72 423e de1e 0f3e 1b21 0a3e 4a60 073e
00000190: d471 13be 505d 183e 9285 273e 1ce5 b63d
000001a0: d942 823d 1b34 03b9 4c63 28b9 cf05 1239
000001b0: 16dc a1b8 0887 1239 de26 60bb a0ed 25be
000001c0: 9aa6 1bbe 0baf fcbd c569 0bbc 36ca 6cb2
000001d0: daf6 86b2 9a43 7530 c64e 43af fc79 7932

BCBlocks.0.0.f2.1.block.1.ssnorm.bias f4 [120]
0.069224454 -0.009494153 -0.01305254 -0.003412886 0.029206572 0.15759467 0.122497305 0.09974387
0.032147966 0.052886516 -0.09622339 -0.08337005 -0.047932982 -0.023050288 -0.04381895 -0.0003544731
-0.0096189985 -0.01922231 0.05936418 0.033654664 -0.006174024 -0.048683025 0.010828485 -0.037411947
-0.033223994 0.009019714 0.005440698 0.011027718 -0.009602118 -0.04263481 -0.06491568 -0.045609172
0.0033891296 0.00029778676 -0.016995803 0.08107384 0.09314988 0.09016369 0.17219044 0.10036309
0.11391325 0.200638 0.11168686 0.043267924 0.071155675 -0.07963235 0.09020503 -0.048441317
0.04708097 0.021379454 -8.185741e-12 -1.0487751e-11 -7.369311e-12 -9.216511e-12 -7.352535e-12 0.19551621
0.19501467 0.1669895 0.18177715 0.1957148 0.038285363 0.019774795 0.008605753 0.040256258
-0.006520613 0.07033146 0.087088004 0.07923683 0.08313113 0.12515923 0.057945468 0.07536886
-0.026274864 0.038692184 0.07135819 -0.09969273 0.14177598 0.1901309 0.1466809 0.07516304
-0.014718119 -0.12950262 0.030851789 -0.0010062574 0.053455465 0.12270526 0.1660811 0.15540716
0.121801466 0.09563125 -0.07684001 0.011671554 -0.011172554 -0.026632773 0.05692404 -0.08577049
-0.054694768 -0.03713228 -0.057497367 -0.050904308 0.010448193 -0.03883964 0.023015834 0.02171963
-0.05231794 0.0019422681 -0.0006576947 0.0028353902 -0.006991227 -0.00945825 -0.041603487 0.12002846
0.1871477 0.14269574 -0.016738256 0.03314907 0.071096234 -0.094556175 0.012509706 0.027600292
00000000: 8dc5 8d3d 5d8d 1bbc 52da 55bc baaa 5fbb
00000010: 9f42 ef3c 7f60 213e dedf fa3d 8446 cc3d
00000020: 96ad 033d 889f 583d c510 c5bd ebbd aabd
00000030: 6055 44bd f5d3 bcbc 807b 33bd 93d8 b9b9
00000040: 0199 1dbc 1b78 9dbc db27 733d 79d9 093d
00000050: 784f cabb da67 47bd f569 313c 453d 19bd
00000060: e215 08bd 6cc7 133c e247 b23b 9aad 343c
00000070: 3452 1dbc d7a1 2ebd 83f2 84bd afd0 3abd
00000080: 291c 5e3b 4320 9c39 c83a 8bbc 0b0a a63d
00000090: 5dc5 be3d bea7 b83d b152 303e 2a8b cd3d
000000a0: 5a4b e93d 0c74 4d3e 15bc e43d b539 313d
000000b0: 11ba 913d 4916 a3bd 6abd b83d 676a 46bd
000000c0: fad7 403d f723 af3c 4d01 10ad a280 38ad
000000d0: 6da4 01ad 7a23 22ad e058 01ad 6735 483e
000000e0: edb1 473e 4cff 2a3e ca23 3a3e 7669 483e
000000f0: 1dd1 1c3d c0fe a13c 25ff 0c3c bfe3 243d
00000100: deaa d5bb f109 903d 325b b23d eb46 a23d
00000110: a740 aa3d be29 003e 3a58 6d3d fd5a 9a3d
00000120: 623e d7bc b27b 1e3d 3e24 923d b42b ccbd
00000130: b92d 113e adb1 423e 8533 163e 14ef 993d
00000140: 4424 71bc 569c 04be e4bc fc3c 65e4 83ba
00000150: 1ef4 5a3d e54c fb3d 2a11 2a3e 0e23 1f3e
00000160: 0c73 f93d 51da c33d 4c5e 9dbd 0c3a 3f3c
00000170: 170d 37bc f92c dabc 2f29 693d 70a8 afbd
00000180: 9f07 60bd 0518 18bd 5c82 6bbd 0981 50bd
00000190: e62e 2b3c 5016 1fbd b48b bc3c 5eed b13c
000001a0: 564b 56bd b493 fe3a 2569 2cba f4d1 393b
000001b0: aa16 e5bb c7f6 1abc 6b68 2abd 7bd1 f53d
000001c0: a6a3 3f3e d51e 123e ab1e 89bc 52c7 073d
000001d0: e79a 913d aba6 c1bd 83f5 4c3c 021a e23c

BCBlocks.0.0.f2.1.block.1.ssnorm.running_mean f4 [120]
6e-45 6e-45 6e-45 6e-45 6e-45 0.041637592 0.022847837 0.02579144
0.024794517 0.02207181 0.017285971 0.013262055 0.009603851 0.00893299 0.009176556 -6e-45
-6e-45 -6e-45 -6e-45 -6e-45 0.015867077 0.013074496 0.010902539 0.010262921
0.009583657 0.023897454 0.00881633 0.006979174 0.0065477374 0.0035773006 0.015468198 0.013733904
0.013337036 0.0131872 0.012610823 -0.035316594 -0.03951389 -0.036022272 -0.033738688 -0.030150924
0.013153953 0.0012396167 -0.00016321779 -0.00023425736 -0.0009593692 -0.033380665 -0.035517022 -0.039233435
-0.040540766 -0.044511173 -6e-45 -6e-45 -6e-45 -6e-45 -6e-45 0.05392108
0.05789442 0.06172628 0.06302631 0.061666 -6e-45 -6e-45 -6e-45 -6e-45
-6e-45 -0.03068046 -0.035686824 -0.03223257 -0.030327888 -0.027278893 -0.011412848 -0.013948891
-0.0136494795 -0.01311244 -0.012487881 -0.0021371525 0.03187357 0.031065594 0.030966027 0.03350131
-6e-45 -6e-45 -6e-45 -6e-45 -6e-45 0.021002946 0.041262507 0.0477762
0.05009771 0.053003184 -0.022738067 -0.005875742 -0.008592181 -0.007349222 -0.00039935228 0.0073787845
0.014668063 0.009083097 0.007867888 0.0074455845 0.00069852464 0.004906913 0.003051935 0.0025764077
0.0024660786 -6e-45 -6e-45 -6e-45 -6e-45 -6e-45 0.004850487 -0.007987092
-0.0070631653 -0.007059532 -0.00860051 6e-45 -6e-45 -6e-45 -6e-45 -6e-45
00000000: 0400 0000 0400 0000 0400 0000 0400 0000
00000010: 0400 0000 2e8c 2a3d 632b bb3c 9248 d33c
00000020: df1d cb3c f1cf b43c 4f9b 8d3c 1749 593c
00000030: 7859 1d3c ad5b 123c 4459 163c 0400 0080
00000040: 0400 0080 0400 0080 0400 0080 0400 0080
00000050: acfb 813c 6936 563c 90a0 323c d025 283c
00000060: c504 1d3c 98c4 c33c 5e72 103c 8eb1 e43b
00000070: 678e d63b 2571 6a3b 536e 7d3c 2b04 613c
00000080: 9583 5a3c 200f 583c a09d 4e3c 22a8 10bd
00000090: 51d9 21bd 178c 13bd 9431 0abd 12ff f6bc
000000a0: ad83 573c a27a a23a 7125 2bb9 fba2 75b9
000000b0: 2d7e 7bba 2aba 08bd 4c7a 11bd 3db3 20bd
000000c0: 130e 26bd 5951 36bd 0400 0080 0400 0080
000000d0: 0400 0080 0400 0080 0400 0080 5adc 5c3d
000000e0: b322 6d3d b2d4 7c3d f013 813d 7d95 7c3d
000000f0: 0400 0080 0400 0080 0400 0080 0400 0080
00000100: 0400 0080 9755 fbbc 592c 12bd 4d06 04bd
00000110: 3172 f8bc fc77 dfbc f4fc 3abc e489 64bc
00000120: 11a2 5fbc 8fd5 56bc f899 4cbc 780f 0cbb
00000130: dc8d 023d 467d fe3c 77ac fd3c ab38 093d
00000140: 0400 0080 0400 0080 0400 0080 0400 0080
00000150: 0400 0080 5f0e ac3c e002 293d fab0 433d
00000160: 4233 4d3d de19 593d 2f45 babc 4c89 c0bb
00000170: 38c6 0cbc bed1 f0bb 2860 d1b9 bbc9 f13b
00000180: 5152 703c 45d1 143c 50e8 003c 17fa f33b
00000190: 321d 373a 2bca a03b f902 483b f3d8 283b
000001a0: ef9d 213b 0400 0080 0400 0080 0400 0080
000001b0: 0400 0080 0400 0080 d6f0 9e3b 4bdc 02bc
000001c0: 2072 e7bb a653 e7bb 27e9 0cbc 0400 0000
000001d0: 0400 0080 0400 0080 0400 0080 0400 0080

BCBlocks.0.0.f2.1.block.1.ssnorm.running_var f4 [120]
6e-45 6e-45 6e-45 6e-45 6e-45 0.0032238339 0.0017799506 0.0017397105
0.0016943726 0.0016344371 0.0018253251 0.0013931101 0.0008820829 0.0007039534 0.0007263506 6e-45
6e-45 6e-45 6e-45 6e-45 0.0014310039 0.001208161 0.0009322957 0.00081814453
0.0008344011 0.0031549314 0.001700519 0.0010510432 0.0007264923 0.00059073576 0.000684825 0.0005880236
0.00053025415 0.00049240654 0.00055074744 0.005396145 0.00695235 0.006271782 0.0063165785 0.0057233986
0.0021288365 0.0015626373 0.0012396207 0.0011043412 0.0009235865 0.0018034972 0.0017961703 0.0019313147
0.0020761786 0.0021149574 6e-45 6e-45 6e-45 6e-45 6e-45 0.0014595678
0.0013126251 0.001181261 0.0011647322 0.0011412944 6e-45 6e-45 6e-45 6e-45
6e-45 0.0036146105 0.0049258415 0.00473901 0.0048475955 0.004561013 0.0006097965 0.00078191
0.00070420635 0.00069546583 0.00065006287 0.0043832012 0.00084999716 0.0007200376 0.0005885226 0.00052731426
6e-45 6e-45 6e-45 6e-45 6e-45 0.0058523123 0.0030760656 0.003176799
0.0033181785 0.0036026381 0.0032125767 0.001720983 0.001439967 0.0013054317 0.0011792792 0.002017685
0.0023672935 0.0013562635 0.0010151942 0.0008866145 0.0003155304 0.00036654962 0.0002306343 0.00015735529
0.00011826921 6e-45 6e-45 6e-45 6e-45 6e-45 0.0019439366 0.0012784854
0.001063186 0.00087553106 0.0009259532 6e-45 6e-45 6e-45 6e-45 6e-45
00000000: 0400 0000 0400 0000 0400 0000 0400 0000
00000010: 0400 0000 f546 533b 3b4d e93a ff06 e43a
00000020: b615 de3a 9c3a d63a bf3f ef3a 0599 b63a
00000030: 953b 673a 8389 383a 9068 3e3a 0400 0000
00000040: 0400 0000 0400 0000 0400 0000 0400 0000
00000050: 8690 bb3a 285b 9e3a 4e65 743a c078 563a
00000060: b6bb 5a3a f7c2 4e3b f3e3 de3a 28c3 893a
00000070: 1372 3e3a 9bdb 1a3a d485 333a 9925 1a3a
00000080: c100 0b3a d814 013a 0960 103a 25d2 b03b
00000090: 8ad0 e33b 8583 cd3b 4dfb ce3b 598b bb3b
000000a0: f383 0b3b 68d1 cc3a c57a a23a 8bbf 903a
000000b0: d71c 723a 5363 ec3a 796d eb3a 2b24 fd3a
000000c0: 7f10 083b 199b 0a3b 0400 0000 0400 0000
000000d0: 0400 0000 0400 0000 0400 0000 f84e bf3a
000000e0: 640c ac3a 8bd4 9a3a eda9 983a 7c97 953a
000000f0: 0400 0000 0400 0000 0400 0000 0400 0000
00000100: 0400 0000 1ae3 6c3b f468 a13b b249 9b3b
00000110: 94d8 9e3b 8d74 953b c0da 1f3a 18f9 4c3a
00000120: 7d9a 383a ec4f 363a fb68 2a3a f5a0 8f3b
00000130: 58d2 5e3a e8c0 3c3a 1547 1a3a 763b 0a3a
00000140: 0400 0000 0400 0000 0400 0000 0400 0000
00000150: 0400 0000 c1c4 bf3b d197 493b d831 503b
00000160: cc75 593b 3d1a 6c3b 188a 523b 9b92 e13a
00000170: 46bd bc3a 051b ab3a 0b92 9a3a 233b 043b
00000180: 9824 1b3b a7c4 b13a 4410 853a b16b 683a
00000190: c66d a539 752d c039 6cd6 7139 bdff 2439
000001a0: 4c07 f838 0400 0000 0400 0000 0400 0000
000001b0: 0400 0000 0400 0000 b0cb fe3a da92 a73a
000001c0: 9a5a 8b3a e583 653a abbb 723a 0400 0000
000001d0: 0400 0000 0400 0000 0400 0000 0400 0000

BCBlocks.0.0.f1.0.block.0.weight f4 [24, 1, 1, 3]
1.1648475e-12 2.744724e-12 5.8725556e-13 -0.049182612 -0.081663795 -0.038846258 -0.019047728 0.14483456
-0.028200237 3.2055816e-11 -1.7985524e-10 -2.8955225e-11 0.08245371 -0.111138925 -0.069009885 -0.15980724
-0.025013799 -0.015579625 -3.33806e-08 4.8078494e-08 1.5451246e-07 -0.06525672 -0.009852819 0.085055634
-0.09600879 -0.05181484 -0.04624141 -0.033565324 0.10133265 0.032987982 2.1885814e-11 -2.6049336e-12
-1.4717051e-12 0.065502726 0.095172204 -0.0136593385 2.6038286e-13 6.3380786e-16 2.8866856e-13 -0.03127597
0.13391636 0.026639625 -0.0031612825 -0.17044476 0.10138919 5.3106093e-09 4.8388875e-09 -8.35945e-09
2.1997235e-09 -2.642819e-10 -4.301918e-10 -4.798861e-07 -6.5504776e-07 -5.093121e-07 -0.05515851 -0.08801999
-0.050589904 -0.00527624 -0.14745218 0.056933966 -0.032774936 -0.061357975 0.12301553 1.5668864e-11
1.06936925e-10 -1.1780421e-10 -6.2173113e-13 3.031092e-13 -2.5835249e-14 -4.1493067e-09 -1.3007868e-09 4.137082e-10
00000000: 0ef0 a32b 8d24 412c 394c 252b b573 49bd
00000010: 593f a7bd 411d 1fbd fb09 9cbc 834f 143e
00000020: 2f04 e7bc a4fb 0c2e c0c0 45af 5fb1 fead
00000030: 7edd a83d ce9c e3bd 0e55 8dbd 82a4 23be
00000040: bde9 ccbc af41 7fbc 5c5e 0fb3 dd7e 4e33
00000050: 10e8 2534 51a5 85bd b86d 21bc a631 ae3d
00000060: 42a0 c4bd cc3b 54bd a267 3dbd cb7b 09bd
00000070: 7e87 cf3d 681e 073d 7982 c02d 504e 37ac
00000080: c41f cfab 4b26 863d a5e9 c23d 6bcb 5fbc
00000090: 2095 922a c4ae 3626 8681 a22a 3b1b 00bd
000000a0: 5f21 093e 583b da3c 852d 4fbb 1289 2ebe
000000b0: 23a5 cf3d 9d78 b631 4e43 a631 409d 0fb2
000000c0: f229 1731 5f4a 91af 1d80 ecaf 86d1 00b5
000000d0: 8ad6 2fb5 a9b7 08b5 e4ed 61bd d343 b4bd
000000e0: 5c37 4fbd 4fe4 acbb b4fd 16be 9733 693d
000000f0: 033f 06bd 8052 7bbd 91ef fb3d 25d3 892d
00000100: 2328 eb2e f086 01af 7300 2fab a4a2 aa2a
00000110: 07b4 e8a8 b091 8eb1 5ec7 b2b0 4170 e32f

BCBlocks.0.0.f1.0.block.1.weight f4 [24]
2.201438e-12 -0.16373128 0.17533621 2.1671376e-11 -0.15014364 0.2243736 9.381885e-08 0.12042698
0.14168409 0.171216 2.1086745e-11 0.18239327 3.5041295e-13 0.180097 0.19320777 6.8546937e-09
1.3808695e-09 9.834185e-07 0.14799486 -0.20722924 0.1436564 6.523788e-11 1.7245377e-13 -4.2218993e-09
00000000: 95e9 1a2c 2ca9 27be 568b 333e 9a9f be2d
00000010: 41bf 19be 31c2 653e 7579 c933 6ca2 f63d
00000020: a215 113e 3f53 2f3e 217b b92d 4dc5 3a3e
00000030: d443 c52a 596b 383e 42d8 453e 8686 eb31
00000040: 07c9 bd30 01fe 8335 f78b 173e e733 54be
00000050: aa1a 133e a975 8f2e 6a2a 422a 3810 91b1

BCBlocks.0.0.f1.0.block.1.bias f4 [24]
1.1251873e-10 0.02659174 0.007805169 8.965167e-10 0.008482266 0.077751525 1.9025371e-06 0.0045458553
0.03503994 -0.013909083 5.8341415e-10 0.049988545 -9.904999e-12 0.0029212465 0.026057338 5.5165714e-08
-1.7624172e-08 8.8637984e-07 -0.030115584 0.0028946563 -0.013403516 1.3347151e-09 2.227814e-11 1.6871313e-08
00000000: 6a6e f72e ecd6 d93c 81c2 ff3b c16e 7630
00000010: 34f9 0a3c 313c 9f3d ad5a ff35 66f5 943b
00000020: 0a86 0f3d ece2 63bc 1f5e 2030 cac0 4c3d
00000030: 2640 2ead 6272 3f3b 3376 d53c 58ef 6c33
00000040: f763 97b2 8fef 6d35 f5b4 f6bc 46b4 3d3b
00000050: 6c9a 5bbc 1d71 b730 e9f5 c32d 69ec 9032

BCBlocks.0.0.f1.0.block.1.running_mean f4 [24]
6.492683e-14 -0.015679983 -0.0057507595 -2.256595e-12 0.002333429 0.0010174593 -4.07119e-09 0.00057692983
-0.020834377 0.00061674457 -1.5005386e-22 0.027404942 1.0928694e-14 0.011694862 -0.003216405 1.7805206e-10
-1.8126417e-11 -2.1551969e-07 0.001771419 0.0055203005 -0.00028195893 -1.4333842e-14 -2.6030671e-14 -4.9793156e-11
00000000: c533 9229 4f73 80bc de70 bcbb 34cb 1eac
00000010: 71ec 183b 455c 853a 91e2 8bb1 1b3d 173a
00000020: dbac aabc 07ad 213a 6c67 359b 5480 e03c
00000030: b5df 4428 ce9b 3f3c 52ca 52bb 33c5 432f
00000040: 1071 9fad 9a69 67b4 f52e e83a a3e3 b43b
00000050: e3d3 93b9 971b 81a8 a476 eaa8 1cfe 5aae

BCBlocks.0.0.f1.0.block.1.running_var f4 [24]
3.47681e-30 1.7724375e-05 6.1805025e-05 3.010381e-27 0.00022651308 0.00016343071 3.445942e-16 0.00023418486
4.6687783e-06 4.2766973e-05 6e-45 0.0004946546 5.9148957e-31 0.0005905324 9.814814e-05 1.0999724e-19
7.3391556e-24 2.5028912e-14 5.5249857e-06 0.00010882528 1.3043606e-05 8.441577e-28 1.5193455e-28 1.6943678e-23
00000000: 4209 8d0e ceae 9437 529d 8138 c881 6e13
00000010: 2484 6d39 995e 2b39 21a5 c625 858f 7539
00000020: 80a8 9c36 b060 3338 0400 0000 b5ab 013a
00000030: 08f3 3f0d f5cd 1a3a e2d4 cd38 a0dc 0120
00000040: bdf5 0d19 be70 e128 4463 b936 2139 e438
00000050: dcd5 5a37 1bc3 8512 9599 4011 84de a319

BCBlocks.0.0.f1.1.weight f4 [24, 24, 1, 1]
-6.825851e-12 0.043946635 -0.003245876 -8.062945e-11 0.06735944 -0.009335303 -6.058111e-08 -0.0019575013
0.009411376 0.021692267 -3.31441e-11 0.0054545607 6.578883e-13 -0.07156865 -0.008103832 3.2171625e-09
8.307772e-10 -1.5393177e-08 0.030587995 -0.008474998 -0.002653924 -2.3871231e-11 -1.2780623e-12 9.882705e-10
3.1304193e-12 -0.14131439 0.08202727 -3.2550705e-11 0.007941919 -0.12203665 2.1073325e-07 -0.01601217
0.023784833 0.07094098 2.4492342e-11 -0.07287854 -3.7584188e-13 -0.05432387 -0.006393493 9.064379e-10
-2.1374809e-10 2.409181e-07 0.013973739 0.01127359 0.0926646 6.3752344e-11 5.074422e-13 -4.617958e-10
-5.7126877e-12 0.010428516 -0.13165125 -5.7400237e-11 0.05642453 0.16593397 -9.956597e-08 -0.016875291
0.0057677566 -0.022984337 -2.0578355e-11 0.0052177263 4.94818e-13 0.07528185 -0.20278205 -5.231149e-09
1.7170007e-09 -6.0390896e-08 0.050136834 -0.10619626 -0.024597257 4.0801863e-12 -1.1565348e-12 -9.444042e-10
1.8050021e-13 0.031352993 -0.02167044 -1.5443355e-11 -0.040544115 0.06390523 -3.2923634e-08 0.008393664
-0.0128683215 0.00077473104 -1.1355928e-12 0.021883195 1.6698992e-13 0.020430762 -0.013494337 -1.261222e-11
1.2798121e-10 -1.8825542e-08 0.017614719 -0.038121518 -0.017403612 -5.827356e-12 -2.5347858e-13 6.099882e-11
-1.1257635e-12 -0.0035251903 -0.054995928 -8.9210285e-11 -0.10927407 -0.028489515 6.245717e-08 0.023685165
-0.021606423 0.009717801 -6.5746354e-12 -0.014273525 1.3262136e-14 0.051749337 -0.09463356 1.2140927e-09
6.3006406e-10 2.076859e-07 0.008782559 0.007976719 -0.010520504 -6.430536e-11 -5.5441257e-14 2.4074964e-10
4.1572676e-11 -0.01513935 -0.047715135 2.7675714e-10 -0.0073464247 0.2591231 6.9098587e-07 -0.03186465
0.04746917 0.052773733 2.3153471e-10 0.010327921 -3.7923328e-12 0.05492743 0.099648006 2.0214019e-08
-7.03546e-09 3.0527264e-07 0.009549919 -0.079598516 -0.0047715725 4.6526405e-10 8.1282715e-12 5.896957e-09
-8.084106e-13 -0.028312298 -0.039081622 -7.4857585e-11 -0.027480153 0.0037528225 -2.9673447e-07 -0.007717034
-0.05707303 7.635826e-05 -2.153166e-12 -0.08795729 1.2823797e-13 0.08528723 -0.04226713 -1.9589523e-09
1.295464e-10 3.5424659e-09 0.005878417 -0.13959621 0.03324443 1.7511275e-11 -5.831192e-15 -7.496767e-10
-3.54532e-11 -0.052064486 0.008875621 -2.8420327e-10 -0.0203999 -0.035969473 -6.274112e-07 -0.032557257
-0.020588955 -0.02019887 -1.8432186e-10 0.007837619 3.0805835e-12 0.07751821 -0.118161365 -1.8340799e-08
5.587329e-09 -2.4868956e-07 0.005124752 -0.071429156 -0.074434966 -4.1634154e-10 -6.9596572e-12 -5.3765503e-09
1.0350796e-10 -0.078497626 0.0962905 8.120494e-10 0.09556447 0.017141793 1.804105e-06 -0.024102516
0.050067503 -0.061585996 5.38469e-10 -0.037871666 -9.0776865e-12 -0.0043575466 -0.03159167 4.917772e-08
-1.6335793e-08 6.8260783e-07 -0.011569957 -0.030890042 0.02303219 1.2137313e-09 2.02793e-11 1.5495191e-08
4.1758538e-11 0.014468304 0.010053051 2.5736582e-10 -0.029034387 0.021643043 7.123852e-07 -0.059202664
-0.00058758445 -0.057041936 2.136052e-10 0.079472385 -3.653657e-12 0.0042969678 0.0070263147 1.9630043e-08
-5.434037e-09 -2.5311774e-08 -0.0043200036 -0.069552206 0.013469605 5.5925214e-10 8.14955e-12 6.151775e-09
-7.784748e-14 1.9964225e-13 -8.1915377e-13 -1.3030008e-12 -2.0334598e-12 -2.856825e-13 1.687593e-14 1.3542228e-12
1.7181273e-12 -5.7703674e-13 -1.3467366e-12 1.8351236e-13 9.832883e-14 3.3084035e-12 -1.0887301e-13 -4.3147655e-13
00000000: cd29 f0ac 6301 343d c3b8 54bb 584e b1ae
00000010: bff3 893d 19f3 18bc d118 82b3 6c49 00bb
00000020: 2c32 1a3c fbb3 b13c f0c4 11ae 2cbc b23b
00000030: d92d 392b 9692 92bd efc5 04bc ec14 5d31
00000040: c05c 6430 f439 84b2 ad93 fa3c b8da 0abc
00000050: 75ed 2dbb 3cf9 d1ad 0cdf b3ab add3 8730
00000060: 9f48 5c2c b8b4 10be eafd a73d d628 0fae
00000070: d31e 023c 5aee f9bd ea45 6234 f42b 83bc
00000080: 69d8 c23c 8149 913d da6f d72d 5841 95bd
00000090: 8694 d3aa b582 5ebd 8280 d1bb e628 7930
000000a0: bd04 6baf 8857 8134 1cf2 643c ddb4 383c
000000b0: f0c6 bd3d 6131 8c2e 10d5 0e2b fbdf fdaf
000000c0: 51ff c8ac 5edc 2a3c 96cf 06be ec72 7cae
000000d0: 681d 673d 98ea 293e f9d0 d5b3 0d3e 8abc
000000e0: 73ff bc3b a649 bcbc 5602 b5ad 76f9 aa3b
000000f0: 6547 0b2b 5f2d 9a3d 19a6 4fbe acbd b3b1
00000100: 97fb eb30 3fb0 81b3 485c 4d3d 6d7d d9bd
00000110: 3080 c9bc 0d8f 8f2c 8fc4 a2ab 45cc 81b0
00000120: a539 4b2a ff6b 003d 3586 b1bc 58d7 87ad
00000130: 9611 26bd bfe0 823d eb67 0db3 9485 093c
00000140: a7d5 52bc 5217 4b3a 0bd2 9fab 6344 b33c
00000150: 9103 3c2a 6a5e a73c 5a17 5dbc 64e0 5dad
00000160: 82b7 0c2f ceb5 a1b2 be4c 903c 4f25 1cbd
00000170: 0592 8ebc 2808 cdac 1db2 8eaa 4823 862e
00000180: e86f 9eab e106 67bb 6943 61bd ed2c c4ae
00000190: 15cb dfbd d862 e9bc 3120 8633 6407 c23c
000001a0: f4ff b0bc 6937 1f3c 0d53 e7ac 81db 69bc
000001b0: cfe8 6e28 1df7 533d 3dcf c1bd 17dd a630
000001c0: d130 2d30 4400 5f34 b9e4 0f3c c9b0 023c
000001d0: 315e 2cbc b368 8dae 6baf 79a9 805a 842f
000001e0: acd6 362e 090b 78bc f270 43bd 1b26 982f
000001f0: 47ba f0bb c8ab 843e 307c 3935 8284 02bd
00000200: 086f 423d 4529 583d 3a93 7e2f 7136 293c
00000210: 4c6e 85ac 96fb 603d 4114 cc3d 19a3 ad32
00000220: 90bc f1b1 5ae4 a334 4377 1c3c 8c04 a3bd
00000230: da5a 9cbb 18c8 ff2f 7bfe 0e2d 2f9e ca31
00000240: 1f8c 63ab 31ef e7bc 0d14 20bd 139d a4ae
00000250: 0f1e e1bc eaf1 753b e04e 9fb4 2cdf fcbb
00000260: 69c5 69bd 8722 a038 fe83 17ac f422 b4bd
00000270: 1462 102a 12ab ae3d 4c20 2dbd 419e 06b1
00000280: 1270 0e2f b86f 7331 bc9f c03b 4ff2 0ebe
00000290: 502b 083d e307 9a2d 4117 d2a7 cf11 4eb0
000002a0: c1ec 1bae 9241 55bd 0d6b 113c 0e3e 9caf
000002b0: b11d a7bc ba54 13bd 5f6b 28b5 c25a 05bd
000002c0: 2baa a8bc 1a78 a5bc fea9 4aaf 5b69 003c
000002d0: dcc6 582c dec1 9e3d 96fe f1bd d88b 9db2
000002e0: aafa bf31 a283 85b4 89ed a73b 7349 92bd
000002f0: 5c71 98bd dde2 e4af 05df f4ac a3bc b8b1
00000300: cd9d e32e 5dc3 a0bd f433 c53d e636 5f30
00000310: 4eb7 c33d f26c 8c3c 9324 f235 a472 c5bc
00000320: 9513 4d3d 9941 7cbd 6303 1430 521f 1bbd
00000330: 44b2 1fad c0c9 8ebb 4466 01bd 7a37 5333
00000340: ca52 8cb2 743c 3735 eb8f 3dbc 1d0d fdbc
00000350: 01ae bc3c 60d0 a630 ed60 b22d 491a 8532
00000360: efa7 372e 770c 6d3c 8db5 243c 057d 8d2f
00000370: 86d9 edbc c04c b13c bd3a 3f35 7e7e 72bd
00000380: 2008 1aba cea4 69bd 85dc 6a2f 6bc2 a23d
00000390: 378d 80ac 94cd 8c3b 003d e63b ec9e a832
000003a0: 4cb6 bab1 2e6d d9b2 d18e 8dbb 6371 8ebd
000003b0: 9eaf 5c3c dfb9 1930 4f5e 0f2d 965f d331
000003c0: 044c afa9 f6c6 602a 4092 66ab 8d61 b7ab
000003d0: 8e17 0fac 30d3 a0aa 3f01 9828 0597 be2b
000003e0: 0fce f12b e16b 22ab 4d89 bdab d69d 4e2a
000003f0: b66a dd29 e6ce 682c 0429 f5a9 53e6 f2aa

BCBlocks.0.1.f2.0.block.0.weight f4 [24, 1, 3, 1]
0.009820398 0.009575417 0.008888177 -0.08144307 0.20970264 0.14368264 -0.034989208 0.21215498
-0.13237448 9.1158206e-08 1.6141655e-07 1.3372401e-07 -0.117498405 0.1745895 -0.11119819 0.083613336
0.100363396 0.09933506 0.035058834 -0.20155779 0.14503212 0.05713679 0.13518122 0.062127974
-0.0870347 0.041054912 -0.101967946 -0.10213161 0.10626194 0.14787932 -3.3854022e-12 -6.4552808e-12
6.705155e-12 -0.048884433 0.16959278 0.0950809 4.5645374e-06 7.908149e-06 1.1453644e-05 0.024068683
0.16769232 0.03123372 0.02883667 -0.19258349 -0.038239766 0.007073413 0.21678185 0.07629715
-0.035379805 -0.07900774 -0.108296916 -0.08105157 0.23965658 0.11353777 -0.114016116 -0.30261916
-0.00926713 -0.20490392 0.23217943 0.03258259 -0.044671252 0.14360154 0.08181098 2.0620855e-06
5.3857722e-05 0.00016887579 0.03686197 0.1882431 -0.10235464 0.094785556 0.062307075 0.066694506
00000000: bce5 203c 36e2 1c3c b79f 113c a0cb a6bd
00000010: 4abc 563e 8b21 133e d850 0fbd 283f 593e
00000020: 2d8d 07be c1c2 c333 d851 2d34 c795 0f34
00000030: 01a3 f0bd 97c7 323e e0bb e3bd 783d ab3d
00000040: 538b cd3d 2e70 cb3d da99 0f3d 2a65 4ebe
00000050: 4d83 143e 4408 6a3d f26c 0a3e e779 7e3d
00000060: 403f b2bd 3229 283d 92d4 d0bd 612a d1bd
00000070: dc9f d93d ad6d 173e fc39 6eac 0020 e3ac
00000080: abea eb2c 0b3b 48bd bba9 2d3e c6b9 c23d
00000090: 1429 9936 3ead 0437 0729 4037 b02b c53c
000000a0: 89b7 2b3e dcdd ff3c e13a ec3c 9b34 45be
000000b0: 4da1 1cbd 17c8 e73b 10fc 5d3e ae41 9c3d
000000c0: 6aea 10bd cfce a1bd c6ca ddbd 5efe a5bd
000000d0: 8968 753e 7e86 e83d 4881 e9bd e6f0 9abe
000000e0: 29d5 17bc 55d2 51be 72c0 6d3e 5275 053d
000000f0: 34f9 36bd 480c 133e 848c a73d 5c62 0a36
00000100: 4ae5 6138 4014 3139 94fc 163d cdc2 403e
00000110: 4f9f d1bd ee1e c23d b435 7f3d 2197 883d

BCBlocks.0.1.f2.0.block.1.ssnorm.weight f4 [120]
0.01482236 0.00044555846 -0.0021687583 0.0035228701 0.0064775683 0.20335503 0.08288342 0.082550704
0.02065984 0.07153772 0.089466475 0.13066196 0.07518335 0.00078592345 0.07963886 2.9753494e-08
-2.551777e-09 -6.5402825e-09 1.3944515e-07 1.8571167e-07 0.048735525 0.052949186 0.07909682 0.09653711
0.018272985 0.031313684 0.103320554 0.0916902 0.049533915 0.12397461 -0.11070437 -0.13559361
-0.19243255 -0.071852505 -0.058124762 0.063611686 0.1154665 0.18595973 0.17457423 0.20214283
-0.041720543 -0.017949453 -0.0012211743 0.003998889 -0.031459853 0.12112039 0.0559137 0.14264841
0.05485384 0.17272806 3.8811996e-12 9.063523e-12 3.363085e-12 5.723569e-12 3.444455e-13 0.014443808
0.085454464 0.13278082 0.10327021 0.18606125 1.3993387e-05 4.771868e-06 9.2654517e-07 -2.0912244e-06
-6.423278e-07 0.117305025 0.12861167 0.14396045 0.16895625 0.18296404 -0.15875956 0.19151658
0.008165129 0.17437637 0.17972511 0.17617582 0.089822225 0.100319676 0.051468067 0.10489948
0.075146325 -0.08585147 -0.11607868 -0.07957745 -0.13509698 0.08778337 0.1402224 0.16338766
0.10830288 0.12399081 0.20367183 0.2029619 0.25308436 0.32480705 0.32863608 0.09266614
0.17361586 0.1074607 0.057788324 0.024790684 0.08635301 0.123468846 0.065956935 0.03817663
0.03984499 5.1676725e-05 3.0545885e-05 0.00016384266 0.00018026626 8.1835904e-05 0.039335247 0.11950998
0.08119098 0.048253525 -0.023742586 0.0611153 0.0394323 0.11278589 -0.0658319 0.17322108
00000000: 7cd9 723c d899 e939 ba21 0ebb f4df 663b
00000010: c841 d43b 4d3c 503e c8be a93d 5810 a93d
00000020: d33e a93c 5e82 923d 333a b73d 40cc 053e
00000030: baf9 993d 6e06 4e3a b319 a33d a094 ff32
00000040: 565b 2fb1 efb8 e0b1 64ba 1534 0968 4734
00000050: e79e 473d 3fe1 583d 83fd a13d 40b5 c53d
00000060: 3ab1 953c c742 003d ba99 d33d 12c8 bb3d
00000070: 13e4 4a3d 66e6 fd3d f9b8 e2bd 0dd9 0abe
00000080: 0a0d 45be 6827 93bd 3b14 6ebd d846 823d
00000090: b379 ec3d 3a6c 3e3e 96c3 323e 88fe 4e3e
000000a0: 29e3 2abd bb0a 93bc cf0f a0ba 1d09 833b
000000b0: 0cdc 00bd f80d f83d c405 653d 6d12 123e
000000c0: 6cae 603d a0df 303e bd8e 882c 7b72 1f2d
000000d0: f4a7 6c2c 5461 c92c d4e7 c12a b9a5 6c3c
000000e0: c002 af3d b2f7 073e 557f d33d d786 3e3e
000000f0: 24c5 6a37 091e a036 b3b7 7835 f656 0cb6
00000100: 6e6c 2cb5 9e3d f03d c7b2 033e 5e6a 133e
00000110: de02 2d3e ed5a 3b3e de91 22be ec1c 443e
00000120: 09c7 053c b88f 323e dc09 383e 6f67 343e
00000130: b7f4 b73d 6774 cd3d 2ed0 523d 8ad5 d63d
00000140: 51e6 993d e5d2 afbd a9ba edbd 81f9 a2bd
00000150: dd56 0abe c4c7 b33d 7696 0f3e 184f 273e
00000160: e6cd dd3d e5ee fd3d 598f 503e 3fd5 4f3e
00000170: 4694 813e 1c4d a63e fd42 a83e bfc7 bd3d
00000180: 5bc8 313e 5b14 dc3d 73b3 6c3d d515 cb3c
00000190: d9d9 b03d 3cdd fc3d 6e14 873d 195f 1c3d
000001a0: 8034 233d 76bf 5838 651e 0038 2ecd 2b39
000001b0: db05 3d39 519f ab38 ff1d 213d a6c1 f43d
000001c0: 7547 a63d 7da5 453d d07f c2bc 0954 7a3d
000001d0: c383 213d 4afc e63d e0d2 86bd de60 313e
