model.pth (torch, 323271 bytes, 165 tensors)

cnn_head.0.weight f4 [48, 1, 5, 5]
0.15191568 0.1674484 -0.03803429 0.1826134 -0.038679123 0.042302057 -0.095383614 0.12309014
0.1809211 -0.13430755 0.16336967 0.026457962 0.13597493 0.015519459 0.09209122 -0.013160735
0.16474688 0.038477786 -0.085127525 0.05708445 -0.0973499 -0.026564997 -0.083694294 0.12733085
-0.15781775 -0.072417304 -0.034886803 -0.094002835 0.058147296 -0.16526812 0.17792149 -0.16009726
0.15811782 0.04616415 -0.05276949 0.13781558 0.05303022 0.18492907 0.05234236 -0.028779365
0.04064774 -0.050129384 0.094286844 0.18987647 0.13819805 -0.08832357 0.11897149 0.0452012
0.11642912 -0.09246673 -0.23724192 -0.101453684 -0.17270759 0.17668396 0.0741146 0.06284368
0.050628427 -0.015622151 0.17048879 -0.12447619 -0.04087839 -0.17241192 0.019360159 -0.07849493
0.06159187 -0.11753525 0.111511126 -0.15548782 -0.14455469 -0.1267187 0.12621541 0.04654358
0.17393091 -0.1590197 -0.18097696 -0.12340633 -0.10497907 0.10283286 0.10326326 0.21780735
-0.048251256 -0.09267275 0.15010482 -0.040058482 0.17256047 -0.018852605 0.122289605 -0.13881674
-0.0887224 0.098261856 0.089086145 -0.024024058 0.14396153 0.1557788 -0.1108926 -0.061469946
0.22041374 -0.031457085 -0.05370632 -0.17000811 -0.10470784 0.0580607 -0.026568782 -0.14570978
-0.002474352 -0.12503672 -0.15822381 -0.106707074 -0.17375985 -0.13166845 0.20997237 0.048707563
0.06641556 -0.18001646 -0.1327984 -0.055481527 0.04155045 -0.16877805 -0.083030775 -0.1202905
0.011493363 -0.060944848 -0.010923843 -0.13413753 -0.13839199 -0.10667004 -0.06422338 -0.17126034
0.16089125 -0.03210062 0.1826007 0.069276184 -0.1730474 0.14336221 -0.037990928 -0.09743081
-0.1915686 -0.24284023 0.023922712 -0.055262495 0.050907142 -0.19232893 0.09489279 -0.18831746
-0.0614596 0.009789223 0.06400891 0.09804259 0.116153225 -0.20257951 0.0689891 -0.07148571
-0.009475421 -0.16425042 0.19921038 -0.14307779 0.088429496 0.050425943 0.024517402 -0.108140126
0.1708826 0.009526492 0.0034016212 -0.22235076 0.03413767 -0.005822165 -0.10867212 0.1518744
0.01911866 -0.13171399 -0.08596854 -0.03017021 0.08313788 -0.093458004 -0.13721621 -0.026136892
-0.12224094 0.09659503 0.17880408 -0.15267132 0.050267007 0.10464465 0.02985718 -0.069832474
0.1180939 0.1252528 0.09701119 -0.0098688295 -0.032700524 0.044421356 -0.045680918 -0.05364064
0.13812742 0.17082322 -0.003683246 -0.024097564 0.018737623 0.013879753 0.074516326 0.08798406
-0.14566156 -0.040491708 0.18531507 0.074668266 -0.015200796 -0.08151218 -0.08231277 -0.14555013
-0.061455105 0.06142376 0.17882703 0.13446788 -0.14170681 -0.098047756 -0.025022306 0.23071796
0.061649457 -0.0284189 0.09617073 -0.07406578 -0.11352977 0.15926637 -0.094781235 -0.05756701
-0.21153 0.13129148 0.1385279 0.049867403 -0.15647501 -0.20729655 -0.16928343 0.1324139
0.07044894 0.148505 0.0937516 0.06676183 0.002472002 -0.16190173 -0.17649761 -0.19070157
0.09170493 -0.09746088 -0.054735832 -0.118736774 -0.038024545 -0.13377163 -0.12622826 0.05500997
-0.06472045 0.11799614 -0.09429667 -0.1741227 -0.073027164 -0.10152991 -0.064844914 -0.23024215
00000000: c98f 1b3e 9877 2b3e d8c9 1bbd 02ff 3a3e
00000010: 006e 1ebd ec44 2d3d 7c58 c3bd af16 fc3d
00000020: 6143 393e eb87 09be 614a 273e 5ebe d83c
00000030: 033d 0b3e 5445 7e3c 529a bc3d 20a0 57bc
00000040: 68b3 283e e29a 1d3d 5757 aebd 62d1 693d
00000050: 625f c7bd d69e d9bc ea67 abbd 0563 023e
00000060: fa9a 21be 864f 94bd 77e5 0ebd 8f84 c0bd
00000070: dc2b 6e3d 0c3c 29be 0d31 363e 89f0 23be
00000080: a3e9 213e 9f16 3d3d d224 58bd 871f 0d3e
00000090: 3736 593d 0c5e 3d3e f164 563d b4c2 ebbc
000000a0: 3f7e 263d 7854 4dbd 7619 c13d fa6e 423e
000000b0: ca83 0d3e fde2 b4bd 53a7 f33d e524 393d
000000c0: 6472 ee3d 325f bdbd 8cef 72be f3c6 cfbd
000000d0: 42da 30be a4ec 343e 65c9 973d 30b4 803d
000000e0: c15f 4f3d 0df4 7fbc 9d94 2e3e 5fed febd
000000f0: 1970 27bd c08c 30be 3299 9e3c f3c1 a0bd
00000100: c247 7c3d 52b6 f0bd f25f e43d 3338 1fbe
00000110: 2506 14be 8cc2 01be 9d3e 013e 7ba4 3e3d
00000120: f21a 323e 0fd6 22be 0652 39be 75bc fcbd
00000130: 44ff d6bd 099a d23d b07b d33d e408 5f3e
00000140: 1ca3 45bd 36cb bdbd 14b5 193e 5d14 24bd
00000150: b1b3 303e c770 9abc f972 fa3d fa25 0ebe
00000160: 17b4 b5bd 833d c93d cc72 b63d 1ace c4bc
00000170: a76a 133e 7a84 1f3e a91b e3bd e9c7 7bbd
00000180: 24b4 613e 25d9 00bd 28fb 5bbd 9b16 2ebe
00000190: 1071 d6bd 0ed1 6d3d c6a6 d9bc f234 15be
000001a0: bd28 22bb a009 00be 6c05 22be 3d89 dabd
000001b0: 1aee 31be 18d4 06be ff02 573e 9581 473d
000001c0: e204 883d 3c56 38be 4efc 07be 9940 63bd
000001d0: ce30 2a3d 27d4 2cbe 0a0c aabd de5a f6bd
000001e0: a94e 3c3c 4ea1 79bd ebf9 32bc 595b 09be
000001f0: a1b6 0dbe d275 dabd 8c87 83bd df5e 2fbe
00000200: adc0 243e f17b 03bd aefb 3a3e ace0 8d3d
00000210: 5633 31be 8bcd 123e 609c 1bbd ce89 c7bd
00000220: 8f2a 44be 1cab 78be 90f9 c33c ed5a 62bd
00000230: 0284 503d e0f1 44be 2757 c23d 4bd6 40be
00000240: 10bd 7bbd fa62 203c 1a17 833d 8eca c83d
00000250: bee1 ed3d 0171 4fbe 284a 8d3d 1a67 92bd
00000260: cc3e 1bbc 4331 28be cefd 4b3e fc82 12be
00000270: 861a b53d 6f8b 4e3d b8d8 c83c 9278 ddbd
00000280: d9fb 2e3e 0115 1c3c bced 5e3b ebaf 63be
00000290: f1d3 0b3d dcc7 bebb 7d8f debd f684 1b3e
000002a0: bc9e 9c3c 08e0 06be 4610 b0bd 8427 f7bc
000002b0: 3144 aa3d e966 bfbd 6882 0cbe 091d d6bc
000002c0: 7559 fabd 9dd3 c53d 6b18 373e df55 1cbe
000002d0: c7e4 4d3d ef4f d63d 0b97 f43c 5404 8fbd
000002e0: 37db f13d 4542 003e cead c63d dfb0 21bc
000002f0: fcf0 05bd 2bf3 353d ea1b 3bbd 4ab6 5bbd
00000300: 4671 0d3e 48ec 2e3e 9d62 71bb 4168 c5bc
00000310: a57f 993c e767 633c 049c 983d fd30 b43d
00000320: 4e28 15be a2da 25bd 3cc3 3d3e adeb 983d
00000330: c20c 79bc dcef a6bd 9993 a8bd 180b 15be
00000340: 59b8 7bbd 7b97 7b3d 6f1e 373e f3b1 093e
00000350: 971b 11be 43cd c8bd 94fb ccbc 5441 6c3e
00000360: 2484 7c3d c1ce e8bc 29f5 c43d cdaf 97bd
00000370: 4c82 e8bd b916 233e aa1c c2bd 63cb 6bbd
00000380: 529b 58be 4671 063e 42da 0d3e c341 4c3d
00000390: fc3a 20be 8c45 54be a358 2dbe 8297 073e
000003a0: 8947 903d b211 183e d700 c03d 6dba 883d
000003b0: 5001 223b 91c9 25be cabb 34be 4647 43be
000003c0: cbcf bb3d 9299 c7bd ae32 60bd 442c f3bd
000003d0: a0bf 1bbd 6efb 08be fb41 01be 2252 613d
000003e0: 288c 84bd f6a7 f13d 9d1e c1bd 394d 32be
000003f0: 448f 95bd eaee cfbd 69cd 84bd 99c4 6bbe

cnn_head.1.weight f4 [48]
0.97799426 1.002037 0.9749598 1.0043222 0.9891812 0.9919607 0.97509015 0.9931161
0.99983615 0.980406 0.9984112 0.9902758 0.98853564 0.9785629 0.9868199 0.966229
0.99445987 0.97757244 0.97344774 0.98212963 0.9703289 0.9872369 0.9579671 0.99423796
0.98888063 1.0098377 0.9887459 0.97439724 0.98514974 0.96802735 1.0035301 0.961276
0.97533625 0.99454653 0.9808264 0.9771077 0.9810219 0.98126185 0.99321866 0.95457524
1.004549 0.963428 0.99587727 0.9807033 1.0089889 0.9933908 0.997261 0.97006094
00000000: d55d 7a3f c042 803f f796 793f a18d 803f
00000010: fb3a 7d3f 23f1 7d3f 829f 793f db3c 7e3f
00000020: 43f5 7f3f e3fb 7a3f e097 7f3f b782 7d3f
00000030: ac10 7d3f 1983 7a3f 3ba0 7c3f c95a 773f
00000040: ec94 7e3f 3042 7a3f df33 793f d96c 7b3f
00000050: 7a67 783f 8fbb 7c3f 553d 753f 6186 7e3f
00000060: 4827 7d3f 5d42 813f 741e 7d3f 1972 793f
00000070: c632 7c3f a4d0 773f ad73 803f 2f16 763f
00000080: a3af 793f 9a9a 7e3f 7017 7b3f bb23 7a3f
00000090: 4024 7b3f fa33 7b3f 9443 7e3f 0b5f 743f
000000a0: 1095 803f 38a3 763f d0f1 7e3f 5f0f 7b3f
000000b0: 8c26 813f dc4e 7e3f 7f4c 7f3f ea55 783f

cnn_head.1.bias f4 [48]
0.0067549627 0.00860519 -0.0032067983 0.0107890805 0.0065125953 0.0046796403 0.013338453 0.006768293
0.015404095 0.014274763 -0.006549094 -0.007012805 -0.0030327523 -0.0023888496 -0.002829976 -0.007086589
0.0138090765 -0.005169654 0.015064906 -0.004341336 -0.011553595 0.012383451 -0.02347059 0.014012238
0.0022967015 0.018430948 0.020974465 -0.0147102205 0.014984756 -0.0074451463 0.015006065 -0.009507768
-0.014602094 0.007153858 -0.0036730263 -0.011578274 -0.009379382 -0.0061173933 -0.0009779311 -0.0037380387
0.008325818 -0.012809083 -0.0052423 0.017419938 0.020973908 -0.011931984 0.020004254 0.0024784477
00000000: bc58 dd3b c8fc 0c3c 2629 52bb afc4 303c
00000010: 9c67 d53b ab57 993b 8789 5a3c 8fc8 dd3b
00000020: 7561 7c3c b2e0 693c c899 d6bb accb e5bb
00000030: 24c1 46bb 3f8e 1cbb 1e77 39bb 9e36 e8bb
00000040: 773f 623c 3366 a9bb ccd2 763c c441 8ebb
00000050: 4a4b 3dbc f5e3 4a3c 6545 c0bc 9693 653c
00000060: 4284 163b 80fc 963c a4d2 ab3c 2303 71bc
00000070: 9f82 753c 6af6 f3bb 00dc 753c 78c6 1bbc
00000080: 9f3d 6fbc e96a ea3b 28b7 70bb cdb2 3dbc
00000090: fbab 19bc 6a74 c8bb ec2d 80ba e2f9 74bb
000000a0: 0369 083c 30dd 51bc 9ac7 abbb 42b4 8e3c
000000b0: 79d1 ab3c 5e7e 43bc f6df a33c 746d 223b

cnn_head.1.running_mean f4 [48]
-2.660819 -2.0656176 2.0521293 -0.3029779 4.7323947 2.3555782 0.99508595 -2.1584108
1.0047394 1.6099099 0.96140015 3.9036248 -2.0770342 4.407996 -1.1609323 -2.172087
1.9375035 2.8704822 2.575615 -2.610538 1.3761811 -1.5683744 1.219195 -1.694892
1.7478977 3.213228 -1.7379591 -1.4260913 -2.5959158 -2.92844 0.0008626186 1.857018
-1.4321787 1.9953187 -2.3427858 -2.322137 -2.691646 3.7304718 0.84056365 -3.216854
2.61784 1.443489 -2.9802663 0.7254171 1.3296776 -1.7110683 -2.41714 2.1452284
00000000: dc4a 2ac0 1433 04c0 1656 0340 eb1f 9bbe
00000010: c76f 9740 cbc1 1640 f4bd 7e3f 6723 0ac0
00000020: 4d9b 803f 8711 ce3f 521e 763f fdd4 7940
00000030: 21ee 04c0 4e0e 8d40 6e99 94bf 7903 0bc0
00000040: 1d00 f83f fbb5 3740 e0d6 2440 0e13 27c0
00000050: b426 b03f 7ec0 c8bf 950e 9c3f 39f2 d8bf
00000060: 1dbb df3f 87a5 4d40 7275 debf 298a b6bf
00000070: 7c23 26c0 906b 3bc0 5b21 623a c4b2 ed3f
00000080: a251 b7bf 9a66 ff3f 34f0 15c0 e59d 14c0
00000090: ee43 2cc0 0dc0 6e40 2e2f 573f f0e0 4dc0
000000a0: b18a 2740 3fc4 b83f afbc 3ec0 efb4 393f
000000b0: e032 aa3f 4904 dbbf 6cb2 1ac0 6c4b 0940

cnn_head.1.running_var f4 [48]
12.053945 7.8870945 6.6196694 1.7438407 34.486893 9.049179 1.9296836 7.2331824
2.5895743 4.886035 3.513714 22.535965 8.032978 29.09551 4.5381083 8.684339
6.7939806 13.062864 10.988775 10.361633 4.627444 5.3975263 4.320767 5.7347646
6.2955284 15.26793 4.808512 5.9893103 10.400126 13.209039 1.9856131 6.5915947
3.8059921 7.309363 9.510544 9.289697 11.535229 20.529364 3.0416644 17.050117
11.231265 3.7691474 13.230297 3.7897885 5.131095 7.3550124 9.331803 7.5854454
00000000: f5dc 4041 1463 fc40 55d4 d340 2c36 df3f
00000010: 94f2 0942 70c9 1041 dfff f63f 3b76 e740
00000020: 96bb 2540 665a 9c40 b1e0 6040 a849 b441
00000030: 1487 0041 9bc3 e841 2f38 9140 0df3 0a41
00000040: 4a68 d940 7e01 5141 06d2 2f41 40c9 2541
00000050: 0514 9440 89b8 ac40 b943 8a40 3183 b740
00000060: f874 c940 7149 7441 55df 9940 6ea8 bf40
00000070: eb66 2641 3958 5341 9228 fe3f 58ee d240
00000080: 6095 7340 4de6 e940 302b 1841 99a2 1441
00000090: 4c90 3841 233c a441 a1aa 4240 a466 8841
000000a0: 43b3 3341 b639 7140 4caf 5341 e58b 7240
000000b0: ee31 a440 435c eb40 114f 1541 f8bb f240

BCBlocks.0.0.f2.0.block.0.weight f4 [24, 48, 1, 1]
-0.106743425 -0.01365591 -0.06390646 0.13149685 -0.057862293 -0.09622223 0.036247585 0.004973737
0.10626825 0.067466065 0.18564773 -0.10853202 0.10937256 0.12171575 -0.07569365 0.116963536
0.107841514 0.04403654 0.08980389 -0.019038213 -0.11904676 0.058061056 0.037645753 -0.09284502
0.07663055 -0.12350578 0.11138865 0.15674628 0.063393496 -0.056924053 0.053610917 0.03658664
0.04579164 0.03521333 0.0921718 -0.09856034 -0.059308436 0.025080424 0.029342746 0.08048346
-0.070411816 0.0096487645 0.032100804 0.02257285 0.11077387 0.010399785 -0.15305732 -0.050109778
-0.06583715 -0.0014894381 -0.029073518 -0.1197414 -0.014701073 -0.03144998 -0.037072934 0.12112765
-0.012395564 0.0991396 0.04125205 -0.10236666 0.012943425 0.12954123 -0.09239799 -0.08193599
0.16563345 0.13356672 -0.07025148 0.07343209 -0.011726097 -0.14636397 0.022550276 0.056768566
-0.012230142 0.065138154 -0.12840764 0.0777192 0.09597808 0.069309816 0.036144912 0.07756291
-0.1154978 -0.031438157 -0.017775524 -0.07939453 -0.10548123 0.11301257 0.102112085 -0.122207485
0.07093996 0.051258467 0.12205241 0.052253038 0.15658872 -0.02004909 0.091105565 0.13813654
-0.16579846 -0.13934584 0.035160683 0.06369349 -0.1020082 0.009784466 -0.025417142 -0.0041684033
-0.10157777 0.06070481 0.06636829 -0.1258223 -0.026510485 -0.028589267 0.034937244 0.08417348
0.0048087635 -0.06493871 0.09905404 -0.07755775 -0.08121205 -0.033166997 -0.1310766 -0.019154726
-0.12179079 -0.0067190174 -0.01563207 -0.0055691088 -0.14712472 -0.16429166 0.05914142 0.106089905
-0.14997493 0.014285664 -0.12290288 -0.016781397 0.091196574 0.07721942 -0.14117923 0.053724654
0.046017095 -0.035135698 0.111383125 -0.07503515 -0.072347 -0.09413487 -0.01687781 0.008747648
0.020235622 -0.079126075 -0.03935089 0.10034158 -0.093126126 0.005658475 0.036620893 -0.052829962
0.08275353 0.045099884 0.09205843 0.032233994 -0.088330284 0.13178152 0.043283634 -0.033014316
-0.070823625 0.05963789 -0.13673997 0.026362265 0.07421688 -0.13381727 -0.04669865 -0.05791105
0.1514625 0.17336388 0.035753906 0.12722078 -0.057850555 -0.12724796 0.06334386 0.067380324
0.1335147 0.030799402 0.1307406 0.10133703 0.09941744 -0.09992831 0.12193676 -0.0985404
0.17384101 0.0023362883 -0.12579817 0.0032855843 -0.03419179 -0.11444175 -0.042984866 0.06337037
0.04650046 -0.12281568 0.09638434 0.0971524 0.008483315 0.06863434 -0.0763285 -0.16930819
-0.038593814 -0.117878966 -0.07721872 0.035808418 -0.1385076 -0.041657306 -0.095249355 -0.0502423
-0.049724076 0.040184245 0.0083432775 -0.036965616 0.016844608 -0.05336125 -0.018562661 -0.022542732
-0.024881879 0.039691407 -0.038362656 0.014827488 -0.027038941 0.04116018 -0.026607059 -0.014644308
0.03519387 -0.08091298 -0.06332379 -0.096243314 -0.10379563 -0.03215723 0.16733825 0.026849214
0.08792276 0.123408645 -0.20134552 -0.049573798 0.16275698 0.114829645 -0.1559916 0.06978163
-0.07059456 -0.02316979 -0.08959081 -0.155745 -0.19186881 -0.12319726 -0.0026082562 0.0041366504
-0.18380293 -0.10652448 -0.032456465 -0.15906206 0.048535522 0.076916225 0.004546856 -0.14627597
00000000: 4c9c dabd 0abd 5fbc 64e1 82bd 1ca7 063e
00000010: 0301 6dbd 2910 c5bd 5978 143d bbfa a23b
00000020: 2ba3 d93d a62b 8a3d 701a 3e3e 0946 debd
00000030: b9fe df3d 1b46 f93d 4605 9bbd 948a ef3d
00000040: 03dc dc3d a95f 343d 1aeb b73d 07f6 9bbc
00000050: cace f3bd 6ed1 6d3d 6f32 1a3d 8825 bebd
00000060: 7af0 9c3d 99f0 fcbd bc1f e43d 1982 203e
00000070: 73d4 813d 3229 69bd 1f97 5b3d dfdb 153d
00000080: 0490 3b3d da3b 103d 92c4 bc3d 01da c9bd
00000090: 67ed 72bd 7675 cd3c 3360 f03c 83d4 a43d
000000a0: 1234 90bd da15 1e3c 227c 033d b3ea b83c
000000b0: 69dd e23d dc63 2a3c 0fbb 1cbe e93f 4dbd
000000c0: a1d5 86bd 4039 c3ba 962b eebc fb3a f5bd
000000d0: c5dc 70bc b2d1 00bd cad9 17bd c611 f83d
000000e0: c316 4bbc b409 cb3d e9f7 283d 9da5 d1bd
000000f0: a910 543c 75a6 043e 283b bdbd 0ece a7bd
00000100: d19b 293e b7c5 083e 02e0 8fbd 9063 963d
00000110: d11e 40bc 70e0 15be 5bbb b83c 2886 683d
00000120: ef60 48bc 2767 853d 4b7d 03be 3e2b 9f3d
00000130: 2890 c43d 4ef2 8d3d b00c 143d 4ed9 9e3d
00000140: 1c8a ecbd 4cc5 00bd fa9d 91bc 9999 a2bd
00000150: 8b06 d8bd 2273 e73d 2420 d13d eb47 fabd
00000160: f848 913d 66f4 513d 9df6 f93d 4807 563d
00000170: cb58 203e fd3d a4bc 8e95 ba3d aa73 0d3e
00000180: 12c7 29be adb0 0ebe a604 103d bc71 823d
00000190: ade9 d0bd 064f 203c 9c37 d0bc 1a97 88bb
000001a0: 0208 d0bd 9ba5 783d 19ec 873d 90d7 00be
000001b0: 842c d9bc 0a34 eabc 5b1a 0f3d 2563 ac3d
000001c0: d592 9d3b 96fe 84bd d8dc ca3d 99d6 9ebd
000001d0: 8152 a6bd 1eda 07bd f238 06be 5fea 9cbc
000001e0: 736d f9bd 342b dcbb d40e 80bc 127d b6bb
000001f0: dda7 16be 133c 28be 463e 723d aa45 d93d
00000200: 0793 19be 6b0e 6a3c 81b4 fbbd 2479 89bc
00000210: 45c5 ba3d 3725 9e3d 4a91 10be 620e 5c3d
00000220: 6c7c 3c3d 73ea 0fbd d61c e43d 07ac 99bd
00000230: aa2a 94bd c8c9 c0bd 5543 8abc 4c52 0f3c
00000240: 2dc5 a53c da0c a2bd 662e 21bd e37f cd3d
00000250: e9b8 bebd bb6a b93b caff 153d 3b64 58bd
00000260: af7a a93d a8ba 383d 2189 bc3d cb07 043d
00000270: 82e6 b4bd bcf1 063e 2e4a 313d 053a 07bd
00000280: fa0b 91bd dc46 743d 9005 0cbe adf5 d73c
00000290: 05ff 973d 6507 09be 1547 3fbd 2334 6dbd
000002a0: fc18 1b3e 4d86 313e b072 123d 2a46 023e
000002b0: b4f4 6cbd 4a4d 02be 6dba 813d b2fe 893d
000002c0: 14b8 083e 074f fc3c dde0 053e ca89 cf3d
000002d0: 5f9b cb3d 37a7 ccbd fbb9 f93d 8dcf c9bd
000002e0: 6103 323e 6a1c 193b 3cd1 00be f552 573b
000002f0: b10c 0cbd 7060 eabd e610 30bd 53c8 813d
00000300: 4477 3e3d ca86 fbbd 2765 c53d d6f7 c63d
00000310: 9afd 0a3c 2990 8c3d 1e52 9cbd 205f 2dbe
00000320: 8c14 1ebd 876a f1bd d924 9ebd d9ab 123d
00000330: f0d4 0dbe daa0 2abd 1812 c3bd dfca 4dbd
00000340: 79ab 4bbd 3c98 243d 3eb2 083c 4269 17bd
00000350: b4fd 893c 5391 5abd b910 98bc 89ab b8bc
00000360: 15d5 cbbc 7593 223d 2922 1dbd feee 723c
00000370: c580 ddbc 9497 283d 0cf7 d9bc aeee 6fbc
00000380: 7327 103d b4b5 a5bd e7af 81bd 371b c5bd
00000390: ce92 d4bd 4db7 03bd b85a 2b3e e2f2 db3c
000003a0: d910 b43d acbd fc3d 852d 4ebe e50d 4bbd
000003b0: c4a9 263e ce2b eb3d 43bc 1fbe ace9 8e3d
000003c0: e193 90bd 92ce bdbc 637b b7bd 9e7b 1fbe
000003d0: 4279 44be d84e fcbd 47ef 2abb bd8c 873b
000003e0: d636 3cbe 8229 dabd 12f1 04bd 2ae1 22be
000003f0: 2fcd 463d 4186 9d3d cbfd 943b 5ec9 15be

BCBlocks.0.0.f2.0.block.1.weight f4 [24]
0.9847515 0.9847251 0.9847445 0.98469275 0.9846894 0.98459136 0.9847422 0.98471546
0.9848761 0.98398155 0.9847577 0.98480624 0.9847385 0.98478854 0.98480415 0.9848109
0.98486286 0.9848495 0.98472637 0.98483735 0.9839984 0.9847238 0.98498887 0.9847364
00000000: ad18 7c3f f216 7c3f 3718 7c3f d314 7c3f
00000010: 9b14 7c3f 2e0e 7c3f 1118 7c3f 5016 7c3f
00000020: d720 7c3f 37e6 7b3f 1519 7c3f 431c 7c3f
00000030: d317 7c3f 1a1b 7c3f 201c 7c3f 911c 7c3f
00000040: f91f 7c3f 191f 7c3f 0717 7c3f 4d1e 7c3f
00000050: 52e7 7b3f dc16 7c3f 3b28 7c3f af17 7c3f

BCBlocks.0.0.f2.0.block.1.bias f4 [24]
-0.0031670218 -0.009740431 0.0036391641 -0.019749582 -0.0172741 0.027476402 -0.014134236 -0.01550202
0.010071808 0.049918424 0.0062510865 -0.0024033256 -0.009435663 -0.01180104 -0.004775158 0.008379068
0.010203553 0.008576114 -0.015088494 0.022840822 0.053785566 -0.02485376 0.016391722 -0.011804735
00000000: cf8d 4fbb 5496 1fbc 0b7f 6e3b e0c9 a1bc
00000010: 6a82 8dbc 3116 e13c 4893 67bc 2ffc 7dbc
00000020: 3904 253c 4377 4c3d ead5 cc3b 1d81 1dbb
00000030: 0a98 1abc 2659 41bc ee78 9cbb 5c48 093c
00000040: ce2c 273c d482 0c3c bb35 77bc ad1c bb3c
00000050: 414e 5c3d 1d9a cbbc ef47 863c a668 41bc

BCBlocks.0.0.f2.0.block.1.running_mean f4 [24]
0.35382923 0.28317505 -0.42623457 0.18282712 -0.3576575 -0.6222503 0.4267841 0.081301264
0.20835033 -0.38374385 0.33655635 0.38665947 -0.44768247 0.07017879 0.20729467 -0.27944368
-0.39179793 -0.6031332 0.20889987 0.7675025 -0.1848122 -0.16681077 -0.40132028 -0.18220791
00000000: 1b29 b53e 52fc 903e 6b3b dabe 0837 3b3e
00000010: e21e b7be cc4b 1fbf 7283 da3e 4781 a63d
00000020: ca59 553e 137a c4be 1d51 ac3e 3bf8 c53e
00000030: a336 e5be e6b9 8f3d 0e45 543e 3e13 8fbe
00000040: bd99 c8be f066 1abf d9e9 553e 0b7b 443f
00000050: 693f 3dbe 71d0 2abe da79 cdbe b694 3abe

BCBlocks.0.0.f2.0.block.1.running_var f4 [24]
0.10329605 0.4125541 0.0798054 0.24858801 0.20004675 0.41443744 0.23995742 0.66826993
0.31743753 0.64508545 0.19346295 0.15527482 0.27008212 0.21579254 0.27924567 0.62685376
0.5115464 0.29781437 0.18545718 0.39679655 0.41245204 0.35579664 0.26518616 0.10891492
00000000: e18c d33d 4a3a d33e 0371 a33d db8d 7e3e
00000010: 0ed9 4c3e 2531 d43e 66b7 753e bd13 2b3f
00000020: 2c87 a23e 5224 253f 271b 463e 5d00 1f3e
00000030: 3448 8a3e b8f8 5c3e 4af9 8e3e 7d79 203f
00000040: b4f4 023f 207b 983e 7de8 3d3e eb28 cb3e
00000050: ea2c d33e fa2a b63e 7bc6 873e c90e df3d

BCBlocks.0.0.f2.1.block.0.weight f4 [24, 1, 3, 1]
0.17442846 0.4331835 -0.12008833 0.09447402 0.3720056 0.22984304 0.0778087 0.17537184
0.02011326 -0.4882568 0.042091765 -0.12128798 0.51571536 0.5138368 0.09850165 0.53665745
-0.28475466 0.46904698 0.5653335 0.06499914 -0.37464488 -0.17441732 -0.1615825 0.070042014
-0.5207904 0.064711355 -0.24259551 -0.14284348 -0.287392 -0.13857427 -0.5281874 -0.3031649
0.040916756 0.35876173 0.48927104 -0.4748057 0.23874071 -0.3204274 -0.43983597 -0.028660977
-0.32593027 -0.49007276 -0.5413375 -0.4017454 0.43920875 0.34447315 -0.21370128 -0.3687752
-0.44271886 -0.33438888 -0.22593412 0.31213742 0.15212484 -0.29371318 0.40645623 -0.33793724
-0.46205255 0.051287185 -0.39131144 0.13208061 0.429641 -0.30949247 -0.42919463 0.25796285
-0.45807505 0.54170144 -0.3032648 0.24414149 -0.45079845 -0.38718346 0.07870121 0.19436744
00000000: 609d 323e 3aca dd3e dff0 f5bd 987b c13d
00000010: 8577 be3e f95b 6b3e 2b5a 9f3d ad94 333e
00000020: 90c4 a43c ccfc f9be 6a68 2c3d d565 f8bd
00000030: ec05 043f cf8a 033f 3cbb c93d 6262 093f
00000040: 5dcb 91be ed26 f03e b2b9 103f 451e 853d
00000050: 74d1 bfbe 749a 32be e275 25be 3072 8f3d
00000060: 8552 05bf 6387 843d f56a 78be 9045 12be
00000070: 0b25 93be 6ae6 0dbe 4a37 07bf 6e38 9bbe
00000080: 5498 273d 9eaf b73e bc81 fa3e bc19 f3be
00000090: 7278 743e 0f0f a4be 2e32 e1be 6dca eabc
000000a0: 55e0 a6be d1ea fabe 1895 0abf 93b1 cdbe
000000b0: f8df e03e c95e b03e 82d4 5abe 1ad0 bcbe
000000c0: 0cac e2be 0535 abbe 465b 67be 7ad0 9f3e
000000d0: 9dc6 1b3e 9361 96be 081b d03e 1c06 adbe
000000e0: 2792 ecbe 8312 523d f959 c8be 2440 073e
000000f0: e8f9 db3e cc75 9ebe 66bf dbbe b513 843e
00000100: d088 eabe f2ac 0a3f 8645 9bbe 3a00 7a3e
00000110: 0ecf e6be e93c c6be 1a2e a13d 4208 473e

BCBlocks.0.0.f2.1.block.1.ssnorm.weight f4 [120]
0.978519 0.9822446 0.98011506 0.9850625 0.9877402 0.99235404 0.9768731 0.98152226
0.9785658 0.9865607 0.98936635 0.9937259 0.9814838 0.9761709 0.97144437 0.9826644
0.985172 0.9890724 0.98103034 0.9884528 0.9804622 0.98229927 0.9947139 0.99131125
0.9818965 0.98271936 0.97978157 0.9788907 0.99339837 0.97674286 0.96434426 0.98395544
0.99853384 0.9986592 0.9767943 0.983187 0.9819667 0.9903146 0.9768141 0.98775744
0.9810711 0.9867813 0.99591744 0.9757487 0.9836176 0.9911372 0.9872448 0.9877938
0.99104744 0.9844229 0.9845916 0.9856593 0.9921661 0.9896762 0.98382896 0.97978365
0.98324895 0.977723 0.9584621 0.98916525 0.9863236 0.9853471 0.98387045 0.984517
0.98347276 0.99011403 0.98224574 0.98413146 0.9709772 0.9817226 0.99102354 0.9849606
0.9767549 0.9886682 0.9834857 0.9907251 0.9876109 0.9705635 0.98304456 0.98725903
0.9857671 0.9873997 0.9751573 0.99054426 0.996267 0.998088 0.97140145 0.98265475
1.0053095 0.9868938 0.9863865 0.9807624 0.9938602 0.9844258 0.9844258 0.98388064
0.9911423 0.98193794 0.97619057 0.99196464 0.9775291 0.98959816 0.98414636 0.98888946
0.98382056 0.98198897 0.9868704 0.9786251 0.9717385 0.9779423 0.98410964 0.98320913
0.9801962 0.9860043 0.9885017 0.98368645 0.9857451 0.9771208 0.97428656 0.98701286
00000000: 3980 7a3f 6274 7b3f d2e8 7a3f 0e2d 7c3f
00000010: 8bdc 7c3f ea0a 7e3f 5b14 7a3f 0b45 7b3f
00000020: 4a83 7a3f 3e8f 7c3f 1d47 7d3f d264 7e3f
00000030: 8642 7b3f 56e6 793f 94b0 783f e58f 7b3f
00000040: 3b34 7c3f d933 7d3f ce24 7b3f 3e0b 7d3f
00000050: 92ff 7a3f f777 7b3f 92a5 7e3f 93c6 7d3f
00000060: 925d 7b3f 7f93 7b3f f7d2 7a3f 9598 7a3f
00000070: 5b4f 7e3f d20b 7a3f 44df 763f 81e4 7b3f
00000080: ea9f 7f3f 21a8 7f3f 310f 7a3f 25b2 7b3f
00000090: 2b62 7b3f 4285 7d3f 7d10 7a3f acdd 7c3f
000000a0: 7a27 7b3f b39d 7c3f 72f4 7e3f abca 793f
000000b0: 5dce 7b3f 2bbb 7d3f 13bc 7c3f 0ee0 7c3f
000000c0: 49b5 7d3f 2403 7c3f 320e 7c3f 2b54 7c3f
000000d0: 99fe 7d3f 6b5b 7d3f 37dc 7b3f 1ad3 7a3f
000000e0: 34b6 7b3f 0e4c 7a3f c65d 753f ef39 7d3f
000000f0: b47f 7c3f b53f 7c3f efde 7b3f 4e09 7c3f
00000100: dfc4 7b3f 1d78 7d3f 7574 7b3f 0af0 7b3f
00000110: f691 783f 2c52 7b3f b8b3 7d3f 6126 7c3f
00000120: 9c0c 7a3f 5c19 7d3f b8c5 7b3f 29a0 7d3f
00000130: 11d4 7c3f d976 783f cfa8 7b3f 02bd 7c3f
00000140: 3c5b 7c3f 3ac6 7c3f e9a3 793f 4f94 7d3f
00000150: 5b0b 7f3f b282 7f3f c4ad 783f 438f 7b3f
00000160: fbad 803f 12a5 7c3f d383 7c3f 3f13 7b3f
00000170: 9f6d 7e3f 5403 7c3f 5403 7c3f 9adf 7b3f
00000180: 80bb 7d3f 4960 7b3f a0e7 793f 65f1 7d3f
00000190: 593f 7a3f 4e56 7d3f 04f1 7b3f dc27 7d3f
000001a0: aadb 7b3f a163 7b3f 8aa3 7c3f 2d87 7a3f
000001b0: dbc3 783f 6d5a 7a3f 9cee 7b3f 98b3 7b3f
000001c0: 23ee 7a3f c76a 7c3f 730e 7d3f e0d2 7b3f
000001d0: ca59 7c3f 9724 7a3f d86a 793f e0ac 7c3f

BCBlocks.0.0.f2.1.block.1.ssnorm.bias f4 [120]
0.0004921291 1.474453e-05 3.1107433e-05 0.003918514 -2.9958774e-05 -0.004603231 0.0027494375 -0.0022545876
-0.0048101577 -0.0024284725 -0.0017497676 0.0047191787 -0.0013109343 -0.001501566 -0.0078998115 -0.0045129377
0.005509718 0.016380196 0.004518472 0.00519507 -0.013882392 0.0006782243 0.007848571 -0.0012699008
-0.0032288053 -0.006444612 -0.0029460771 0.00020354096 0.008098698 0.00012325795 -0.016705556 -0.0044667125
0.0037599364 0.014131683 -0.007474969 -0.0050206054 -0.009290158 0.009158707 -0.011151439 0.011540913
-0.0005100254 -0.0061470508 0.017843388 -0.011238677 0.009971661 0.0017458248 0.0031007493 0.0059383507
6.513045e-06 -0.006261858 -0.007995004 0.0021848113 0.013961355 0.0051042605 -0.007326912 -0.010093984
-0.0054950994 0.006600596 -0.008618437 0.002569136 0.003975885 -3.0225969e-05 1.8178482e-05 0.0036122024
0.0018239898 0.0057937573 -0.0017230746 0.004190334 -0.022057112 -0.00057938724 0.01727487 0.0033390953
-0.006668544 0.0066567548 -0.00036140243 0.0071009714 0.006235339 -0.021574287 0.0007474951 -0.007605165
-0.0010123674 0.002862646 -0.001012672 0.0045304927 0.014565215 0.00636023 -0.0059442366 -0.0024982379
0.009691507 -0.00041940337 -0.004975056 0.00033132237 0.0007744426 -0.0006915794 -0.0028777008 -0.0007427034
0.0064707273 -0.005451899 -0.011134642 0.008145477 -0.0040996205 0.003854671 -0.000932796 0.0050848816
0.00250534 0.0032719749 -0.00022321928 -0.0050091976 -0.015145401 -0.005396654 0.002618064 -0.01099523
0.0023671237 -0.00026335142 0.006316492 -0.009833562 0.00050030765 3.7876075e-06 -0.0063411742 0.00029868458
00000000: 3a02 013a 465f 7737 5a79 0238 e166 803b
00000010: fa4f fbb7 b3d6 96bb e82f 343b b4c1 13bb
00000020: 879e 9dbb 0227 1fbb 7558 e5ba 57a3 9a3b
00000030: a8d3 abba 32d0 c4ba 366e 01bc 44e1 93bb
00000040: dd8a b43b c32f 863c b10f 943b 683b aa3b
00000050: f972 63bc ddca 313a 4b97 003c cd72 a6ba
00000060: 5d9a 53bb 532d d3bb f912 41bb 9c6d 5539
00000070: 67b0 043c ce3e 0139 17da 88bc 805d 92bb
00000080: 4469 763b 9388 673c 96f0 f4bb e483 a4bb
00000090: bf35 18bc 670e 163c 86b4 36bc 1916 3d3c
000000a0: 3ab3 05ba 336d c9bb 4c2c 923c 6e22 38bc
000000b0: 2d60 233c 29d4 e43a f135 4b3b 7f96 c23b
000000c0: a18a da36 4630 cdbb 7afd 02bc 0d2f 0f3b
000000d0: 2bbe 643c a441 a73b 9816 f0bb 3d61 25bc
000000e0: 3c10 b4bb d049 d83b 5834 0dbc f35e 283b
000000f0: 2448 823b c68d fdb7 fe7d 9837 b3ba 6c3b
00000100: f112 ef3a 8fd9 bd3b cad8 e1ba 124f 893b
00000110: 1eb1 b4bc 05e2 17ba 0784 8d3c b9d4 5a3b
00000120: cd83 dabb e820 da3b 9d7a bdb9 44af e83b
00000130: d151 cc3b 8fbc b0bc 8cf3 433a bf34 f9bb
00000140: 6ab1 84ba 3b9b 3b3b a2bb 84ba 8774 943b
00000150: f1a2 6e3c 7a69 d03b dfc7 c2bb 7ab9 23bb
00000160: 20c9 1e3c 5ee3 dbb9 cb05 a3bb 56b5 ad39
00000170: f703 4b3a 1c4b 35ba cf97 3cbb fbb1 42ba
00000180: 6508 d43b d8a5 b2bb 136e 36bc 9b74 053c
00000190: 1c56 86bb a69e 7c3b e186 74ba 149f a63b
000001a0: a130 243b a16e 563b f80f 6ab9 3224 a4bb
000001b0: 6a24 78bc 6ad6 b0bb d393 2b3b 5625 34bc
000001c0: bf21 1b3b 6e12 8ab9 93fa ce3b f31c 21bc
000001d0: 1427 033a 9a2e 7e36 a0c9 cfbb c498 9c39

BCBlocks.0.0.f2.1.block.1.ssnorm.running_mean f4 [120]
0.17301308 0.16789323 0.16463566 0.17839545 0.19300985 0.18349141 0.23628958 0.27616143
0.31351086 0.30765724 0.09702944 0.09806364 0.104177445 0.10127542 0.10169765 -0.11904882
-0.19191693 -0.2186401 -0.25002337 -0.26144713 0.29575577 0.41482654 0.45938775 0.48150018
0.48748899 0.23318571 0.276548 0.27775487 0.2772407 0.22231509 0.05545601 0.16737652
0.09804126 0.07307283 0.0818997 -0.03920637 -0.08331378 -0.09759083 -0.1110136 -0.13514821
-0.3420497 -0.34916753 -0.25134066 -0.21773809 -0.18068694 -0.26524657 -0.2539117 -0.22409163
-0.21322317 -0.18553057 -0.1943597 -0.2443942 -0.27313402 -0.31642485 -0.3737313 0.1380216
0.18785149 0.14940548 0.13754715 0.19083656 -0.21801475 -0.19224362 -0.19442602 -0.19506969
-0.14348476 -0.4375436 -0.3905076 -0.2904633 -0.2580688 -0.19917026 -0.034878343 -0.14636496
-0.17189102 -0.1983319 -0.28403842 -0.11318123 -0.095812954 -0.10525068 -0.11006058 -0.04815083
-0.41241664 -0.43088752 -0.38028634 -0.36196896 -0.31628624 0.07793976 0.08767632 0.09217065
0.087120555 0.11986958 -0.30218756 -0.13734546 -0.118428804 -0.11462237 -0.082897365 -0.060355235
-0.05885751 -0.060780443 -0.0695708 -0.09790937 -0.15044989 -0.12412984 -0.1385953 -0.14566344
-0.077031285 0.12297355 0.12078162 0.10321388 0.09568185 0.04815382 -0.15164396 -0.2041462
-0.22800021 -0.23786274 -0.1892412 -0.06177487 -0.035342023 -0.03825475 -0.038111523 -0.07300497
00000000: 572a 313e 34ec 2b3e 4096 283e 4cad 363e
00000010: 60a4 453e 2ce5 3b3e e5f5 713e 0865 8d3e
00000020: 7f84 a03e 4085 9d3e 5fb7 c63d 97d5 c83d
00000030: fc5a d53d 7d69 cf3d dc46 d03d decf f3bd
00000040: df85 44be 31e3 5fbe 1003 80be 66dc 85be
00000050: 4d6d 973e 2564 d43e df34 eb3e 3187 f63e
00000060: 2898 f93e 3cc8 6e3e b397 8d3e e335 8e3e
00000070: 7ef2 8d3e 91a6 633e d725 633d c064 2b3e
00000080: dbc9 c83d 35a7 953d 08bb a73d dc96 20bd
00000090: 6aa0 aabd b3dd c7bd 195b e3bd 4b64 0abe
000000a0: 2321 afbe 16c6 b2be b9af 80be bcf6 5ebe
000000b0: ff05 39be 66ce 87be b700 82be 4778 65be
000000c0: 2d57 5abe bafb 3dbe 3b06 47be 7942 7abe
000000d0: 39d8 8bbe 7002 a2be b559 bfbe 8955 0d3e
000000e0: 245c 403e c0fd 183e 29d9 0c3e a96a 433e
000000f0: 423f 5fbe 83db 44be 9d17 47be 59c0 47be
00000100: abed 12be b705 e0be 9df0 c7be 9bb7 94be
00000110: 9821 84be 4af3 4bbe 98dc 0ebd b2e0 15be
00000120: 3304 30be 8517 4bbe 7c6d 91be 90cb e7bd
00000130: 9539 c4bd ab8d d7bd 7167 e1bd ce39 45bd
00000140: 4628 d3be 4a9d dcbe e4b4 c2be ff53 b9be
00000150: 45f0 a1be e29e 9f3d a48f b33d f7c3 bc3d
00000160: 436c b23d 2f7e f53d 54b8 9abe 4aa4 0cbe
00000170: cd8a f2bd 22bf eabd 18c6 a9bd 0d37 77bd
00000180: 9314 71bd eaf4 78bd 237b 8ebd b584 c8bd
00000190: 890f 1abe c937 febd edeb 0dbe cc28 15be
000001a0: 94c2 9dbd 8ed9 fb3d 5b5c f73d cc61 d33d
000001b0: d9f4 c33d f13c 453d 8e48 1bbe b40b 51be
000001c0: e378 69be 4a92 73be 72c8 41be a507 7dbd
000001d0: ccc2 10bd 03b1 1cbd d41a 1cbd a183 95bd

BCBlocks.0.0.f2.1.block.1.ssnorm.running_var f4 [120]
0.124085374 0.1167803 0.11926672 0.13003008 0.13952942 0.16296819 0.22996509 0.255066
0.28449202 0.2556244 0.013438081 0.013453603 0.013992182 0.013999289 0.0139427055 0.07949458
0.14102238 0.1532382 0.17184436 0.1678136 0.19359632 0.2876611 0.28639477 0.29324767
0.2845858 0.04851802 0.05573284 0.05716018 0.05942255 0.058826607 0.14462379 0.12904756
0.08162906 0.055231374 0.055597 0.015238339 0.027650936 0.030803163 0.034290656 0.044062827
0.16821642 0.19781959 0.1144571 0.08933551 0.07192592 0.038509447 0.043941118 0.038362116
0.036962185 0.033614337 0.20223968 0.29855165 0.32565263 0.36858553 0.43428853 0.1370084
0.18352489 0.155549 0.14563613 0.1867046 0.036118533 0.03299965 0.034858163 0.035173558
0.030445214 0.20608135 0.23124135 0.13661574 0.10986097 0.08393308 0.1205708 0.14299656
0.1599806 0.18147911 0.29614508 0.047897767 0.03725792 0.041129313 0.045882586 0.051600456
0.098176636 0.11479722 0.10330109 0.10109298 0.093388304 0.023735268 0.024506206 0.0241406
0.021999573 0.025938977 0.23349074 0.10217677 0.071985446 0.056574434 0.040284924 0.025317544
0.021804089 0.023228727 0.02536182 0.039014213 0.07963983 0.05557696 0.060401965 0.067421645
0.07330208 0.041271817 0.03135512 0.023971586 0.021534909 0.021571273 0.06279504 0.063873135
0.06630243 0.067842096 0.0521476 0.10147493 0.04372716 0.044313475 0.045792542 0.04927059
00000000: 7920 fe3d 832a ef3d 1c42 f43d 9b26 053e
00000010: cde0 0e3e 22e1 263e f87b 6b3e 0398 823e
00000020: f0a8 913e 34e1 823e 662b 5c3c 806c 5c3c
00000030: 773f 653c 465d 653c f26f 643c 0ece a23d
00000040: 2c68 103e 7aea 1c3e f8f7 2f3e 54d7 2b3e
00000050: 1d3e 463e 5148 933e 56a2 923e 8f24 963e
00000060: 3bb5 913e d5ba 463d 1e48 643d cb20 6a3d
00000070: 0f65 733d 2bf4 703d 4218 143e 0b25 043e
00000080: 232d a73d 4b3a 623d aeb9 633d 3aaa 793c
00000090: 3784 e23c ea56 fc3c 5c74 0c3d 397b 343d
000000a0: ed40 2c3e 3891 4a3e 7c68 ea3d 89f5 b63d
000000b0: e64d 933d 15bc 1d3d 9afb 333d 9821 1d3d
000000c0: a965 173d 30af 093d eb17 4f3e c3db 983e
000000d0: f1bb a63e 3eb7 bc3e 115b de3e ee4b 0c3e
000000e0: f3ed 3b3e 3d48 1f3e a321 153e 7e2f 3f3e
000000f0: 07f1 133d a42a 073d 6fc7 0e3d 2612 103d
00000100: 3e68 f93c fd06 533e 88ca 6c3e ffe4 0b3e
00000110: cafe e03d 1be5 ab3d d3ed f63d b16d 123e
00000120: f4d1 233e a9d5 393e 54a0 973e 7330 443d
00000130: c39b 183d 3677 283d 61ef 3b3d 005b 533d
00000140: d510 c93d ce1a eb3d 868f d33d d609 cf3d
00000150: 5e42 bf3d 7770 c23c 3dc1 c83c 82c2 c53c
00000160: 7338 b43c fa7d d43c 3218 6f3e 0e42 d13d
00000170: 1b6d 933d 98ba 673d ce01 253d bd66 cf3c
00000180: 7d9e b23c 2c4a be3c 97c3 cf3c 5ecd 1f3d
00000190: 351a a33d aba4 633d 0d68 773d 5c14 8a3d
000001a0: 671f 963d a30c 293d 3a6e 003d 0f60 c43c
000001b0: fa69 b03c 3db6 b03c b09a 803d ebcf 823d
000001c0: 92c9 873d ccf0 8a3d b998 553d 17d2 cf3d
000001d0: 401b 333d 0c82 353d f690 3b3d f5cf 493d

BCBlocks.0.0.f1.0.block.0.weight f4 [24, 1, 1, 3]
0.4370253 0.47882375 -0.035861332 -0.0719269 0.08140492 -0.1418978 0.025850471 -0.53375745
-0.47187442 0.39469883 -0.32535508 0.44837445 0.068060465 0.1435473 0.5147073 -0.31581908
-0.11481669 0.07730013 0.17575695 -0.56700027 0.18274702 -0.3024391 0.09571985 0.4078981
-0.07145628 0.020798912 -0.08777688 0.4762238 0.32217398 0.08987898 -0.33555892 -0.3102148
0.45820507 0.41113922 0.33138898 -0.43995067 0.43989655 -0.052028425 0.42222664 0.49096045
0.058484603 -0.2439898 0.5401604 -0.28798705 0.3703751 -0.54399383 -0.18012786 -0.49650884
-0.26178452 0.22768997 -0.4113113 -0.49973685 0.3993526 0.3008236 -0.014764196 -0.40011066
-0.15208891 -0.2734309 0.26131952 -0.2382941 -0.1643389 -0.40153125 -0.2696588 0.3060105
0.36765614 0.08349139 -0.22075784 0.5427757 0.11405613 -0.22654761 -0.19040084 -0.077295
00000000: c8c1 df3e 6328 f53e 55e3 12bd 694e 93bd
00000010: 9fb7 a63d a84d 11be 5ec4 d33c 54a4 08bf
00000020: 8699 f1be f715 ca3e f194 a6be 5691 e53e
00000030: 4963 8b3d 10fe 123e dcc3 033f 0ab3 a1be
00000040: 0325 ebbd 884f 9e3d a1f9 333e ee26 11bf
00000050: 0922 3b3e 4cd9 9abe c508 c43d 05d8 d03e
00000060: ac57 92bd 7b62 aa3c 5dc4 b3bd 9bd3 f33e
00000070: fdf3 a43e 7812 b83d 61ce abbe 79d4 9ebe
00000080: db99 ea3e d780 d23e d1ab a93e 3741 e1be
00000090: 1f3a e13e c21b 55bd 172e d83e 2b5f fb3e
000000a0: 8d8d 6f3d 76d8 79be f447 0a3f 0a73 93be
000000b0: cea1 bd3e 2e43 0bbf 7073 38be 6836 febe
000000c0: 9f08 86be 8f27 693e 6597 d2be 82dd ffbe
000000d0: f277 cc3e 8d05 9a3e 87e5 71bc 4edb ccbe
000000e0: 32bd 1bbe 23ff 8bbe accb 853e 5e03 74be
000000f0: 7548 28be 8195 cdbe b810 8abe 69ad 9c3e
00000100: 6d3d bc3e 89fd aa3d 580e 62be 59f3 0a3f
00000110: 4396 e93d 19fc 67be 70f8 42be d74c 9ebd

BCBlocks.0.0.f1.0.block.1.weight f4 [24]
0.97072464 0.98114675 0.99758136 0.9859063 0.9875619 0.9911305 0.98373944 0.9844869
0.9976281 0.97513855 0.9921654 0.9794878 0.9967318 0.975814 0.97999024 0.9658129
0.9760848 0.9638046 0.9836094 0.9933622 0.9875838 0.9974234 0.9919708 0.9819706
00000000: 6981 783f 6f2c 7b3f 7e61 7f3f 5b64 7c3f
00000010: dbd0 7c3f baba 7d3f 59d6 7b3f 5507 7c3f
00000020: 8e64 7f3f aea2 793f 8dfe 7d3f b6bf 7a3f
00000030: d129 7f3f f2ce 793f a4e0 7a3f 843f 773f
00000040: b2e0 793f e6bb 763f d3cd 7b3f fc4c 7e3f
00000050: 4bd2 7c3f 2457 7f3f ccf1 7d3f 6d62 7b3f

BCBlocks.0.0.f1.0.block.1.bias f4 [24]
-0.0046496782 0.0006926498 0.0054260907 0.0079899905 0.004665832 0.0018324387 0.0018324137 -0.001632424
0.0065350607 -0.009597959 0.0071429634 0.001222535 0.0067122187 -0.013803715 -0.0058591063 -0.012429189
-0.0009222179 -0.010046321 -0.0040951716 0.00066250266 -0.0013223097 0.0057323016 0.00051350327 0.004090794
00000000: 545c 98bb f192 353a 59cd b13b 73e8 023c
00000010: d6e3 983b 712e f03a 9a2d f03a 0ff7 d5ba
00000020: 1024 d63b c240 1dbc 850f ea3b 783d a03a
00000030: 2cf2 db3b fa28 62bc bffd bfbb cca3 4bbc
00000040: ffc0 71ba 5399 24bc ca30 86bb cdab 2d3a
00000050: 5a51 adba 08d6 bb3b 9f9c 063a 110c 863b

BCBlocks.0.0.f1.0.block.1.running_mean f4 [24]
-0.0014257763 0.00023319712 2.6660959e-05 0.0057827067 0.0015275377 -0.0017571243 0.0007126816 -0.0016068141
-0.000244466 -0.0013940302 -0.0024462545 0.00015738505 -0.0016866488 0.0058587184 0.0016465379 0.0042768675
0.00013297796 -0.0037800858 0.00044697232 -0.0004284488 -0.0011228932 -0.001263127 0.0030580112 0.0007806152
00000000: 1de1 baba 6086 7439 f9a5 df37 dc7c bd3b
00000010: a937 c83a 4f4f e6ba 41d3 3a3a bc9b d2ba
00000020: ac2b 80b9 e4b7 b6ba 5751 20bb ba07 2539
00000030: 8b12 ddba 7efa bf3b a5d0 d73a f724 8c3b
00000040: 0070 0b39 51bb 77bb 9c57 ea39 6da1 e0b9
00000050: 0b2e 93ba 828f a5ba ea68 483b 33a2 4c3a

BCBlocks.0.0.f1.0.block.1.running_var f4 [24]
0.34547117 0.01207266 0.45232722 0.17822303 0.30796206 0.067244045 0.0074427216 0.030753963
0.00791 0.55268604 0.049340785 0.031731725 0.2518077 0.07429404 0.13809319 0.4087642
0.13899598 0.027350614 0.07628876 0.028922873 0.21771619 0.17096546 0.12371716 0.0075544138
00000000: 99e1 b03e 68cc 453c 6f97 e73e 1980 363e
00000010: 34ad 9d3e 3fb7 893d 13e2 f33b bcef fb3c
00000020: f298 013c d57c 0d3f 9019 4a3d 20f9 013d
00000030: f0ec 803e 7927 983d 4d68 0d3e 8b49 d13e
00000040: f654 0e3e 650e e03c 483d 9c3d a9ef ec3c
00000050: fef0 5e3e 9211 2f3e 6c5f fd3d 048b f73b

BCBlocks.0.0.f1.1.weight f4 [24, 24, 1, 1]
0.08910242 0.077153124 0.15245719 -0.0054144403 0.16569994 -0.085990876 -0.09318661 -0.07290723
-0.18857124 -0.13485456 -0.1845414 -0.017681846 -0.00017340746 -0.053437583 -0.13648629 0.17668334
-0.06221368 0.0988409 0.14333509 -0.1375554 -0.030714165 0.120770186 0.20021361 -0.031634104
0.15183544 -0.15798777 -0.1319208 0.16388974 -0.015638297 0.1982665 0.011476895 -0.07865863
0.19605325 0.17478466 0.02521734 -0.11509046 -0.009695794 -0.09723785 0.14307967 0.007983127
0.04106997 0.117593266 0.06790741 -0.12096623 0.16362704 0.12226279 -0.12280489 0.14085604
0.058429286 -0.041527938 -0.14234033 -0.03431837 -0.19902238 0.11474053 0.14319378 -0.058503542
0.18809907 -0.07435424 0.037659552 -0.13771658 -0.009297598 0.08077163 0.086906984 -0.0054819044
-0.10212021 0.13634217 0.13421996 0.031387273 -0.0920994 0.042661678 -0.00013220926 0.18293886
0.03606945 0.016062146 0.0154241435 0.107584834 0.016042775 0.18178627 0.11035677 -0.1453893
-0.005602754 -0.15759577 -0.14853767 0.041729614 0.05315592 -0.0050732503 0.19685204 -0.09768196
-0.087094165 -0.010289212 0.0028703716 -0.0021318197 0.19044083 -0.08712334 -0.10574543 0.012733006
0.15122245 0.04718172 0.10785496 0.040510494 0.17364123 0.113667466 0.13672717 -0.024263114
-0.16636695 -0.10438193 0.0637322 0.13285378 -0.07719575 0.16151261 0.027351085 -0.009808076
0.01727056 -0.033607394 0.19060834 0.004856591 0.11595912 -0.163225 -0.10373213 0.022468785
0.13218085 0.09288302 0.0058716335 -0.20691203 0.008069969 -0.12782234 -0.15678371 0.017557345
-0.17368709 0.18088658 -0.11382296 0.053233594 0.10720803 -0.15186138 0.08946122 -0.029422559
0.05959075 0.2048029 -0.15244159 -0.08686595 0.1555665 -0.012781434 -0.02816031 0.16117255
-0.09524826 -0.017912192 0.1343263 0.070595846 -0.13984711 0.054301437 -0.15240784 -0.11514283
0.12087361 -0.050294016 -0.10088369 0.012313796 0.054707 -0.12419977 -0.14053988 -0.18904048
0.04306108 -0.13717057 0.011892286 -0.03903957 -0.12553047 -0.066148 -0.16025501 -0.10201903
-0.024548763 -0.1618621 -0.16445245 0.16724579 0.015526875 -0.08951412 -0.0021355029 0.14715843
-0.19504459 -0.09813837 -0.15369855 -0.02731194 -0.019691866 -0.14042294 0.15099852 -0.16030793
0.18753031 -0.121596605 -0.022322204 0.031106213 -0.08991867 0.19702575 -0.14120933 -0.020550067
-0.15586518 0.06039003 0.16779901 0.18315895 0.01671684 -0.08791594 0.1894659 0.016980447
0.13902436 -0.09442181 -0.096969865 -0.16427022 0.19137831 0.035943296 -0.13199796 0.02940501
-0.08258589 0.0005713169 0.05741905 -0.10165676 0.043234084 -0.12561013 0.041149978 -0.19092649
0.02896007 0.19375087 0.18184493 0.065077625 0.15106925 0.21235663 0.07699272 0.07483663
0.005033379 0.19018881 0.19627742 -0.045734257 -0.00982851 -0.082628734 0.09289242 -0.16645859
0.056042932 -0.046805046 0.03561441 0.05197793 -0.07861415 0.08447337 0.08460643 -0.18915546
0.19013897 0.17303644 0.12259627 -0.01757558 0.066142276 -0.121072456 -0.07672209 0.097396486
0.10852116 0.064879514 -0.19634324 0.15769061 -0.09147264 0.15951435 0.16106239 0.061208773
00000000: 547b b63d 7502 9e3d bd1d 1c3e 9e6b b1bb
00000010: 3fad 293e fc1b b0bd 9fd8 bebd 6350 95bd
00000020: d218 41be 5017 0abe 6cf8 3cbe 85d9 90bc
00000030: b6d4 35b9 5ee1 5abd 10c3 0bbe 7aec 343e
00000040: c6d3 7ebd 196d ca3d 6fc6 123e 53db 0cbe
00000050: 469c fbbc 5c56 f73d cc04 4d3e c392 01bd
00000060: c07a 1b3e 8cc7 21be 3f16 07be b6d2 273e
00000070: e31b 80bc 6006 4b3e 9609 3c3c c717 a1bd
00000080: 2fc2 483e c0fa 323e 9894 ce3c 8cb4 ebbd
00000090: 1cdb 1ebc a324 c7bd 7a83 123e a9cb 023c
000000a0: fc38 283d bdd4 f03d 0a13 8b3d 25bd f7bd
000000b0: d98d 273e ea64 fa3d 2181 fbbd 913c 103e
000000c0: 8c53 6f3d 3319 2abd aac1 11be 6b91 0cbd
000000d0: 86cc 4bbe 15fd ea3d 64a1 123e 69a1 6fbd
000000e0: 0b9d 403e 0947 98bd e740 1a3d 9305 0dbe
000000f0: f454 18bc 996b a53d 4afc b13d 8ca1 b3bb
00000100: 6724 d1bd 489d 0b3e f570 093e f18f 003d
00000110: 9c9e bcbd 03be 2e3d a7a1 0ab9 5354 3b3e
00000120: 8fbd 133d c394 833c 8cb5 7c3c 7055 dc3d
00000130: 236c 833c 2e26 3a3e bb02 e23d efe0 14be
00000140: 4f97 b7bb c960 21be 421a 18be acec 2a3d
00000150: 06ba 593d 823d a6bb 9593 493e 7b0d c8bd
00000160: 6d5e b2bd 1594 28bc d81c 3c3b 00b6 0bbb
00000170: ec02 433e b96d b2bd 0f91 d8bd 199e 503c
00000180: 0fda 1a3e 9f41 413d 10e3 dc3d 55ee 253d
00000190: 02cf 313e 7dca e83d 3502 0c3e 70c3 c6bc
000001a0: 195c 2abe 31c6 d5bd 0786 823d d20a 083e
000001b0: ce18 9ebd 9063 253e 620f e03c 0db2 20bc
000001c0: fd7a 8d3c e8a7 09bd d52e 433e 0a24 9f3b
000001d0: fa7b ed3d 7424 27be 8371 d4bd 7510 b83c
000001e0: 6b5a 073e 7439 be3d d566 c03b bfe0 53be
000001f0: e737 043c dce3 02be e98b 20be 6cd4 8f3c
00000200: 07db 31be 553a 393e 031c e9bd 780b 5a3d
00000210: e28f db3d 8d81 1bbe 7237 b73d 9407 f1bc
00000220: 6e15 743d dab7 513e a619 1cbe c6e6 b1bd
00000230: d34c 1f3e 3869 51bc 73b0 e6bc 6b0a 253e
00000240: 8511 c3bd 97bc 92bc d58c 093e 8e94 903d
00000250: 1534 0fbe 2f6b 5e3d cd10 1cbe 01d0 ebbd
00000260: 958c f73d 1901 4ebd 1c9c cebd cebf 493c
00000270: 7214 603d 735c febd b0e9 0fbe d493 41be
00000280: d160 303d 7176 0cbe ddd7 423c f5e7 1fbd
00000290: 0f8b 00be 9a78 87bd e419 24be 5aef d0bd
000002a0: 7d1a c9bc 2ebf 25be 3966 28be 7b42 2b3e
000002b0: 6f64 7e3c 2e53 b7bd cbf3 0bbb b3b0 163e
000002c0: c5b9 47be c5fc c8bd 2763 1dbe 4abd dfbc
000002d0: d650 a1bc 08cb 0fbe 5b9f 1a3e c327 24be
000002e0: f207 403e a407 f9bd 0edd b6bc 75d2 fe3c
000002f0: 4827 b8bd 1ec1 493e 2e99 10be 9d58 a8bc
00000300: 1f9b 1fbe 895b 773d 81d3 2b3e 058e 3b3e
00000310: c1f1 883c 460d b4bd 5903 423e 941a 8b3c
00000320: 675c 0e3e 3960 c1bd 2398 c6bd 7436 28be
00000330: adf8 433e 4739 133d 792a 07be c7e2 f03c
00000340: cb22 a9bd 6ec4 153a 3d30 6b3d 6b31 d0bd
00000350: 3916 313d f19f 00be e18c 283d 3c82 43be
00000360: ab3d ed3c a166 463e 8f35 3a3e 6b47 853d
00000370: e6b1 1a3e 0474 593e 5cae 9d3d f243 993d
00000380: 0bef a43b dbc0 423e f3fc 483e d853 3bbd
00000390: c207 21bc 4139 a9bd 623e be3d 1f74 2abe
000003a0: 468d 653d a6b6 3fbd 6ae0 113d cfe6 543d
000003b0: 7500 a1bd 6000 ad3d 2346 ad3d f8b1 41be
000003c0: cab3 423e 7730 313e c113 fb3d aafa 8fbc
000003d0: 9a75 873d d6f4 f7bd 7920 9dbd cf77 c73d
000003e0: 5840 de3d 8ddf 843d 340e 49be a679 213e
000003f0: 0256 bbbd bb57 233e 8aed 243e 0db6 7a3d

BCBlocks.0.1.f2.0.block.0.weight f4 [24, 1, 3, 1]
-0.15723702 0.03668402 -0.14730811 -0.57757777 -0.0897543 0.2248342 -0.119755894 -0.25915262
0.071113326 0.11739055 -0.13608438 -0.44599012 -0.28919107 -0.049877834 0.24649529 0.5086938
-0.017185941 0.19695657 0.32331556 -0.2722574 -0.17284589 0.36971626 0.4158423 0.12872799
-0.4562921 0.2975383 -0.4713569 0.28379184 0.06728981 0.18445243 -0.5593739 -0.19943003
0.23007387 0.44207448 -0.17963621 0.4979817 -0.1311155 -0.33622104 -0.2542453 0.038503036
-0.07898045 0.28463113 -0.33115634 -0.16454765 -0.5533946 0.4659331 -0.10870977 -0.44934145
-0.02219006 0.04211186 0.16338375 -0.057647828 0.36363176 -0.19650474 -0.1601802 -0.14148243
0.13315487 0.45292777 -0.06163821 0.43789876 0.351002 -0.39667326 -0.16550343 -0.29130098
0.16019984 -0.24759631 0.1559551 0.04642099 -0.38406435 -0.39165562 -0.56265986 -0.29329473
00000000: be02 21be fc41 163d f0d7 16be 23dc 13bf
00000010: 1ad1 b7bd f03a 663e 9442 f5bd a7af 84be
00000020: dda3 913d 756a f03d b459 0bbe d158 e4be
00000030: da10 94be b34c 4cbd 4369 7c3e c239 023f
00000040: 88c9 8cbc fcae 493e 9e89 a53e 5265 8bbe
00000050: 83fe 30be 734b bd3e 48e9 d43e 45d1 033e
00000060: 1e9f e9be f156 983e b155 f1be 2a4d 913e
00000070: 3dcf 893d 19e1 3c3e 2133 0fbf 6337 4cbe
00000080: 7c98 6b3e 9657 e23e 8ef2 37be 75f7 fe3e
00000090: 2443 06be 2a25 acbe 712c 82be 5cb5 1d3d
000000a0: 81c0 a1bd 2cbb 913e 538d a9be 2e7f 28be
000000b0: 45ab 0dbf c98e ee3e 3aa3 debd 1510 e6be
000000c0: eec7 b5bc 7c7d 2c3d 124e 273e 2120 6cbd
000000d0: f12d ba3e 8a38 49be 4706 24be c5e0 10be
000000e0: c059 083e 26e6 e73e 5978 7cbd 4434 e03e
000000f0: 89b6 b33e c218 cbbe bb79 29be 6725 95be
00000100: 6d0b 243e e389 7dbe b2b2 1f3e f023 3e3d
00000110: 15a4 c4be 1687 c8be 7a0a 10bf ba2a 96be

BCBlocks.0.1.f2.0.block.1.ssnorm.weight f4 [120]
0.9832799 0.98712426 0.9855313 0.98414654 0.9897537 0.97929674 0.9816933 0.98436123
0.98038125 0.98230994 0.9782745 0.9822505 0.992928 0.99869436 0.99836534 0.9828862
0.9865369 0.99024534 0.993032 0.98846513 0.9916437 0.988863 0.9914227 0.98493296
0.9761685 0.9845382 0.98942035 0.97995055 0.99800205 0.9755548 0.98913443 0.98259115
0.9724608 0.99528474 0.98151106 0.98388135 0.98954993 0.9819279 0.9768743 0.9867567
0.99319935 0.9802776 0.992212 0.9836726 0.9885633 0.98678184 0.9821364 0.9906497
0.9897943 0.98304886 0.9819714 0.98933744 0.9876301 0.96599185 0.9828341 0.9810507
0.9757491 0.9851499 0.983813 0.9896866 0.9882244 0.98044586 0.98903376 0.9873063
0.98385936 0.9831301 0.9844344 0.98728776 0.9930678 0.98732716 0.9807167 0.98477644
0.98486996 0.9755247 0.9932839 0.9801151 0.99592125 0.98654956 0.97251815 0.98157245
0.98796487 0.98290515 0.98313284 0.98005885 0.9886836 1.0030842 0.9790818 0.9882851
0.98932594 0.9923538 0.9903695 0.9854545 0.9773775 0.9906771 0.9877689 0.9844444
0.97782075 0.97328794 0.9838568 0.99730116 0.99262094 0.976341 0.9822539 0.9911818
0.9878294 0.9884953 0.99087006 0.97727984 0.9814398 0.9853773 0.98164713 0.9901033
0.99539626 0.98914903 0.98495626 0.97416246 0.9851838 0.9922123 0.984093 0.98813516
00000000: 3bb8 7b3f 2db4 7c3f c74b 7c3f 07f1 7b3f
00000010: 8060 7d3f 31b3 7a3f 4150 7b3f 19ff 7b3f
00000020: 44fa 7a3f aa78 7b3f 3370 7a3f c574 7b3f
00000030: 8830 7e3f 6faa 7f3f df94 7f3f 6e9e 7b3f
00000040: af8d 7c3f b880 7d3f 5837 7e3f 0d0c 7d3f
00000050: 5ddc 7d3f 2026 7d3f e1cd 7d3f 9124 7c3f
00000060: 2ee6 793f b20a 7c3f a74a 7d3f 0ade 7a3f
00000070: 107d 7f3f f6bd 793f ea37 7d3f 188b 7b3f
00000080: 31f3 783f fbca 7e3f 4f44 7b3f a6df 7b3f
00000090: 2553 7d3f a05f 7b3f 6f14 7a3f 169c 7c3f
000000a0: 5042 7e3f 79f3 7a3f 9b01 7e3f f8d1 7b3f
000000b0: 7c12 7d3f bc9d 7c3f 4b6d 7b3f 389b 7d3f
000000c0: 2963 7d3f 17a9 7b3f 7a62 7b3f 3845 7d3f
000000d0: 54d5 7c3f 3e4b 773f 049b 7b3f 2426 7b3f
000000e0: b1ca 793f c932 7c3f 2bdb 7b3f 1a5c 7d3f
000000f0: 46fc 7c3f 80fe 7a3f 5131 7d3f 1bc0 7c3f
00000100: 35de 7b3f 6aae 7b3f e503 7c3f e4be 7c3f
00000110: b139 7e3f 79c1 7c3f 4010 7b3f 4f1a 7c3f
00000120: 7020 7c3f fdbb 793f db47 7e3f d3e8 7a3f
00000130: b2f4 7e3f 838e 7c3f f3f6 783f 5548 7b3f
00000140: 44eb 7c3f ac9f 7b3f 98ae 7b3f 23e5 7a3f
00000150: 5e1a 7d3f 1065 803f 1ba5 7a3f 4100 7d3f
00000160: 7744 7d3f e60a 7e3f db88 7d3f bf46 7c3f
00000170: 6935 7a3f 049d 7d3f 6cde 7c3f 8c04 7c3f
00000180: 7652 7a3f 6629 793f 0ade 7b3f 214f 7f3f
00000190: 681c 7e3f 7cf1 793f fe74 7b3f 17be 7d3f
000001a0: 63e2 7c3f 070e 7d3f a9a9 7d3f 032f 7a3f
000001b0: a43f 7b3f b041 7c3f 3a4d 7b3f 6977 7d3f
000001c0: 4ad2 7e3f df38 7d3f 1826 7c3f b662 793f
000001d0: 0135 7c3f a001 7e3f 85ed 7b3f 6df6 7c3f
