model.pth (torch, 121991 bytes, 165 tensors)

cnn_head.0.weight f4 [16, 1, 5, 5]
00000000: a97e 823e 646e 563e a7e5 9a3d ef5f 4fbd
00000010: 5774 803d ce1c 123e 5871 293e 30fa 24bd
00000020: 0927 113e a012 7fbd c0ce 263c d80c 6c3d
00000030: 0532 3fbe bc23 1abe e3a4 ba3c 6966 cf3d
00000040: 8cd1 06bd d77c 15be 2752 2fbe f820 dfbd
00000050: d54b 37be 6d8a 7d3d 477d 9fbe fa36 56be
00000060: c0cb e1bd 1aa6 d73e acee 113f 9cfe a73e
00000070: 98f8 a23e b2b7 f8bc 80a3 0c3e 79a2 eb3e
00000080: 20ce 233e b1da f23d 6d18 8ebd 4719 63be
00000090: 22a0 a2bd 5feb bdbd b574 66be 687d 3abe
000000a0: d42a 19ba 7040 afbc 933e 41be bbdc 3bbe
000000b0: a1ab 95be 2a7f 143d 303f d33d 4bee 04bd
000000c0: 6514 2bbe c4dd 69bd cb1a 17be ce71 683d
000000d0: 1432 05be 9b84 eabb b1f3 7bbd 2082 20be
000000e0: 225a 3dbe 8a46 d0bd 484c 95bc cf76 043e
000000f0: e316 c93d fca8 89bd e798 a13d f15b 083e
00000100: db93 7fbb 2e72 83bd ed4c 6dbd 970f 9d3c
00000110: 026e aabb 71cb ccbc 294c adbd e27d e9bd
00000120: 0c88 97bd 19a0 233e 1600 ddbd b9d3 adbe
00000130: 9d16 1dbe f66c 6cbe 0bc2 003d 3697 7abb
00000140: 258f 8bbe 0b2e 5cbe 6d1a 91bd cc86 4f3d
00000150: 8399 a2bd 9b16 7fbe df00 80be f24c 17be
00000160: 7432 463d acdc f6bc eef6 483e 26de 873e
00000170: 2d3a b93d 9348 823d 1715 29bc 26d2 5e3e
00000180: 1c7d 9a3e 316b b43e 2cfb 9b3e 2804 283e
00000190: e1b8 b63e 3f05 573e d961 6b3e c224 96bc
000001a0: c53f 0fbe b867 833e 2a96 1f3e 5e74 19be
000001b0: 71f7 4dbe 1dfb 8bbe b3f0 923e e6a7 4ebd
000001c0: 459c 0dbb c187 4dbe 2dc0 a2be 5373 bc3e
000001d0: 9fbb 7f3e e387 323d 9acd 343e f35b 11be
000001e0: b8f4 63bc ef6b 3f3e 4d8c 793e 8783 e03d
000001f0: c20f 13be 5e1e 593e fbab c73c 67cc ee3d
00000200: 8caa fe3d f850 9d3d 1c2b 42bd 945a 5bbe
00000210: 4fd6 1ebe 973b 23bd 8e42 6a3e 8444 99be
00000220: d59e 95bd 6bde 74be fe90 433d 77e8 383e
00000230: fcd3 03be f018 1f3e 09c1 f1bd affe 3cbd
00000240: 689a 093d 12dd 003e cb74 423e 9421 0a3e
00000250: cd22 1b3e 4322 0d3e 6b87 4cbe fb5d 38be
00000260: f9d2 0abc 61d2 753d a8e9 943e c9ab 97be
00000270: ca8c 0cbe c0ec 7d3d 68bb 133e 1737 993e
00000280: a3d9 7abe f356 afbe 391e 073d d5aa c5bd
00000290: 631b ab3e c889 16be abac f9bd a28b 4dbd
000002a0: a754 a43c 1aa0 833e 6096 243e 7238 66bb
000002b0: beec 653e 657f cf3d 163e d23e 2b74 333e
000002c0: 81bd a13d 514e 963e a53f 6e3e 5fd9 2e3e
000002d0: 44aa 893e 648a 163e 1ff0 a03e bdf3 5c3e
000002e0: 4c32 9ebb 67a7 513e 9783 093d 9fd3 233e
000002f0: f690 c93d 9168 a4bd a638 9abe 6df5 5cbe
00000300: f662 44be b950 60bd 05a0 593d dfee afbe
00000310: c549 81be e6d6 463d 69d9 3ebe d315 a7bb
00000320: c4d0 79be d725 e33d 4e7d ab3c 0430 0c3e
00000330: e814 d5bb 9217 21be 485f 463e 69c0 553e
00000340: cc86 a13d ffeb 53bc 04ea c33e 9100 a43e
00000350: 382c 8b3e 2cfd 03be 4607 b2bd d949 4a3d
00000360: 2b24 fb3d 1191 803e 54a5 01be 7871 d0be
00000370: 4902 80be 60a8 d23c 5e54 453e 3359 e8bd
00000380: 9d58 2cbe 1d56 87be 37ae d9bd 4937 9a3d
00000390: 9a2f c43d 0fc0 f83c 5b29 143e 5781 7b3e
000003a0: 5fd3 953e d457 be3d 2503 7dbd ceae 6c3e
000003b0: 45cc c13e 9175 953e 88b8 573d 4299 bebe
000003c0: ca73 4dbe 6593 643e 7ddc 4b3e 9170 e33c
000003d0: af21 e0be e41b 84be 70d6 353d 4f8b 753e
000003e0: 4445 b13d 066e 23be fe34 8cbe 9583 4b3c
000003f0: 713e 063e 751d cdbd 508f 75bd 1631 42bc
0.2548726 0.20940548 0.07563334 -0.0506286 0.0627219 0.142688 0.16547143 -0.04027766
0.14175047 -0.06227362 0.010181129 0.057629436 -0.18671425 -0.15052694 0.022783702 0.10126955
-0.032914683 -0.14598404 -0.17121182 -0.1089496 -0.17900021 0.06189959 -0.31150267 -0.2091941
-0.1102519 0.42118913 0.5700481 0.3281144 0.31830287 -0.03036103 0.13734245 0.46022394
0.15996599 0.11858118 -0.069382526 -0.22177611 -0.07940699 -0.09273409 -0.22505458 -0.18211901
-0.00058428687 -0.02139303 -0.18871526 -0.1834592 -0.29232505 0.036254086 0.103147864 -0.032453816
-0.16706999 -0.057096258 -0.14756314 0.056749158 -0.13007385 -0.007156921 -0.0615117 -0.15674639
-0.18491414 -0.10169704 -0.01822485 0.12935947 0.098188184 -0.06721684 0.07890492 0.13316323
-0.003899804 -0.064182624 -0.05793469 0.019172473 -0.0052011022 -0.024999352 -0.08461792 -0.11400963
-0.07398996 0.15979041 -0.10791032 -0.33950594 -0.15340658 -0.2308844 0.031435054 -0.0038237101
-0.27257648 -0.21501939 -0.070851184 0.05066566 -0.07939436 -0.24910967 -0.25000665 -0.14775446
0.04838796 -0.030134521 0.19625446 0.26536673 0.09044299 0.06361499 -0.01031997 0.21759853
0.30173576 0.3523803 0.30465066 0.16407835 0.35687926 0.20998095 0.22986545 -0.018328074
-0.1398917 0.2566507 0.15584627 -0.14985797 -0.20113923 -0.27340022 0.28699264 -0.05045309
-0.0021608036 -0.20071317 -0.31787243 0.36806735 0.24973916 0.043586623 0.17656556 -0.14195232
-0.013913326 0.18693517 0.24369927 0.10962587 -0.1436148 0.2120299 0.024373999 0.116600804
0.12434873 0.07681459 -0.047404394 -0.21421272 -0.1551144 -0.03985175 0.22876951 -0.29935086
-0.073056854 -0.2391297 0.047745697 0.18057428 -0.12873834 0.15536857 -0.11804397 -0.046141323
0.03359452 0.12584332 0.18989865 0.13489372 0.15149994 0.13782601 -0.19973533 -0.180046
-0.008473151 0.060015086 0.29084516 -0.2962325 -0.13725582 0.06199336 0.14426959 0.29924843
-0.24497084 -0.34246024 0.032987807 -0.09651724 0.33419332 -0.14700997 -0.12191137 -0.050181992
0.020059897 0.25708085 0.16072989 -0.003512886 0.22453591 0.101317205 0.41062993 0.17524783
0.07897473 0.29356626 0.23266466 0.17075108 0.26887715 0.1470123 0.31433198 0.21577354
-0.004827773 0.20474015 0.03357276 0.15998696 0.09842102 -0.08027757 -0.30121344 -0.21577998
-0.19178376 -0.054764483 0.053131122 -0.34361932 -0.25251594 0.048544787 -0.18637623 -0.005099037
-0.24396044 0.11091202 0.020933773 0.13690192 -0.0065027364 -0.15731648 0.19372284 0.2087418
0.078870386 -0.012934684 0.38264477 0.32031682 0.27182174 -0.12889546 -0.086927935 0.049386833
0.12262758 0.25110677 -0.12660724 -0.4071157 -0.25001743 0.025715053 0.19270465 -0.113451384
-0.16830678 -0.26432887 -0.10628932 0.07530076 0.09579392 0.030365018 0.14468901 0.24561058
0.29262826 0.09294096 -0.061770577 0.23113558 0.37851158 0.2919126 0.052666217 -0.372263
-0.20063701 0.22321852 0.19908328 0.027763637 -0.437757 -0.2580253 0.044393957 0.23978923
0.086557895 -0.1595994 -0.2738418 0.012421508 0.13109757 -0.10015384 -0.059951127 -0.011852523

cnn_head.1.weight f4 [16]
00000000: d029 3a3f 6250 363f 4217 3e3f b8d6 573f
00000010: 61d3 4e3f 5153 183f 5d16 393f 4202 333f
00000020: d687 543f 05ff 633f 0c0f 263f 10e2 173f
00000030: 5a2e 893f df2d 3b3f 5b98 3b3f 4250 4e3f
0.7272005 0.71216404 0.7425424 0.8431201 0.8079129 0.5950213 0.7229975 0.6992532
0.8301977 0.89061004 0.6486671 0.5932932 1.071727 0.7311687 0.7327935 0.80591214

cnn_head.1.bias f4 [16]
00000000: 1f24 58bd 8ca6 253e 1f63 45be fe16 2bbe
00000010: ec94 b2be d8c3 023d 888f 0abe 30c7 423e
00000020: 93ea 893e 4ac4 bc3e 718e af3d f0ff 143e
00000030: a62b 88bd f45e 3fbd 7dc3 42be e6c4 b0bd
-0.052768823 0.16176814 -0.19276093 -0.1670799 -0.34879243 0.031925052 -0.13531315 0.19021297
0.26936778 0.36868507 0.085720904 0.14550757 -0.0664895 -0.046721414 -0.19019885 -0.086313054

cnn_head.1.running_mean f4 [16]
00000000: 250b f03f f660 bebf 3b14 4640 e9f9 debe
00000010: 409c 77c0 c017 96bf f7e7 12c0 b4ad ebbf
00000020: 0ff2 0bc0 6502 85c0 b8d1 ba40 5e5e e3bf
00000030: 0113 a2c0 a75b a640 64a7 ab40 2b5d 0940
1.8753401 -1.487334 3.0949848 -0.4355004 -3.8689117 -1.1725998 -2.295408 -1.8412385
-2.186649 -4.1565423 5.8381004 -1.7763174 -5.06482 5.198688 5.3641834 2.1463115

cnn_head.1.running_var f4 [16]
00000000: 4518 0541 b0cd 9841 5a6f 2141 7451 4141
00000010: d353 ba41 ed6f 9040 0104 8141 3bcf 6941
00000020: d966 0541 a0bf a641 775a fe41 8f93 3241
00000030: eb40 2842 57da 0a42 dc27 dc41 65ab d140
8.318425 19.100433 10.089685 12.082386 23.29093 4.513663 16.126955 14.613093
8.337609 20.843567 31.794172 11.161025 42.063396 34.713223 27.519463 6.552172

BCBlocks.0.0.f2.0.block.0.weight f4 [8, 16, 1, 1]
00000000: 7b08 fb3d 454c 833e c920 11be 0d1f f0be
00000010: eef4 143e 89f0 5dbe fc63 dabe 6e23 6b3e
00000020: 520d ca3e c8a0 ab3e 42f9 663e 1b6b 9f3d
00000030: eb63 e1be 8175 bebc 7c92 65bd 99e9 4ebe
00000040: 2c2a 2e3d 2461 873e b4b4 e2bd 43b9 cbbe
00000050: b1df 643d 62f1 93bd e6f6 f4bd e0a3 9d3e
00000060: cabe 943d 8296 d8bc cf1f 933e 0a41 823e
00000070: 7f58 bcbe 95cf 82bd 984c 5abe 7557 cabc
00000080: aaf3 af3e 9fec b43e 46e4 76be 1015 c6bd
00000090: 4d1b c9ba acea 74be 5077 d83d 6451 ed3e
000000a0: 8156 18be 0a43 99bd 8c55 e33c fea6 4f3e
000000b0: c792 d1bd 70a8 e1bc f404 b6bd 285b 4cbe
000000c0: aa00 1c3e 77ce d83e f5d3 6cbe b8df 043c
000000d0: 8c98 f53e f2ea 293e 873d f53c 0e2f 3dbd
000000e0: 0586 8bbe 8d9b c7be 1391 9bbd 971b 803e
000000f0: 1745 e23c 184e cdbe ef6b e6bd d654 d1bc
00000100: cb04 fbbc b572 a93e 3c6c 03bd e155 5f3e
00000110: bcfe 963d be97 8e3e aa33 bc3e ce02 8a3d
00000120: 31ba 663e c160 c23e 7ac9 153e 5646 7b3d
00000130: 5dcd a5be a015 dbbd 4173 9bbe ea7d 123e
00000140: fcbd 5ebb dcd6 f4bc 67ae 6dbe d0a2 d83e
00000150: 99c9 123e 3f11 9d3d 5c38 2b3e 4b33 61be
00000160: a3b0 353e 2a92 aabd 784e 5b3d 6317 30be
00000170: f66b e63e efdd 3b3e a974 173d fddb 93be
00000180: ae5c d0be 4c7c 04be b125 d2bc ee53 8e3e
00000190: f6f0 223e 4d2b 31bd 546c 213d 7c9a b7be
000001a0: ee1f 54be f617 88be 2582 62be 6086 8bbe
000001b0: 7d7f 103f 88a3 aa3e 647a 55be 974a f83d
000001c0: 5789 e9bd e54b 8b3d bbfd 25be 7202 483a
000001d0: 180e 0b3f 8b05 31be f6eb 42be 9c63 b03d
000001e0: 3f5a 133f d485 3a3f 5344 713e c658 25be
000001f0: 20a2 e33e 68ba f93c d6e8 35be 178b 03bf
0.12257477 0.25644127 -0.14172663 -0.4689869 0.14546558 -0.21673788 -0.42654407 0.22962734
0.39463288 0.33521104 0.22556022 0.077841006 -0.44021544 -0.02324939 -0.0560479 -0.20206298
0.042520687 0.264413 -0.11069623 -0.3978978 0.05587739 -0.072237745 -0.11961155 0.3078909
0.072629526 -0.026438955 0.28735206 0.25440246 -0.36786267 -0.063872494 -0.2131828 -0.024699906
0.34365588 0.35336778 -0.24110517 -0.09671986 -0.0015343219 -0.23917645 0.10569632 0.4635116
-0.14876749 -0.0748349 0.027750753 0.20278546 -0.10233074 -0.027546138 -0.088876635 -0.19956648
0.15234628 0.4234502 -0.2312773 0.008109979 0.47967947 0.16593531 0.029936565 -0.046187453
-0.27250686 -0.38985863 -0.0759603 0.2502105 0.027620835 -0.40098643 -0.112510554 -0.025553148
-0.030641934 0.33095327 -0.032085642 0.21810104 0.073728055 0.27850145 0.36758167 0.06738816
0.22531964 0.37964442 0.14627638 0.061346374 -0.32383242 -0.10697484 -0.3036137 0.14305845
-0.0033987751 -0.02988761 -0.2321106 0.42311716 0.14334716 0.07669305 0.16720718 -0.21992223
0.17743163 -0.0832866 0.05354163 -0.17196421 0.45004243 0.1834638 0.03697649 -0.28878775
-0.4069571 -0.1293804 -0.025652738 0.27798408 0.15912232 -0.043254185 0.03940995 -0.3586005
-0.20715305 -0.2658078 -0.22119959 -0.27250957 0.5644453 0.3332789 -0.2084747 0.12123602
-0.114031486 0.06801585 -0.16210072 0.0007629759 0.5431838 -0.1728727 -0.19035324 0.08612749
0.5755958 0.72860456 0.2356122 -0.16147146 0.4445963 0.030484393 -0.17764601 -0.5138411

BCBlocks.0.0.f2.0.block.1.weight f4 [8]
00000000: bb3e 403f 6a7b 493f 1673 423f fb36 4c3f
00000010: c6ed 4f3f dc8c 493f 4e50 493f c3b9 f93e
0.7509572 0.7870394 0.7595686 0.79771394 0.8122219 0.7873056 0.7863816 0.48774537

BCBlocks.0.0.f2.0.block.1.bias f4 [8]
00000000: 055b 55be 3799 8e3d 57ba 4ebe 683e b73b
00000010: ff06 683d 0529 5e3d db61 4fbe 6e87 1f3f
-0.20835502 0.06962817 -0.2018827 0.005592156 0.056647297 0.054238338 -0.20252173 0.62316024

BCBlocks.0.0.f2.0.block.1.running_mean f4 [8]
00000000: fe6f 243e baec 463d d707 a03d f3c9 1dbe
00000010: 1bc2 fb3e e96f 343e c774 87be 3ab8 2c3f
0.16058347 0.048565604 0.07813995 -0.15409069 0.49171528 0.17620815 -0.26456282 0.6746861

BCBlocks.0.0.f2.0.block.1.running_var f4 [8]
00000000: 7d61 3b3f fe52 c73e 72e8 c33e 70b8 713e
00000010: 6a48 9a3e 8864 a73e 5c89 093f b9f3 b03f
0.7319563 0.38930506 0.3826328 0.23605514 0.30133373 0.32693887 0.5372522 1.3824378

BCBlocks.0.0.f2.1.block.0.weight f4 [8, 1, 3, 1]
00000000: e8f1 e43d fcae 1b3f dbb2 68bd ef09 94be
00000010: 1a10 d3be d0b8 e63e 4e7d bfbd c2f1 0ebf
00000020: 96e6 6b3e 67b0 09bf 7b95 0d3f 82ab bebe
00000030: 50d5 3cbc e29b c2be 8e22 c3be ed50 2fbe
00000040: 8ee4 8cbe efa1 8ebe cd0e ce3e 70d9 bc3e
00000050: 9a67 c5bd bbe0 abbe e327 ff3e d779 2b3f
0.111789525 0.6081388 -0.056811195 -0.2891383 -0.41223222 0.45062876 -0.09350072 -0.55837643
0.2303718 -0.53784794 0.55306214 -0.37240225 -0.011525467 -0.38009554 -0.381123 -0.17120714
-0.27518123 -0.2785792 0.40245667 0.36884642 -0.09638901 -0.33569893 0.4983512 0.6698279

BCBlocks.0.0.f2.1.block.1.ssnorm.weight f4 [40]
00000000: 7362 573f aa8d 0b3f c554 843f ead8 363f
00000010: 1679 173f a6bc 553f dcd7 dd3e a968 3d3f
00000020: 6e50 1b3f 6cd5 653f 11ee 313f 75c3 493f
00000030: b12b 5f3f b4cc 2c3f c947 403f d39c 393f
00000040: a66b 393f 4bd6 433f 0bf6 4d3f b251 383f
00000050: f84c 7b3f ae11 3e3f 5e41 233f a76c 533f
00000060: 4ba7 5e3f c77c 633f cb5e 413f 81c8 293f
00000070: 66ce 523f 4f37 433f d2ac 083f d694 693f
00000080: efb6 1d3f ba7e 113f 3f57 0f3f 1000 563f
00000090: 3aa8 5f3f facd 4f3f aaff 913f 9303 f93e
0.84134597 0.5451304 1.033837 0.71424735 0.5916914 0.8349098 0.4332875 0.73987824
0.606696 0.8977878 0.69503886 0.7881387 0.8717604 0.6749985 0.75109535 0.7250492
0.72429883 0.7649886 0.80453557 0.7199966 0.9816432 0.7424573 0.6377162 0.82587665
0.8697402 0.8886227 0.7553527 0.6632157 0.8234619 0.7625627 0.533887 0.9124273
0.6160726 0.56833994 0.559925 0.83593845 0.8736607 0.8117367 1.1406147 0.4863554

BCBlocks.0.0.f2.1.block.1.ssnorm.bias f4 [40]
00000000: 04de 913d 3055 24be c0b7 413e 0954 0e3d
00000010: 00b6 9dbd d796 443e a54c a83e 02bc 2bbe
00000020: 7da6 133e aac9 e03d 447d 1e3e bf9c 0ebe
00000030: bfc4 f73d 0021 27be 82b4 28be 5428 7cbd
00000040: d473 9b3b 3614 cebd ebe6 bebd 405f 91bd
00000050: 3ef8 ba3e 97d1 913e 229c 8cbe 249e a53d
00000060: d6dd 283e 64ce 563d 583c f53c c233 9f3d
00000070: e047 3f3d 490e 00bd 4140 f53c 573c abbc
00000080: 350a a23d cd4b f03b 0d11 873e 3586 ee3e
00000090: 0255 943e 27c2 b93e ab94 093c 6ea1 a23e
0.07122424 -0.16048121 0.18917751 0.03474811 -0.07700729 0.19198166 0.32870975 -0.16770938
0.14418979 0.10975964 0.15477473 -0.13926981 0.12098073 -0.16321182 -0.16475108 -0.061561897
0.0047440324 -0.10062449 -0.09321388 -0.070982456 0.3651752 0.28480217 -0.2746287 0.080868036
0.16490874 0.052442923 0.029936 0.07773544 0.046699405 -0.031263623 0.029937865 -0.020902796
0.07912103 0.007333255 0.26380196 0.46586767 0.28971106 0.3628094 0.008397262 0.31763786

BCBlocks.0.0.f2.1.block.1.ssnorm.running_mean f4 [40]
00000000: 5a49 583e cfb3 153e e9e1 c33d 8f69 983d
00000010: 8f60 853d f59d 6dbe 4ad0 acbd c1f2 8fbd
00000020: dbe1 1ebd 6661 97bd c81c 78be 8abd 7fbd
00000030: 95bc 39bd 400a f9bc af28 11bd 006a 8fbd
00000040: 95e8 cbbd 5568 93bd d86f 80bd 82cb 0bbd
00000050: cc01 c4be ebb7 92be 18d6 3cbe 5e4d 21be
00000060: c838 6bbe 5213 a7be 97c1 28be a4ce 1abe
00000070: 17bd 16be 691f 7fbe d629 363e 4fbd b83d
00000080: 2537 af3d 8f0d b53d 1b41 d23d 589a 453f
00000090: 39ed 183f a3d4 083f 881d 053f a2e6 c33e
0.21121731 0.14619373 0.09564573 0.07442009 0.06512558 -0.23204787 -0.084381655 -0.070287235
-0.03878961 -0.07391624 -0.24229729 -0.062436618 -0.04534586 -0.030400395 -0.03543919 -0.0700264
-0.09956471 -0.07197634 -0.062713325 -0.034129627 -0.3828262 -0.28655943 -0.18441045 -0.1575217
-0.22970879 -0.32631928 -0.16480099 -0.1511789 -0.1472057 -0.24914326 0.17789397 0.09020483
0.0855544 0.08840477 0.10266324 0.77188635 0.59736973 0.5344946 0.51998186 0.38261896

BCBlocks.0.0.f2.1.block.1.ssnorm.running_var f4 [40]
00000000: d92b a73d 6ab3 943d 76ee 393d f239 013d
00000010: 2e9d c93c 8b0c 463e de87 9e3d 27c2 6d3d
00000020: 0a1f 303d a27b 1c3d 7d5a 943e 6a1f 2e3d
00000030: e81c 053d 814b e33c faf7 bb3c 6c86 2f3f
00000040: 655d d33d c63e 8d3d 6cec 8c3d bbd0 903d
00000050: 7e4f 333e d17d 583e 8fc5 fe3d aef0 c93d
00000060: 5a20 ca3d e941 543e 4895 953d 173d 833d
00000070: e65b 5c3d 10fa 763d c548 eb3d 93c7 0e3d
00000080: af95 113d a81a 043d 31b6 2f3d 2857 a23e
00000090: 1899 5d3e c722 2a3e 3e83 1a3e 7570 073e
0.0816266 0.07260783 0.04539343 0.0315494 0.024611082 0.19340722 0.07740758 0.058046486
0.04299835 0.038203843 0.28975287 0.042510428 0.03249827 0.027745964 0.022945393 0.68564487
0.10320548 0.06896739 0.068810314 0.07071062 0.17510793 0.21141745 0.12440025 0.09860359
0.09869452 0.20728268 0.07303864 0.06408136 0.05379858 0.060297072 0.11488489 0.034858298
0.03554314 0.032251984 0.04289836 0.3170712 0.21640432 0.16614829 0.15089127 0.13226493

BCBlocks.0.0.f1.0.block.0.weight f4 [8, 1, 1, 3]
00000000: 3bf5 0ebf f2c1 f33d a000 293c 217b f8bb
00000010: dced 113e 3303 033e 8ce9 5e3e 73f1 d33e
00000020: 5229 9e3e 6720 c3be c578 173e ea65 f53e
00000030: 2349 8c3e 2a62 8abd df06 3a3e 1e6f ab3e
00000040: a02f b8bd 0d68 d23e 96e9 ff3e d47e 26be
00000050: 3eb3 c0bd 95da ea3e 6142 603e 5e33 1dbf
-0.5584294 0.119022265 0.01031509 -0.0075830375 0.14250892 0.12794189 0.21768779 0.4139515
0.308909 -0.3811066 0.14792164 0.47929317 0.2739955 -0.067570046 0.18166684 0.33483213
-0.08993459 0.4109501 0.499829 -0.16259319 -0.09409188 0.4586989 0.21900322 -0.61406505

BCBlocks.0.0.f1.0.block.1.weight f4 [8]
00000000: 0523 4c3f da73 1d3f 4a26 383f 49e5 3f3f
00000010: 06df 293f 1308 1e3f 76ae 0d3f 486d 253f
0.79740936 0.615049 0.71933424 0.74959236 0.6635593 0.6173107 0.5534433 0.64619875

BCBlocks.0.0.f1.0.block.1.bias f4 [8]
00000000: a2bb 283e e2d7 88bd 224f 6cbd 3eb7 60bd
00000010: 6c28 573e 3792 90bd 89cb 18be a982 d9bd
0.16477826 -0.066818014 -0.057692654 -0.054862253 0.21011513 -0.07059138 -0.14921393 -0.106206246

BCBlocks.0.0.f1.0.block.1.running_mean f4 [8]
00000000: 13c4 a2bb 2157 013d d3da 13bd 339a 07bc
00000010: 25a6 543d 521d ce3c 8866 6e3c d064 d53c
-0.0049672215 0.031577233 -0.03609736 -0.00827651 0.05191626 0.025160465 0.014550813 0.026049048

BCBlocks.0.0.f1.0.block.1.running_var f4 [8]
00000000: 56c5 bc3c 24e6 6a3a 0c82 ef3c 15de 5b3c
00000010: 9cdd 1d3d 4f71 a43d 0cb9 c53b 1b04 103d
0.023043316 0.0008960685 0.029236816 0.013419648 0.03854142 0.080294244 0.006034022 0.035160165

BCBlocks.0.0.f1.1.weight f4 [8, 8, 1, 1]
00000000: 1a95 d53e f9cd 3fbc 5cab 433e 3feb debd
00000010: e971 1ebc a3ac f03d 58d1 3fbd 520b 083d
00000020: 3664 d93c 2bd5 3abe 7133 c43d 1492 463e
00000030: a65b c53e ffdf a9bd 3070 1d3e b245 1f3d
00000040: 4895 9bbc 433a b9be bbef 10be daf6 81be
00000050: 9201 763c 4eb8 f13b 6fdc a93d 860d 86be
00000060: f28a 9dbd 86f0 0a3e b861 60be e1ee e8bd
00000070: 0919 043e 34d5 073e 3e07 99bc c034 0abc
00000080: 63ec 383d d1e7 8fbd 62e9 823e edb2 a33e
00000090: 13e9 a33d 2112 453d af47 e1bd 703a a23d
000000a0: 99bb 563e e787 ccbc ec86 aa3e 9fc4 b73d
000000b0: 2df1 60bd f672 023d 05af 01be 9c35 82be
000000c0: fef1 b7be 1c9d ccbd 628f be3e f6e1 64be
000000d0: 9e85 173e 845f 263d 8d8d f4bd 95d0 14bd
000000e0: af0e a03e 0a99 f83d bb39 5abe b153 283e
000000f0: 8ecb a53e e378 373e 9f4e f9bb a5d9 f8bd
0.41715318 -0.011706823 0.19108337 -0.108847134 -0.009670713 0.11751678 -0.046830505 0.03321392
0.026537042 -0.1824538 0.09580124 0.19391662 0.38546485 -0.08294677 0.15374827 0.038884826
-0.018992081 -0.36177263 -0.1415395 -0.25383645 0.015015023 0.007376707 0.082939975 -0.26182193
-0.07692517 0.13568315 -0.21912277 -0.113736875 0.12900175 0.13264924 -0.018680211 -0.008435428
0.04514731 -0.07026637 0.25568682 0.31972447 0.0800344 0.048112992 -0.11000001 0.07921302
0.2097 -0.024967147 0.33306062 0.08973049 -0.054917503 0.031847917 -0.12664421 -0.25431526
-0.35926813 -0.09990904 0.37218767 -0.22351822 0.14797065 0.040618435 -0.11941061 -0.03633173
0.31261203 0.12138565 -0.21311085 0.16438176 0.32381862 0.17917208 -0.0076082493 -0.121508874

BCBlocks.0.1.f2.0.block.0.weight f4 [8, 1, 3, 1]
00000000: 23cd 0d3f b062 00bc 78bd 8ebe 5f25 263f
00000010: c54e 9bbe 45a6 e6be 831e abbd 1939 94be
00000020: 67b8 87be 068a a8be b4df 093e 9639 69be
00000030: 355e a93e 5f63 813e f41d 2d3e ad00 a23e
00000040: b034 583e 9a44 d03e 0737 01be b55b 9dbe
00000050: d256 dabe 0d83 82be 0c2d 83be 6324 803f
0.5539114 -0.007836029 -0.27878928 0.64900774 -0.30333534 -0.4504873 -0.08355429 -0.28949812
-0.26507875 -0.32917804 0.13464242 -0.22775874 0.33079687 0.25271127 0.16905957 0.3164114
0.21113849 0.4067734 -0.12618648 -0.3073403 -0.42644364 -0.2549061 -0.25620306 1.0011104

BCBlocks.0.1.f2.0.block.1.ssnorm.weight f4 [40]
00000000: 7322 183f 4a43 453f 98b3 1c3f 4df6 573f
00000010: fbfc 253f 5da0 443f b324 5e3f cdb1 463f
00000020: 509c 5e3f 0ee5 ff3e 7112 273f dbcf 493f
00000030: 0d33 413f 0c6c 363f 6fef 243f f3f9 2a3f
00000040: a19e 583f 3787 2e3f df43 423f be71 333f
00000050: 30c4 703f 6510 303f 215e 333f e256 273f
00000060: 3f82 4a3f 3db2 2f3f ed5d 3b3f 60b8 253f
00000070: 1a18 473f d2b2 293f 65f7 203f ba6b 2e3f
00000080: f058 8c3f 5c51 5d3f 0779 a43f 2064 8e3f
00000090: 667f 463f 2556 093f 7839 f93e 8f2e 3b3f
0.59427565 0.770558 0.6121154 0.843602 0.6483914 0.76807195 0.8677475 0.7761505
0.86957264 0.49979442 0.65262514 0.7883279 0.7546852 0.71258616 0.64427847 0.6678764
0.8461705 0.6817507 0.75884813 0.7009543 0.9404936 0.68775016 0.70065504 0.6536695
0.7910499 0.68631345 0.73190194 0.6473446 0.7777115 0.66288483 0.62877494 0.6813313
1.0964642 0.8645227 1.2849435 1.1124306 0.77538145 0.5364707 0.48676658 0.7311792

BCBlocks.0.1.f2.0.block.1.ssnorm.bias f4 [40]
00000000: af9d d8bd 5985 81bd d551 f23b b72f cb3c
00000010: 7174 1bbd 5b9c 5b3d 1638 d1bd 1c79 e23c
00000020: cd95 043d 3974 b1bd 4177 55bb 2ddd cabc
00000030: e665 db3c 3d02 0ebd 08eb 87bd 76bc ebbd
00000040: 5786 ca3d fc8e 32be 6412 91bd 110e a6bd
00000050: 2429 8b3e a257 c73d e59e 0abe 2f27 06bd
00000060: 6068 af3d 2e09 4a3d 62da 993d c383 ae3c
00000070: cbf9 a0bd 67ad 463e 33db c6be b103 d83d
00000080: ab11 a83d 3c57 903e 7331 f13e 51ae d13e
00000090: 6fb3 d13e ba29 91bb 5bcb 53be bdbe b13b
-0.10576951 -0.06324262 0.007395009 0.024803026 -0.037952844 0.05361591 -0.10215776 0.02764564
0.032369424 -0.08664746 -0.0032572302 -0.024763668 0.026781987 -0.034670103 -0.066366255 -0.115105554
0.098889045 -0.17437357 -0.07083586 -0.08108152 0.27179825 0.097335115 -0.13537176 -0.032752212
0.0856483 0.04932516 0.07512356 0.021303063 -0.07860144 0.19402085 -0.3883911 0.10547579
0.08206495 0.28191555 0.4710804 0.40953305 0.4095721 -0.004430023 -0.20683043 0.005424349

BCBlocks.0.1.f2.0.block.1.ssnorm.running_mean f4 [40]
00000000: a3d9 f83d df64 103d 4b14 c43d 2aa4 893d
00000010: 2985 a13d ddac 3dbe d3a5 49bc 7726 3f3a
00000020: 4e50 d4bd c3ab ac3a 4d82 44be 7716 c1bd
00000030: 7538 2dbe 52c4 5ebd a0bd 08bd c808 82bd
00000040: 0311 b9bd 438e aabd 3053 9cbd 6b29 51bd
00000050: e616 eb3e 5676 db3e b198 063e 7094 913e
00000060: c74e ab3e ec12 ca3e 43ad b73e 8005 b13e
00000070: cc97 c43e ccbe 8e3e 8402 4ebe 024e 5dbe
00000080: f064 31be 4c04 1dbe 942e 64be 99c5 ab3e
00000090: a103 953e 163f 9e3e 1a05 9a3e 830a d13d
0.12150886 0.03525245 0.09574183 0.06720765 0.078867264 -0.18522973 -0.012307602 0.00072918035
-0.103668794 0.0013173748 -0.19190331 -0.09428113 -0.16916068 -0.054386444 -0.033383965 -0.06349331
-0.09036448 -0.083279155 -0.07633054 -0.05106489 0.45915908 0.4286372 0.13144185 0.2843356
0.3345854 0.3946756 0.35874376 0.3457451 0.38397062 0.2787994 -0.20118147 -0.21611789
-0.17323661 -0.1533367 -0.22283393 0.33549193 0.2910433 0.30907506 0.30082017 0.10207083

BCBlocks.0.1.f2.0.block.1.ssnorm.running_var f4 [40]
00000000: 98af 273e 4aed 953d acfc 733e 3eae e63d
00000010: 3905 b93d 60ec 2d3e 59bc d13d 961b d83d
00000020: 732c 043e 06c0 1e3e c051 913c 096a 803c
00000030: c30e a03c 00f6 5f3c 61eb cf3b 8443 083d
00000040: 104f fe3c ec7a ee3c c8f8 063d acdd d93c
00000050: 1ebc 1c3e 4799 cc3d 5dbb f03c 4549 563d
00000060: 92a1 923d 3af0 ca3d 2210 8b3d bd3f 843d
00000070: 12db ad3d c2e9 833d c1a2 0b3e 23e0 623e
00000080: 0e56 0c3e a05a d03d aea5 913d 266d 7c3e
00000090: 2033 4f3e 22b5 673e 8479 5c3e f7de ca3d
0.16375577 0.0732065 0.23826855 0.11263703 0.09034199 0.16984701 0.102410026 0.105521366
0.12907581 0.15502939 0.017739177 0.015675562 0.019538289 0.013669491 0.006345198 0.033267513
0.03104356 0.029111348 0.0329521 0.02659496 0.15306136 0.09990173 0.029386217 0.05231597
0.07159723 0.09909101 0.067901865 0.064574696 0.0848905 0.0644107 0.13636304 0.22155814
0.13704702 0.10173535 0.07111679 0.24651012 0.20234346 0.2262769 0.2153073 0.099058084

BCBlocks.0.1.f1.0.block.0.weight f4 [8, 1, 1, 3]
00000000: 914c b13e 00b5 01bf aae1 913e 95fb d4bd
00000010: 12cf cdbe 65ef a4be 935e 8fbe 37e7 083e
00000020: bc22 9bbe 9b22 3e3e c2fa 693e 06ee 05bd
00000030: e7aa 51be 6a41 cc3b b4d8 adbe f905 ed3d
00000040: df2d 7e3e 3e79 883e 4573 813d 5f9c f23e
00000050: 879a 93be 2fbc ee3d 1139 9f3e cd7a 933d
0.34628728 -0.5066681 0.2849248 -0.10399548 -0.40197045 -0.32213894 -0.28001842 0.13369451
-0.30299938 0.18567888 0.22849563 -0.0326977 -0.2047535 0.006233384 -0.33954394 0.11573405
0.24822186 0.26655 0.06320814 0.47384927 -0.28828833 0.11656987 0.31098226 0.07201157

BCBlocks.0.1.f1.0.block.1.weight f4 [8]
00000000: 4d13 413f da2f 4b3f 3f0d 1c3f b1cf 313f
00000010: 135a 2f3f bc07 413f 1a6b 5f3f 68bf 423f
0.75420076 0.7936989 0.6095771 0.69457537 0.6849682 0.75402427 0.872728 0.7607331

BCBlocks.0.1.f1.0.block.1.bias f4 [8]
00000000: 8c84 4b3d 6d76 1cbe e3cd 8dbc 064d 1ebd
00000010: d958 d3bc 4bbd 803b 4b11 db3b 65f8 1c3c
0.049686953 -0.15279551 -0.017310089 -0.038647674 -0.025799202 0.0039288155 0.006685411 0.009580706

BCBlocks.0.1.f1.0.block.1.running_mean f4 [8]
00000000: 6f8d b5bb 9b4e 833c 47d5 333c 3e2f d4bc
00000010: 0d61 ffbc 97cf 0f3d 5f99 fa3c 98a8 723d
-0.005540542 0.016028693 0.010976142 -0.025901433 -0.031174207 0.035110082 0.030590711 0.059242815

BCBlocks.0.1.f1.0.block.1.running_var f4 [8]
00000000: 48db f73a c5e7 253b 7536 243d 77ce 683b
00000010: 6bdb b23d d16e f43d 07dc b23c 7fa9 e93c
0.0018909955 0.0025315147 0.040090997 0.0035523453 0.08733257 0.11935199 0.021833433 0.028523205

BCBlocks.0.1.f1.1.weight f4 [8, 8, 1, 1]
00000000: f7b6 07be 5d76 6dbe 3104 69bd 8122 56bd
00000010: a5ee 2bbd 1b71 12bd ea77 653e 2985 c33d
00000020: 05ac ba38 cf12 9fbd b63c 803d 9ace 2cbe
00000030: ba77 ebbd 6769 043d 8422 11bc 3f01 673d
00000040: 2a6c ac3e e339 76bd 00b1 953d 5c8f 363d
00000050: 1e14 a0bc 8a41 dfbd 1650 ca3e f8db 4c3e
00000060: 2c34 98bd 1a05 8abd 2ccd 18be 1359 053e
00000070: f939 85be 0e22 5fbd dc5b d6bd 3490 4f3d
00000080: c51a a93e 77d8 753e db35 87be 478e 163d
00000090: aaf6 9f3e e48f a7bd c6ad 473d cd12 48be
000000a0: 755d 8dbe 7742 34be 8076 2e3e 26b8 4d3e
000000b0: 508b 4c3d 1bd2 afbe 60b9 d53e b137 bc3e
000000c0: 7dad 9a3a e4e2 693e de76 20be 6320 893d
000000d0: a294 583b 9a97 c53b dcce 0f3e fdaf 793e
000000e0: d888 de3d ca99 f9bc 2c24 91bc b493 53bb
000000f0: 0f36 463e a200 903d 55ab 91bd 56d7 e4be
-0.1325339 -0.23189683 -0.056888763 -0.052279 -0.041975636 -0.035752397 0.22409025 0.09546883
8.901212e-05 -0.07767259 0.0626158 -0.16875687 -0.114974454 0.032327082 -0.008858327 0.056397673
0.33676273 -0.0601138 0.07309151 0.044570312 -0.019540843 -0.109011725 0.39514226 0.20005786
-0.07431826 -0.06739254 -0.14922017 0.1302226 -0.26020792 -0.054475836 -0.104667395 0.050674632
0.33028236 0.24008356 -0.26408276 0.03675678 0.31242877 -0.08181742 0.048749708 -0.19538422
-0.27610365 -0.1760348 0.17037392 0.20089778 0.049937546 -0.34339985 0.41742992 0.3676124
0.0011800971 0.22840458 -0.15670344 0.066956304 0.0033047576 0.006030035 0.14043754 0.2438354
0.108659446 -0.03046884 -0.017717443 -0.0032284083 0.19356559 0.07031371 -0.07112757 -0.44695538

BCBlocks.1.0.f2.0.block.0.weight f4 [12, 8, 1, 1]
00000000: 7fa4 2bbe 6002 12be 1a3d 86bb 83df fcbd
00000010: abb7 f43d 58a9 1e3e 8830 e7bd 21b4 efbe
00000020: c1de 67bd b7b2 4fbe 6072 3dbe dfb7 9dbd
00000030: 89b7 eabc 1177 87be 251e 67bf 3a2a 333f
00000040: 6f9b 423e 2952 e03d 229a fe3d 9fd9 abbd
00000050: 0470 2abf 7902 97bb eec2 703d 7f77 a4be
00000060: c70e 5ebc e7e4 7e3c 2448 48be ecb5 d13d
00000070: 898f 83bd fc9e cb3e a381 9c3e c554 89be
00000080: 1cf5 9c3e 2294 0a3f 9f29 c2bd ffbc 133f
00000090: 72d9 82be 630e a03d b92d 1cbe 61c5 87bd
000000a0: 108e 84be dc65 a43d 2c30 2abe c854 123e
000000b0: 2348 72bd 6944 e5be 0469 6dbe 8948 c13e
000000c0: f7e8 06be ff5d 9dbe c2d8 94bd d1fc 13bd
000000d0: 994b b5be 2a4c cabc f18e adbe dde7 003f
000000e0: 5c32 9d3e 915c 74bd e39f ffbd 4fa8 293d
000000f0: 5174 d7be ccb5 703e 5820 5cbd 7ca9 91be
00000100: 2a86 3fbe 43cf 89bd eb7f 863d 3ecf 24be
00000110: 656f fe3e fdf0 2d3e ba20 8d3d 80a9 0abe
00000120: dbd6 a6bd 384e 48be 9027 fabd 595b a4be
00000130: 0b88 9b3e b7f4 2a3d a13a dc3d 8c8c 85bd
00000140: ae9a bd3e fbb4 c83d b4f0 43bd 98e7 34bc
00000150: 49a4 22be 16dd 173e 70c5 64bd fd54 083f
00000160: 19d9 043f abfe b1bd d4e2 853e 700f c7bc
00000170: 82e6 d13e ce6b 743d b725 483d a688 07be
-0.16761969 -0.14258718 -0.0040966393 -0.12347319 0.119490944 0.15494287 -0.112885535 -0.46817115
-0.05660892 -0.20283018 -0.18500662 -0.07701086 -0.02865197 -0.26458028 -0.9028037 0.6998631
0.19004606 0.10953171 0.12431742 -0.08391117 -0.6657717 -0.004608449 0.05877965 -0.32122418
-0.013553328 0.015557504 -0.1955877 0.10239777 -0.064238615 0.39769733 0.30567655 -0.26822487
0.30655754 0.5413228 -0.09480595 0.5771026 -0.25556523 0.07815244 -0.15251817 -0.06629444
-0.25889635 0.08027241 -0.16619939 0.14290154 -0.059150826 -0.44778755 -0.23184592 0.37750652
-0.13174807 -0.30735776 -0.07267906 -0.036129776 -0.3540924 -0.024694521 -0.33898118 0.50353795
0.30702484 -0.05965859 -0.12481668 0.041420277 -0.4208093 0.2350685 -0.053741783 -0.2844962
-0.18703523 -0.06728985 0.06567367 -0.16094682 0.49694362 0.16986461 0.06891008 -0.13541222
-0.08146449 -0.19561088 -0.12214577 -0.32100943 0.3037723 0.041737285 0.1075337 -0.06520948
0.37032074 0.09800144 -0.047836974 -0.011041544 -0.15882982 0.14830431 -0.055852354 0.5325468
0.51893765 -0.08691152 0.2614962 -0.024299353 0.40996176 0.059673123 0.048864093 -0.13235721

BCBlocks.1.0.f2.0.block.1.weight f4 [12]
00000000: 68a2 413f 3811 303f 9b20 383f 47d3 413f
00000010: df92 493f c317 433f ac97 443f ce2a 3f3f
00000020: 785a 413f 2a40 433f 32a1 473f 6bba 463f
0.7563844 0.68776274 0.7192475 0.7571301 0.7873973 0.7620813 0.7679393 0.7467469
0.7552867 0.7626978 0.7798034 0.776282

BCBlocks.1.0.f2.0.block.1.bias f4 [12]
00000000: 069b 093e 887b c43e 8dc2 863e 74c7 b63d
00000010: 21b6 693d b324 e13d 20e1 b83d a4c5 233e
00000020: 9ac9 f83d 1d3c 433d bd2f 963d ef89 0b3c
0.13438043 0.38375497 0.26320305 0.089247614 0.057058457 0.10993328 0.09027314 0.15993363
0.121478274 0.04766475 0.07333324 0.008516773

BCBlocks.1.0.f2.0.block.1.running_mean f4 [12]
00000000: f36f bebe d610 d5be ba20 14bf bcbb 153e
00000010: 2f38 803e bc23 91be b04d aabe 4299 a9be
00000020: 2fcb 9f3e 1e40 21bc 0f1c 003f 1b66 093f
-0.37194785 -0.41614407 -0.57862437 0.14622396 0.25042865 -0.28347576 -0.33262396 -0.3312474
0.31209704 -0.009841947 0.50042814 0.53671426

BCBlocks.1.0.f2.0.block.1.running_var f4 [12]
00000000: c969 cd3e 2fd5 793f 34c2 203f f15e 803e
00000010: 8d10 1a3f ce59 df3e 836e 173f 75dc d03e
00000020: 872d 013f db72 7d3e 52ea fb3e 69e7 e63e
0.4011977 0.9759092 0.6279633 0.25072435 0.60181504 0.43623203 0.59153 0.40793195
0.50460094 0.24750845 0.4920221 0.45098427

BCBlocks.1.0.f2.1.block.0.weight f4 [12, 1, 3, 1]
00000000: edee 0dbf 3f1d 16be 28c8 3fbd c308 1f3f
00000010: 8301 1a3f 8709 ce3d f31e 6a3d 08e5 f83e
00000020: d8d2 aebb 1efc d9bd 17cb aa3e b161 723e
00000030: 4f8d 16be f044 c5be f959 b5be 2a83 84be
00000040: 2531 45be 787b cabe 5dc1 d83e 03fe 1ebe
00000050: ddb2 17bf 2170 81bd ace8 9ebd 8c97 283f
00000060: ea85 b83e 3b96 433e f9e1 0fbd 170a 47be
00000070: 5bbc ef3d 808f a2be d690 e8bd 6162 07bf
00000080: c91d 093d f03f c9be 7c0b e9be ae14 0bbe
-0.55442697 -0.14659594 -0.046821743 0.62122744 0.60158557 0.10060411 0.05715842 0.48612237
-0.005335193 -0.10643791 0.3335807 0.23670079 -0.14702342 -0.38529158 -0.35420206 -0.2588132
-0.19257028 -0.39547324 0.42335024 -0.15526585 -0.592573 -0.06320215 -0.077592224 0.6585624
0.36039668 0.19100277 -0.035127614 -0.19437443 0.11705848 -0.31750107 -0.1135575 -0.5288449
0.03347567 -0.39306593 -0.45516574 -0.13582107

BCBlocks.1.0.f2.1.block.1.ssnorm.weight f4 [60]
00000000: 563e 433f f760 443f a2b5 5b3f f422 4c3f
00000010: f1b5 393f 99fe 183f a8ef 613f af41 773f
00000020: 607e 0c3f 7a9e 563f 7026 253f c570 813f
00000030: 1d2d 453f be29 163f 3b27 303f 5d28 573f
00000040: e8cf 243f b9a1 5e3f 96fe 2f3f f8e4 2f3f
00000050: b672 0d3f 077f 563f 6cf1 7d3f 2f7e 4f3f
00000060: a5f3 683f 9c64 213f 6c7a 253f 7d3e 4a3f
00000070: cf98 433f ed63 6e3f 0927 413f b171 2f3f
00000080: 42c8 7f3f 7f91 243f 2a34 2a3f 4a2e 123f
00000090: 6e93 203f 78a0 503f 5317 173f f589 3e3f
000000a0: 9380 573f 7121 2a3f 0aff 4b3f 511f 5c3f
000000b0: 56a4 463f 74ea 523f bfa8 333f 6a4a 463f
000000c0: 27ef 3c3f cb87 4e3f cc3d 823f 3bb4 5a3f
000000d0: d3f5 1c3f 7e17 153f 9388 333f d524 693f
000000e0: 9be8 3a3f 182a 513f 69bd 323f f823 173f
0.7626699 0.76710457 0.85824025 0.79740834 0.72543246 0.59763485 0.8825631 0.965846
0.5488033 0.83835566 0.64511776 1.011254 0.7702196 0.58657444 0.6880986 0.84045964
0.6437974 0.8696552 0.6874784 0.68708754 0.5525316 0.8378758 0.99196506 0.81051916
0.9099677 0.6304414 0.64639926 0.790016 0.7640504 0.93121225 0.7545019 0.68532854
0.99914944 0.6428451 0.66485846 0.5710188 0.6272496 0.81494856 0.59019965 0.74429256
0.84180564 0.6645728 0.79686034 0.85985285 0.77594507 0.82389 0.7017936 0.77457297
0.7380242 0.80675954 1.0175109 0.8543126 0.613126 0.5823897 0.7013027 0.91071826
0.7301118 0.81704855 0.69820267 0.5903926

BCBlocks.1.0.f2.1.block.1.ssnorm.bias f4 [60]
00000000: e5e6 d03c fdf7 663b 5d9e 9b3d 3f72 1c3d
00000010: 2502 c2bc 6d52 dc3e c22e f83e b801 843e
00000020: 4f58 0e3e 93c9 c9bd e45c f63d c167 f93d
00000030: 5f8f e73c 47a0 01bd cd54 053d 8545 3d3d
00000040: d06c ebb9 9343 ac3d 1be0 33bd a7c0 60bd
00000050: 9f7a edbd 81ad 133e 57dc a83e 66ff 8f3c
00000060: 2d3f 773e 5f55 d7bd 2c2d 793e 0ade 353e
00000070: a9f8 31bd 2e90 e53d ea26 34be 4d88 d03a
00000080: c5c1 803d 886d 9d3d 993e 2bbd 0167 a4bc
00000090: d811 f33c 32ef 023e f7a8 fe3a 5d5b 6fbc
000000a0: 3697 793d 01a3 2dbe 2a16 5abd 8614 5a3e
000000b0: f1cf 463d 96d0 8a3d b76e 87bd 4081 9d3d
000000c0: 892d 5bbd b717 5e3d 4f07 61bc e8c6 f33e
000000d0: 9d81 d53c 61c5 a7bb 3410 073e f36c 3c3e
000000e0: 2c6a 73be 5d8e 413e 0ee4 c53c 980e 4d3d
0.025500724 0.0035243027 0.07598565 0.03819489 -0.023682663 0.43031636 0.48473173 0.2578256
0.13900875 -0.098529 0.12029436 0.121779926 0.028266607 -0.031646993 0.032551575 0.046208877
-0.00044903765 0.08411326 -0.043914896 -0.054871228 -0.11595654 0.14421655 0.32980606 0.017577838
0.24145193 -0.1051433 0.24333638 0.17760482 -0.04345003 0.11209141 -0.1759297 0.0015909761
0.062869586 0.07686907 -0.041807745 -0.020068647 0.029671595 0.12786558 0.0019429018 -0.014609185
0.06093522 -0.16956712 -0.053243794 0.21296892 0.048538152 0.06778066 -0.06612914 0.07690668
-0.053510223 0.054221835 -0.013734653 0.4761269 0.026062781 -0.005119965 0.13189775 0.18400936
-0.2377097 0.18901964 0.024156597 0.050062746

BCBlocks.1.0.f2.1.block.1.ssnorm.running_mean f4 [60]
00000000: 5803 51be edba a4be e1a8 74be 144c a4be
00000010: 4499 89be ee6b 543f 85b9 3b3f 1c34 203f
00000020: 39d0 e83e 776c cf3e 2c5f 223e 358d 073e
00000030: 81c4 a13e 9acb 963e 70db 583e 0279 b03d
00000040: aeb7 1b3e f571 163e dff0 4c3e 3f82 833e
00000050: 89cc 8abe ff0f 8bbe 210c 74be ebfe 7cbe
00000060: 9b79 31be 13fa bcbe 5ab4 c0be 1464 84be
00000070: 8a41 6ebe 30ea 3fbe 0b6c 8bbe ef9e dfbd
00000080: 4396 cbbd 6409 22bd 4339 83bc 4b8e dc3d
00000090: 352d e63d 2185 a33e e3ae 453e 520b 323e
000000a0: 952f 0c3e bb25 8c3e 4ab6 ad3d fd7b d53d
000000b0: 0c1b 693e a02c 2abe a667 f7bd 5e49 34bd
000000c0: b030 cfbd 385c 1ebe aa43 99be a8e8 70be
000000d0: c426 4cbe c5fc 1dbe ac73 17be f63f dbbe
000000e0: f49c a6be dfad 4bbe 40b0 52be 31a1 8cbe
-0.20411432 -0.32173863 -0.23892547 -0.32089293 -0.26874745 0.8297719 0.73329955 0.6257951
0.4547136 0.4051244 0.15856618 0.1323746 0.31595233 0.2945221 0.21177459 0.086168304
0.15206787 0.14691909 0.2001376 0.25685307 -0.27109173 -0.27160642 -0.23832752 -0.24706618
-0.17331545 -0.3690954 -0.37637597 -0.25857604 -0.23267189 -0.18741679 -0.27230868 -0.10918986
-0.099407695 -0.039559737 -0.016018515 0.10769328 0.11239091 0.31937507 0.19304995 0.17387131
0.13690026 0.27372536 0.084820345 0.104240395 0.22764224 -0.16618586 -0.12080316 -0.04401528
-0.10116708 -0.15464866 -0.29934436 -0.23526251 -0.19936663 -0.15428455 -0.14790219 -0.42822236
-0.3254162 -0.19890545 -0.20575047 -0.2746673

BCBlocks.1.0.f2.1.block.1.ssnorm.running_var f4 [60]
00000000: 3821 a03d 5d7b bb3d f187 593d a4ed 833d
00000010: 4d66 433d eae9 083f 3f77 1e3f 442b eb3e
00000020: 04fa c43e fb0b 4d3e e6cc 173d b688 293d
00000030: 9cfc 2b3d 8687 1c3d f511 453d 3ec0 6a3c
00000040: a477 e43c 7f3f ce3c 31c9 1a3d 7eca 953d
00000050: 321e cc3d a80c 183e a753 353e 251f 593e
00000060: c72d e23d af42 743e 11dd 563e 25a9 eb3d
00000070: a20b cf3d 0d68 663d 7030 803e 263a 003e
00000080: 48b6 ba3d 093b 6d3d 59fe 4b3d cad8 5d3d
00000090: 995e 2a3d 9de9 b43d 1421 b43d e818 8c3d
000000a0: eb93 9e3d add4 c53d f49c 483d 5405 4c3d
000000b0: 097b 893d 7301 0d3d 621a f33c 9e5c 9e3c
000000c0: e219 d53c 9a98 e03c ff73 0d3e fb01 303e
000000d0: d259 f93d e1b6 033e 6824 853d e7e4 9a3e
000000e0: 9ae2 453e 2346 8e3e 08aa 823e 2153 653e
0.07818836 0.09154389 0.05310816 0.06441811 0.047704984 0.53481925 0.61900705 0.45931447
0.38471997 0.20024101 0.03706064 0.041390143 0.041988954 0.038215183 0.04811283 0.014328061
0.02788908 0.025176762 0.037789527 0.07314013 0.09966697 0.14848578 0.17707692 0.21203287
0.110438876 0.23853563 0.20982768 0.11506871 0.10109641 0.056251574 0.25036955 0.12522182
0.09116799 0.05791763 0.04980311 0.054161824 0.04159412 0.08833621 0.08795372 0.06840688
0.07743057 0.09659705 0.048977807 0.04980977 0.0671292 0.03442521 0.029675666 0.019331273
0.026013318 0.027416516 0.1381378 0.17188255 0.12175335 0.12862732 0.065010846 0.30252764
0.19324723 0.27787885 0.2552035 0.22394992

BCBlocks.1.0.f1.0.block.0.weight f4 [12, 1, 1, 3]
00000000: 50ae 74be b829 193d 004a 88be 1782 11be
00000010: e5ea 973e 61d3 783e 5d93 50bd 2aa2 a3be
00000020: 20c2 5abd 7a7b a4be f858 d13e bf83 2a3d
00000030: 12ed ab3c b451 a03c 6541 573e bd9d 97be
00000040: 3fe0 86be cf52 8fbc 42e3 e63d 72f3 e4bc
00000050: 37f9 b43e 3aa8 363e f763 acbe 31c2 26be
00000060: bbdb 96be 4419 7f3e c0a3 9ebe ad2e aabd
00000070: 4328 e3be 7388 b7be 075f ecbe 59a7 8c3e
00000080: 2db8 c53e 1243 16be 2363 a9be ecc1 f33e
-0.2389462 0.0373933 -0.26618958 -0.14209782 0.29671398 0.24299385 -0.050921787 -0.3195966
-0.05340779 -0.32125455 0.4088819 0.04162955 0.020987067 0.01957021 0.2102104 -0.29612532
-0.2634296 -0.01749554 0.11273815 -0.027948115 0.35346386 0.17837611 -0.33670017 -0.16285016
-0.29464516 0.24911982 -0.30984306 -0.08309684 -0.44366655 -0.3584629 -0.4616625 0.27471426
0.38617077 -0.14674023 -0.33083448 0.47608888

BCBlocks.1.0.f1.0.block.1.weight f4 [12]
00000000: fc16 303f f117 2c3f d33b 3b3f 79f1 323f
00000010: cf86 333f 8160 213f 4998 2d3f 7603 283f
00000020: 48b9 3f3f 4274 293f e045 793f 17a3 5a3f
0.6878507 0.6722403 0.7313816 0.6989971 0.70127577 0.6303788 0.67810494 0.6563028
0.7489209 0.6619302 0.97372246 0.85405105

BCBlocks.1.0.f1.0.block.1.bias f4 [12]
00000000: 36f5 2a3c f355 e5bd e2af 583d fd08 11bd
00000010: ec06 08be 0521 793c 2f99 03be e866 44bd
00000020: 0e2a 03bb f13b a8bd 348c 21be 288e 30bd
0.010434439 -0.11198034 0.05290211 -0.035408963 -0.1328389 0.015205626 -0.12851404 -0.0479497
-0.002001408 -0.08214558 -0.1577614 -0.04310432

BCBlocks.1.0.f1.0.block.1.running_mean f4 [12]
00000000: c8d0 41bc 275b ca3d 45b0 afbc 2281 aa3b
00000010: b549 d33c ee5a 27bd 25a5 a5bb 969e 30bc
00000020: 2173 1f3b c3ce d0bc 9348 993c 7186 813c
-0.0118295625 0.09880667 -0.021446357 0.005203382 0.025791982 -0.0408582 -0.005055087 -0.010779997
0.0024330097 -0.025489217 0.018711364 0.015811177

BCBlocks.1.0.f1.0.block.1.running_var f4 [12]
00000000: 09d1 833d 2aca 2c3d 304e ae3c 78f9 c53c
00000010: 4440 243c ea5f 9d3d a2bb f23b e868 143c
00000020: 677b 793d 154f 313e 4392 2b3d d79e 213d
0.06436355 0.042184986 0.021277517 0.024166808 0.010025088 0.0768431 0.0074076215 0.009058215
0.0609087 0.17315324 0.041887533 0.039458122

BCBlocks.1.0.f1.1.weight f4 [12, 12, 1, 1]
00000000: 5cf7 a9bd c6ca d23c 6cff c73d d993 c83d
00000010: 3a98 03be 2a91 473d b8f6 e6bd 9f85 9dbd
00000020: 2064 853e 3633 d6bd 04fb 0f3e 63d2 2bbe
00000030: c32d 173e bdda 6abe ea3c 92bd a528 31be
00000040: 03b8 46be 0d20 b53c 4eb3 6abe f40f ed3d
00000050: b9ae c73d 273c 28bd d10b 8ebe 0d3c cabe
00000060: ccb0 85bd c5c9 0b3e aeea 513e 1c06 0bbd
00000070: e710 76be 9e64 993e 20d6 d2bd 5796 7b3d
00000080: 5283 3a3e f5e2 0f3e 35b2 9f3c 7855 2a3e
00000090: 5e0e f13d 2172 e0bd d276 b33d d0ba 193e
000000a0: 44fe bf3d fc01 823e 3c60 b2bd 1313 35bd
000000b0: 7109 ac3c 5f27 2d3e 84ae 413e 11da 4abe
000000c0: e4a7 ab3c 1cef 61bd 5be1 6b3e a4a1 88be
000000d0: 6062 4a3e b032 34bd ceac 56bd cd46 c1bd
000000e0: ea7d 733c 7752 02be 31a8 99bc 7e7e 9fbd
000000f0: 0917 5dbd 75ff 8f3e abe3 88bb 1fc9 84bd
00000100: fc42 63bd 6776 aa3e 3364 cdbd 0e3f 4f3d
00000110: 9084 28bc 775a b93d f07a babb 98c0 49be
00000120: 2d45 443d 4f5d 893b c7ac 2f3e 6b11 babd
00000130: 7a04 f5bd 63de 0a3d 1b36 233c 6b89 543d
00000140: 22a3 483b 6e0f 1e3e 08d0 08be 424b 66be
00000150: 8f0c 643e 7d07 303c 5f41 c4bd 1c99 363e
00000160: 17bf 92bd 7ae2 bb3c 48aa 50be 4fbf 313e
00000170: c98a 223e fd72 edbd 89ee a3bd ffed 583b
00000180: 6ad7 083e 674f 50be 72bf 32be 108f 1ebd
00000190: d0c0 083e db4a 98be fc5b c13d bf1d 8e3c
000001a0: 68e0 473e 0db8 2c3e c5cf b2bd 5841 38bd
000001b0: a1ef 59be c911 2d3e b343 ec3d 3ad8 3cbe
000001c0: 0c46 15be 822e 35be 3a34 3c3e b6e3 2b3e
000001d0: 649c f73d 9e36 763d f48c 7ebb ad2c 3bbe
000001e0: 5182 733d d92d a13e 1cbb abbd 4a31 a73d
000001f0: 31b2 11be 2bdc 153e e575 5a3d a783 60be
00000200: c4c7 b2bc 7417 3cbe b32a 62be 2415 7dbd
00000210: cefa d73d 5631 a7bd 60c9 203e b9ef d6bc
00000220: c0c4 ad3c 7b9a e1bd f5e5 19be 6ec4 5fbc
00000230: e09b c0bd f306 b8bd 7adb 06bf 87ac 9bbd
-0.08299133 0.025731456 0.09765515 0.09793825 -0.12851039 0.048722424 -0.112775266 -0.07691502
0.26052952 -0.104589865 0.14060599 -0.16779475 0.1476355 -0.22935005 -0.07140525 -0.17300661
-0.19406132 0.02211001 -0.22919962 0.115753084 0.097501226 -0.04107299 -0.2774339 -0.3949894
-0.06527862 0.13651188 0.2049968 -0.033941373 -0.24029885 0.29959577 -0.10294747 0.061422672
0.18214157 0.14051421 0.019494155 0.16634166 0.117703184 -0.10959268 0.087628976 0.1501267
0.09374669 0.2539214 -0.087097615 -0.044207644 0.021000596 0.1690955 0.18914229 -0.19809748
0.02095408 -0.055159673 0.23035185 -0.26685822 0.1976409 -0.043993652 -0.052410893 -0.09437332
0.014861563 -0.1272677 -0.018756958 -0.07787798 -0.053977046 0.28124586 -0.0041775308 -0.06483673
-0.055483803 0.3329346 -0.10028877 0.050597243 -0.010285512 0.09050458 -0.005690925 -0.19702375
0.047917534 0.0041920315 0.17155753 -0.090853535 -0.119637445 0.03390349 0.00996163 0.051888864
0.0030614813 0.15435573 -0.13360608 -0.22489646 0.22270416 0.010743973 -0.09582781 0.17831844
-0.07165354 0.02293514 -0.20377457 0.17358135 0.15873255 -0.11594198 -0.08004481 0.003310084
0.13363424 -0.2034279 -0.17455843 -0.038710654 0.13354802 -0.2974461 0.09441373 0.017348168
0.19519198 0.16867085 -0.08731035 -0.04498419 -0.21282817 0.16901316 0.1153635 -0.18441859
-0.14577502 -0.17693523 0.18379298 0.16786084 0.12090376 0.06011068 -0.0038841339 -0.18278761
0.05945045 0.3148029 -0.08385298 0.08163698 -0.14228131 0.14634769 0.05333509 -0.21925221
-0.021823771 -0.18368322 -0.22086601 -0.06178774 0.10545884 -0.08163707 0.15701818 -0.026237356
0.021211982 -0.11015793 -0.15029128 -0.013657672 -0.09404731 -0.089857005 -0.52678645 -0.07601266

BCBlocks.1.1.f2.0.block.0.weight f4 [12, 1, 3, 1]
00000000: 961d d6be 68a1 d2bd 28ef efbd 14c7 033f
00000010: c6c0 ec3e 7369 09bf 065b b33c c6fd 0cbe
00000020: 0cdf fcbe c46b 64bd d67c 84be 41f6 5ebe
00000030: 2a28 803d c2d3 a9bd 1b61 003f db9f 8ebe
00000040: 4daa 93be c33d da3e 1121 ed3e 99f6 f5be
00000050: 4326 863e 3cf8 8b3e 8ed3 5a3e 414b a5be
00000060: 194e 143d e47f ff3e d833 b0be d5a5 933d
00000070: 39ea 7abe 3040 86be d598 de3e 0a40 ae3e
00000080: ed21 813e 2313 b63d 0e9e 513e 8cbe c03e
-0.41819447 -0.10284692 -0.11715537 0.51475644 0.46240824 -0.5367653 0.02189399 -0.13768682
-0.4938892 -0.055766836 -0.25876492 -0.21773626 0.06257661 -0.08292343 0.5014817 -0.27856335
-0.28840867 0.42625245 0.4631429 -0.48039702 0.26201066 0.27337825 0.21369764 -0.32283977
0.036207292 0.4990226 -0.34414554 0.07209364 -0.24503411 -0.26220846 0.43475977 0.34033233
0.25221196 0.08890369 0.2047045 0.37645376

BCBlocks.1.1.f2.0.block.1.ssnorm.weight f4 [60]
00000000: 990f 413f ec92 463f 66df 333f 1d99 463f
00000010: 0def 563f 8f71 653f e7f6 413f df77 293f
00000020: 5175 663f 8e8e 263f 8f21 333f 5111 4a3f
00000030: 6a23 503f 3007 623f 2e5f 463f 39d3 473f
00000040: 27d6 4c3f 8a9c 303f 93fd 303f 1cd6 5d3f
00000050: 7fd1 4e3f 7e6a 4b3f f4c8 253f 325e 3e3f
00000060: d286 553f a6ec 4b3f 7c90 863f 8759 4d3f
00000070: deee 133f b661 2f3f a3cc 583f 6ad0 6e3f
00000080: 641d 0b3f 2b6e 483f c071 2e3f 28cf 023f
00000090: 705f 143f ea25 493f 228d 183f e29d 313f
000000a0: 1ee9 3e3f 6b7d 313f 479b 503f f099 593f
000000b0: a7d9 593f 188f 2c3f 7704 403f 1628 413f
000000c0: 74cb 393f ada7 3d3f d6f0 5d3f ce3f 3a3f
000000d0: de80 213f baba 2f3f 941e 473f 7fc5 5a3f
000000e0: 6bcf 1c3f 6e60 493f 9aaa 3d3f 0191 263f
0.75414425 0.77567935 0.70262754 0.7757738 0.8395851 0.896264 0.7576737 0.66198534
0.9002276 0.6506127 0.6997308 0.7893267 0.8130404 0.8829222 0.7748898 0.78056675
0.8001427 0.6898886 0.69136924 0.8665483 0.80788416 0.7945937 0.64759755 0.7436248
0.83408844 0.7965797 1.0512843 0.8021473 0.5778636 0.6850847 0.8468725 0.93286765
0.5434172 0.782931 0.6814232 0.51097345 0.57958126 0.7857348 0.5959035 0.69381535
0.7457446 0.69332 0.81486934 0.85000515 0.85097736 0.67405844 0.7500681 0.7545179
0.7257607 0.7408398 0.8669561 0.7275361 0.6308726 0.686443 0.77781034 0.85457605
0.61253995 0.78662765 0.7408844 0.6506501

BCBlocks.1.1.f2.0.block.1.ssnorm.bias f4 [60]
00000000: a115 babc 15a5 433e 7b22 613d cf6e 423d
00000010: c584 153d 54f2 b13d f3a8 543e 9bfd 0c3e
00000020: ebce e53d 7429 2abd 1b8a 15bd 7dc0 303e
00000030: 6b93 e0bb 7490 80bd a4cd 853d 66a5 c63d
00000040: 61dd 103d c384 5dbc 9e31 babd 622c ee3c
00000050: 3473 393d 5056 9f3d e1a1 68bc 100e 013e
00000060: 6d3e 8e3d 87e4 213d 6ef0 1b3d e746 8f3d
00000070: 6f30 50bd 2ac1 ec3c 0833 e73c 01f9 1a3d
00000080: 6546 40bc f212 d13c 4a15 6abd f927 84bd
00000090: 9f67 673c 39df 813d 95d2 1dbd e487 b1bc
000000a0: f13e 103e 1858 c1bd 57ca 8ebc 3923 193d
000000b0: 2087 523d dbdd 5f3d 8c4f ae3c ed9c 4f3a
000000c0: 8520 80bc 248f 873b b808 61bc 1fe3 283e
000000d0: ae68 5ebd 78b4 023d 6104 173d 0184 3b3d
000000e0: c684 cabd eeb9 313d a6e4 8cbc be06 dcbc
-0.022715392 0.19105943 0.054964524 0.047468957 0.036503572 0.086887985 0.20767574 0.13768618
0.11221107 -0.04154344 -0.03650866 0.17260928 -0.006853511 -0.06277552 0.065333635 0.09699516
0.035367373 -0.013520422 -0.09091495 0.029073898 0.045275882 0.07780135 -0.014198751 0.1260302
0.069455005 0.03952458 0.03807109 0.069959454 -0.05082744 0.028900702 0.028222576 0.037835125
-0.011735533 0.02552173 -0.05714921 -0.06452937 0.014123826 0.063414045 -0.038530905 -0.021671243
0.1408651 -0.09440631 -0.017430468 0.037387107 0.051398396 0.054654937 0.021278165 0.0007919807
-0.015640507 0.0041369367 -0.013734989 0.1649289 -0.05429905 0.03191039 0.03686941 0.045780186
-0.09888606 0.043390207 -0.017198872 -0.026858684

BCBlocks.1.1.f2.0.block.1.ssnorm.running_mean f4 [60]
00000000: af73 35be 2bda 6fbe 7b33 99be f933 91be
00000010: 09a7 64be 9ccb 9a3b dc4f 943e a835 9b3e
00000020: a9c5 133e 7d88 633e 31df 77be df91 78be
00000030: f975 76be 0c95 22be 5195 32be 0d27 4cbe
00000040: 5c48 43be f307 78be cf45 55be 6cca f7bd
00000050: 241a 183e eaea 603e e8d1 463e d309 553e
00000060: ea2e 9f3d 1b44 603d 83db 2bbd aba1 9abd
00000070: 8fd2 bbbb 9b8c 1dbe 8229 ab3b 762a b53d
00000080: 5b40 3c3d 21cc a23d 04ff b73c 31ec ba3c
00000090: e917 f33b 2346 d53d 9c50 263d 32b1 5f3d
000000a0: b353 813b 5df5 783d 6410 913d f48e 5d3d
000000b0: 94fa 063e 2a6f 18be 5fc1 dfbd a566 c9bd
000000c0: 10a3 d4bd d77b d3bd 2ea8 973e 2919 0a3f
000000d0: a6f5 9b3e 0728 3d3e 9565 7f3e c06d 523e
000000e0: 4cbc 183e c09d 663e 46bd 1a3e f61c de3d
-0.17719911 -0.23423068 -0.2992209 -0.28359964 -0.22329344 0.004723979 0.28967178 0.30314374
0.1443087 0.22220035 -0.24206235 -0.24274395 -0.2406844 -0.1587717 -0.17439772 -0.19936772
-0.19070572 -0.24221782 -0.20827411 -0.12099156 0.14853722 0.21964613 0.1941601 0.20804529
0.0777262 0.05475245 -0.04195739 -0.07550367 -0.0057318876 -0.15385668 0.005223454 0.088459894
0.04595981 0.07949091 0.022460468 0.022817703 0.007418622 0.10413768 0.04060422 0.054612346
0.0039467453 0.06078087 0.070832044 0.05409141 0.13181525 -0.14886156 -0.109255545 -0.09834031
-0.10382664 -0.10326355 0.29620498 0.5394464 0.30460852 0.184723 0.24941094 0.20549679
0.1491558 0.22521114 0.15111265 0.108453676

BCBlocks.1.1.f2.0.block.1.ssnorm.running_var f4 [60]
00000000: a7e9 d93c 408d 7f3d 1489 ae3d 4fe3 c13d
00000010: 8a27 833d b278 083e 98ee b43e 0ad1 b13e
00000020: b82f 613e 3c33 833e 8702 223e 11a3 2e3e
00000030: bcb7 bd3d 0423 c43d 8714 933d 4759 aa3d
00000040: fd8c 843d efbe bf3d ffa1 713d 2fc2 983c
00000050: 8a0f ab3c b426 ef3c cd01 ec3c 8ca4 a73c
00000060: e327 9f3c 4539 223c d53e ae3c 6091 cd3c
00000070: db94 c53c d0a4 1b3d 4271 a73c 7ffb b13d
00000080: 0165 243e 0720 a53d afaa 993d 3584 463d
00000090: 1f6c a13d e4cc 903d ffcc 593d 5118 8c3d
000000a0: 7f5c 173e 328d 303d 1e0c 483d e178 933d
000000b0: 8d1f cf3d 3749 e73c 6548 243c ff2e f53b
000000c0: f901 6a3c 0da5 953c e465 953d 8140 cd3d
000000d0: 52bc 713d 0342 e53c 413e 1c3d 051c 163d
000000e0: 8e51 653c 0666 813c afaf 3e3c aae9 0a3c
0.026600672 0.062390566 0.08522239 0.09467184 0.06404026 0.13327292 0.35338283 0.34729797
0.2199086 0.25625026 0.15821277 0.17054392 0.0926356 0.09576991 0.0718165 0.083178096
0.06472204 0.093625896 0.058992382 0.018647281 0.020881433 0.02919326 0.028809452 0.020464204
0.0194282 0.009901349 0.021270195 0.025093734 0.024118831 0.037998974 0.020439748 0.08690547
0.16054155 0.08062749 0.075032584 0.048465926 0.078819506 0.0707033 0.053174015 0.068405755
0.14781378 0.043103404 0.04883968 0.0720079 0.1011344 0.028233154 0.010027026 0.007482409
0.014282697 0.018267179 0.07294825 0.10022069 0.059017487 0.027985578 0.038145307 0.036647815
0.013996495 0.015795719 0.011638566 0.008478561

BCBlocks.1.1.f1.0.block.0.weight f4 [12, 1, 1, 3]
00000000: 7eb9 b3be c2e6 b13e ca39 7b3e 52dd 7e3e
00000010: d9df 93bd c450 67be b6b2 12bd f6ce 183e
00000020: 2ba7 4f3e b59a 88be 12ed 0abe 3170 96be
00000030: b197 dabd 0d16 993d fc93 e23e 3cf0 7fbd
00000040: 5641 9cbe cf82 babe ecee 9abe 2f8a 0cbe
00000050: 22c9 42be b126 173e 98f5 c73c ad5c b5be
00000060: 1732 91be ae35 0bbe 753d d9bd 7cbd bc3e
00000070: 7195 4e3e a3fb b53d d6cb 62be 3d08 edbd
00000080: e6fe 9f3e 45d8 f43d 2f46 913e a79a a8be
-0.35102457 0.34746367 0.24533764 0.24889114 -0.0722043 -0.22589403 -0.035814963 0.149227
0.20278613 -0.26680532 -0.13566998 -0.2938247 -0.10673464 0.07474909 0.44253528 -0.062484965
-0.30518597 -0.36427924 -0.30260408 -0.13724588 -0.19022039 0.14760853 0.0244091 -0.35422269
-0.28358528 -0.13594696 -0.10607425 0.36863315 0.20174195 0.088858865 -0.2214807 -0.11573837
0.3124916 0.11955313 0.28373858 -0.3293049

BCBlocks.1.1.f1.0.block.1.weight f4 [12]
00000000: bf64 383f 5fd4 403f 2d69 3f3f fef3 253f
00000010: 54ff 323f e58c 3d3f c07f 3f3f 27ff 3b3f
00000020: e155 3f3f 1701 4d3f 4b27 543f 7fe2 623f
0.72028726 0.7532405 0.7476986 0.6482543 0.6992085 0.74043113 0.74804306 0.73436207
0.74740416 0.8007979 0.82872456 0.88626856

BCBlocks.1.1.f1.0.block.1.bias f4 [12]
00000000: 0681 ecbc 0107 f03b 36ca 313d ab25 5bbd
00000010: 9ed7 14bd 37b2 d339 0f3d 223e a42e 813c
00000020: 99e8 aebc 28e2 2dbc f5e7 56bc fdbf 203d
-0.028870117 0.0073250537 0.043405734 -0.05350272 -0.03633844 0.00040377837 0.15843605 0.01576931
-0.021351146 -0.010613002 -0.013116826 0.039245594

BCBlocks.1.1.f1.0.block.1.running_mean f4 [12]
00000000: 6bfc 973c 4bab 26bb 911a 2c3c d568 10bc
00000010: 63bf ba3c f381 8abc 2bcd 41bb 0596 dd37
00000020: 6fbb 0cbc cc0e 033c b09c ee3b fa97 babb
0.01855298 -0.0025431688 0.010504381 -0.008814056 0.022796338 -0.016907668 -0.0029571753 2.6415111e-05
-0.0085896095 0.007999133 0.007281862 -0.0056943865
