models/speechcmds_tau3_50%/model_best.pth (torch, 323271 bytes, 165 tensors)

cnn_head.0.weight f4 [48, 1, 5, 5]
-6.027352e-06 -1.4336964e-06 -1.4656783e-06 -3.0101232e-06 -4.200408e-06 3.4090463e-06 7.5197427e-06 3.6905103e-06
-5.502003e-06 -1.2340944e-05 -2.9071666e-06 -3.8060136e-07 1.1227147e-06 -1.8375011e-06 -6.953721e-06 -4.9927653e-06
-6.512156e-06 -3.25734e-06 -3.1237823e-06 -1.6105976e-06 -2.67328e-06 -4.8693373e-06 -3.3488964e-06 -2.5638874e-06
4.4615936e-07 -0.00037905597 -0.0005638316 -0.0007565516 -0.0008502966 -0.000994917 0.00012798175 -2.8028871e-05
-3.1188916e-05 8.716547e-05 3.5816258e-05 0.0002512049 7.433075e-05 -4.1081476e-05 -2.5646674e-05 -9.1651695e-05
0.00017339573 0.00010767632 -4.7494764e-06 -0.00011037208 -0.00031775303 -1.2936332e-05 7.157982e-05 2.6102784e-05
-3.6251928e-05 -0.00028243917 0.02105798 -0.031922422 -0.006768511 -0.044792164 0.0019232274 -0.07272771
0.03074864 0.28194252 0.28384855 0.34111044 0.048482895 -0.1033731 -0.2561667 -0.44377688
-0.5336035 0.07521951 0.09822604 0.16372257 0.15302016 0.22804601 -0.08896401 -0.01887126
0.038031846 0.019503955 -0.001195979 -0.022399748 0.00915758 0.07615668 -0.019262558 -0.04712353
-0.26630795 -0.0771668 0.39611566 0.32218486 0.18165399 -0.21368612 -0.0893884 0.33854884
0.18925229 0.051600456 -0.03366541 -0.03541382 0.13985401 0.08397052 0.03665555 -0.03760811
-0.01868096 0.05228105 0.014884505 0.036320835 8.651946e-06 5.0530093e-06 3.1765176e-06 4.7472704e-06
-2.0349812e-06 2.7465196e-06 -1.3251434e-06 -2.6236487e-06 -3.0897384e-06 -1.544885e-05 4.2336987e-06 4.274207e-06
5.1458987e-06 6.722047e-06 4.986579e-07 -1.0961578e-06 6.049324e-07 4.3027273e-07 2.4362241e-06 6.417293e-07
3.7919855e-07 2.2968368e-06 2.046169e-06 4.4668923e-06 4.160434e-06 -7.4541376e-08 -3.589508e-06 -3.3839158e-06
6.117867e-07 -2.4517453e-07 -5.7823413e-06 -8.870239e-06 -7.4426166e-06 -3.3239257e-07 -1.5442236e-06 -5.2909595e-06
-7.241261e-06 -7.66245e-06 -3.7809218e-06 -8.357914e-06 -1.2538891e-06 -1.0082872e-06 -5.6317276e-07 2.5852382e-06
-3.2855949e-06 -1.06250134e-07 -1.6453827e-06 -2.1378796e-06 4.2879816e-07 -5.3226913e-06 -1.1373139e-05 -1.4005341e-06
-2.4561577e-06 -6.435524e-06 -4.695766e-06 7.848021e-06 1.4024519e-05 5.5916817e-06 -5.125236e-06 -8.568216e-06
4.2324314e-06 1.1989695e-07 -5.7852026e-06 -6.310809e-06 -4.7174963e-06 -6.574407e-07 -8.545743e-06 -9.7574e-06
-7.408696e-06 -2.9403186e-06 -3.4287116e-06 -6.4210735e-06 -7.281294e-06 -6.273413e-06 -3.1113143e-06 -0.0021592819
-0.026254764 -0.050671063 0.18350917 -0.06679191 -0.07216174 -0.17353012 -0.11230762 0.31214336
0.1280481 -0.4418738 -0.33577496 -0.05215197 0.56963104 0.334078 -0.35890675 -0.14289093
0.017368684 0.42690024 0.014855775 -0.019073224 0.0001259536 0.039094377 0.16760252 -0.1039691
0.02507014 0.01926479 -0.0027684357 0.010850232 0.0050798515 0.008597842 -0.04866588 -0.09845059
-0.069261186 -0.07238443 -0.02107626 -0.04409877 -0.08001156 -0.05826386 -0.03708643 -0.003087205
0.039884083 0.042154733 0.058607798 0.059069507 -0.0039932835 0.029663602 0.016809287 0.022810709
-0.0035232569 -0.021327728 0.012113425 0.029310038 -0.010150748 0.008885612 0.06490881 0.0024226455
-0.0750397 -0.012969676 0.11890887 0.27486992 0.087085746 -0.1435226 -0.005343134 0.21590705
0.13112551 0.038329594 -0.076895796 -0.04871973 0.11145798 -0.039002102 0.018865336 -0.018743085
0.02514458 0.092314504 0.0001954965 0.003544893 0.0058441176 0.0046137166 0.007847079 0.0007794349
00000000: 8f3e cab6 6f6d c0b5 53b8 c4b5 8601 4ab6
00000010: 3bf1 8cb6 f8c6 6436 1952 fc36 7caa 7736
00000020: d99d b8b6 f30b 4fb7 be18 43b6 7455 ccb4
00000030: 2fb0 9635 0fa0 f6b5 0254 e9b6 8787 a7b6
00000040: fe82 dab6 ad98 5ab6 2ca2 51b6 b62b d8b5
00000050: 9a66 33b6 4a63 a3b6 9abd 60b6 400f 2cb6
00000060: ad87 ef34 08bc c6b9 19ce 13ba 5253 46ba
00000070: 70e6 5eba e067 82ba d732 0639 8b1f ebb7
00000080: d8d0 02b8 9bcc b638 6a39 1638 27b4 8339
00000090: 04e2 9b38 e64e 2cb8 d023 d7b7 2135 c0b8
000000a0: 90d1 3539 49d0 e138 b15d 9fb6 8f77 e7b8
000000b0: 1798 a6b9 1f09 59b7 201d 9638 4df7 da37
000000c0: 360d 18b8 5814 94b9 c981 ac3c 16c1 02bd
000000d0: 63ca ddbb fd77 37bd ce14 fc3a 44f2 94bd
000000e0: 92e4 fb3c c55a 903e 9954 913e 07a6 ae3e
000000f0: 0096 463d 47b5 d3bd 4828 83be b936 e3be
00000100: 3d9a 08bf b00c 9a3d bc2a c93d e4a6 273e
00000110: 51b1 1c3e e584 693e c332 b6bd e797 9abc
00000120: 48c7 1b3d c2c6 9f3c 65c2 9cba ad7f b7bc
00000130: ad09 163c 09f8 9b3d 83cc 9dbc 9a04 41bd
00000140: 8459 88be a109 9ebd accf ca3e 6af5 a43e
00000150: 8103 3a3e 89d0 5abe 4411 b7bd 4656 ad3e
00000160: 5acb 413e 005b 533d bee4 09bd 150e 11bd
00000170: e435 0f3e bcf8 ab3d 2124 163d f60a 1abd
00000180: d008 99bc a724 563d 24de 733c 28c5 143d
00000190: d327 1137 058d a936 282c 5536 be4a 9f36
000001a0: b690 08b6 d950 3836 95db b1b5 f111 30b6
000001b0: 4d59 4fb6 2798 81b7 320f 8e36 296b 8f36
000001c0: efaa ac36 f28d e136 83db 0535 b21f 93b5
000001d0: a362 2235 3c00 e734 037e 2336 4d43 2c35
000001e0: a794 cb34 5b23 1a36 ea50 0936 50e2 9536
000001f0: db99 8b36 8e13 a0b3 47e3 70b6 3b17 63b6
00000200: a939 2435 88a0 83b4 ef05 c2b6 63d1 14b7
00000210: 97bb f9b6 b073 b2b4 1e43 cfb5 ff88 b1b6
00000220: f5f9 f2b6 f98d 00b7 bebb 7db6 f838 0cb7
00000230: 4d4b a8b5 7c54 87b5 f02c 17b5 0e7e 2d36
00000240: 177e 5cb6 a12b e4b3 ebd6 dcb5 7e78 0fb6
00000250: 9235 e634 9299 b2b6 43cf 3eb7 fcf9 bbb5
00000260: 78d4 24b6 bbf0 d7b6 5390 9db6 feaa 0337
00000270: da4a 6b37 2ea0 bb36 71f9 abb6 35c0 0fb7
00000280: 4f04 8e36 06bd 0034 831e c2b6 70c1 d3b6
00000290: fc4a 9eb6 fb7a 30b5 b05f 0fb7 b7b3 23b7
000002a0: 3798 f8b6 4a52 45b6 d118 66b6 9a74 d7b6
000002b0: d751 f4b6 3580 d2b6 f9cb 50b6 bd82 0dbb
000002c0: 3b14 d7bc 768c 4fbd d4e9 3b3e 32ca 88bd
000002d0: 89c9 93bd e1b1 31be 8a01 e6bd 41d1 9f3e
000002e0: 0b1f 033e 483d e2be b2ea abbe 4e9d 55bd
000002f0: 57d3 113f 460c ab3e a0c2 b7be 0052 12be
00000300: c548 8e3c ab92 da3e a365 733c 733f 9cbc
00000310: 6912 0439 6d21 203d ff9f 2b3e c0ed d4bd
00000320: e55f cd3c 31d1 9d3c a56e 35bb 2cc5 313c
00000330: e274 a63b f7dd 0c3c e055 47bd 77a0 c9bd
00000340: cfd8 8dbd 4a3e 94bd 1fa8 acbc e9a0 34bd
00000350: 1add a3bd 16a6 6ebd f1e7 17bd b552 4abb
00000360: 7e5d 233d 71aa 2c3d bb0e 703d def2 713d
00000370: 17da 82bb 1501 f33c a1b3 893c 86dd ba3c
00000380: 71e6 66bb 7db7 aebc 6377 463c 9b1b f03c
00000390: 534f 26bc f594 113c e9ee 843d 3fc5 1e3b
000003a0: 6aae 99bd c47e 54bc 7e86 f33d c0bb 8c3e
000003b0: 035a b23d 97f7 12be 7515 afbb bd16 5d3e
000003c0: c445 063e 7eff 1c3d 8b7b 9dbd 578e 47bd
000003d0: 1544 e43d abc0 1fbd 7a8b 9a3c 198b 99bc
000003e0: 02fc cd3c 630f bd3d 31fe 4c39 7051 683b
000003f0: 0380 bf3b a92e 973b 0991 003c fe52 4c3a

cnn_head.1.weight f4 [48]
2.202089e-06 0.00032423993 0.3819616 0.5765051 1.8182737e-06 2.0156426e-06 5.905998e-06 0.37999293
0.01162421 0.4697748 0.013611803 0.0011538129 0.4491627 3.66008e-06 0.3552476 3.711104e-06
2.633141e-06 5.1896645e-06 0.02381834 0.0007430267 4.9385136e-07 0.25669384 0.04155931 0.2714046
2.5579945e-06 4.4962962e-06 0.33952343 0.25526428 3.567239e-07 9.848829e-08 0.00088789174 1.2275562e-07
2.653007e-05 1.004832e-06 0.1732079 0.12995405 1.8522765e-07 0.33425248 0.27095547 0.011271803
0.28025967 1.13555124e-07 0.21173677 -0.006289515 1.3675085e-06 0.30750352 0.29270938 5.273691e-07
00000000: 9ac7 1336 bffe a939 7990 c33e d795 133f
00000010: 690b f435 7a44 0736 232c c636 6f8e c23e
00000020: 7873 3e3c 5386 f03e 0a04 5f3c 893b 973a
00000030: a7f8 e53e b29f 7536 03e3 b53e 480c 7936
00000040: 05b5 3036 e122 ae36 ae1e c33c aec7 423a
00000050: 3591 0435 606d 833e 183a 2a3d 8bf5 8a3e
00000060: 03aa 2b36 e4de 9636 04d6 ad3e 00b2 823e
00000070: c283 bf34 8380 d333 68c1 683a cfce 0334
00000080: e48c de37 c4dd 8635 695d 313e ad12 053e
00000090: fde2 4634 2423 ab3e adba 8a3e 5ead 383c
000000a0: 327e 8f3e 97db f333 86d1 583e 4718 cebb
000000b0: 3c8b b735 1a71 9d3e 01de 953e 8790 0d35

cnn_head.1.bias f4 [48]
-7.869556e-06 -0.0010930287 -0.14543292 -0.27767754 -8.114327e-06 -7.429095e-06 -2.0804971e-05 0.1869284
-0.075552344 -0.3598657 0.0033261145 -0.004710843 -0.25231254 -1.5748923e-05 0.20510957 -1.4856049e-05
-1.2148807e-05 -3.2474272e-05 -0.0117395 -0.002587586 -1.891443e-06 0.12637328 -0.009875284 0.24737541
-9.368823e-06 -1.5418238e-05 0.24505179 0.21137099 -1.7494606e-06 -6.621087e-07 -0.0045141983 -4.935448e-07
-0.0001519466 -4.206738e-06 -0.0006076132 0.05584233 -7.3430783e-07 -0.15072185 0.1960098 -0.039972596
-0.049512614 -4.0790817e-07 0.015106886 -0.005432045 -6.043541e-06 -0.11602996 0.32036418 -2.4471385e-06
00000000: 7c07 04b7 f543 8fba 5eec 14be c02b 8ebe
00000010: c522 08b7 7147 f9b6 5686 aeb7 296a 3f3e
00000020: 30bb 9abd 5140 b8be f1fa 593b 6a5d 9abb
00000030: 1c2f 81be 8e1c 84b7 3e08 523e 3f3e 79b7
00000040: bbd2 4bb7 fc34 08b8 0857 40bc 7d94 29bb
00000050: 7ddd fdb5 ff67 013e f1cb 21bc fb4f 7d3e
00000060: ca2e 1db7 6a56 81b7 dbee 7a3e a371 583e
00000070: 02cf eab5 c3bb 31b5 d7eb 93bb 247c 04b5
00000080: db53 1fb9 9b27 8db6 3b48 1fba edba 643d
00000090: 401d 45b5 d456 1abe cbb6 483e 4eba 23bd
000000a0: bdcd 4abd 79fe dab4 df82 773c 4cff b1bb
000000b0: 9fc9 cab6 1ea1 edbd c606 a43e 8539 24b6

cnn_head.1.running_mean f4 [48]
0.00018299955 0.010060716 -0.4184945 -3.1822135 -0.00011079716 0.00021988015 0.00023874496 -0.69328266
0.58207756 -2.2650428 -0.09517387 0.022254642 -1.3656292 -0.00017646968 -1.3917974 9.529636e-05
-0.00018890487 0.00026825856 0.045399882 -0.01850445 -1.6766278e-05 -0.1166024 -0.13444471 -0.11750323
-8.653231e-05 -0.00020760084 -1.1043117 1.289929 1.4794031e-05 1.2278927e-06 0.05488395 7.25632e-06
0.0016982835 4.9599337e-05 -0.47466174 -0.24569726 1.1996616e-05 -0.46494344 -0.47251144 0.708767
-1.7285218 -1.1850583e-05 0.11199634 0.12857927 9.276087e-05 -1.28941 -3.2517095 -1.1516229e-05
00000000: 91e3 3f39 b4d5 243c e944 d6be 63a9 4bc0
00000010: c65b e8b8 a18f 6639 9d57 7a39 f97a 31bf
00000020: 0903 153f 76f6 10c0 85ea c2bd 5e4f b63c
00000030: f0cc aebf b80a 39b9 6b26 b2bf d8d9 c738
00000040: c414 46b9 0ea5 8c39 3af5 393d a596 97bc
00000050: 4fa5 8cb7 3dcd eebd e0ab 09be 89a5 f0bd
00000060: ae78 b5b8 6daf 59b9 165a 8dbf 651c a53f
00000070: e133 7837 12ce a435 fecd 603d 507b f336
00000080: f098 de3a e208 5038 dd06 f3be 1098 7bbe
00000090: 1345 4937 110d eebe 05ed f1be c171 353f
000000a0: 3440 ddbf ded1 46b7 565e e53d 49aa 033e
000000b0: 9d88 c238 630b a5bf 021c 50c0 d435 41b7

cnn_head.1.running_var f4 [48]
4.6769497e-08 0.00017647089 3.6999035 19.340958 1.8786913e-08 7.008368e-08 8.213334e-08 13.131145
0.9623891 7.632165 0.017257899 0.0009868655 6.850486 4.806985e-08 12.567825 1.3523274e-08
5.6011828e-08 2.3864865e-07 0.0103723 0.000746507 4.661659e-10 8.786933 0.05879655 9.516463
1.2782385e-08 6.4489576e-08 6.7173405 5.506678 3.4209263e-10 2.8319711e-11 0.0051694615 7.454596e-11
4.6437676e-06 4.1969166e-09 1.3301032 1.5352724 2.2362343e-10 1.9773667 9.3547 0.76836497
5.3272367 2.0055889e-10 1.7678707 0.029284995 1.4576947e-08 3.7761743 15.992308 3.843214e-10
00000000: 9bdf 4833 0b0b 3939 38cb 6c40 48ba 9a41
00000010: dc60 a132 e980 9633 4861 b033 2b19 5241
00000020: 225f 763f b23a f440 7060 8d3c b659 813a
00000030: 2e37 db40 5c75 4e33 d015 4941 fd53 6832
00000040: a891 7033 9f1f 8034 94f0 293c 3db1 433a
00000050: 8223 0030 4797 0c41 a7d4 703d 6f43 1841
00000060: 8699 5b32 857d 8a33 74f4 d640 b536 b040
00000070: 4211 bc2f 521a f92d 9664 a93b a5ed a32e
00000080: a9d1 9b36 7834 9031 d240 aa3f ce83 c43f
00000090: 66e0 752f 5a1a fd3f daac 1541 91b3 443f
000000a0: b978 aa40 4f84 5c2f 9649 e23f 16e7 ef3c
000000b0: 176e 7a32 d7ac 7140 7ee0 7f41 6e48 d32f

BCBlocks.0.0.f2.0.block.0.weight f4 [24, 48, 1, 1]
-1.3976586e-06 0.00025787004 0.011541046 0.0058697616 -8.022456e-08 -3.7352422e-06 1.2575102e-06 -0.0016427909
-0.021035949 0.008142507 -0.0004080683 -3.0274981e-05 -0.029263442 7.8386597e-07 0.0059645097 4.555628e-06
-2.6622547e-07 1.3779732e-05 -0.0008262671 -0.0006341494 -1.1387396e-07 -0.009365187 -0.0015760704 0.0030092367
-1.6477819e-07 3.3173928e-06 -0.00011251355 -0.004568308 4.791111e-09 -2.8185337e-07 0.0022246495 7.1130174e-08
-3.6976267e-06 -4.4467438e-07 -0.0027328117 -0.001231862 2.8534123e-07 -0.003283462 -0.024182579 0.0015575326
-0.0019686122 2.1810709e-07 0.00034091636 -6.847135e-05 4.044543e-06 -6.3053114e-05 0.008320674 7.2931965e-07
2.2054726e-06 0.0002535022 -0.32294226 -0.17843384 8.248072e-06 1.0595492e-06 5.1335555e-06 0.037120868
0.010094248 -0.04485024 -0.012353977 -0.0008746752 -0.11561898 -1.01718825e-07 0.04768407 -9.4659856e-07
9.928967e-06 -1.5797561e-06 -0.00066511624 -0.0012355017 -1.22071e-07 0.046204034 -0.035600364 0.11702535
4.4469975e-06 3.6256492e-06 0.033326663 0.113691345 -1.1045859e-09 -1.3435337e-07 0.0005653987 -7.7498576e-08
-7.4157555e-07 -1.0707212e-06 0.010188995 -0.13048166 -1.3193934e-07 0.107095145 0.22122793 -0.04642905
0.07907779 4.7392362e-07 0.07255343 -0.0052599483 -2.1181513e-06 -0.13867007 -0.1656 4.1947405e-07
7.774048e-07 -0.00038399114 -0.015847653 -0.04294341 2.7421856e-06 2.3040704e-06 1.6033656e-06 -0.10325933
0.06684947 -0.0482339 0.00018355096 0.0005313688 -0.094196245 2.9094012e-06 0.4388681 5.2546744e-07
4.043204e-06 -1.775257e-05 -0.000890779 -0.0017342726 1.9240128e-08 -0.23443906 -0.013047151 0.013628338
-1.4601234e-06 3.290687e-06 -0.094568506 0.013818845 -3.7544325e-07 -2.582183e-07 -6.2619685e-05 4.507314e-08
-4.8495185e-05 -3.5436855e-07 0.01915221 -0.009862836 7.610314e-08 -0.041804865 -0.007879693 0.013276328
0.1386521 -1.1315189e-08 0.056761097 -0.006786699 -2.9486216e-07 0.2061152 -0.027297594 2.073438e-07
2.6207826e-07 -0.00013989372 0.1030491 0.279124 -3.2962785e-06 -2.2866727e-06 1.7102445e-06 -0.028271157
0.03200952 -0.07494771 -0.0023542596 8.579318e-05 0.10896195 1.9420324e-06 -0.0832625 1.2738693e-06
-7.4082146e-07 -5.853778e-06 0.008489165 0.00018892357 1.6455316e-07 0.06203871 0.008001687 -0.006785049
1.0852875e-06 1.8183874e-06 0.063953675 0.17877495 -2.3442317e-07 -2.219973e-07 0.0008285595 1.9916966e-08
4.502262e-07 1.0379083e-06 0.017581344 -0.030536942 1.3104574e-07 0.18034008 -0.04205956 0.014772981
0.082297325 -3.2250324e-07 -0.030706909 0.007070696 -6.9282765e-07 -0.017805828 -0.00379221 3.6455376e-08
2.2608479e-06 -0.0007809294 0.15320118 -0.18766153 1.3528096e-06 -1.9698061e-06 -2.34451e-06 -0.00952493
0.064134546 -0.12869954 -0.00095107855 -0.0012777748 0.19368696 -1.520393e-06 0.026730647 -4.0483023e-06
3.939002e-06 4.3297755e-06 -0.0016117609 -0.00069547497 1.5376288e-07 0.08194481 -0.010062284 -0.065044954
-7.5937265e-07 -2.1221401e-06 0.043958846 0.039201554 -1.7556099e-08 2.2395389e-08 -0.002037144 2.098919e-09
5.5240365e-05 -4.6309162e-07 -0.004793623 -0.026014809 -8.7321084e-08 0.050333552 0.12109658 -0.026177669
0.23783678 -2.288521e-07 -0.0698047 -0.0045659626 -4.7569442e-06 -0.1003164 0.024618128 -1.0098554e-06
2.0205791e-06 -0.00027181467 0.23513922 0.1893482 5.1422353e-07 -2.5998268e-06 -5.5417663e-06 0.15846828
-0.05766649 0.019049477 0.003051819 -0.0015942624 0.21821095 -1.4908678e-06 0.18625586 3.693684e-06
00000000: 2f97 bbb5 bb32 8739 a816 3d3c 2157 c03b
00000010: eb47 acb3 f9aa 7ab6 b9c7 a835 ea52 d7ba
00000020: 9553 acbc 2668 053c 00f2 d5b9 07f7 fdb7
00000030: e3b9 efbc dc6a 5235 ef71 c33b 8cdc 9836
00000040: c0ed 8eb4 802f 6737 d999 58ba 0c3d 26ba
00000050: df8a f4b3 7170 19bc 2694 ceba 9d36 453b
00000060: e2ed 30b4 60a0 5e36 41f5 ebb8 bfb1 95bb
00000070: 0f9f a431 a251 97b4 6dcb 113b 3ac0 9833
00000080: be24 78b6 95bb eeb4 f918 33bb 6e76 a1ba
00000090: 0031 9934 5a2f 57bb 8b1a c6bc 1f26 cc3a
000000a0: d503 01bb d230 6a34 05bd b239 4798 8fb8
000000b0: 5cb6 8736 623b 84b8 7053 083c 77c6 4335
000000c0: bb01 1436 7de8 8439 b058 a5be 5cb7 36be
000000d0: 3361 0a37 d535 8e35 e840 ac36 0d0c 183d
000000e0: 5862 253c e3b4 37bd 5668 4abc 764a 65ba
000000f0: a5c9 ecbd 8470 dab3 5f50 433d c219 7eb5
00000100: 9794 2637 0208 d4b5 325b 2eba 8ff0 a1ba
00000110: 9f12 03b4 7140 3d3d b0d1 11bd fdaa ef3d
00000120: 6b37 9536 2e50 7336 8a81 083d 02d7 e83d
00000130: 29d0 97b0 c642 10b4 4437 143a 4b6d a6b3
00000140: af10 47b5 b3b5 8fb5 beef 263c fc9c 05be
00000150: 36ab 0db4 b354 db3d 9389 623e 632c 3ebd
00000160: 89f3 a13d 916f fe34 e596 943d a55b acbb
00000170: 9025 0eb6 87ff 0dbe 0c93 29be 1334 e134
00000180: daae 5035 6b52 c9b9 f0d2 81bc 6ee5 2fbd
00000190: 6406 3836 a19f 1a36 3933 d735 a179 d3bd
000001a0: 60e8 883d e990 45bd 9677 4039 8e4b 0b3a
000001b0: f6e9 c0bd 223f 4336 52b3 e03e d90d 0d35
000001c0: dcaa 8736 5beb 94b7 2b83 69ba 8850 e3ba
000001d0: 7d45 a532 cb10 70be b8c3 55bc 6549 5f3c
000001e0: 75f9 c3b5 92d5 5c36 22ad c1bd 7068 623c
000001f0: 8790 c9b4 41a1 8ab4 b052 83b8 7196 4133
00000200: 4f67 4bb8 0b40 beb4 18e5 9c3c bc97 21bc
00000210: 256e a333 943b 2bbd d419 01bc f584 593c
00000220: d1fa 0d3e ba64 42b2 537e 683d f562 debb
00000230: 8c4d 9eb4 dd0f 533e 349f dfbc 3ba2 5e34
00000240: c3b3 8c34 6fb0 12b9 680b d33d 57e9 8e3e
00000250: a235 5db6 bd74 19b6 8e8b e535 ea98 e7bc
00000260: 6a1c 033d 2f7e 99bd ec49 1abb ddeb b338
00000270: 7127 df3d dd53 0236 8885 aabd d1f9 aa35
00000280: dddc 46b5 926b c4b6 2416 0b3c c919 4639
00000290: 07b0 3034 4d1c 7e3d 8219 033c 1e55 debb
000002a0: 32aa 9135 510f f435 25fa 823d c810 373e
000002b0: c0b5 7bb4 275e 6eb4 b033 593a df15 ab32
000002c0: 9eb6 f134 424e 8b35 c006 903c 9c28 fabc
000002d0: 94b5 0c34 12ab 383e a546 2cbd 600a 723c
000002e0: 808b a83d 8224 adb4 0e8d fbbc 4cb1 e73b
000002f0: c1fa 39b5 87dd 91bc ba86 78bb 1c93 1c33
00000300: 12b9 1736 49b7 4cba c5e0 1c3e 582a 40be
00000310: 2f92 b535 0331 04b6 6056 1db6 740e 1cbc
00000320: f958 833d d0c9 03be cd51 79ba 027b a7ba
00000330: e055 463e 4e10 ccb5 3bfa da3c a7d6 87b6
00000340: c52b 8436 7d48 9136 b941 d3ba 8950 36ba
00000350: 051a 2534 aed2 a73d 47dc 24bc 4a36 85bd
00000360: b1d7 4bb5 176a 0eb6 310e 343d cf91 203d
00000370: 45ce 96b2 fb5f c032 9b81 05bb 933c 1031
00000380: e4b1 6738 d49e f8b4 d313 9dbb 021d d5bc
00000390: 4685 bbb3 8e2a 4e3d 7c01 f83d 8d72 d6bc
000003a0: 7c8b 733e 63ba 75b4 c4f5 8ebd 129e 95bb
000003b0: d79d 9fb6 af72 cdbd f5ab c93c 5e8a 87b5
000003c0: 4999 0736 5982 8eb9 56c8 703e 7fe4 413e
000003d0: 2c09 0a35 af78 2eb6 69f3 b9b6 8245 223e
000003e0: b333 6cbd a60d 9c3c 0701 483b 92f6 d0ba
000003f0: b172 5f3e d419 c8b5 dbb9 3e3e 02e1 7736

BCBlocks.0.0.f2.0.block.1.weight f4 [24]
-0.0006276127 0.20005606 0.3460089 -0.1833855 0.1795305 0.3123138 0.21286556 0.44516584
0.4476444 0.1369856 0.00039843968 0.1976112 -4.035432e-06 -1.1527958 2.7886766e-05 0.26673225
0.11764279 0.30312133 0.2715228 0.0011501611 0.14726898 0.3131638 0.21210794 0.1962444
00000000: 6086 24ba 7fdb 4c3e 1428 b13e 69c9 3bbe
00000010: d8d6 373e 98e7 9f3e 6ef9 593e c7ec e33e
00000020: a631 e53e f445 0c3e abe5 d039 975a 4a3e
00000030: 1968 87b6 d08e 93bf 60ee e937 2191 883e
00000040: b4ee f03d b832 9b3e 0905 8b3e 01c1 963a
00000050: aecd 163e 0157 a03e d332 593e 4bf4 483e

BCBlocks.0.0.f2.0.block.1.bias f4 [24]
-0.023289083 0.09768523 -0.0058325385 -0.09511794 0.017993962 -0.082460225 -0.12719965 0.02291293
-0.17466755 0.22812751 -0.0016908266 -0.15346818 -2.6100159e-05 0.18881702 -0.00022958012 -0.02994189
0.25792894 -0.016716123 -0.117722176 -0.027227199 -0.0076323366 -0.117330156 -0.013334684 0.19095717
00000000: bfc8 bebc 320f c83d e11e bfbb 32cd c2bd
00000010: 1368 933c e8e0 a8bd a040 02be e6b3 bb3c
00000020: 0ddc 32be 429a 693e ba9e ddba c326 1dbe
00000030: aaf1 dab7 4059 413e 72bb 70b9 b248 f5bc
00000040: 430f 843e 40f0 88bc 5318 f1bd 930b dfbc
00000050: ae18 fabb cb4a f0bd b879 5abc 478a 433e

BCBlocks.0.0.f2.0.block.1.running_mean f4 [24]
-0.0038128367 0.04130792 0.035854485 0.07518075 0.06491585 0.1927205 0.12487528 0.030319659
0.1409114 0.16069317 -0.0002912531 0.05079675 2.8348331e-06 -0.0035527544 -2.1711921e-05 -0.09453362
-0.07162214 -0.09782676 -0.08347898 -0.0014515936 -0.000935274 -0.035374146 -0.0833789 -0.14434904
00000000: c9e0 79bb 7e32 293d 27dc 123d 5df8 993d
00000010: 9af2 843d 8658 453e 9cbe ff3d ef60 f83c
00000020: 144b 103e c08c 243e 54b3 98b9 4110 503d
00000030: 103e 3e36 54d5 68bb ff21 b6b7 d89a c1bd
00000040: a1ae 92bd 6559 c8bd 07f7 aabd 6643 beba
00000050: 2d2d 75ba 7be4 10bd 8fc2 aabd 3cd0 13be

BCBlocks.0.0.f2.0.block.1.running_var f4 [24]
9.1660746e-05 0.017458068 0.025379565 0.006405105 0.0051364675 0.051236197 0.02081666 0.060974486
0.028500203 0.042601943 1.2173057e-07 0.0031958807 2.4272636e-11 0.00896549 3.3438463e-09 0.021336252
0.03807513 0.060867134 0.014162483 9.9752055e-05 0.0051867925 0.01949273 0.0059795547 0.016071685
00000000: fd39 c038 3904 8f3c cee8 cf3c eae1 d13b
00000010: d04f a83b 0cdd 513d b387 aa3c 62c0 793d
00000020: 4279 e93c 607f 2e3d 0bb5 0234 fb71 513b
00000030: 1e81 d52d fee3 123c 91c9 6531 5dc9 ae3c
00000040: abf4 1b3d d14f 793d c209 683c fa31 d138
00000050: f8f5 a93b 38af 9f3c 24f0 c33b c4a8 833c

BCBlocks.0.0.f2.1.block.0.weight f4 [24, 1, 3, 1]
-0.000523795 -0.016372878 0.019667061 -0.0928239 -0.060612924 0.36621684 0.12814307 -0.26615283
-0.19338411 -0.17371422 0.16354313 0.11778865 -0.025535606 0.18062004 -0.14845233 -0.12924786
0.6228575 -0.16427425 0.38828617 -0.21102428 -0.016914388 -0.08947066 -0.17010647 -0.12915467
-0.054407172 -0.2728559 -0.11539296 0.18258534 -0.57889533 0.06543227 0.0009999679 9.224225e-05
-0.0006585228 0.08231008 0.04313707 0.078962445 -7.834773e-06 -5.8231494e-06 -8.023791e-06 0.015214481
0.28688455 -0.18008181 -9.448038e-05 -0.000119235854 0.000121903235 0.35760102 -0.11279239 -0.08742983
0.45292792 -0.40645272 -0.036145575 0.47608536 -0.07399869 -0.105908565 0.32402655 -0.2747659
-0.040941574 -0.012713677 -0.012573379 -0.006735718 -0.06945366 -0.0908589 0.2010442 -0.0728882
-0.22398843 0.42841312 -0.016524846 -0.10139105 -0.08127257 -0.08040154 -0.28456134 0.38091964
00000000: 4a4f 09ba 6a20 86bc d11c a13c 751a bebd
00000010: 4245 78bd c680 bb3e f037 033e 2f45 88be
00000020: 7c06 46be 24e2 31be da77 273e 2d3b f13d
00000030: 0c30 d1bc 76f4 383e e303 18be 8d59 04be
00000040: 9773 1f3f 8237 28be 72cd c63e c016 58be
00000050: 0b90 8abc 653c b7bd 6430 2ebe 1f41 04be
00000060: 0eda 5ebd c5b3 8bbe 2553 ecbd a7f7 3a3e
00000070: 7c32 14bf 5b01 863d 5b11 833a 2e72 c138
00000080: b8a0 2cba 3092 a83d 7fb0 303d 10b7 a13d
00000090: 1872 03b7 7964 c3b6 ec9d 06b7 2946 793c
000000a0: 88e2 923e 5e67 38be c523 c6b8 430e fab8
000000b0: 4da6 ff38 7b17 b73e b2ff e6bd 690e b3bd
000000c0: 2be6 e73e 921a d0be 620d 14bd 76c1 f33e
000000d0: a08c 97bd 97e6 d8bd cfe6 a53e 1eae 8cbe
000000e0: 5ab2 27bd 074d 50bc 9300 4ebc 4cb7 dcbb
000000f0: b83d 8ebd 3b14 babd 88de 4d3e 6946 95bd
00000100: 395d 65be f758 db3e 1d5f 87bc 1ca6 cfbd
00000110: 3c72 a6bd 90a9 a4bd 06b2 91be e607 c33e

BCBlocks.0.0.f2.1.block.1.ssnorm.weight f4 [120]
0.013578551 8.916782e-06 0.00078369706 0.004558125 0.0038448211 0.29403898 0.21933834 0.23707303
0.20394869 0.11245345 0.16629933 0.23397864 0.17128424 0.17604043 0.15132502 0.0998339
-0.0077334293 0.14338596 0.0004899518 0.10197999 0.16112666 0.14711049 0.15654287 0.15344985
0.14931102 0.23584256 0.2188981 0.20561069 0.16960491 0.12901214 0.22956896 0.19169909
0.17824735 0.08104478 0.047004268 0.2076138 0.12984124 0.22472332 0.22747509 0.2811268
0.24179576 0.35116953 0.17123222 0.08498709 0.09854138 0.29333505 0.32282898 0.23887096
0.2861608 0.27772287 2.7782085e-05 0.0006398258 -1.1250281e-05 -0.00040206674 -0.00040812822 0.07489791
0.050021693 0.09329721 0.11642156 0.2566206 -3.1765435e-07 2.1332738e-07 1.1638083e-05 1.997997e-06
5.745583e-06 -0.0073236064 0.16743042 0.09057696 -0.1096853 -0.0033040203 -9.609673e-06 0.00013910781
-3.7559425e-07 -6.775959e-05 7.293866e-05 0.20501842 0.23710027 0.18812504 0.1765678 0.19392912
0.23806934 0.1352924 0.202043 0.12960778 0.13066837 0.2221976 0.24288952 0.18220684
0.11417696 0.20534205 -0.14963523 0.13792516 0.1821694 0.14852464 0.11101546 0.00076205446
0.016901607 -0.001586048 0.000108924665 0.00022048359 0.18686683 0.07790138 0.07325766 0.0442956
0.0019975454 0.23251556 0.182154 0.095804304 -0.03703241 -0.14132488 -0.040428862 0.0915832
0.06907697 0.11650358 0.20456871 0.15526786 0.18547316 0.22939835 0.21063595 0.27401412
00000000: 9278 5e3c 4999 1537 0571 4d3a 535c 953b
00000010: 65f9 7b3b 478c 963e 3b9a 603e 46c3 723e
00000020: edd7 503e ff4d e63d 5f4a 2a3e 1998 6f3e
00000030: 2365 2f3e f143 343e f2f4 1a3e b775 cc3d
00000040: b568 fdbb c5d3 123e 1c70 003a e3da d03d
00000050: 63fe 243e 22a4 163e c64c 203e f521 1d3e
00000060: fde4 183e b680 713e d326 603e 9c8b 523e
00000070: e9ac 2d3e c21b 043e 2014 6b3e c44c 443e
00000080: 7986 363e cefa a53d 8c87 403d b698 543e
00000090: 1af5 043e df1d 663e 3bef 683e daef 8f3e
000000a0: 4f99 773e 7ecc b33e 8057 2f3e b60d ae3d
000000b0: 10d0 c93d 0330 963e d749 a53e 979a 743e
000000c0: ab83 923e b131 8e3e 930d e937 fcb9 273a
000000d0: 97bf 3cb7 7ccc d2b9 0bfa d5b9 1364 993d
000000e0: 8ce3 4c3d 9c12 bf3d 6d6e ee3d c663 833e
000000f0: 158a aab4 fc0e 6534 3041 4337 5415 0636
00000100: 2fca c036 ddfa efbb e172 2b3e 6a80 b93d
00000110: b0a2 e0bd 4388 58bb 3b39 21b7 78dd 1139
00000120: 48a5 c9b4 271a 8eb8 a5f6 9838 59f0 513e
00000130: 6aca 723e daa3 403e 30ce 343e 5b95 463e
00000140: 73c8 733e 178a 0a3e 5ce4 4e3e e7b7 043e
00000150: eecd 053e c587 633e 08b8 783e 6e94 3a3e
00000160: 9cd5 e93d 3045 523e fa39 19be 413c 0d3e
00000170: 9d8a 3a3e d816 183e 135c e33d 9cc4 473a
00000180: 3d75 8a3c f1e2 cfba 7c6e e438 9d31 6739
00000190: 055a 3f3e c28a 9f3d 1d08 963d 4e6f 353d
000001a0: 40e9 023b 8f18 6e3e 9486 3a3e 0c35 c43d
000001b0: 4caf 17bd 78b7 10be bc98 25bd f98f bb3d
000001c0: 3a78 8d3d 6e99 ee3d 767a 513e 8afe 1e3e
000001d0: adec 3d3e 67e7 6a3e f3b0 573e 944b 8c3e

BCBlocks.0.0.f2.1.block.1.ssnorm.bias f4 [120]
-0.0101394 -0.0042198007 -0.0034217795 -0.00456626 -0.0047191093 0.18627137 0.09416341 0.13760383
0.11362567 0.10039091 0.11503962 0.074975416 0.13234162 0.14324754 0.14493309 -0.04405962
-0.017404173 -0.003676983 -0.020725463 0.075395465 0.008502662 -0.04980016 -0.07873006 -0.064252876
-0.042540602 -0.049618788 -0.06325153 -0.09050911 -0.05277764 -0.10178754 -0.080831416 -0.047999512
-0.12766516 -0.030241452 -0.010399972 0.18232884 0.12613066 0.16451421 0.15316896 0.15296218
-0.0032072559 -0.012555204 0.06642898 0.07808337 0.13978897 0.013586745 0.069768466 0.11680149
0.13641354 0.18790643 -0.00011185155 -0.00024163855 -0.000110076384 -0.00016839696 -0.00023176165 -0.040907882
-0.019755397 -0.0070128012 0.017215671 0.008539933 0.013769484 0.08529976 0.0319004 -0.008808854
0.018084062 -0.047850717 0.035853475 -0.031397823 0.061585817 -0.05191258 0.018625343 -0.018565038
-0.012435629 0.03489026 -0.014291075 0.08206175 0.1426952 0.07242642 0.22552897 0.10167385
-0.043963745 0.080005705 0.078864194 0.038053527 0.1303769 -0.11263994 0.073027305 0.06397482
0.08164078 0.08434802 -0.017295722 0.0340615 -0.075097 -0.041513234 -0.06487389 0.002201632
0.0363514 -0.0054412624 -0.0013114217 6.8206115e-05 -0.021399423 -0.028129455 -0.048166417 0.010574274
-0.0033673288 0.057025976 -0.013466174 -0.005034273 -0.057278935 0.074147016 -0.05416141 0.11099397
0.08132979 0.065288626 0.021199489 0.008202552 -0.0056076087 -0.044061918 -0.003069989 -0.112115346
00000000: ba1f 26bc 4146 8abb ef3f 60bb 91a0 95bb
00000010: c2a2 9abb ecbd 3e3e bfd8 c03d 05e8 0c3e
00000020: 93b4 e83d c099 cd3d e499 eb3d b68c 993d
00000030: 9084 073e 7caf 123e 5769 143e dc77 34bd
00000040: 3293 8ebc 8af9 70bb 72c8 a9bc f068 9a3d
00000050: c04e 0b3c 41fb 4bbd 3a3d a1bd 0397 83bd
00000060: 0e3f 2ebd 123d 4bbd 058a 81bd d75c b9bd
00000070: 5e2d 58bd fc75 d0bd f18a a5bd 239b 44bd
00000080: a8ba 02be ecbc f7bc a564 2abc 69b4 3a3e
00000090: 6528 013e 6a76 283e 53d8 1c3e 1ea2 1c3e
000000a0: d330 52bb 58b4 4dbc eb0b 883d 2dea 9f3d
000000b0: d724 0f3e f09a 5e3c c5e2 8e3d 9f35 ef3d
000000c0: feaf 0b3e 8b6a 403e d891 eab8 5b60 7db9
000000d0: cfd8 e6b8 b793 30b9 0b05 73b9 068f 27bd
000000e0: 12d6 a1bc a4cb e5bb e107 8d3c 13eb 0b3c
000000f0: 6799 613c a4b1 ae3d fea9 023d 0353 10bc
00000100: 0725 943c 1dff 43bd 18db 123d 019b 00bd
00000110: 6941 7c3d 49a2 54bd 2d94 983c b515 98bc
00000120: cfbe 4bbc 17e9 0e3d 1d25 6abc fe0f a83d
00000130: b11e 123e 4e54 943d 11f1 663e 613a d03d
00000140: 5413 34bd 08da a33d 8d83 a13d 04de 1b3d
00000150: 8681 053e c5af e6bd 578f 953d 3b05 833d
00000160: 4833 a73d a8be ac3d c2af 8dbc 1284 0b3d
00000170: 75cc 99bd c809 2abd 9adc 84bd 4149 103b
00000180: 35e5 143d 9e4c b2bb 03e4 abba e109 8f38
00000190: d84d afbc be6f e6bc 264a 45bd b83f 2d3c
000001a0: 67ae 5cbb 1294 693d 3aa1 5cbc 8bf6 a4bb
000001b0: 519d 6abd 64da 973d 5bd8 5dbd ce50 e33d
000001c0: 3c90 a63d 0bb6 853d 8daa ad3c ff63 063c
000001d0: 08c0 b7bb 457a 34bd de31 49bb bb9c e5bd

BCBlocks.0.0.f2.1.block.1.ssnorm.running_mean f4 [120]
-6e-45 -6e-45 -6e-45 6e-45 -6e-45 0.03358125 0.029735254 0.03261996
0.03265852 0.019876655 -0.046028182 -0.039176665 -0.03318228 -0.030818196 -0.026974494 0.0022293762
0.0016331802 0.0014440558 0.0015427147 0.0006852426 0.005393719 0.00037395893 0.00028440775 0.0004708742
0.0022137274 0.042580478 0.0359324 0.021831162 0.020095052 0.020096283 0.0029768778 0.008010901
0.0044381693 0.0031215576 0.0028967264 -0.054841224 -0.057811975 -0.052240353 -0.049301274 -0.044305306
-0.07352248 -0.06737198 -0.033165302 -0.026056137 -0.022036497 -0.09377453 -0.08139076 -0.0733621
-0.07176749 -0.071093634 6e-45 6e-45 6e-45 -6e-45 6e-45 0.0035826748
0.0045842864 0.0044793626 0.004524681 0.004261799 -6e-45 -6e-45 -6e-45 -6e-45
-6e-45 0.04754428 0.06230721 0.06306619 0.06553172 0.08190152 -6e-45 -6e-45
6e-45 -6e-45 -6e-45 0.0037608224 0.012490349 0.011774549 0.009223538 0.0102376975
-0.027043542 0.0027607575 0.0027670322 0.0026590184 0.0049108407 0.013247752 0.02730342 0.022483265
0.020850243 0.020611873 -0.0036903166 0.00080175477 0.0009258437 0.0004380368 0.00084610214 -6e-45
-6e-45 -6e-45 -6e-45 -6e-45 0.003884387 0.0015398694 0.0016817595 0.0014635973
-0.000306943 0.015687495 0.0057710344 0.004652744 0.0044003697 0.0008769786 -0.011365384 -0.009982609
-0.010661601 -0.010717814 -0.010717348 0.0062445477 0.0038532254 0.0028259712 0.003986015 -0.016826982
00000000: 0400 0080 0400 0080 0400 0080 0400 0000
00000010: 0400 0080 7e8c 093d 5997 f33c 829c 053d
00000020: f1c4 053d 5ed4 a23c 0c88 3cbd b677 20bd
00000030: 24ea 07bd 7176 fcbc 9df9 dcbc ba1a 123b
00000040: 6f10 d63a 7946 bd3a ea34 ca3a daa1 333a
00000050: cbbd b03b eb0f c439 901c 9539 aadf f639
00000060: 2f14 113b de68 2e3d da2d 133d 44d7 b23c
00000070: 619e a43c f6a0 a43c b917 433b 2740 033c
00000080: 106e 913b 0c93 4c3b 01d7 3d3b 31a1 60bd
00000090: 40cc 6cbd fbf9 55bd 22f0 49bd 7b79 35bd
000000a0: f492 96bd 52fa 89bd 57d8 07bd ae73 d5bc
000000b0: e285 b4bc dc0c c0bd 33b0 a6bd de3e 96bd
000000c0: d5fa 92bd 8a99 91bd 0400 0000 0400 0000
000000d0: 0400 0000 0400 0080 0400 0000 4fcb 6a3b
000000e0: c837 963b 9ec7 923b c643 943b 90a6 8b3b
000000f0: 0400 0080 0400 0080 0400 0080 0400 0080
00000100: 0400 0080 cabd 423d d835 7f3d d928 813d
00000110: 7f35 863d fcbb a73d 0400 0080 0400 0080
00000120: 0400 0000 0400 0080 0400 0080 2178 763b
00000130: 52a4 4c3c 0aea 403c 531e 173c 04bc 273c
00000140: 6b8a ddbc d3ed 343b 1957 353b ed42 2e3b
00000150: 1eeb a03b 190d 593c 6cab df3c d32e b83c
00000160: 21ce aa3c 3bda a83c 3dd9 71bb da2c 523a
00000170: 52b4 723a 4ea8 e539 f4cc 5d3a 0400 0080
00000180: 0400 0080 0400 0080 0400 0080 0400 0080
00000190: 3391 7e3b 71d5 c93a 7c6e dc3a 2dd6 bf3a
000001a0: 31ed a0b9 1083 803c f21a bd3b 0c76 983b
000001b0: fa30 903b 0ae5 653a e035 3abc 198e 23bc
000001c0: ffad 2ebc c599 2fbc d197 2fbc 109f cc3b
000001d0: 6586 7c3b ee33 393b 1e9d 823b bdd8 89bc

BCBlocks.0.0.f2.1.block.1.ssnorm.running_var f4 [120]
6e-45 6e-45 6e-45 6e-45 6e-45 0.0017809861 0.0012960874 0.0013671494
0.0013657572 0.0017426215 0.005974464 0.0059282174 0.0051634884 0.0049542193 0.0042607635 6.606474e-05
5.5398064e-05 4.9084247e-05 4.3474723e-05 3.297591e-05 0.001318684 0.00103073 0.0010785531 0.0011406111
0.0008988811 0.0067714225 0.0064794784 0.0032524352 0.002554769 0.0024101618 0.0010588492 0.0009611501
0.000498364 0.0003319079 0.0002472539 0.014918715 0.018034076 0.016274769 0.01673842 0.014906413
0.022198765 0.024191922 0.008920337 0.0063493205 0.005051004 0.0037075204 0.002853909 0.0022387677
0.0021492282 0.0023945086 6e-45 6e-45 6e-45 6e-45 6e-45 0.00024304964
0.00040164334 0.0004216503 0.0004680234 0.00044382756 6e-45 6e-45 6e-45 6e-45
6e-45 0.03735566 0.023421388 0.02203198 0.019269662 0.018214919 6e-45 6e-45
6e-45 6e-45 6e-45 0.0009486461 0.0012003796 0.0009810985 0.0007578254 0.0007166435
0.003484096 0.00083550595 0.00071268616 0.00054977817 0.00047250377 0.0021929606 0.0027474875 0.002117963
0.0017395746 0.0016833161 0.0013165647 0.0010277706 0.0008459583 0.00067256443 0.0005668386 6e-45
6e-45 6e-45 6e-45 6e-45 0.0001593493 0.00010049278 9.565341e-05 7.951651e-05
9.622276e-05 0.0032969236 0.0020250245 0.001248794 0.0008455428 0.0007962978 0.00027910984 0.00026981323
0.0002669153 0.00026428173 0.00024888085 0.0032800792 0.0028329454 0.002546949 0.0023156663 0.003048086
00000000: 0400 0000 0400 0000 0400 0000 0400 0000
00000010: 0400 0000 fa6f e93a 7ae1 a93a ec31 b33a
00000020: 3503 b33a ad68 e43a 70c5 c33b 7e41 c23b
00000030: 7b32 a93b 0157 a23b e09d 8b3b 3d8c 8a38
00000040: 385b 6838 cfdf 4d38 a158 3638 9d4f 0a38
00000050: b1d7 ac3a 8f19 873a 3d5e 8d3a 8f80 953a
00000060: e4a2 6b3a cfe2 dd3b ce51 d43b cf26 553b
00000070: e96d 273b cef3 1d3b 15c9 8a3a b1f5 7b3a
00000080: a4a4 023a ed03 ae39 dba1 8139 a06d 743c
00000090: 33bc 933c aa52 853c 031f 893c 073a 743c
000000a0: 2fda b53c 232e c63c 9b26 123c f60d d03b
000000b0: e482 a53b dff9 723b a608 3b3b 4ab8 123b
000000c0: 11da 0c3b 30ed 1c3b 0400 0000 0400 0000
000000d0: 0400 0000 0400 0000 0400 0000 24db 7e39
000000e0: a893 d239 f210 dd39 0a61 f539 87b1 e839
000000f0: 0400 0000 0400 0000 0400 0000 0400 0000
00000100: 0400 0000 4002 193d 36de bf3c 697c b43c
00000110: 69db 9d3c 7437 953c 0400 0000 0400 0000
00000120: 0400 0000 0400 0000 0400 0000 90ae 783a
00000130: 0e56 9d3a 3498 803a cda8 463a 22dd 3b3a
00000140: 6e55 643b db05 5b3a 8fd3 3a3a fd1e 103a
00000150: 62ba f739 c6b7 0f3b 310f 343b 86cd 0a3b
00000160: 7002 e43a b7a2 dc3a 9590 ac3a 42b6 863a
00000170: 4dc3 5d3a 094f 303a e597 143a 0400 0000
00000180: 0400 0000 0400 0000 0400 0000 0400 0000
00000190: 0117 2739 a7bf d238 8999 c838 1ac2 a638
000001a0: 33cb c938 3311 583b 46b6 043b 93ae a33a
000001b0: 6ba7 5d3a a4be 503a 7d55 9239 b875 8d39
000001c0: c4f0 8b39 4b8f 8a39 397c 8239 99f6 563b
000001d0: f0a8 393b b7ea 263b 6fc2 173b 66c2 473b

BCBlocks.0.0.f1.0.block.0.weight f4 [24, 1, 1, 3]
1.8594756e-05 2.8072927e-05 7.80521e-06 0.0019437289 0.0772009 0.026017549 0.0036298817 0.0045212754
0.002703382 1.0659901e-06 5.7947364e-07 5.24676e-07 -1.286704e-06 2.2230909e-06 8.4052937e-07 -0.07116854
-0.08214034 0.0035784636 -1.5326356e-07 -2.7055669e-06 -1.9081012e-06 -0.13638638 -0.12596047 0.20000848
0.011918504 0.026837846 0.045739047 0.049762804 0.06396104 0.054760728 -0.00017122849 0.0004824763
9.391959e-05 -0.14189659 -0.11649057 0.024350166 5.19002e-06 5.3664444e-06 1.4183976e-06 2.2945253e-06
-8.7003605e-07 -2.2973024e-06 -4.2369084e-07 -1.3334715e-06 -5.4051714e-07 -0.03256481 -0.03535626 -0.055399805
0.027756795 -0.047504373 -0.059501167 -0.21189468 -0.018669859 0.16277553 0.0768999 0.0750095
-0.048530925 1.9128582e-07 6.8005147e-07 1.0848581e-07 -0.0021363562 -0.0017401038 0.0011552091 -0.021201015
-0.033141524 -0.024293847 -0.2205511 0.15493035 0.030404247 0.000724626 0.0018205243 0.0013568134
00000000: effb 9b37 277e eb37 1ff3 0237 b8c4 fe3a
00000010: 811b 9e3d c122 d53c 4fe3 6d3b 3527 943b
00000020: 392b 313b 2413 8f35 208d 1b35 76d7 0c35
00000030: d0b2 acb5 6930 1536 bda0 6135 d0c0 91bd
00000040: 3239 a8bd a884 6a3b c490 24b4 4991 35b6
00000050: ee0c 00b6 dfa8 0bbe c8fb 00be 06cf 4c3e
00000060: d445 433c 0bdb db3c de58 3b3d 15d4 4b3d
00000070: 01fe 823d c94c 603d cc8b 33b9 dff4 fc39
00000080: b2f6 c438 574d 11be 9c92 eebd 007a c73c
00000090: ef25 ae36 6811 b436 c55f be35 a5fb 1936
000000a0: 6c8c 69b5 5b2b 1ab6 a077 e3b4 bbf9 b2b5
000000b0: 0e18 11b5 ae62 05bd bad1 10bd e8ea 62bd
000000c0: 3862 e33c f293 42bd 7fb7 73bd ebfa 58be
000000d0: 88f1 98bc a1ae 263e b27d 9d3d 959e 993d
000000e0: 5dc8 46bd 3f64 4d34 c88c 3635 b4f8 e833
000000f0: 1c02 0cbb 3214 e4ba 636a 973a c0ad adbc
00000100: 68bf 07bd e403 c7bc 26d8 61be 10a6 1e3e
00000110: 5412 f93c d4f4 3d3a a99e ee3a 1ad7 b13a

BCBlocks.0.0.f1.0.block.1.weight f4 [24]
-3.084628e-05 0.14916947 0.006787286 1.0536793e-06 1.3361636e-06 0.17832321 2.7755636e-06 0.24178216
-0.11622384 0.20325235 0.00018195402 0.25350365 2.565123e-06 5.1984364e-07 -1.2773779e-06 0.112033546
0.09927736 0.22189839 -0.11856075 5.2378954e-07 -0.0013246937 0.059927158 0.25380683 -0.0023480156
00000000: f160 01b8 e2bf 183e e267 de3b 256c 8d35
00000010: 3b56 b335 5c9a 363e d243 3a36 be95 773e
00000020: c406 eebd 6221 503e e9ca 3e39 3bcb 813e
00000030: 7a24 2c36 628b 0b35 5f72 abb5 d871 e53d
00000040: ee51 cb3d 5539 633e facf f2bd 8b9a 0c35
00000050: 58a1 adba 2e76 753d f8f2 813e 2ae1 19bb

BCBlocks.0.0.f1.0.block.1.bias f4 [24]
-0.00010292878 0.019438552 -0.0026770458 3.2258664e-05 6.9909156e-06 0.05018809 0.00013384917 0.026011068
-0.0024001838 0.037920497 -0.0006973823 -0.012131157 1.8127746e-05 7.663565e-05 6.92207e-05 -0.00070160854
-0.018471116 0.0010299854 0.02698107 4.7846843e-06 -0.012601549 -0.012626876 0.06118631 8.589602e-05
00000000: 78db d7b8 993d 9f3c 6071 2fbb 7a4d 0738
00000010: 8293 ea36 0792 4d3d dd59 0c39 2a15 d53c
00000020: 674c 1dbb 8652 1b3d 89d0 36ba c3c1 46bc
00000030: 0a11 9837 74b7 a038 952a 9138 27ec 37ba
00000040: bd50 97bc 9300 873a 6807 dd3c 208c a036
00000050: ba76 4ebc f5e0 4ebc 7f9e 7a3d 1323 b438

BCBlocks.0.0.f1.0.block.1.running_mean f4 [24]
-2.9346145e-07 0.013218187 0.0013248367 -4.5215356e-09 -8.0826155e-08 0.010672832 2.818666e-07 -0.0108996155
0.004470703 0.017498754 -7.012287e-08 0.0018831446 3.3404717e-07 4.989291e-09 -3.763458e-09 -0.015252888
-0.0044665122 -0.0032918479 -0.003396295 6.226188e-09 4.79443e-05 -0.00086422486 -0.001401632 -0.00012154903
00000000: 098d 9db4 1891 583c 25a6 ad3a d95b 9bb1
00000010: a692 adb3 1add 2e3c 7353 9734 4d94 32bc
00000020: fa7e 923b 8c59 8f3c 7596 96b3 d9d3 f63a
00000030: 1857 b334 456e ab31 ba4f 81b1 40e7 79bc
00000040: d25b 92bb 0bbc 57bb 6094 5ebb 21ee d531
00000050: cd17 4938 268d 62ba f7b6 b7ba 23e8 feb8

BCBlocks.0.0.f1.0.block.1.running_var f4 [24]
1.1600474e-16 0.00011157808 1.6662981e-06 1.5950396e-15 2.4359754e-16 0.00024193972 2.586326e-14 0.0017349169
0.00013109138 0.0010737852 1.1252461e-17 0.0005581918 2.221508e-16 1.8098204e-15 1.2388604e-20 3.3908647e-05
1.2119383e-06 0.0005508769 6.4319847e-06 1.9095466e-20 5.583458e-09 7.799532e-06 0.00033015077 7.413645e-10
00000000: 8ebe 0525 07ff e938 91a5 df35 93de e526
00000010: a76c 8c25 33b1 7d39 9ef4 e828 2766 e33a
00000020: 9375 0939 41be 8c3a 3f92 4f23 9e53 123a
00000030: ac0f 8025 4b69 0227 9d03 6a1e 2239 0e38
00000040: e2a9 a235 b968 103a 54d2 d736 015a b41e
00000050: 9ed8 bf31 bcda 0237 1618 ad39 e4c8 4b30

BCBlocks.0.0.f1.1.weight f4 [24, 24, 1, 1]
1.2732781e-05 -0.0005104314 -5.244554e-06 -2.588581e-06 -4.4671083e-07 0.0060499865 -1.0839908e-05 -0.0066112927
-0.005030318 0.005160333 0.00014777352 -0.0043847747 -2.2692611e-06 -7.16315e-06 -5.496747e-06 0.00013794051
-0.00092603615 -0.000109166635 -0.0018427923 -6.021288e-07 -7.7537785e-05 0.0031840627 -0.0007723292 0.00048595402
-3.128843e-05 -0.16683905 0.0006108574 1.0872066e-05 5.616687e-07 -0.03320029 4.6773457e-05 -0.039803557
-0.013680633 -0.12863298 -7.312032e-05 0.058365714 7.1335085e-06 2.6072696e-05 2.3336313e-05 0.034475155
0.0041000387 0.04134579 -0.0142968055 1.7079883e-06 -0.0047949757 -0.0033842751 0.041226868 0.00086641026
-3.0603558e-05 0.016749378 0.0014799882 5.6651984e-06 9.423527e-07 0.046462372 2.4123348e-05 0.021874724
0.051742934 -0.038790066 -0.00034325098 0.13207237 3.16552e-06 1.3353586e-05 1.1983895e-05 0.01458827
0.052634247 -0.19338939 -0.011447109 8.5474613e-07 -0.0033843461 -0.020237103 -0.046445396 0.00016418757
3.897808e-06 -0.00423487 0.00056535134 -2.7535805e-06 -1.2170179e-06 0.027072558 -8.198048e-06 0.05328208
-0.01600887 0.0034340983 -5.4268376e-06 0.025010431 -1.3996026e-06 -4.3412547e-06 -4.489727e-06 -0.019149352
0.021963805 -0.044990238 0.009151585 -3.5275917e-07 0.00095764245 0.00033135674 0.031704254 0.00041903037
1.1425421e-05 -0.04535169 -0.0001504623 -6.6617963e-06 -2.9325677e-06 -0.03437696 -2.6773243e-05 -0.03906616
-0.0044470252 -0.101904616 -1.5494901e-05 -0.08311568 -2.5065815e-06 -1.544887e-05 -1.4214279e-05 -0.015796406
-0.019150829 0.028359372 -0.03287169 -8.5621474e-07 0.001712417 -0.009698252 0.0149272075 -0.00070080446
2.386299e-06 -0.056195144 -0.00047786688 -8.640283e-07 -5.8476724e-07 0.281 -3.2767146e-06 -0.2001227
-0.08054637 0.011578089 -8.427583e-05 0.057257608 2.2429792e-06 -1.7404192e-06 -1.1920158e-06 0.03345691
-0.0018393318 0.19225948 -0.049221657 -3.4920014e-08 -0.0006199233 0.075227566 0.082523316 0.00071334466
2.9842906e-05 -0.024850233 0.0013493614 -1.1387212e-05 -3.2518897e-06 -0.038087726 -4.5518085e-05 -0.014857928
0.0023595383 0.029456219 0.0002521028 0.020217374 -7.642774e-06 -2.8057697e-05 -2.5231739e-05 0.026594741
0.012880643 -0.02488998 -0.07372587 -1.7637194e-06 0.0043884106 -0.008428231 0.14826712 0.00012535721
6.948295e-05 -0.014633451 0.0034609514 -2.1855809e-05 -4.725225e-06 -0.007828848 -9.085297e-05 -0.07404356
-0.0057271314 -0.051927276 0.00046922732 0.26296753 -1.1957173e-05 -5.175921e-05 -4.675123e-05 0.074821
-0.03682909 -0.018302577 0.04484062 -3.2608525e-06 0.008568435 0.023253527 -0.2516006 -0.0003425129
7.348789e-05 0.0057986057 0.00061933027 -2.358644e-05 -4.4661556e-06 -0.014876797 -9.82701e-05 -0.06712794
-0.047122646 -0.12862667 0.00049776386 0.015268903 -1.341e-05 -5.6109227e-05 -5.0331622e-05 -0.034341335
0.027382214 0.058430184 -0.08534337 -3.4763543e-06 0.009763324 0.019997602 0.044611514 -0.00034235857
-4.4189565e-05 -0.09224578 0.0003180495 1.4971087e-05 3.1874645e-06 0.025647247 6.347458e-05 -0.09865555
-0.0348311 -0.22085162 -0.00028730277 0.041036 7.77967e-06 3.546237e-05 3.2293778e-05 0.042752046
0.003766706 0.122125566 -0.0030641672 2.324731e-06 -0.004747667 0.0084796315 0.14270954 -0.00041085013
-4.7878707e-06 5.4198285e-06 -3.0096191e-07 -2.7793652e-07 -2.8204187e-07 1.6922588e-05 -2.5814204e-06 1.2069159e-05
-4.246122e-05 -6.9576505e-05 5.116723e-05 -5.4615455e-05 2.39822e-07 -1.4070524e-06 -1.6619891e-06 1.6277098e-05
00000000: e19e 5537 79ce 05ba 60fa afb6 7cb7 2db6
00000010: 78d3 efb4 f73e c63b 0ddd 35b7 8ba3 d8bb
00000020: 5ed5 a4bb 0318 a93b a7f3 1a39 28ae 8fbb
00000030: 9c49 18b6 fd5a f0b6 b270 b8b6 20a4 1039
00000040: 3cc1 72ba 64f0 e4b8 d989 f1ba faa1 21b5
00000050: c89b a2b8 b5ab 503b 2376 4aba a5c7 fe39
00000060: b23b 03b8 dbd7 2abe f221 203a 2b67 3637
00000070: 94c5 1635 07fd 07bd 9e2e 4438 0e09 23bd
00000080: bc24 60bc 5db8 03be 2c58 99b8 e310 6f3d
00000090: 5f5c ef36 b0b6 da37 5ac2 c337 d235 0d3d
000000a0: 9e59 863b 345a 293d 263d 6abc 083e e535
000000b0: 2c1f 9dbb b7ca 5dbb 81dd 283d cf1f 633a
000000c0: 525c 00b8 fe35 893c 2afc c13a af17 be36
000000d0: fcf5 7c35 544f 3e3d 7f5c ca37 9f32 b33c
000000e0: 66f0 533d 55e2 1ebd 5ef6 b3b9 fb3d 073e
000000f0: 386f 5436 3709 6037 700e 4937 a403 6f3c
00000100: 0297 573d de07 46be a88c 3bbc b571 6535
00000110: e8cb 5dbb 48c8 a5bc 873d 3ebd c429 2c39
00000120: eac9 8236 aac4 8abb 1634 143a 27ca 38b6
00000130: 6b58 a3b5 45c7 dd3c 598a 09b7 4f3e 5a3d
00000140: 0925 83bc 9c0e 613b 2e18 b6b6 ade2 cc3c
00000150: fbd9 bbb5 18ab 91b6 76a6 96b6 1adf 9cbc
00000160: 70ed b33c af47 38bd 88f0 153c da62 bdb4
00000170: 4c0a 7b3a f3b9 ad39 52dc 013d 4eb1 db39
00000180: cfaf 3f37 b2c2 39bd 6bc5 1db9 6588 dfb6
00000190: 21cd 44b6 dbce 0cbd 1a97 e0b7 d603 20bd
000001a0: 5ab8 91bb 5eb3 d0bd 0cfb 81b7 8e38 aabd
000001b0: be36 28b6 3298 81b7 dd79 6eb7 7767 81bc
000001c0: 33e2 9cbc ea51 e83c 77a4 06bd a1d6 65b5
000001d0: 2e73 e03a 6be5 1ebc 3f91 743c 31b6 37ba
000001e0: 4e24 2036 e12c 66bd 358a fab9 93ef 67b5
000001f0: e6f8 1cb5 3bdf 8f3e 87e5 5bb6 f7ec 4cbe
00000200: 7ff5 a4bd 06b2 3d3c 3ebd b0b8 f486 6a3d
00000210: 1786 1636 5998 e9b5 5afd 9fb5 1d0a 093d
00000220: bc15 f1ba abdf 443e a69c 49bd f6fa 15b3
00000230: 5982 22ba e910 9a3d fc01 a93d c0ff 3a3a
00000240: 2757 fa37 b792 cbbc 0edd b03a b40b 3fb7
00000250: 0a3b 5ab6 e001 1cbd acea 3eb8 ab6e 73bc
00000260: 7ca2 1a3b 2b4e f13c aa2c 8439 e89e a53c
00000270: 7739 00b7 725d ebb7 bfa8 d3b7 37dd d93c
00000280: 5509 533c 12e6 cbbc 97fd 96bd f0b8 ecb5
00000290: a8cc 8f3b 9016 0abc 56d3 173e 5272 0339
000002a0: 60b7 9138 24c1 6fbc 21d1 623b fe56 b7b7
000002b0: 608d 9eb6 9244 00bc 5188 beb8 26a4 97bd
000002c0: a9aa bbbb b2b1 54bd a002 f639 aea3 863e
000002d0: ab9b 48b7 0718 59b8 c016 44b8 c13b 993d
000002e0: 1ada 16bd 49ef 95bc ccaa 373d 05d5 5ab6
000002f0: 9f62 0c3c 2e7e be3c cbd1 80be 4e93 b3b9
00000300: 831d 9a38 3b02 be3b 8d5a 223a 7fdb c5b7
00000310: fcdb 95b6 cfbd 73bc 5c16 ceb8 607a 89bd
00000320: ad03 41bd b6b6 03be 5e7c 023a 6c2a 7a3c
00000330: 83fb 60b7 d356 6bb8 2b1b 53b8 80a9 0cbd
00000340: aa50 e03c 7d54 6f3d 81c8 aebd 504b 69b6
00000350: 59f6 1f3c 03d2 a33c 90ba 363d 977e b3b9
00000360: 2f58 39b8 5beb bcbd e2bf a639 542c 7b37
00000370: 39e8 5536 2d1a d23c a81d 8538 ec0b cabd
00000380: 0eab 0ebd ed26 62be 20a1 96b9 5d15 283d
00000390: 6e85 0237 6ebd 1438 2e73 0738 c51c 2f3d
000003a0: d7da 763b f81c fa3d 32d0 48bb 9302 1c36
000003b0: 5192 9bbb 27ee 0a3c 7322 123e 5f67 d7b9
000003c0: 7fa7 a0b6 f9db b536 e493 a1b4 4e37 95b4
000003d0: 8a6b 97b4 fbf4 8d37 773c 2db6 a57c 4a37
000003e0: 6318 32b8 9ae9 91b8 659c 5638 e612 65b8
000003f0: e2c0 8034 f4d9 bcb5 8311 dfb5 cd8a 8837

BCBlocks.0.1.f2.0.block.0.weight f4 [24, 1, 3, 1]
0.007593275 0.014718079 0.008091134 0.0074886293 0.00253128 0.20547493 0.07820194 0.15264085
0.05839191 0.059361354 0.061212756 0.073561825 0.21439712 0.019367717 0.0014660488 -0.09288074
0.24597155 0.19223647 0.26008075 0.034570508 -0.14796959 0.007176261 0.19054618 0.055571172
-0.0640149 0.3023083 -0.028493717 0.07195341 0.1635391 0.15753181 0.00030898943 0.0003577204
0.00019042494 0.07689799 0.0505331 0.048279177 -0.09535904 -0.081947975 -0.001237341 -0.06739227
0.1878715 0.053092435 4.398458e-05 0.00014720004 9.58493e-05 -0.08821842 0.08635368 -0.23663275
-0.12898153 0.25855476 -0.009930192 -0.13485792 0.3044768 -0.06648393 -0.048667435 0.038010187
0.21273783 0.016106602 0.043335814 0.05582177 0.042275317 0.0047117565 0.13093553 -0.070639186
0.24723901 -0.13965096 0.037073433 0.07518803 0.050302688 -0.12218726 -0.251087 -0.10473902
00000000: 02d1 f83b 1924 713c ad90 043c 2d63 f53b
00000010: d5e3 253b 0568 523e 5728 a03d e24d 1c3e
00000020: 5b2c 6f3d e424 733d 3aba 7a3d 95a7 963d
00000030: eb8a 5b3e 0ca9 9e3c 6f28 c03a 4238 bebd
00000040: f7df 7b3e a3d9 443e 4e29 853e ce99 0d3d
00000050: 5785 17be d726 eb3b 8a1e 433e 999e 633d
00000060: 3e1a 83bd 27c8 9a3e a86b e9bc 4f5c 933d
00000070: cb76 273e 0550 213e dcff a139 6b8c bb39
00000080: ceac 4739 b27c 9d3d ccfb 4e3d 63c0 453d
00000090: 9a4b c3bd 57d4 a7bd 462e a2ba f504 8abd
000000a0: 6361 403e 7477 593d 157c 3838 b659 1a39
000000b0: b302 c938 dcab b4bd 33da b03d db4f 72be
000000c0: bc13 04be 4a61 843e 3eb2 22bc 3218 0abe
000000d0: 62e4 9b3e ba28 88bd 8157 47bd 92b0 1b3d
000000e0: f2d7 593e fef1 833c e580 313d 5ea5 643d
000000f0: e228 2d3d 1465 9a3b f713 063e 47ab 90bd
00000100: 392c 7d3e a900 0fbe 50da 173d 2ffc 993d
00000110: 310a 4e3d 503d fabd 7a8e 80be 6981 d6bd

BCBlocks.0.1.f2.0.block.1.ssnorm.weight f4 [120]
0.013382354 -0.0031762333 -0.0017263143 -0.0030476116 -0.006684371 -0.079614066 0.059111558 0.015691163
0.0428637 0.11192177 0.15823089 0.16561836 0.12961851 0.13673405 0.10078394 0.12190744
-0.010054526 0.013107243 -0.017357279 0.10111353 -0.083510004 0.18618706 0.20779073 0.16501236
0.17265062 0.23928 0.14405574 0.05586121 0.02511162 0.1104664 0.10675993 0.19421415
0.08998936 0.0646007 0.112317406 0.11120673 0.13729712 0.14313543 0.21074753 0.17076908
0.113467425 0.1533408 0.15246344 0.13709022 0.17053483 0.15520835 0.1829577 0.17712232
0.13484837 0.17102575 -0.0002624846 0.00032290912 -0.00017044778 0.00022479937 0.00027702688 0.16834651
0.101911716 0.14681484 0.08948061 0.09341573 0.059350263 -0.07296411 -0.14571047 -0.0049283635
-0.04962138 0.10658581 0.075298846 0.20998013 -0.11183718 0.01296357 0.00013076005 3.0358558e-05
9.798692e-05 7.547317e-05 1.1871896e-05 -0.093109325 0.05008941 0.08829586 0.12665558 -0.010713972
0.2043856 0.1886268 0.14476047 0.17144935 0.062528275 0.121589616 0.10757286 0.09457152
0.1314568 0.026754307 0.023779195 0.15232104 0.13550618 0.14167023 0.07493428 0.08806497
0.0062221615 -0.006124893 -0.011178654 -0.003380595 0.1111561 0.08283165 0.089106105 0.018118264
0.0056556836 0.14310636 0.16915856 0.14061439 0.05869477 -0.04652244 0.08948091 0.06493634
0.06386539 0.062144227 0.071337625 0.24915488 0.3047761 0.3330182 0.36501825 0.3589795
00000000: a941 5b3c 5a28 50bb 7f45 e2ba 70ba 47bb
00000010: 9108 dbbb b30c a3bd f61e 723d c18a 803c
00000020: d991 2f3d 3e37 e53d 4707 223e dc97 293e
00000030: b7ba 043e 0304 0c3e cf67 ce3d 9caa f93d
00000040: bdbb 24bc c3bf 563c da30 8ebc 9c14 cf3d
00000050: 4b07 abbd d2a7 3e3e 18c7 543e 00f9 283e
00000060: 53cb 303e d105 753e 5983 133e b9ce 643d
00000070: e2b6 cd3c 353c e23d f3a4 da3d 13e0 463e
00000080: 574c b83d 5f4d 843d ab06 e63d 5bc0 e33d
00000090: 9e97 0c3e 1892 123e 33ce 573e 17de 2e3e
000000a0: 9c61 e83d 5f05 1d3e 601f 1c3e 6161 0c3e
000000b0: afa0 2e3e f0ee 1e3e 4359 3b3e 8e5f 353e
000000c0: b115 0a3e 6021 2f3e 169e 89b9 214c a939
000000d0: 3aba 32b9 1fb8 6b39 eb3d 9139 0763 2c3e
000000e0: 17b7 d03d a156 163e 9c41 b73d bf50 bf3d
000000f0: 4319 733d 356e 95bd 2035 15be 1c7e a1bb
00000100: ca3f 4bbd a949 da3d 4836 9a3d 0805 573e
00000110: e40a e5bd 2765 543c a21c 0939 82aa fe37
00000120: 547e cd38 5a47 9e38 682d 4737 1ab0 bebd
00000130: 8e2a 4d3d 76d4 b43d 00b2 013e a889 2fbc
00000140: 754a 513e 6227 413e 173c 143e 6b90 2f3e
00000150: d30e 803d fa03 f93d 294f dc3d b7ae c13d
00000160: 9d9c 063e d92b db3c 96cc c23c 0cfa 1b3e
00000170: 22c2 0a3e 0012 113e 2577 993d 685b b43d
00000180: 46e3 cb3b 54b3 c8bb ac26 37bc f98c 5dbb
00000190: cfa5 e33d a4a3 a93d 437d b63d c16c 943c
000001a0: 5053 b93b 798a 123e e737 2d3e 38fd 0f3e
000001b0: ed69 703d 508e 3ebd c441 b73d 58fd 843d
000001c0: dccb 823d f28a 7e3d 7619 923d 7522 7f3e
000001d0: 9d0b 9c3e 5d81 aa3e ace3 ba3e 29cc b73e
