models/finetune_tau3_100%/model_best_finetune.pth (torch, 316679 bytes, 165 tensors)

cnn_head.0.weight f4 [48, 1, 5, 5]
0	0xb08630df	-9.763673e-10
1	0x3194a9d9	4.3266764e-09
2	0x3336e31c	4.2581732e-08
3	0xb28bb9fd	-1.6266307e-08
4	0xb2ef1ff5	-2.7837794e-08
5	0xb1f1d4eb	-7.038229e-09
6	0x32f5e9f8	2.862815e-08
7	0x33ddb157	1.03233724e-07
8	0xb31026a9	-3.3562774e-08
9	0xb34e8180	-4.8080892e-08
10	0x331175c7	3.386756e-08
11	0x333bf61d	4.376317e-08
12	0x33e8c260	1.08386985e-07
13	0xb31982a0	-3.574189e-08
14	0xb388cb0a	-6.369926e-08
15	0x328d23ce	1.6430842e-08
16	0xb2c4a174	-2.2890823e-08
17	0x3284cd04	1.5460053e-08
18	0xb2a10049	-1.8742996e-08
19	0xb1fd14e2	-7.365643e-09
20	0xb2556ceb	-1.2422997e-08
21	0xb276fcd6	-1.4376573e-08
22	0x326874ca	1.3530732e-08
23	0xb21d0743	-9.140254e-09
24	0x3286ea85	1.57063e-08
25	0xb397adce	-7.0631e-08
26	0x3362dc5e	5.282015e-08
27	0x33b780bb	8.5450175e-08
28	0x330ffafd	3.3523055e-08
29	0xb3977aec	-7.053845e-08
30	0xb1a816fe	-4.8920574e-09
31	0x33854754	6.2062696e-08
32	0x338f0372	6.659583e-08
33	0xb1e05112	-6.5284746e-09
34	0xb3be4071	-8.859286e-08
35	0x3300ff99	3.0034787e-08
36	0x32ce6d1a	2.403117e-08
37	0x32b9cfe0	2.1631365e-08
38	0xb30c012d	-3.259736e-08
39	0xb32c0e7f	-4.0060055e-08
40	0x328808d9	1.5836507e-08
41	0x315a11d0	3.17333e-09
42	0x3296c6b9	1.7552667e-08
43	0xb0cc3f58	-1.4860957e-09
44	0x3231e072	1.0353789e-08
45	0xb02514dd	-6.00563e-10
46	0x32cb7cd2	2.3689072e-08
47	0x330242da	3.0328785e-08
48	0xb2007684	-7.477528e-09
49	0xb2b9c697	-2.1627143e-08
50	0xa650fde7	-7.25086e-16
51	0xa3ca4a5e	-2.193238e-17
52	0xa69581d0	-1.0374138e-15
53	0xa641c876	-6.7232e-16
54	0xa5c7bdce	-3.4649614e-16
55	0xa6fe030c	-1.7625616e-15
56	0x25a0e295	2.7909114e-16
57	0xa642d27e	-6.759254e-16
58	0xa6947c5d	-1.0303272e-15
59	0xa63f821c	-6.644277e-16
60	0xa6cb36bc	-1.410079e-15
61	0x27371896	2.540968e-15
62	0x2687fab7	9.435463e-16
63	0xa6392816	-6.4239095e-16
64	0xa6a2e26d	-1.1302381e-15
65	0xa7425127	-2.6966901e-15
66	0x26366f0d	6.3294436e-16
67	0xa5d785f2	-3.738732e-16
68	0xa6b432be	-1.2503763e-15
69	0xa6c48956	-1.3637457e-15
70	0xa68a7388	-9.606988e-16
71	0x262173c4	5.601499e-16
72	0xa5e93e28	-4.0461176e-16
73	0xa5a3c4cf	-2.8409355e-16
74	0xa52801e5	-1.4572319e-16
75	0x1fcd4702	8.693835e-20
76	0xa1178c98	-5.1346864e-19
77	0x21936831	9.988687e-19
78	0xa1d499ed	-1.4406423e-18
79	0xa2c41910	-5.3152442e-18
80	0xa2511e31	-2.8340765e-18
81	0xa208cf5d	-1.8541214e-18
82	0x2230e7a9	2.3975088e-18
83	0x21ddad2e	1.5021383e-18
84	0xa1c56f71	-1.3378738e-18
85	0xa2040f6c	-1.78975e-18
86	0xa23c3cc5	-2.5510922e-18
87	0x2120192c	5.4243423e-19
88	0x2234627b	2.4446684e-18
89	0x226da89a	3.2208746e-18
90	0xa27385b9	-3.3003433e-18
91	0xa2d79511	-5.8433697e-18
92	0xa284c13c	-3.5983267e-18
93	0xa18212db	-8.814134e-19
94	0x2217a1dd	2.0550006e-18
95	0xa25d0827	-2.99554e-18
96	0xa2936c70	-3.9959243e-18
97	0xa28d140e	-3.823936e-18
98	0xa21114be	-1.9662145e-18
99	0x9f29244b	-3.5817163e-20
100	0x21123a93	4.9544246e-19
101	0x22061e86	1.8176545e-18
102	0xa18673d4	-9.110853e-19
103	0xa0bf7cdd	-3.2439286e-19
104	0x20898e94	2.3303053e-19
105	0x20f597ea	4.1605143e-19
106	0x21e973f8	1.5819391e-18
107	0xa1bee89f	-1.2936475e-18
108	0x9f42139f	-4.1097328e-20
109	0x218ca686	9.530847e-19
110	0x21304608	5.9723805e-19
111	0x2205e510	1.8146126e-18
112	0xa1d3ee3c	-1.4360976e-18
113	0xa10c9129	-4.7625963e-19
114	0x2093a231	2.5010098e-19
115	0x2199e16e	1.0427354e-18
116	0x22437f60	2.649486e-18
117	0xa1d1c1f1	-1.4213727e-18
118	0x9fa2caa7	-6.894493e-20
119	0x2142c3ff	6.5989155e-19
120	0x21d01bfd	1.4102037e-18
121	0x2247b47a	2.7065073e-18
122	0xa060f69e	-1.9055137e-19
123	0x21380174	6.234355e-19
124	0x21a4dc1d	1.1171336e-18
125	0xb1ca43a4	-5.8866636e-09
126	0xb360b5b9	-5.231934e-08
127	0xb31c59d4	-3.640328e-08
128	0xb31195b8	-3.389661e-08
129	0xb20ee849	-8.318303e-09
130	0x33de1616	1.0341698e-07
131	0x33ec42f9	1.10017886e-07
132	0x341b52e1	1.4465651e-07
133	0x33830a96	6.1020884e-08
134	0x31c8ea8d	5.8474314e-09
135	0xb351f36f	-4.8883006e-08
136	0xb3875ef5	-6.3037e-08
137	0xb346b39c	-4.626382e-08
138	0xb30f50bd	-3.3368213e-08
139	0x32765d46	1.43402925e-08
140	0xb018fa1e	-5.5652716e-10
141	0xb2122124	-8.505854e-09
142	0xb18b0786	-4.0462877e-09
143	0x3162407e	3.2923988e-09
144	0x32983a71	1.7721705e-08
145	0x322c5212	1.0030378e-08
146	0x32213b91	9.384977e-09
147	0xb18cfd7a	-4.103353e-09
148	0xb18f421a	-4.1693626e-09
149	0xb1c027e5	-5.592471e-09
150	0xaf3b1a61	-1.7016923e-10
151	0xaf0d6dca	-1.286288e-10
152	0xad986949	-1.7327155e-11
153	0xae7ca989	-5.7448744e-11
154	0x2e19dda0	3.4985015e-11
155	0x2fa86988	3.0634006e-10
156	0x2fba8357	3.3926525e-10
157	0x2fdd6f92	4.027894e-10
158	0x2fa23d88	2.951135e-10
159	0x2fdf7140	4.0643933e-10
160	0x2f57dfb3	1.963361e-10
161	0x2f1dbbc3	1.4345773e-10
162	0x2f4c84d0	1.8600876e-10
163	0x2e585a87	4.919312e-11
164	0x2e860e7a	6.096186e-11
165	0x2f68d600	2.1176305e-10
166	0x2ef6bdc2	1.12204926e-10
167	0x2f7d24e5	2.3023324e-10
168	0x2f5d3b35	2.0120867e-10
169	0x2f937229	2.682026e-10
170	0xaf81fedb	-2.364605e-10
171	0xaf40ac0f	-1.7523426e-10
172	0x2dad4069	1.9696427e-11
173	0xad64d144	-1.3006766e-11
174	0x2cf27d54	6.891968e-12
175	0xa111b50b	-4.936752e-19
176	0xa084eab5	-2.2516986e-19
177	0x2136383b	6.173842e-19
178	0x21928cdf	9.930633e-19
179	0x2127fec9	5.6919006e-19
180	0x21a31b3f	1.1052522e-18
181	0x21b0ca40	1.1979759e-18
182	0x21dd5380	1.4997645e-18
183	0x21c48c74	1.3318654e-18
184	0x21b5b76f	1.2313592e-18
185	0x2218864a	2.0670933e-18
186	0x2221f82d	2.1950952e-18
187	0x22441635	2.657471e-18
188	0x223150b8	2.4030705e-18
189	0x220b9d12	1.8921165e-18
190	0x21516bda	7.0954695e-19
191	0x218b0b09	9.421927e-19
192	0x21f3e1c3	1.6526079e-18
193	0x21b2a079	1.2104226e-18
194	0x1fa64fa7	7.043551e-20
195	0xa0543513	-1.7974659e-19
196	0x1fe698bd	9.766147e-20
197	0x211908a0	5.184983e-19
198	0x1dc0f305	5.1073253e-21
199	0xa16228db	-7.662585e-19
200	0x2c2d1fdf	2.460247e-12
201	0x2bdcb10d	1.5681082e-12
202	0x2d130f65	8.359401e-12
203	0x2dc3c48b	2.2256216e-11
204	0x2e0ab3da	3.1537307e-11
205	0x2c3dc422	2.696739e-12
206	0x2ce05926	6.3763604e-12
207	0x2d65da54	1.30656215e-11
208	0x2dd96cb3	2.4718316e-11
209	0x2e173649	3.438164e-11
210	0xae00f899	-2.932463e-11
211	0xae0e697b	-3.2380747e-11
212	0xadffe05b	-2.9089777e-11
213	0xadb54b15	-2.061066e-11
214	0xad66e6a3	-1.3125198e-11
215	0x2da170ec	1.8353728e-11
216	0x2d7e7e59	1.4466283e-11
217	0x2db6609c	2.0733908e-11
218	0x2dd7e4de	2.4544308e-11
219	0x2dd64243	2.435841e-11
220	0x2dcd1206	2.3313806e-11
221	0x2db89b95	2.098747e-11
222	0x2e07c2ee	3.086858e-11
223	0x2df5a306	2.7925672e-11
224	0x2db2b8e1	2.031836e-11
225	0x2370cdf0	1.3054035e-17
226	0x22d2e1bd	5.7159624e-18
227	0xa1f5494c	-1.6621247e-18
228	0xa28ba0b4	-3.7846177e-18
229	0xa24c3ae9	-2.7678342e-18
230	0xa2d96546	-5.8925195e-18
231	0xa32af8f7	-9.268439e-18
232	0xa347df9c	-1.0835163e-17
233	0xa33f3573	-1.0365449e-17
234	0xa33da0f2	-1.0279792e-17
235	0xa38dd8d9	-1.537909e-17
236	0xa380fcb7	-1.3984817e-17
237	0xa38e8984	-1.5453911e-17
238	0xa38d947d	-1.5350138e-17
239	0xa3ab1042	-1.8546743e-17
240	0x21bfa30f	1.2985825e-18
241	0x1f967587	6.3721904e-20
242	0xa294c199	-4.032046e-18
243	0xa2e84472	-6.2956195e-18
244	0xa30493a6	-7.187e-18
245	0x22020dd6	1.762561e-18
246	0xa1ce902a	-1.3997263e-18
247	0xa21dbabd	-2.1376326e-18
248	0xa2936029	-3.9946243e-18
249	0xa2ce81cf	-5.5973852e-18
250	0xb338d5f7	-4.303544e-08
251	0xb3649e24	-5.3229215e-08
252	0xb2eda6dd	-2.7666312e-08
253	0xb2ab1147	-1.9914877e-08
254	0xb2895ae4	-1.5990231e-08
255	0xb28c9669	-1.6366544e-08

cnn_head.1.weight f4 [48]
0	0x33b0f5dd	8.240361e-08
1	0x338e72d7	6.6332795e-08
2	0x26ac3290	1.1948603e-15
3	0x21448551	6.6583826e-19
4	0x21b9ae30	1.2582195e-18
5	0x33ddc374	1.0326667e-07
6	0x2ed18d69	9.529339e-11
7	0x201f049e	1.3469352e-19
8	0x2d06d0ed	7.663409e-12
9	0x230a56b9	7.499359e-18
10	0x33c04c38	8.954561e-08
11	0x21b8ab00	1.2513588e-18
12	0x21de2848	1.5053968e-18
13	0x222ac843	2.3145314e-18
14	0x2166f801	7.825526e-19
15	0x21cf3076	1.4039693e-18
16	0x215f1a69	7.559029e-19
17	0x20b2cfa1	3.029177e-19
18	0x33597e7a	5.063928e-08
19	0x22cc518f	5.5380664e-18
20	0x32141fbe	8.621951e-09
21	0x2b295517	6.0158947e-13
22	0x241015e3	3.124356e-17
23	0x2361e03c	1.2244758e-17
24	0x33c3c01a	9.115338e-08
25	0x21333832	6.0721933e-19
26	0xa889b8c0	-1.5290178e-14
27	0x32887486	1.5885472e-08
28	0x23734358	1.3187317e-17
29	0x22a10908	4.36487e-18
30	0x21ba6a01	1.2631909e-18
31	0x20a2869a	2.753294e-19
32	0x1f5d10b9	4.6812403e-20
33	0xb188cca7	-3.981387e-09
34	0x22f8c3f3	6.7428004e-18
35	0x336fddcc	5.5848247e-08
36	0x34244950	1.5300361e-07
37	0x2297837f	4.106786e-18
38	0x33f8f1ec	1.1592405e-07
39	0x33787718	5.7850315e-08
40	0x2584cec4	2.303846e-16
41	0x250270ad	1.1313879e-16
42	0x33d78bb4	1.00371295e-07
43	0x33bbb432	8.7406434e-08
44	0x21082301	4.612492e-19
45	0x21733424	8.240061e-19
46	0x33e85a82	1.0819805e-07
47	0x20b5fdd3	3.083056e-19

cnn_head.1.bias f4 [48]
0	0x31e74607	6.730946e-09
1	0x33c3a4d3	9.1103765e-08
2	0xa798b448	-4.2383936e-15
3	0xa287502b	-3.6676704e-18
4	0xa29d8c7a	-4.270367e-18
5	0xb355e7b4	-4.980366e-08
6	0xafc780df	-3.6289458e-10
7	0xa199c373	-1.0419418e-18
8	0xae13c713	-3.3600744e-11
9	0xa3e78312	-2.510058e-17
10	0x33ab13e0	7.966423e-08
11	0xa2cffc55	-5.637463e-18
12	0xa2c76da4	-5.4055145e-18
13	0xa313684d	-7.9909725e-18
14	0xa307c610	-7.360306e-18
15	0xa2beb9ba	-5.169625e-18
16	0xa2557388	-2.8928045e-18
17	0xa1ac6ce5	-1.1683997e-18
18	0x31bdd8c2	5.5252665e-09
19	0xa3ed7f8d	-2.5749611e-17
20	0xb1a39e42	-4.761916e-09
21	0xac33873d	-2.5512502e-12
22	0xa514a7f6	-1.2893861e-16
23	0xa4903a78	-6.2549095e-17
24	0x33b1f2af	8.286349e-08
25	0xa26f6f44	-3.2449443e-18
26	0xa97987a1	-5.5406746e-14
27	0x2f8d22d3	2.5672495e-10
28	0xa45b7d7f	-4.7594354e-17
29	0xa38fc95d	-1.5589372e-17
30	0xa2c57b7a	-5.3527693e-18
31	0xa1b9900e	-1.2574219e-18
32	0xa0c5377c	-3.3409815e-19
33	0x30f6076f	1.7900968e-09
34	0xa43517df	-3.9268338e-17
35	0x333cec25	4.3986933e-08
36	0xb3de28d7	-1.0345109e-07
37	0xa393e529	-1.6034825e-17
38	0xb32cdde0	-4.0248665e-08
39	0x32ceb4f9	2.4063853e-08
40	0xa6892ed7	-9.518981e-16
41	0xa62f6196	-6.0847575e-16
42	0xb34f6b54	-4.8293558e-08
43	0xb3443b0a	-4.5688502e-08
44	0xa1e49d71	-1.5491555e-18
45	0xa256196a	-2.9015862e-18
46	0x337ef278	5.9359508e-08
47	0xa1911a11	-9.832482e-19

cnn_head.1.running_mean f4 [48]
0	0xbf9e4648	-1.2365198
1	0xbfbfb3fa	-1.49768
2	0x340f2ed1	1.3334945e-07
3	0x2fb4a7db	3.2861078e-10
4	0xaf0cdd4b	-1.2811545e-10
5	0xbf9457be	-1.1589277
6	0xbcec9c9e	-0.028883275
7	0xaf8b59cd	-2.534776e-10
8	0xbb2923c6	-0.0025808676
9	0x30d44685	1.5445073e-09
10	0x4067c311	3.621281
11	0xb0bb8220	-1.3643024e-09
12	0x30288a98	6.1315e-10
13	0x308e9618	1.0374519e-09
14	0xaf0f3c78	-1.3027257e-10
15	0x2fea0bcc	4.2572734e-10
16	0x2f241457	1.4922939e-10
17	0x2e72fdfa	5.5250006e-11
18	0xbf3f9f6f	-0.7485265
19	0x30d67487	1.5603668e-09
20	0x3e3748d1	0.17898871
21	0x38b20d89	8.4902225e-05
22	0xb21ab3c6	-9.0048555e-09
23	0x316ff196	3.4916403e-09
24	0xbf8c5e60	-1.0966301
25	0xafc2b363	-3.5415856e-10
26	0x360bad8d	2.0813634e-06
27	0x3d6ff028	0.05857864
28	0xb10e0634	-2.0667246e-09
29	0x30d76282	1.5671306e-09
30	0x2fc58e10	3.5935033e-10
31	0x2e74088d	5.548677e-11
32	0xae96ecd5	-6.86328e-11
33	0xbca61ac6	-0.020276438
34	0x30a73116	1.21648e-09
35	0x3ef24c39	0.47323778
36	0xc08ad18e	-4.3380804
37	0x3090ad5e	1.0526653e-09
38	0xbd220b61	-0.039561633
39	0xbea40dfa	-0.32041913
40	0x332c5d9b	4.0132004e-08
41	0x32a0f62d	1.87384e-08
42	0xbeef42fb	-0.4673079
43	0xbf74622a	-0.95462286
44	0xaea61fdd	-7.554466e-11
45	0x2f8a78c5	2.5187866e-10
46	0x3e865f16	0.2624442
47	0x2e30eb72	4.0226884e-11

cnn_head.1.running_var f4 [48]
0	0x40a1aec9	5.052586
1	0x40d3e8f3	6.622186
2	0x28e8be8d	2.5839812e-14
3	0x20402b82	1.6277428e-19
4	0x1eef4625	2.533412e-20
5	0x40c9ff70	6.3124313
6	0x3aaeddcf	0.0013341251
7	0x1fe27f2c	9.592511e-20
8	0x37315ea4	1.0572057e-05
9	0x2285561f	3.6140906e-18
10	0x41a1f4c4	20.244514
11	0x223ff8b9	2.6017e-18
12	0x212290b4	5.507925e-19
13	0x21e732b3	1.5666589e-18
14	0x20b20a23	3.016108e-19
15	0x20b6d8e1	3.0975518e-19
16	0x1f266d73	3.52424e-20
17	0x1dae9378	4.6209896e-21
18	0x403dd4a4	2.9661036
19	0x22aa130d	4.6098763e-18
20	0x3d530bf2	0.051525064
21	0x3286af32	1.5679323e-08
22	0x25162081	1.3021439e-16
23	0x239edca4	1.722384e-17
24	0x415cbe90	13.796524
25	0x206533d8	1.9414208e-19
26	0x2cf61fd7	6.9952755e-12
27	0x3d4594b0	0.048237503
28	0x22e16004	6.1088033e-18
29	0x228a2d93	3.745323e-18
30	0x20854376	2.2575718e-19
31	0x1daf6a1e	4.6431837e-21
32	0x1e0861f5	7.220037e-21
33	0x3afa3a92	0.0019090942
34	0x2263066a	3.0767632e-18
35	0x40d6d9ed	6.7141023
36	0x41e402ed	28.501429
37	0x21eee79d	1.6188815e-18
38	0x402f17bd	2.7358239
39	0x40d1dbfb	6.558103
40	0x273e806d	2.6437417e-15
41	0x26756606	8.513972e-16
42	0x4051a511	3.2756999
43	0x407417f7	3.8139627
44	0x1e235c1b	8.648195e-21
45	0x1fe05a61	9.501721e-20
46	0x419124b7	18.142927
47	0x1d3ee58c	2.5264964e-21

BCBlocks.0.0.f2.0.block.0.weight f4 [24, 48, 1, 1]
0	0xb30aace0	-3.2287858e-08
1	0x32b96272	2.1581602e-08
2	0x261f3e9c	5.524906e-16
3	0x2273604a	3.2983616e-18
4	0xa0a83468	-2.8494987e-19
5	0x33023fdd	3.0326067e-08
6	0xaf6eccde	-2.1718757e-10
7	0x2031b318	1.505174e-19
8	0xad9a42f8	-1.7537513e-11
9	0xa131751b	-6.012492e-19
10	0xb27eaf18	-1.4824558e-08
11	0xa17da6fb	-8.594073e-19
12	0x2265baa7	3.11341e-18
13	0xa13d8270	-6.4208323e-19
14	0xa2cfac25	-5.6289728e-18
15	0x22b598d7	4.9221974e-18
16	0x21906d8c	9.786816e-19
17	0x9ffa9972	-1.0613297e-19
18	0x32c91def	2.3413092e-08
19	0xa344a694	-1.06604556e-17
20	0x30b6cbee	1.3300203e-09
21	0xaab305b5	-3.1800747e-13
22	0x243b3734	4.059592e-17
23	0x23fd89e5	2.7488716e-17
24	0xb22dffed	-1.0128116e-08
25	0xa199823a	-1.0402154e-18
26	0xa89f968e	-1.7717839e-14
27	0xb1234966	-2.3761344e-09
28	0xa2900282	-3.9033933e-18
29	0xa112a31a	-4.9682587e-19
30	0xa0da3ca0	-3.6970755e-19
31	0x21206ce8	5.4354245e-19
32	0x205b2b1c	1.8564285e-19
33	0x308e9195	1.0373237e-09
34	0xa3037f5d	-7.1284945e-18
35	0x330022eb	2.983408e-08
36	0x32b7ef16	2.1412728e-08
37	0x227bb79b	3.4114043e-18
38	0xb1f6e197	-7.185189e-09
39	0xb3b1831a	-8.266052e-08
40	0x2615ec8e	5.201535e-16
41	0xa58002be	-2.2206319e-16
42	0xb27d4bce	-1.4743774e-08
43	0xb2b2598a	-2.0762645e-08
44	0xa1010886	-4.371818e-19
45	0x21e266b9	1.5341546e-18
46	0xb25a759d	-1.2716012e-08
47	0x2047dc3e	1.6928828e-19
48	0x3373d520	5.6771682e-08
49	0x32fc5e37	2.9379505e-08
50	0x269cb9a5	1.0874994e-15
51	0xa0df23ef	-3.7801448e-19
52	0xa1859740	-9.052466e-19
53	0x331735f3	3.5206494e-08
54	0xaf8496b0	-2.411773e-10
55	0xa1780442	-8.4031304e-19
56	0xad918008	-1.6541449e-11
57	0xa1edbfdb	-1.6110528e-18
58	0xb38241ed	-6.0655886e-08
59	0x20719792	2.0463644e-19
60	0x22110afb	1.9656977e-18
61	0x223d3b36	2.5645622e-18
62	0x21445c03	6.652916e-19
63	0xa1fde98b	-1.7205765e-18
64	0x21c70d11	1.3488223e-18
65	0x212af58b	5.7923214e-19
66	0xb1f3f27b	-7.0997976e-09
67	0xa36abb10	-1.27247774e-17
68	0xb0641211	-8.297159e-10
69	0xab9ac1a3	-1.0996103e-12
70	0xa4ad7cff	-7.523854e-17
71	0x2392b80f	1.5907304e-17
72	0x3198512c	4.4330104e-09
73	0xa1a65eca	-1.1273688e-18
74	0xa716449d	-2.0853877e-15
75	0xb0779599	-9.007067e-10
76	0xa2c05893	-5.2135486e-18
77	0xa10deff0	-4.8090213e-19
78	0xa01129e6	-1.2295841e-19
79	0x9e99683d	-1.6242617e-20
80	0x9f4ac71e	-4.293987e-20
81	0xafd219ea	-3.821719e-10
82	0x239dd19d	1.7110749e-17
83	0xb26bc242	-1.3722969e-08
84	0x3259a6ac	1.2668959e-08
85	0xa1531b2a	-7.152553e-19
86	0x305aca8f	7.959579e-10
87	0xb294845c	-1.7289658e-08
88	0x2604e76b	4.611033e-16
89	0xa5d0ff8e	-3.625542e-16
90	0x333cff1a	4.4004175e-08
91	0x332fdec9	4.0947985e-08
92	0x21050922	4.507424e-19
93	0x21752800	8.306217e-19
94	0x32881896	1.5843664e-08
95	0x9d3f63bb	-2.5330199e-21
96	0xb2d4b5e7	-2.4762768e-08
97	0xb1cf599a	-6.0346794e-09
98	0x263707c2	6.3501393e-16
99	0x210f8d23	4.863708e-19
100	0x9f0afdc1	-2.9432537e-20
101	0xb1dd2311	-6.435933e-09
102	0xaef88a9c	-1.1302356e-10
103	0x210b0194	4.709712e-19
104	0x2c2fd676	2.4988045e-12
105	0xa03d03da	-1.6010197e-19
106	0xb16bea09	-3.4330034e-09
107	0x218603ab	9.081164e-19
108	0x21b9683b	1.2563677e-18
109	0x219a8efa	1.0473291e-18
110	0x219e02ba	1.0707218e-18
111	0x218e12e4	9.627295e-19
112	0x20f46ba5	4.140644e-19
113	0x200ed99f	1.2099873e-19
114	0xb2646838	-1.3295043e-08
115	0x220b0437	1.8840244e-18
116	0xb1915bde	-4.2304995e-09
117	0xaba8edcf	-1.2003123e-12
118	0x22b63973	4.9392026e-18
119	0xa20b0a2c	-1.8843398e-18
120	0xb28a65c7	-1.6111597e-08
121	0xa10329eb	-4.4440004e-19
122	0x264a3a0b	7.016149e-16
123	0xb02265d4	-5.9079963e-10
124	0x22642fd9	3.0925092e-18
125	0x9efde0f8	-2.6880462e-20
126	0xa1a81205	-1.1388893e-18
127	0x20d07f65	3.5320873e-19
128	0x1fb786f1	7.7726757e-20
129	0x2f9c323a	2.8411923e-10
130	0x22ac6126	4.6723553e-18
131	0xb1bc22b2	-5.4754645e-09
132	0xb30fc8a2	-3.3477257e-08
133	0x213f8588	6.4890044e-19
134	0x333025ad	4.101246e-08
135	0x32c670f9	2.3101608e-08
136	0x21b26505	1.2088489e-18
137	0xa3cc5604	-2.2154153e-17
138	0xb3039d24	-3.0643733e-08
139	0x30ed39b2	1.7260418e-09
140	0x206caca2	2.0047097e-19
141	0x9d8f117a	-3.7869855e-21
142	0x33d4e66b	9.913932e-08
143	0x1f7c6dfe	5.345406e-20
144	0x322e0fa3	1.0131688e-08
145	0x33027f3c	3.0383703e-08
146	0x251e3144	1.3721007e-16
147	0xa2368d39	-2.4740362e-18
148	0x20cd844e	3.4815903e-19
149	0xb34e1c47	-4.798883e-08
150	0xaf78067c	-2.2557772e-10
151	0xa0837ec1	-2.2276142e-19
152	0x2db15a6e	2.0162729e-11
153	0xa31d3752	-8.5227016e-18
154	0x32b938d2	2.1562673e-08
155	0x2280e01e	3.4931763e-18
156	0x2275058f	3.3206634e-18
157	0xa1efb8af	-1.6244155e-18
158	0xa26aefc2	-3.183984e-18
159	0xa334eb6a	-9.8076704e-18
160	0x211e7010	5.3680796e-19
161	0x20d908bc	3.676701e-19
162	0x33459a11	4.600776e-08
163	0x23ecb25b	2.5662708e-17
164	0x2f098888	1.2508583e-10
165	0xac53ba66	-3.0088375e-12
166	0x2492c6bd	6.365408e-17
167	0x232d3fcf	9.391861e-18
168	0x32a2896b	1.8921773e-08
169	0xa20b7a5f	-1.8902795e-18
170	0xa913f02b	-3.284887e-14
171	0xb1a2b4d8	-4.73538e-09
172	0xa3f4fc84	-2.6561478e-17
173	0xa1c491d6	-1.3320079e-18
174	0xa2f18bdd	-6.5471267e-18
175	0x1ea36edc	1.7304147e-20
176	0x20b293d2	3.0252192e-19
177	0xb0e1f14b	-1.6439484e-09
178	0x23b05c58	1.9121067e-17
179	0xb396a4fe	-7.014931e-08
180	0x3320d90e	3.7450313e-08
181	0xa215c845	-2.0299287e-18
182	0xb0cb72fb	-1.4802873e-09
183	0xb3d36e2e	-9.845495e-08
184	0xa46258ee	-4.9081265e-17
185	0xa59a07ab	-2.6719938e-16
186	0xb220eecc	-9.367522e-09
187	0xb385129f	-6.196682e-08
188	0x1f0fba88	3.0435723e-20
189	0xa1e69c24	-1.5626736e-18
190	0x32014466	7.52434e-09
191	0x1f681482	4.9144875e-20
192	0x333e5054	4.431088e-08
193	0x338efd88	6.658507e-08
194	0x26925a9f	1.0155348e-15
195	0xa2015939	-1.7529994e-18
196	0xa10eebd7	-4.8423603e-19
197	0x3249cedc	1.1746774e-08
198	0xae827f80	-5.934364e-11
199	0xa0d71593	-3.6436693e-19
200	0xadc8335b	-2.2760174e-11
201	0xa2754c0f	-3.3243957e-18
202	0xb28d26d3	-1.6432216e-08
203	0x22298c5c	2.2978077e-18
204	0xa230dc90	-2.3969213e-18
205	0x21aeb09a	1.1837445e-18
206	0x216e94cd	8.0834473e-19
207	0x22b9f881	5.0407464e-18
208	0x20d84e9c	3.6643843e-19
209	0x9f260348	-3.515458e-20
210	0x324f99d1	1.208396e-08
211	0x2393b03f	1.6012415e-17
212	0xb1417114	-2.8149474e-09
213	0xab987c7a	-1.0834799e-12
214	0xa4be561f	-8.254526e-17
215	0xa117b858	-5.1404767e-19
216	0xb3c09e76	-8.9695206e-08
217	0x205832ba	1.8312696e-19
218	0xa98500b1	-5.9065064e-14
219	0x3110274e	2.09771e-09
220	0xa2cc6aec	-5.540752e-18
221	0x2248b8f1	2.7202961e-18
222	0x21abc490	1.163944e-18
223	0xa0b60cb7	-3.0840413e-19
224	0x9f05aec7	-2.8308418e-20
225	0xb00e119c	-5.1684323e-10
226	0xa20ae7f6	-1.8825287e-18
227	0xb100432a	-1.866463e-09
228	0x32f3ff2f	2.8404967e-08
229	0xa1c6d03e	-1.3472123e-18
230	0xb363a8b3	-5.3005987e-08
231	0xb1a9c386	-4.940776e-09
232	0xa5b4a170	-3.1334417e-16
233	0x24b4c5cb	7.839763e-17
234	0xb1efdb6c	-6.980761e-09
235	0x31e9c72e	6.8038366e-09
236	0x1f319bb6	3.761001e-20
237	0xa2219aca	-2.1901513e-18
238	0x3345c0ff	4.6043166e-08
239	0x1fba7c9c	7.898021e-20
240	0xad8af40d	-1.5797164e-11
241	0x3388e5ad	6.374771e-08
242	0xa5ac5a74	-2.9898537e-16
243	0xa21cce51	-2.1251165e-18
244	0xa2493977	-2.7271001e-18
245	0x30c6ff32	1.4478927e-09
246	0xaf754561	-2.2307269e-10
247	0x20607676	1.9012733e-19
248	0x2d289456	9.5826316e-12
249	0x1fe0cbef	9.520507e-20
250	0x3280c9d4	1.4992942e-08
251	0xa321390d	-8.7399085e-18
252	0xa0955aa4	-2.5301563e-19
253	0xa2f348b8	-6.5942276e-18
254	0x223909e3	2.507741e-18
255	0xa248a059	-2.7189942e-18

BCBlocks.0.0.f2.0.block.1.weight f4 [24]
0	0x3318f09f	3.56091e-08
1	0x338bf3b4	6.517021e-08
2	0x3393bf09	6.87997e-08
3	0x339094a1	6.732558e-08
4	0x33422b40	4.520848e-08
5	0x336237bb	5.2670412e-08
6	0xb3195356	-3.5698882e-08
7	0xa433e207	-3.900589e-17
8	0xa50b1e68	-1.206663e-16
9	0xb39203e0	-6.79936e-08
10	0x339fae7c	7.435753e-08
11	0xb302e025	-3.0471842e-08
12	0x261dd5fa	5.476031e-16
13	0xb37896fb	-5.7879316e-08
14	0xb2eaa96f	-2.7318235e-08
15	0xb3162f06	-3.4967364e-08
16	0x33ad3d23	8.067061e-08
17	0x33affec1	8.195412e-08
18	0x336c7d3c	5.5061932e-08
19	0x3307dd27	3.1633274e-08
20	0x3372c01a	5.651973e-08
21	0x33963d07	6.99602e-08
22	0xb3c0fc44	-8.9865836e-08
23	0x33792db4	5.8016397e-08

BCBlocks.0.0.f2.0.block.1.bias f4 [24]
0	0x32ecbfd5	2.7561251e-08
1	0xb304d8fb	-3.0930988e-08
2	0x330b8111	3.2480845e-08
3	0x324f21fe	1.2056715e-08
4	0x3270a28e	1.4006799e-08
5	0x32b03a27	2.0515541e-08
6	0x314c5d0e	2.9738803e-09
7	0xa68d5f60	-9.809692e-16
8	0xa89347db	-1.635144e-14
9	0xb2dee04f	-2.5946205e-08
10	0x312fd3c7	2.5586233e-09
11	0x33a8cefa	7.8607584e-08
12	0xa627a421	-5.81622e-16
13	0x3367ba47	5.3953297e-08
14	0x3121ed97	2.3563638e-09
15	0x319f7751	4.6410737e-09
16	0xb3106efe	-3.362856e-08
17	0xb3373861	-4.2659284e-08
18	0x33390705	4.3080053e-08
19	0x3354d45f	4.9553247e-08
20	0x33567dad	4.994006e-08
21	0x330a105e	3.2145515e-08
22	0xb319e499	-3.5830997e-08
23	0x313e095c	2.765396e-09

BCBlocks.0.0.f2.0.block.1.running_mean f4 [24]
0	0xbd102bfa	-0.03519819
1	0x3caccfe5	0.021095226
2	0x3d66a72e	0.05631178
3	0x3bd320a2	0.006443099
4	0x3c94e60f	0.018176107
5	0x3d929637	0.071575575
6	0xbe18264b	-0.14858358
7	0xaff0986d	-4.376405e-10
8	0x31e96f20	6.793826e-09
9	0x3cac1abd	0.021008844
10	0xbde87e6f	-0.1135224
11	0x3dbf11ae	0.09329544
12	0x30a01785	1.1648217e-09
13	0xbd024115	-0.03180035
14	0xbde32f20	-0.11092973
15	0xbc8e9e88	-0.017409578
16	0xbcd93ce4	-0.026518293
17	0x3c101788	0.008794673
18	0x3d81dfd7	0.06341522
19	0x3c5cb5df	0.013471096
20	0xbe18b87d	-0.14914127
21	0xbd95e138	-0.07318348
22	0x3c5c4a13	0.013445395
23	0x3cc5c6e9	0.0241427

BCBlocks.0.0.f2.0.block.1.running_var f4 [24]
0	0x3b2f1b59	0.0026719181
1	0x3c861dd3	0.016371643
2	0x3c837e69	0.016051488
3	0x3c5773c4	0.013150159
4	0x3d048f68	0.032363325
5	0x3cbd64d0	0.02311936
6	0x3b2e0ab8	0.0026556682
7	0x22032620	1.7773994e-18
8	0x2609eefc	4.785531e-16
9	0x3c22d00f	0.0099373
10	0x3c91fc8a	0.017820615
11	0x3cb59849	0.022167342
12	0x219d2d41	1.0650712e-18
13	0x3cb9c66f	0.022677628
14	0x3b8fde7c	0.004390536
15	0x3b6bdfbb	0.0035991508
16	0x3c63eede	0.013911931
17	0x3d1314ac	0.035908386
18	0x3c2f2618	0.010690235
19	0x3c2152c3	0.009846392
20	0x3d063a72	0.03277058
21	0x3c66f1c9	0.014095732
22	0x3d1e62b9	0.038668368
23	0x3bc63960	0.00604932

BCBlocks.0.0.f2.1.block.0.weight f4 [24, 1, 3, 1]
0	0x3334ab47	4.206529e-08
1	0xb380fa86	-6.0060344e-08
2	0x32bca34a	2.1960336e-08
3	0xb30cc770	-3.2777677e-08
4	0xb37e68e6	-5.9234388e-08
5	0x33e2811f	1.0547432e-07
6	0xb205e09d	-7.79269e-09
7	0xb307271b	-3.1467703e-08
8	0xb2af3585	-2.039702e-08
9	0xb3a24fb1	-7.5582086e-08
10	0x33cc7afb	9.52186e-08
11	0x32004af4	7.467623e-09
12	0x32b2ab8a	2.0799934e-08
13	0x337acee3	5.8395823e-08
14	0xb27fa973	-1.4881482e-08
15	0xb30e521a	-3.3136622e-08
16	0x33bd6dfa	8.821003e-08
17	0xb2744cc7	-1.4220126e-08
18	0x338d8a9d	6.591038e-08
19	0xb2abf76b	-2.0019533e-08
20	0xb052b132	-7.6649365e-10
21	0xa5e813c1	-4.025897e-16
22	0xa5e4f25a	-3.971592e-16
23	0xa563c9f9	-1.9757542e-16
24	0xa7bb1eb3	-5.193621e-15
25	0xa69e0c9d	-1.0966871e-15
26	0xa7acdfec	-4.7982367e-15
27	0xb2893d5c	-1.5976802e-08
28	0xb36da11d	-5.5327394e-08
29	0x33491de3	4.682614e-08
30	0xb2d9a1a9	-2.533564e-08
31	0xb1f55647	-7.140247e-09
32	0xb3138f6e	-3.4356553e-08
33	0x3273f96f	1.4201176e-08
34	0x33fb5a80	1.170456e-07
35	0xb3f34f6b	-1.1330015e-07
36	0x262ff653	6.1049153e-16
37	0x250383f5	1.1407148e-16
38	0xa4872d4e	-5.8623666e-17
39	0xb32f1611	-4.0765432e-08
40	0x3411fd13	1.3596245e-07
41	0xb326e221	-3.885555e-08
42	0xb373bbd6	-5.6748682e-08
43	0x3144f9a5	2.866366e-09
44	0x32b19419	2.0672859e-08
45	0x319a1f52	4.4855506e-09
46	0xb305ca47	-3.1150446e-08
47	0x33233cc7	3.800667e-08
48	0x3342cb7a	4.5354206e-08
49	0xb3585e17	-5.0376993e-08
50	0xb38439b8	-6.157228e-08
51	0x33f9e7eb	1.1637152e-07
52	0xb38fd6f7	-6.698058e-08
53	0x2f3d832d	1.7236053e-10
54	0x33c6aedb	9.2518995e-08
55	0xb316d368	-3.511687e-08
56	0xb25d4b17	-1.28809665e-08
57	0xb2268dac	-9.694684e-09
58	0xb32a0b89	-3.95917e-08
59	0xb2756662	-1.4284156e-08
60	0x341974b8	1.4291697e-07
61	0xb3984b95	-7.0918e-08
62	0xb295352b	-1.7370061e-08
63	0x33bbfa3e	8.753385e-08
64	0xb39c9426	-7.291264e-08
65	0xb2962b0e	-1.7481877e-08
66	0x338e6101	6.630035e-08
67	0xb3f78e74	-1.1527746e-07
68	0x30e6c1ea	1.6789816e-09
69	0xb19b9672	-4.5281974e-09
70	0xb33f77f2	-4.4579743e-08
71	0xb32f6196	-4.0834117e-08

BCBlocks.0.0.f2.1.block.1.ssnorm.weight f4 [120]
0	0xb2f82968	-2.888983e-08
1	0xb314b128	-3.4620058e-08
2	0xb2bee597	-2.2223317e-08
3	0x334d4e6d	4.780161e-08
4	0x2f9ac9b8	2.8155767e-10
5	0x33649959	5.3224856e-08
6	0x335e8e28	5.1817693e-08
7	0x3303997f	3.0640418e-08
8	0x32d1b6d6	2.4413946e-08
9	0x32f1595b	2.8096727e-08
10	0xb2326b75	-1.03853965e-08
11	0xb302e397	-3.0474975e-08
12	0x330d1a73	3.2853176e-08
13	0x334f51a7	4.8270206e-08
14	0x335d4519	5.1518416e-08
15	0x32c416e1	2.2827807e-08
16	0x3323fe52	3.8182698e-08
17	0x32fa41e5	2.9133796e-08
18	0x3318773d	3.5498704e-08
19	0xb348fe65	-4.67975e-08
20	0x32ffa496	2.9760752e-08
21	0x334f01fd	4.819775e-08
22	0x336bc430	5.4893633e-08
23	0x33511203	4.8677986e-08
24	0x3344d305	4.5826727e-08
25	0x335d78a2	5.1565287e-08
26	0x3380b23d	5.992886e-08
27	0x3333298d	4.1714475e-08
28	0x33306ae4	4.107541e-08
29	0x33216e5d	3.758611e-08
30	0xae7a17bf	-5.686451e-11
31	0x334cdcdd	4.7698325e-08
32	0x3302ed04	3.0483548e-08
33	0x33171a19	3.5181163e-08
34	0x3303c8e0	3.068351e-08
35	0x26353550	6.286924e-16
36	0x25eca91e	4.1054072e-16
37	0x25110b18	1.2580504e-16
38	0x25850e2c	2.3081425e-16
39	0x25b909e3	3.2099084e-16
40	0x27c995d9	5.5951172e-15
41	0x27922716	4.0565517e-15
42	0x2790231f	4.0006107e-15
43	0x275c95ed	3.0612408e-15
44	0x2819e101	8.541996e-15
45	0x33804c4b	5.974342e-08
46	0x3337816f	4.2725727e-08
47	0x33572c34	5.009879e-08
48	0x332df91c	4.0506265e-08
49	0x3313ca0d	3.440987e-08
50	0xb2968df6	-1.7526855e-08
51	0x3319ca2b	3.580696e-08
52	0xb2b14219	-2.063557e-08
53	0x33429be1	4.5310916e-08
54	0x3340d6d9	4.4898886e-08
55	0x338267f9	6.072509e-08
56	0x335808fd	5.0299594e-08
57	0x335db2b7	5.1618112e-08
58	0x332e9e97	4.065677e-08
59	0x33662567	5.3585065e-08
60	0xa53f1698	-1.6574264e-16
61	0xa53642c3	-1.5808603e-16
62	0xa5a8bf92	-2.9273167e-16
63	0x23af99ba	1.9038644e-17
64	0xa4cddfe4	-8.9283864e-17
65	0x337864ba	5.783361e-08
66	0x3387813a	6.3099336e-08
67	0x33424136	4.5228454e-08
68	0x3374f6df	5.7035205e-08
69	0x337e7cf3	5.9252624e-08
70	0xb0b024a8	-1.2816104e-09
71	0xb30e3992	-3.311431e-08
72	0x31a7b6e8	4.8811337e-09
73	0x305ef79c	8.1115004e-10
74	0x32080cae	7.919125e-09
75	0xaffc1247	-4.585152e-10
76	0x32f67897	2.8693007e-08
77	0x330a3522	3.2178953e-08
78	0x32a031b6	1.8649057e-08
79	0xb07a660f	-9.1094504e-10
80	0x338b4b8e	6.486435e-08
81	0x32e36f3c	2.6476862e-08
82	0x3313e661	3.4435633e-08
83	0x330b9aa4	3.2504104e-08
84	0x32f2ca79	2.8264582e-08
85	0x3365348c	5.336601e-08
86	0x33626acc	5.2716857e-08
87	0x334fa487	4.834558e-08
88	0x333e91ad	4.4370314e-08
89	0x33536e8f	4.922782e-08
90	0x333a9d48	4.3449546e-08
91	0x3326380e	3.870087e-08
92	0x332687bb	3.8773333e-08
93	0x33575472	5.013539e-08
94	0x3321cee8	3.7673914e-08
95	0x329ae0fc	1.803027e-08
96	0xb2807213	-1.4953036e-08
97	0x330e1e10	3.3089293e-08
98	0x3316f7d1	3.5149984e-08
99	0x336d2f8b	5.5224103e-08
100	0x3341b0a0	4.5096954e-08
101	0x3361bfc4	5.2561305e-08
102	0x33718554	5.6233446e-08
103	0x333e696b	4.43337e-08
104	0x3314fc3b	3.4688338e-08
105	0x33699a00	5.4389602e-08
106	0x3307cb37	3.161696e-08
107	0x335562d0	4.9682797e-08
108	0x33636525	5.2944547e-08
109	0x331b6c84	3.6187444e-08
110	0xb3930460	-6.846017e-08
111	0xb3884b81	-6.3467276e-08
112	0xb3855086	-6.207942e-08
113	0xb3450b57	-4.587795e-08
114	0xb3574c1c	-5.012781e-08
115	0x3391ddd7	6.792441e-08
116	0xaf849a1e	-2.4120167e-10
117	0x329c0fe2	1.8168013e-08
118	0x32f5344b	2.8545534e-08
119	0x331ef1db	3.7007208e-08

BCBlocks.0.0.f2.1.block.1.ssnorm.bias f4 [120]
0	0xb0a434a4	-1.1947532e-09
1	0xb0809cbb	-9.357771e-10
2	0xb1107e79	-2.102665e-09
3	0xb0dd7080	-1.6111841e-09
4	0xb1746184	-3.5562104e-09
5	0x322abf7b	9.93884e-09
6	0xb0bd5295	-1.3775031e-09
7	0x322d316c	1.0081163e-08
8	0xb284ca8a	-1.5458927e-08
9	0xb29ad904	-1.8026647e-08
10	0xb20b7f00	-8.119741e-09
11	0xb266169c	-1.3392903e-08
12	0x320631c4	7.811142e-09
13	0x32864bb8	1.5634086e-08
14	0x3215f3b1	8.7283505e-09
15	0x3331bfc6	4.138544e-08
16	0x336c2656	5.49829e-08
17	0x3354d2b9	4.9551748e-08
18	0x33283729	3.9165716e-08
19	0x3119b522	2.2367392e-09
20	0x315c636e	3.2070733e-09
21	0x32ceb44b	2.4063544e-08
22	0x32029652	7.601175e-09
23	0x30a8f9ec	1.2294641e-09
24	0x32c873b6	2.3335684e-08
25	0xb19cb47a	-4.5607154e-09
26	0x32453ca3	1.1480696e-08
27	0xb1b18c26	-5.167311e-09
28	0xb01fbd44	-5.8112826e-10
29	0xb25f56dc	-1.3000058e-08
30	0xb1af8964	-5.10879e-09
31	0x309832bd	1.1073876e-09
32	0x32d55a55	2.4837542e-08
33	0x31b95b99	5.394622e-09
34	0x30804965	9.334086e-10
35	0x32aa0b3e	1.9795717e-08
36	0x329f8681	1.8571201e-08
37	0x315ac8e6	3.1837373e-09
38	0x33044fba	3.0806156e-08
39	0x32832ed1	1.5271697e-08
40	0x3130e9c2	2.5744247e-09
41	0x320147ec	7.525141e-09
42	0x32cfeb35	2.4204931e-08
43	0x32bfb455	2.2317332e-08
44	0x31b901e8	5.3844254e-09
45	0xb2d1a42d	-2.440546e-08
46	0xb03e4d53	-6.923148e-10
47	0xb26f97c1	-1.3946136e-08
48	0xb04da266	-7.480935e-10
49	0xb204df68	-7.734208e-09
50	0x3262fad3	1.3211962e-08
51	0x33156730	3.4785614e-08
52	0x33019802	3.0173403e-08
53	0x322f39a9	1.0199451e-08
54	0x3217a280	8.826305e-09
55	0xb1d352df	-6.1503296e-09
56	0x31339fcf	2.613877e-09
57	0x30b3b15a	1.307437e-09
58	0x3247d694	1.1632114e-08
59	0x32e81d89	2.7021786e-08
60	0xb1059e1f	-1.9443929e-09
61	0x32d94775	2.529462e-08
62	0x329f0e3d	1.8516511e-08
63	0x305a80a9	7.9490775e-10
64	0xb0e5c069	-1.6716629e-09
65	0x331ce03a	3.6525513e-08
66	0x3360da94	5.235286e-08
67	0x33319f2e	4.1355797e-08
68	0x334b371f	4.7314753e-08
69	0x33233f56	3.8009e-08
70	0xb1d4ff03	-6.1990035e-09
71	0xb30a5605	-3.2208863e-08
72	0xb25b7fa5	-1.2776501e-08
73	0xb17b9c86	-3.661428e-09
74	0xb208d3aa	-7.964369e-09
75	0xb0dbfe2d	-1.6006588e-09
76	0x31b7a5b0	5.3448375e-09
77	0x30e4737d	1.6622007e-09
78	0xafce466d	-3.7521222e-10
79	0x3146b664	2.891647e-09
80	0x32aac214	1.9878861e-08
81	0x32d3ad4b	2.4642437e-08
82	0x32892b7c	1.5968673e-08
83	0x32bb13dc	2.1778696e-08
84	0x3331326c	4.1256882e-08
85	0x326c4b26	1.3754095e-08
86	0x321eaff5	9.236818e-09
87	0x315cb6e4	3.2118175e-09
88	0xb1b34b03	-5.2181135e-09
89	0xb26a1898	-1.3626185e-08
90	0x32ccd41a	2.3845178e-08
91	0x3300f96a	3.0029163e-08
92	0x33121e06	3.402058e-08
93	0x33290e48	3.9361367e-08
94	0x33387f64	4.29567e-08
95	0x3208124d	7.920403e-09
96	0xb115c6d9	-2.1795385e-09
97	0x32bed2bc	2.2214742e-08
98	0x315dbb79	3.2266299e-09
99	0x31cda716	5.9852807e-09
100	0xb2eddb5f	-2.769019e-08
101	0xb295243b	-1.7362359e-08
102	0xb2863278	-1.5622604e-08
103	0x2e9e5f61	7.201951e-11
104	0xb2342d49	-1.0487676e-08
105	0xb2390049	-1.0768482e-08
106	0x31641f98	3.3196326e-09
107	0xb0dd9b5e	-1.6124024e-09
108	0xb212cd34	-8.544976e-09
109	0xb217158b	-8.794255e-09
110	0xb15c2d78	-3.204006e-09
111	0x2fcbe412	3.7087539e-10
112	0x31c5a6e4	5.752428e-09
113	0x3235d794	1.0584603e-08
114	0xb2744025	-1.4217254e-08
115	0x3288f40b	1.5943462e-08
116	0xb1ddcf8d	-6.4555423e-09
117	0x32a33e53	1.900404e-08
118	0x328ac81d	1.6156315e-08
119	0x32796eb9	1.4518883e-08

BCBlocks.0.0.f2.1.block.1.ssnorm.running_mean f4 [120]
0	0xbb8829d0	-0.004155375
1	0x3b158941	0.0022817405
2	0x3aa91162	0.0012898857
3	0x3aed5bb0	0.001810899
4	0xb6fdae7d	-7.5603007e-06
5	0x3c03ba29	0.0080399895
6	0xba8a0a8a	-0.0010531705
7	0x3a23ea19	0.000625284
8	0x3a86ab2a	0.00102744
9	0xbaae51ff	-0.0013299583
10	0xbcd26905	-0.025684843
11	0xbcf63b92	-0.030057702
12	0xbd01320d	-0.031541873
13	0xbd03668b	-0.032080214
14	0xbcfc2504	-0.03077937
15	0x3c97ff8c	0.018554471
16	0x3c1e3f37	0.009658626
17	0x3c4087ee	0.011751158
18	0x3c3c1ec3	0.011481944
19	0x3c13c4f4	0.009019125
20	0x3ca0ebd4	0.019643702
21	0x3cb10806	0.021610271
22	0x3c9aa5dd	0.018877918
23	0x3c948ec8	0.01813449
24	0x3c953768	0.018214896
25	0x3c93ad8d	0.018027091
26	0x3c89ead9	0.016835617
27	0x3c88af3e	0.016685124
28	0x3c8a0ad3	0.016850865
29	0x3c96726e	0.018365111
30	0x3be55fea	0.0069999592
31	0x3c26d823	0.010183367
32	0x3c19440c	0.009354603
33	0x3c0958b6	0.008382967
34	0x3c07135e	0.008244364
35	0x80000004	-6e-45
36	0x80000004	-6e-45
37	0x80000004	-6e-45
38	0x80000004	-6e-45
39	0x80000004	-6e-45
40	0x80000004	-6e-45
41	0x80000004	-6e-45
42	0x80000004	-6e-45
43	0x80000004	-6e-45
44	0x80000004	-6e-45
45	0xbc87e27d	-0.01658749
46	0xbb96e927	-0.0046054306
47	0xbb4706de	-0.0030369083
48	0xbb337d07	-0.0027387755
49	0xbb75214e	-0.0037403884
50	0xbc83e876	-0.016102057
51	0xbc9b676d	-0.018970216
52	0xbc978b60	-0.018499076
53	0xbc91ffbf	-0.017822145
54	0xbc762c55	-0.015025218
55	0x3c665e1c	0.014060523
56	0x3c9eaf38	0.01937066
57	0x3c9b2f59	0.018943476
58	0x3c9b75e5	0.018977115
59	0x3d48d918	0.04903516
60	0x00000004	6e-45
61	0x00000004	6e-45
62	0x00000004	6e-45
63	0x00000004	6e-45
64	0x00000004	6e-45
65	0x3d353fab	0.04425017
66	0x3d2445aa	0.0401055
67	0x3d3a3f20	0.045470357
68	0x3d40bfb1	0.04705781
69	0x3d71825d	0.058962215
70	0xbbaf6e65	-0.005353736
71	0xbbe14ee7	-0.006875861
72	0xbb919fea	-0.004444112
73	0xbb752e1e	-0.0037411521
74	0xbb83d86c	-0.004023602
75	0x3ae97b99	0.0017813324
76	0x3b075f4c	0.0020656167
77	0x3af56b4d	0.0018723995
78	0x3af723f1	0.0018855316
79	0x39855d95	0.0002543746
80	0xbcdfa5e5	-0.027300784
81	0xbc767d3f	-0.015044509
82	0xbc1398d1	-0.009008602
83	0xbc074181	-0.008255363
84	0xbbbbc9b5	-0.0057308325
85	0x3b920cd3	0.004457095
86	0x3c7af566	0.015317297
87	0x3c09172a	0.008367339
88	0x3bbc1a7f	0.0057404633
89	0x3ba264ca	0.0049558626
90	0x3c2d18e7	0.010565019
91	0x3cc20c38	0.023687467
92	0x3ce4772b	0.027888855
93	0x3cfdae77	0.03096698
94	0x3d0cd34d	0.0343812
95	0xbd207d5e	-0.03918206
96	0xbd2cd9c2	-0.042199858
97	0xbd301e14	-0.042997435
98	0xbd31aef9	-0.043379758
99	0xbd2d87ff	-0.042366024
100	0x3c82610d	0.015915418
101	0x3d3228cd	0.043495942
102	0x3d282967	0.04105511
103	0x3d249f08	0.040190727
104	0x3d30fe82	0.043211468
105	0xbc86ccb4	-0.016455032
106	0xba6c2e1c	-0.00090095564
107	0xbb018efb	-0.001976906
108	0xbafdb37d	-0.001935586
109	0x3b1e42a3	0.0024148605
110	0xbc527c80	-0.012847066
111	0xbc15cbe5	-0.0091428505
112	0xbbe620cf	-0.007022954
113	0xbbdcd111	-0.00673879
114	0xbbcaf479	-0.006193694
115	0xbd01b92a	-0.031670727
116	0xbcdf689a	-0.027271558
117	0xbcbe5a30	-0.023236364
118	0xbcb5cfd7	-0.022193832
119	0xbcacd19b	-0.021096041

BCBlocks.0.0.f2.1.block.1.ssnorm.running_var f4 [120]
0	0x3a6062b4	0.000855963
1	0x39cafa85	0.00038715094
2	0x39a05501	0.0003058091
3	0x399c3a5d	0.00029798123
4	0x3983d4e1	0.00025144874
5	0x3a94d2a1	0.0011354276
6	0x3a225fdf	0.00061940955
7	0x39cdbdef	0.00039242159
8	0x3987b655	0.00025885054
9	0x39e4033a	0.00043489953
10	0x3ae9e43c	0.0017844508
11	0x3b161803	0.0022902496
12	0x3b1cf9fa	0.0023952709
13	0x3b256f6c	0.0025243415
14	0x3b17dfa6	0.0023174076
15	0x3b02d5fe	0.0019963975
16	0x3ab51ae6	0.001381722
17	0x3aa354b7	0.001246116
18	0x3a94f243	0.0011363704
19	0x3a7abe09	0.00095650606
20	0x39e3f4b0	0.0004347912
21	0x3a1f8920	0.0006085802
22	0x3a06ba32	0.00051394396
23	0x39fc6e8f	0.00048147558
24	0x3a094e0c	0.0005237765
25	0x3a0ad366	0.0005295783
26	0x3a06cb5a	0.0005141996
27	0x39f13770	0.00046008406
28	0x39dcdfb5	0.00042128345
29	0x39e7f265	0.0004424035
30	0x397debfa	0.00024215868
31	0x39879013	0.0002585655
32	0x396dfb2e	0.00022695653
33	0x394847b1	0.00019100193
34	0x3941592b	0.00018439132
35	0x00000004	6e-45
36	0x00000004	6e-45
37	0x00000004	6e-45
38	0x00000004	6e-45
39	0x00000004	6e-45
40	0x00000004	6e-45
41	0x00000004	6e-45
42	0x00000004	6e-45
43	0x00000004	6e-45
44	0x00000004	6e-45
45	0x3ac3ffdb	0.001495357
46	0x3a2447d2	0.00062668056
47	0x3a118af9	0.00055520196
48	0x3a166e11	0.0005738447
49	0x3a105059	0.0005505137
50	0x3acc6af0	0.0015595835
51	0x3b0a0cd1	0.0021064768
52	0x3b0a3730	0.0021090023
53	0x3b0ecbbd	0.0021788918
54	0x3aefaa58	0.0018285019
55	0x3a378dfe	0.00070020545
56	0x3a129ef5	0.00055931445
57	0x39f074f5	0.00045863507
58	0x39bf81ee	0.00036527164
59	0x3b59a68b	0.003321084
60	0x00000004	6e-45
61	0x00000004	6e-45
62	0x00000004	6e-45
63	0x00000004	6e-45
64	0x00000004	6e-45
65	0x3b37d5fa	0.0028051124
66	0x3af5334d	0.0018707305
67	0x3af51c53	0.0018700458
68	0x3b02a0f0	0.0019932352
69	0x3b3df3b7	0.0028984377
70	0x39544dbd	0.00020246855
71	0x393ace72	0.00017815249
72	0x39024577	0.00012423644
73	0x38d9e5b9	0.000103901555
74	0x38f7adac	0.00011810227
75	0x386fc5ea	5.7166362e-05
76	0x381109da	3.457987e-05
77	0x37e3ca90	2.7154834e-05
78	0x37d631fe	2.5534067e-05
79	0x37f79bab	2.9517183e-05
80	0x3b469690	0.0030302145
81	0x3b02f217	0.0019980723
82	0x3a7a010d	0.00095369
83	0x3a34d5a9	0.0006898293
84	0x39fb7d09	0.0004796761
85	0x3a8e42bf	0.0010853632
86	0x3abc199a	0.0014350892
87	0x3a49e411	0.0007701526
88	0x39e04e78	0.00042783073
89	0x39a6b7e2	0.0003179899
90	0x3aa8e020	0.0012884177
91	0x3a8ad0eb	0.0010590827
92	0x3a8d874c	0.0010797768
93	0x3a9b4a4e	0.0011847706
94	0x3ab37592	0.0013691655
95	0x39f58922	0.00046832213
96	0x3a0c4442	0.00053507474
97	0x3a061b54	0.00051157665
98	0x3a075e29	0.0005163872
99	0x3a0028b8	0.000488888
100	0x3b9171be	0.004438608
101	0x3b14fa14	0.0022732066
102	0x3b013283	0.0019713945
103	0x3adbe81a	0.0016777546
104	0x3ad20c07	0.0016025313
105	0x3b33c94e	0.002743322
106	0x3aefa82e	0.0018284374
107	0x3ab632ca	0.0013900634
108	0x3aa20934	0.0012362362
109	0x3a83e2e2	0.0010062123
110	0x3a9cc390	0.0011960138
111	0x3a8d729e	0.0010791605
112	0x3a476663	0.00076065044
113	0x3a1f0e62	0.0006067512
114	0x3a0790b8	0.0005171406
115	0x3a7ac39e	0.00095658924
116	0x3a798032	0.0009517699
117	0x3a5d13b2	0.0008433416
118	0x3a5c5980	0.00084056705
119	0x3a6672f4	0.0008790933

BCBlocks.0.0.f1.0.block.0.weight f4 [24, 1, 1, 3]
0	0x2472a6b8	5.26166e-17
1	0x230067e0	6.96089e-18
2	0xa5218f90	-1.4013165e-16
3	0x32af09fd	2.0377223e-08
4	0x32564bb5	1.2473653e-08
5	0x30df4cb7	1.6247189e-09
6	0x328987a3	1.601058e-08
7	0x324ddbe3	1.1982567e-08
8	0xb205a91f	-7.780073e-09
9	0x280e2e62	7.892641e-15
10	0xa78c315b	-3.8911317e-15
11	0xa7a7ccbd	-4.657379e-15
12	0x31c5d560	5.7577125e-09
13	0x33302a9c	4.1016946e-08
14	0xb0f405a0	-1.7754935e-09
15	0xb107a37b	-1.9738013e-09
16	0xb15e4efb	-3.2350147e-09
17	0xb153c11e	-3.0814316e-09
18	0xaa5e7ee6	-1.9761588e-13
19	0x292c008e	3.8192153e-14
20	0x29e402d4	1.01257246e-13
21	0xa485b1a2	-5.798048e-17
22	0xa57506e1	-2.1252693e-16
23	0xa365acd0	-1.2450709e-17
24	0x27102282	2.0002721e-15
25	0xa848933f	-1.1134159e-14
26	0xa5f6528d	-4.2730136e-16
27	0x3262010b	1.31551685e-08
28	0x329cfeb7	1.8276621e-08
29	0x32a986a7	1.9735422e-08
30	0xb3405559	-4.4781107e-08
31	0x32e3ad66	2.650513e-08
32	0x32279dc8	9.756555e-09
33	0x32bd9dd4	2.2074268e-08
34	0x32823edb	1.5162575e-08
35	0xb1d2f518	-6.1396683e-09
36	0x25922dd3	2.5358014e-16
37	0xa49485dc	-6.4411535e-17
38	0x24539d78	4.5886713e-17
39	0xb27cad63	-1.4707754e-08
40	0x32b3d56d	2.0935397e-08
41	0x32a014d5	1.8635925e-08
42	0x29095146	3.0490604e-14
43	0x29108d1f	3.2096826e-14
44	0x291a2189	3.4223956e-14
45	0x25b754ee	3.180299e-16
46	0xa6017f55	-4.4928433e-16
47	0xa622e237	-5.651162e-16
48	0x31d7ce34	6.280766e-09
49	0xb19cd82f	-4.564775e-09
50	0xb27f1b83	-1.4849209e-08
51	0x329457f3	1.7269462e-08
52	0x31cca782	5.956225e-09
53	0xb14cfc11	-2.982919e-09
54	0x9dfa7788	-6.629804e-21
55	0xa0e2c60a	-3.841694e-19
56	0x1f1ebfc7	3.3616436e-20
57	0xb0d88b43	-1.5755649e-09
58	0xb343dcf6	-4.560294e-08
59	0x328e2182	1.6546213e-08
60	0x3141ad12	2.8183575e-09
61	0xb128d698	-2.45692e-09
62	0xb2e56f05	-2.6709595e-08
63	0x325fa602	1.3018054e-08
64	0x32537ca5	1.2310157e-08
65	0x323af306	1.0881882e-08
66	0x21573e1d	7.292704e-19
67	0x20b875b0	3.1248692e-19
68	0xa09ae760	-2.6241726e-19
69	0x22a57df1	4.4856685e-18
70	0xa1fd3352	-1.7157531e-18
71	0xa20fa2c4	-1.9466281e-18

BCBlocks.0.0.f1.0.block.1.weight f4 [24]
0	0xa50b69c8	-1.2092168e-16
1	0xb2d13f0b	-2.435947e-08
2	0xb2fa2c78	-2.9124053e-08
3	0x27ec9de2	6.5674335e-15
4	0x3361086d	5.2394558e-08
5	0x31da22eb	6.3486048e-09
6	0xa8f8448c	-2.7563258e-14
7	0x257dc975	2.2012508e-16
8	0x282a19e7	9.442512e-15
9	0x334721c0	4.6363994e-08
10	0x333bb336	4.370232e-08
11	0x33257def	3.8531592e-08
12	0x259749d7	2.624436e-16
13	0x336ad499	5.4675727e-08
14	0x297ed694	5.6585447e-14
15	0x2655e5b1	7.421051e-16
16	0x32d30865	2.456745e-08
17	0x32a8f17e	1.9667592e-08
18	0x9fdbea66	-9.313789e-20
19	0x338640c5	6.251643e-08
20	0x331a6ed9	3.5956734e-08
21	0x32c6ad60	2.3129076e-08
22	0x21659010	7.7778883e-19
23	0x2229e1ed	2.3023375e-18

BCBlocks.0.0.f1.0.block.1.bias f4 [24]
0	0xa8eeef40	-2.6527066e-14
1	0x315bf4d7	3.200787e-09
2	0xb0dab0ce	-1.5911839e-09
3	0x2ab89596	3.2788762e-13
4	0xb13e80b2	-2.7721794e-09
5	0xb0b0d55e	-1.2866328e-09
6	0x298eccf7	6.3416225e-14
7	0xa920a873	-3.5673243e-14
8	0x2aa2e952	2.893888e-13
9	0x3047898f	7.259126e-10
10	0x316f010c	3.4779672e-09
11	0x31a0cc12	4.679813e-09
12	0x2829cdc3	9.426002e-15
13	0x324b5669	1.1835803e-08
14	0x2b339cf7	6.381141e-13
15	0x292dbdab	3.8578227e-14
16	0x308bbcd4	1.0167249e-09
17	0x31191b38	2.2279902e-09
18	0xa514865c	-1.2882476e-16
19	0x324119ce	1.1239946e-08
20	0x322a1e05	9.902128e-09
21	0xb13a40ce	-2.71034e-09
22	0xa610518a	-5.007054e-16
23	0x25b0d6b8	3.0676632e-16

BCBlocks.0.0.f1.0.block.1.running_mean f4 [24]
0	0x2c0b6a86	1.981222e-12
1	0xbab01916	-0.001343521
2	0x3a03ac3f	0.000502292
3	0xafbcfcca	-3.4376618e-10
4	0x3be93bb9	0.007117715
5	0x398c0787	0.0002670849
6	0xb172466f	-3.5255672e-09
7	0xae904e5c	-6.562281e-11
8	0xb0d88837	-1.5754783e-09
9	0xbbd21aa8	-0.006411869
10	0xbb2a02c1	-0.0025941583
11	0x3b49ac1d	0.0030772754
12	0x2dde043c	2.5240358e-11
13	0x3c68a469	0.014199355
14	0xb289c64b	-1.6039072e-08
15	0xad7ff781	-1.4550029e-11
16	0xbb8baa4f	-0.0042622457
17	0x39d5bfd0	0.00040769437
18	0xaa35af68	-1.6136886e-13
19	0xbb44f328	-0.003005216
20	0x3b9d2e92	0.0047968114
21	0xbb259665	-0.0025266644
22	0xa8186019	-8.458533e-15
23	0x2a083be9	1.2100012e-13

BCBlocks.0.0.f1.0.block.1.running_var f4 [24]
0	0x1948d352	1.03824335e-23
1	0x36fa7ece	7.4653426e-06
2	0x38015221	3.0832485e-05
3	0x209d85b7	2.668532e-19
4	0x39df5f9b	0.00042605106
5	0x36f02507	7.156868e-06
6	0x266706b3	8.0153304e-16
7	0x180f987b	1.85593e-24
8	0x1ca86f94	1.114615e-21
9	0x378fa118	1.7121944e-05
10	0x38932f89	7.01836e-05
11	0x378484f8	1.5797545e-05
12	0x19146c4a	7.6732895e-24
13	0x394e1aa0	0.0001965561
14	0x2400a745	2.789726e-17
15	0x1d348031	2.3889075e-21
16	0x37b707a8	2.1818865e-05
17	0x38248833	3.9227492e-05
18	0x1492da46	1.4828326e-26
19	0x3918abc1	0.00014559833
20	0x3886f426	6.435094e-05
21	0x35bd861e	1.412063e-06
22	0x15e7be3f	9.360031e-26
23	0x15dc2578	8.891641e-26

BCBlocks.0.0.f1.1.weight f4 [24, 24, 1, 1]
0	0x270e269a	1.9727385e-15
1	0x31251d7f	2.4027427e-09
2	0x2d9f18ea	1.8087271e-11
3	0xa8efe575	-2.6633841e-14
4	0xb0c2aa72	-1.4163801e-09
5	0x30976236	1.1014609e-09
6	0xa9784df7	-5.5134686e-14
7	0x2739173d	2.5686505e-15
8	0xa8a19b73	-1.7942006e-14
9	0xb1960b57	-4.3668638e-09
10	0xb18966dc	-3.9989185e-09
11	0xb1fb826c	-7.3198887e-09
12	0xa6536629	-7.3343784e-16
13	0xb2a17192	-1.8794513e-08
14	0xa971f585	-5.3725704e-14
15	0xa750cc4a	-2.8976544e-15
16	0xb126d0d0	-2.4274875e-09
17	0xb08874a2	-9.928451e-10
18	0x23309cbc	9.574169e-18
19	0x3186749f	3.9131716e-09
20	0x31894da2	3.9960506e-09
21	0xb017b9b3	-5.5197374e-10
22	0x24293182	3.6687968e-17
23	0xa3cb182b	-2.201954e-17
24	0xa7676a4d	-3.2115316e-15
25	0x328297b7	1.5202984e-08
26	0x316f8a42	3.4857668e-09
27	0x292f7391	3.8958044e-14
28	0x303ebb8e	6.938813e-10
29	0xb09a97e8	-1.1248149e-09
30	0xa91a3b94	-3.4246545e-14
31	0xa79eec74	-4.4110172e-15
32	0x292ca133	3.833149e-14
33	0xb281a7c3	-1.5093866e-08
34	0xb0c0bf77	-1.4024256e-09
35	0x314a0bd7	2.94016e-09
36	0x269f2cf0	1.1045022e-15
37	0xb0c6038f	-1.4407407e-09
38	0x29b03729	7.825539e-14
39	0x27a88525	4.6773723e-15
40	0xb286480c	-1.5632416e-08
41	0xb213d18e	-8.604173e-09
42	0xa392c299	-1.5911767e-17
43	0xb24f81ad	-1.2078471e-08
44	0xb0e7d82b	-1.6868901e-09
45	0xb1c3bc6e	-5.696669e-09
46	0xa48e31c2	-6.1666976e-17
47	0x2431756b	3.8480214e-17
48	0x284e9f96	1.1469902e-14
49	0xb20e8568	-8.295821e-09
50	0x32253c42	9.617965e-09
51	0xaa20ca8c	-1.4281127e-13
52	0xb2eabf46	-2.7328166e-08
53	0x314909a9	2.925484e-09
54	0x2729698f	2.3510685e-15
55	0x288b469a	1.5462719e-14
56	0xaa0d8735	-1.2570225e-13
57	0xb1cbdff3	-5.9335377e-09
58	0xb2eda119	-2.766369e-08
59	0xb1b124c6	-5.1555586e-09
60	0xa791d73b	-4.047894e-15
61	0xb1ad617a	-5.0460445e-09
62	0xaa9a43f1	-2.740304e-13
63	0xa896a9e1	-1.6727019e-14
64	0xb23fd649	-1.1166386e-08
65	0xb25d0be4	-1.2866597e-08
66	0x24809622	5.5765486e-17
67	0xb1e9af2d	-6.8011077e-09
68	0xb0f3fadd	-1.7751877e-09
69	0xb1d81a02	-6.289384e-09
70	0x257a26f1	2.1697237e-16
71	0xa5199928	-1.3322526e-16
72	0x2855920e	1.1855546e-14
73	0xb0847fdd	-9.640605e-10
74	0xb1f6578f	-7.1694966e-09
75	0xaa2603e8	-1.4745117e-13
76	0x328e356d	1.6555271e-08
77	0x303c33d0	6.846763e-10
78	0xa94bf285	-4.5285407e-14
79	0x2890050e	1.5989404e-14
80	0xaa12bde3	-1.3033285e-13
81	0x32655220	1.3348227e-08
82	0x2ed98619	9.891838e-11
83	0x31f2577c	7.053073e-09
84	0xa797b065	-4.2102167e-15
85	0xb3038015	-3.0617304e-08
86	0xaaa1dc0e	-2.875204e-13
87	0xa89ceec0	-1.742302e-14
88	0xb09e118c	-1.1501e-09
89	0x31623dfb	3.292256e-09
90	0x248503a6	5.7685736e-17
91	0x309b0acd	1.1280804e-09
92	0xb23fc8f6	-1.11633565e-08
93	0x3126250c	2.4177238e-09
94	0x2581324c	2.2412015e-16
95	0xa51e99e0	-1.375645e-16
96	0xa7fc0445	-6.994868e-15
97	0xb08ceb71	-1.0253257e-09
98	0xb08188ad	-9.424831e-10
99	0x29c0dde0	8.565002e-14
100	0xb2d801bb	-2.5146496e-08
101	0xb10f09cd	-2.081481e-09
102	0xa8825bcd	-1.4472712e-14
103	0xa8292765	-9.389927e-15
104	0x29a4200a	7.288621e-14
105	0x30d08af3	1.5173484e-09
106	0xb141447e	-2.812413e-09
107	0xaf3221e9	-1.6201053e-10
108	0x27354b66	2.515967e-15
109	0x319edf29	4.6237756e-09
110	0x2a44b63b	1.7471521e-13
111	0x2832bbf2	9.921739e-15
112	0xb14b9de4	-2.9630138e-09
113	0xb1baac96	-5.432933e-09
114	0xa41c6ce9	-3.3919358e-17
115	0xb2d8cd0f	-2.523896e-08
116	0x3312fca9	3.4223067e-08
117	0xb0bcc319	-1.373425e-09
118	0xa5181c45	-1.3193477e-16
119	0x24b959e1	8.038322e-17
120	0xa763af33	-3.1597554e-15
121	0x31def6b9	6.4890995e-09
122	0xb1fd4f4a	-7.3722832e-09
123	0x29308c8f	3.9201766e-14
124	0xb306d1d9	-3.139016e-08
125	0x318f3852	4.1682506e-09
126	0x29586ae7	4.8054358e-14
127	0xa793f3b6	-4.106493e-15
128	0x28e60632	2.5537816e-14
129	0xb26e240d	-1.386162e-08
130	0xb24fe7aa	-1.210166e-08
131	0xb1ff37ab	-7.4278055e-09
132	0x26a336aa	1.1325214e-15
133	0xb235ad96	-1.05750555e-08
134	0x29b4dd65	8.0320116e-14
135	0x279bf8c0	4.3290837e-15
136	0x31963d6a	4.3725565e-09
137	0x2f112feb	1.3204697e-10
138	0xa388391b	-1.4769335e-17
139	0xb23cb222	-1.0983543e-08
140	0x31531f9a	3.0722505e-09
141	0xb1956183	-4.3475565e-09
142	0xa483957b	-5.7065424e-17
143	0x24222bf4	3.516538e-17
144	0xa7010851	-1.7906855e-15
145	0xaf7d16ea	-2.3018357e-10
146	0xb0f179ed	-1.7569711e-09
147	0x28b2c1d1	1.9846024e-14
148	0x3254a47c	1.23774235e-08
149	0xb0760a43	-8.950886e-10
150	0x2984d3f6	5.898747e-14
151	0xa7251cd6	-2.2913982e-15
152	0x287b56d1	1.3952124e-14
153	0x3225ce92	9.651233e-09
154	0xb0e114d7	-1.6376828e-09
155	0x30763c15	8.957966e-10
156	0x262c0f71	5.9695415e-16
157	0xb1630580	-3.3035974e-09
158	0x296533de	5.0893202e-14
159	0x273a1384	2.5823265e-15
160	0x31382c17	2.6800586e-09
161	0x2e415b4d	4.396421e-11
162	0xa316cf8f	-8.1754685e-18
163	0x322f7621	1.02132e-08
164	0x30196b88	5.5813887e-10
165	0xb10c3933	-2.0405195e-09
166	0xa4147923	-3.219499e-17
167	0x23b3b45d	1.9483606e-17
168	0x28bac3d6	2.0735079e-14
169	0xb18869c7	-3.9701464e-09
170	0x3210b34f	8.422673e-09
171	0xaa8fa577	-2.5516717e-13
172	0xb2a6c66d	-1.9415177e-08
173	0x3124fc66	2.4008613e-09
174	0xa96b8688	-5.229717e-14
175	0x28fb85a5	2.7924557e-14
176	0xaa7d5c22	-2.2502879e-13
177	0xb294d00a	-1.7324073e-08
178	0x331e86f4	3.690998e-08
179	0xb27bbb82	-1.4652757e-08
180	0xa806f82a	-7.492306e-15
181	0xb261c4bf	-1.3141459e-08
182	0xab0c963d	-4.994649e-13
183	0xa906d020	-2.9934497e-14
184	0xb20d94d4	-8.24112e-09
185	0x3061dd0c	8.216865e-10
186	0x24e83f24	1.00720926e-16
187	0xb2e2be4b	-2.6396398e-08
188	0x3221149b	9.3761185e-09
189	0x31d17c1c	6.09681e-09
190	0x25e1ce4c	3.917107e-16
191	0xa5898317	-2.3854542e-16
192	0x28142c3d	8.225243e-15
193	0x317941a3	3.627158e-09
194	0xb232967c	-1.039518e-08
195	0xa9e4af0d	-1.01556005e-13
196	0x312f1437	2.5477342e-09
197	0xb1022342	-1.8937532e-09
198	0xa844f19a	-1.0932575e-14
199	0x284866c4	1.1124514e-14
200	0xa9d06565	-9.254645e-14
201	0xb317d427	-3.535038e-08
202	0x32f68a24	2.8700988e-08
203	0x32a6730e	1.9377264e-08
204	0xa74dd50d	-2.856496e-15
205	0xb2351515	-1.054038e-08
206	0xaa5fbeb7	-1.9872546e-13
207	0xa85b13e9	-1.21612594e-14
208	0xb1f8a222	-7.2361823e-09
209	0x31bd99c0	5.5181033e-09
210	0x24394531	4.0174088e-17
211	0x322d8b8c	1.0101655e-08
212	0xb00e9272	-5.186741e-10
213	0x31554d37	3.103947e-09
214	0x2533ff1c	1.561221e-16
215	0xa4de2489	-9.6339046e-17
216	0x27a199d2	4.485325e-15
217	0xb05170aa	-7.619386e-10
218	0xb1b88f2d	-5.371382e-09
219	0xa974ab39	-5.4327396e-14
220	0x32698d6a	1.3594539e-08
221	0x306f9a58	8.716703e-10
222	0xa922ea75	-3.6174585e-14
223	0x27d6b8e9	5.959741e-15
224	0xa9589d7c	-4.809823e-14
225	0x32abc99c	1.9998701e-08
226	0xb05fdefb	-8.14438e-10
227	0xb10d1373	-2.0529256e-09
228	0xa6e6ade8	-1.6006593e-15
229	0xb22a9063	-9.928132e-09
230	0xa9ef2963	-1.06209116e-13
231	0xa7e37cbc	-6.3140394e-15
232	0x32076593	7.8811295e-09
233	0x314647c4	2.8853586e-09
234	0x23c6e855	2.15656e-17
235	0xb1efd69b	-6.9802133e-09
236	0xb2350eb4	-1.053893e-08
237	0xb0b7107a	-1.3319685e-09
238	0x24c253b3	8.427588e-17
239	0xa46e2928	-5.1642884e-17
240	0x28242c12	9.113385e-15
241	0x3152e6db	3.0690248e-09
242	0x3116d6e5	2.1950026e-09
243	0xa9faa468	-1.113075e-13
244	0x30174202	5.502728e-10
245	0xb09420c1	-1.0777726e-09
246	0xa8748489	-1.357346e-14
247	0x285cc1be	1.2254464e-14
248	0xa9de8a4e	-9.8827725e-14
249	0x32814b75	1.505189e-08
250	0x31521162	3.0568903e-09
251	0x3272da71	1.4135922e-08
252	0xa76c1454	-3.27626e-15
253	0x3145b9ca	2.8772882e-09
254	0xaa750991	-2.176369e-13
255	0xa86beb92	-1.3096202e-14
