models/mycmds_tau3/model_best.pth (torch, 323271 bytes, 165 tensors)

cnn_head.0.weight f4 [48, 1, 5, 5]
000000 e0 ee 3d be 24 bb 05 be c5 20 97 be 7b 11 ab be
       -0.18548155 -0.1305967 -0.2951719 -0.33411774
000010 e3 21 3d be 1c dd e4 bc fd 95 63 3d e3 f3 95 bd
       -0.18469958 -0.027937464 0.05556296 -0.07321908
000020 ec 83 af bd 73 59 26 3c 4e e9 53 3d 47 80 34 3e
       -0.08570084 0.010153162 0.05173617 0.17627059
000030 dd 36 14 bd 81 61 a1 bc 79 57 c0 3d fe f1 27 3e
       -0.036185134 -0.019699814 0.09391684 0.16400906
000040 a9 9c 54 3d 5c c1 07 3e b5 26 89 ba dd cf b9 3d
       0.051907215 0.13257354 -0.0010463806 0.0907285
000050 86 ad a4 bb b3 be 11 bc 50 71 49 bd 0a 04 4d bd
       -0.0050255684 -0.008895564 -0.04918033 -0.05005268
000060 c8 a6 f3 bc 0d cc 78 be 35 e6 1e be e0 ed 16 be
       -0.029742613 -0.24296589 -0.15517505 -0.1473918
000070 04 8e 4b be d3 97 56 be 86 71 72 be b1 28 81 be
       -0.19878393 -0.20956354 -0.23676118 -0.25226358
000080 47 97 5e be 54 79 8e be 33 c3 7c be 7f 01 a6 bb
       -0.21737395 -0.2782694 -0.24683838 -0.0050660963
000090 c5 e8 db bc 4f f4 cd bd 48 4f 86 bd 87 d6 dc bd
       -0.026844392 -0.10056364 -0.065580904 -0.10783105
0000a0 90 81 dd 3d ba 04 ae 3d 7b cd 81 3d e8 cf 81 bd
       0.10815728 0.08496995 0.063380204 -0.06338483
0000b0 f6 dd f4 3d e0 20 5b 3d f5 c8 0b 3e 5f 73 27 3e
       0.11956398 0.05349815 0.13650878 0.16352604
0000c0 5a 09 13 3d 5f d9 67 bd 8f 25 ae be d4 28 0c be
       0.03589759 -0.056603786 -0.3401303 -0.1368745
0000d0 9a d0 b3 be dd a7 6c be 65 f7 c5 be 57 02 94 bd
       -0.35120088 -0.2311091 -0.3866531 -0.07227009
0000e0 b4 f3 a1 bd f7 8e f2 bd b8 c1 8f bb 61 8d a5 bd
       -0.07907811 -0.11843675 -0.0043871067 -0.080836065
0000f0 03 a4 42 3d db 13 1e 3d fb 89 31 3c 79 d3 e7 3a
       0.047519695 0.038593154 0.01083612 0.0017686925
000100 c5 e8 39 bd 63 7e 03 3e e9 cd 12 3e 14 32 04 3d
       -0.045388002 0.12841181 0.14336361 0.03227432
000110 cf 8b dd 3d ee f3 af 3c 00 07 fc 3d 77 88 59 3e
       0.10817682 0.02147862 0.12306023 0.21243463
000120 ba 31 02 3e 51 1d 39 3d ca a8 6f 3e 61 25 05 be
       0.12714282 0.045193974 0.23404232 -0.1300254
000130 e3 07 b5 bc 5f 34 63 bd e4 a9 ab 3d 98 a3 fd 3c
       -0.022098487 -0.055469867 0.083820134 0.030961797
000140 5d 83 1f be 1c d9 cc bd d4 fc 9d bd 9e ad 64 bd
       -0.15577455 -0.10002348 -0.07714239 -0.055829637
000150 ad 87 22 be 2a d8 eb bd 0c 63 e5 bd 6c 16 9e bd
       -0.15872069 -0.115158394 -0.11200532 -0.077191204
000160 ae ba 97 bc 51 16 31 be 29 b4 24 bd f1 23 56 bd
       -0.018521633 -0.1729367 -0.040210877 -0.05228037
000170 66 92 ee bd e0 42 ab bd d5 1a 5e be 1e e2 ae bd
       -0.11649017 -0.08362365 -0.21689923 -0.08539222
000180 30 71 27 be c9 72 9b be 35 d2 27 be b0 ff 28 be
       -0.16351771 -0.30361012 -0.16388781 -0.16503787
000190 26 06 a3 bd a5 1c 91 bd 35 b6 5e 3a 6f 60 56 bd
       -0.07960157 -0.07085542 0.0008495779 -0.05233806
0001a0 96 4c 48 bc 82 e2 00 3e f7 34 d0 3d 82 76 00 3e
       -0.012225291 0.12586406 0.10166352 0.12545207
0001b0 ae 7b 0d 3e d8 0f 7b 3d f4 cd 48 3d 4f 83 74 3d
       0.13816711 0.061294407 0.049024537 0.059695538
0001c0 51 6a 18 3e 43 81 1a 3e 26 7a 25 3e a5 00 40 3e
       0.14884306 0.15088372 0.16159877 0.18750246
0001d0 ed 80 f1 3d 1b 71 df 3d 6c c6 42 3e 4b 3e e1 3d
       0.11792169 0.10910245 0.19021004 0.109982096
0001e0 a5 7b d3 3d c0 e7 6e 3d d4 73 82 3d d1 90 b5 3d
       0.10326318 0.058326483 0.06369749 0.08865512
0001f0 5e 74 42 3e ca 1e a8 bd 3c ab 91 3c b2 e7 d1 bd
       0.18989703 -0.082089975 0.017781846 -0.102492705
000200 78 6f 65 bc ea 4b 22 3d c2 01 37 3d d0 f1 52 bd
       -0.014003627 0.03962318 0.04467941 -0.05150014
000210 2e 66 63 bd f4 de 95 bd 6c b6 53 bd 87 e1 a0 bb
       -0.055517368 -0.073179156 -0.051687643 -0.0049096975
000220 8d 17 dd bd 02 38 ab bc 69 db 0c be f2 df f7 bd
       -0.107955076 -0.02090073 -0.13755573 -0.12103261
000230 33 6b 5d bd aa 6a 6d bd 33 0d 00 be cf 36 73 bd
       -0.05405731 -0.05796305 -0.12505035 -0.05937844
000240 67 88 bb bd 0f 1a 1c 3c 4d dd 69 bd 38 21 20 bd
       -0.09156876 0.009527697 -0.057095814 -0.03909418
000250 f1 ed 4f 3c d8 0a 2c 3d 50 08 73 bd af 50 99 3d
       0.012691007 0.04200253 -0.0593341 0.07486092
000260 02 74 9f bc cf 5a ac 3c 4b 3f 10 be 80 5a 07 be
       -0.019464497 0.021039395 -0.14086644 -0.13218117
000270 0c f3 0e 3e 92 ee 71 3e ad 0e ff 3d 96 48 49 3e
       0.13959903 0.23626164 0.12453971 0.19656596
000280 3f 7c f4 bd 83 c0 39 3d 36 d2 a1 3e 77 dc 87 3e
       -0.119377606 0.04534961 0.3160569 0.2653539
000290 3f 2f 71 3e 57 f4 02 be 79 5c 02 3d 4a 71 fa 3d
       0.23553179 -0.12788521 0.03182647 0.122286394
0002a0 09 f9 56 3e 1b 6d 9c 3d 9a 77 34 be ef f3 ce 3d
       0.20993437 0.07637998 -0.1762375 0.101051204
0002b0 df 53 d8 3d 0d a8 ec 3c 8a 31 58 3b ab 77 8b 3d
       0.10562872 0.028888727 0.0032988512 0.06809934
0002c0 65 42 f9 3c e0 9b be 3c c1 1d e9 bc f1 47 09 3e
       0.030427167 0.023267686 -0.02845657 0.1340635
0002d0 88 00 1a 3d 46 cd 69 3b cd e5 b5 bd c6 69 6f 3d
       0.037598163 0.003567533 -0.08881722 0.058450483
0002e0 35 fa 17 bd c6 6b 9e 3d ec 2e ad bd 76 5c 10 bd
       -0.03710385 0.077354 -0.08456215 -0.035244428
0002f0 c2 16 a1 bd f0 77 69 3c 7a 2a 28 bc b7 ee 00 be
       -0.07865669 0.014249787 -0.010264033 -0.12591062
000300 7b f3 05 be f3 98 d7 bd 5a 89 0a be 14 98 7e bd
       -0.13081162 -0.105272196 -0.13528958 -0.06215675
000310 f2 32 48 be da 1b a1 bd 5a 4d e4 bc 76 a3 05 be
       -0.19550684 -0.078666404 -0.027868915 -0.13050637
000320 c4 91 85 3d 7b 31 3a 3e 23 ad 3a 3e e5 20 d5 3d
       0.06521943 0.18182938 0.18230109 0.10406665
000330 ca cd b0 3c 91 3b ff 3d 3a a3 5e 3d 34 a6 24 3e
       0.021582503 0.12462533 0.054354884 0.16079026
000340 4d e0 ae 3d b5 ad 6f bd 1a 65 37 3d 2a 00 2a 3e
       0.08538876 -0.05851527 0.044774152 0.16601625
000350 d9 68 04 3e 90 50 39 3e c0 07 95 ba 29 3e 44 3e
       0.12930621 0.18097138 -0.0011370108 0.19164337
000360 f0 2e 25 bb 92 6d b4 3d 2b fa f4 bd 2c 82 cf bd
       -0.002520498 0.088099614 -0.11961778 -0.1013225
000370 f0 01 5c 3d 57 c9 84 bd f1 94 6f bd e7 eb 5d be
       0.053712785 -0.06483715 -0.05849165 -0.21672021
000380 fc be cd bd 11 55 40 3d 4e ed b7 3d 1d e1 58 3d
       -0.10046193 0.046956126 0.08980809 0.05294906
000390 27 1a 1f 3e e2 86 a4 3d a6 19 48 bd 67 0d 48 3e
       0.1553732 0.08033539 -0.048852585 0.19536363
0003a0 65 2a 81 3e ce 60 9e 3e 29 2d 4e 3e d6 bb 5f bd
       0.25227657 0.3093323 0.20134415 -0.054622494
0003b0 a0 96 9e 3d 9c 06 6e 3e b1 9a 60 3e 50 5b c3 3d
       0.07743573 0.23244709 0.2193401 0.09538901
0003c0 61 be 15 be bf b0 27 bc 69 dd c1 3d 21 75 19 3e
       -0.14623405 -0.010235011 0.09466059 0.14986087
0003d0 ac 5d e1 3d fa d1 f6 3c 5f 6c 42 3e 5b 74 fa 3c
       0.110041946 0.030129422 0.18986653 0.03057306
0003e0 5e af ba 3d 7a 00 9a bc 62 14 17 be 6d d2 54 3c
       0.0911548 -0.018799055 -0.14753869 0.012989623
0003f0 0e 6b cc 3d 29 71 55 bb 7d 60 f8 bc 97 bf 22 be
       0.099813566 -0.003256867 -0.030319447 -0.15893398

cnn_head.1.weight f4 [48]
000000 0b f9 e0 3e f4 bc d7 3e 87 5e 0a 3f aa 39 eb 3e
       0.43940005 0.42136347 0.5405049 0.45942432
000010 1d 44 9b 3e 3c 54 c0 3e ea c8 06 3f 94 2e ef 3e
       0.30325404 0.37564266 0.5265032 0.46715224
000020 1b 47 bd 3e b3 e9 06 3f 97 8d 07 3f 55 62 f7 3e
       0.36968312 0.52700347 0.52950424 0.4831721
000030 e6 d6 c4 3e 2d 0d 47 3f 86 eb f5 3e 80 a3 13 3f
       0.38445204 0.7775448 0.48031253 0.57671356
000040 91 db e9 3e cb 95 cd 3e a1 7f 0f 3f 9d ba a3 3e
       0.45675328 0.40153345 0.5605412 0.31978312
000050 96 1a 00 3f fe b0 16 3f 81 e4 09 3f bd e4 10 3f
       0.50040567 0.5886382 0.53864294 0.56599027
000060 8d ae 26 3f 1a 1e ed 3e 28 9c b4 3e 53 95 3b 3f
       0.65110093 0.46312028 0.35275388 0.73274726
000070 be 2f a7 3e 0c d7 06 3f aa ad 26 3f 14 b0 c0 3e
       0.32653612 0.52671885 0.6510874 0.37634337
000080 88 36 bf 3e c2 93 2b 3f 1f 7c 25 3f 5a 9c b6 3e
       0.37346292 0.67022336 0.6464252 0.35666162
000090 fe 1f 1d 3f 33 39 fd 3e bf f7 1d 3f 21 c0 1a 3f
       0.6137694 0.49457702 0.61706156 0.60449415
0000a0 24 c2 0a 3f f0 2d ee 3e da a0 38 3f 24 5f af 3e
       0.54202485 0.46519423 0.7212044 0.34252274
0000b0 67 91 be 3e 72 83 9e 3e c4 fe f4 3e e4 bf 11 3f
       0.37220308 0.3095966 0.4785062 0.56933427

cnn_head.1.bias f4 [48]
000000 35 23 e6 3b 2f a8 96 be 9d ef 8c 3e 16 9a 89 bd
       0.00702324 -0.2942519 0.2752656 -0.06718843
000010 6e 48 38 be ce 85 ac bb 54 ca a3 3c 61 38 aa bd
       -0.1799638 -0.005264974 0.019993939 -0.08311535
000020 c6 fc 52 be a7 79 29 be 21 0f 43 bd dc 62 fb bc
       -0.20604238 -0.16550313 -0.04762185 -0.030686788
000030 41 c8 d4 bd fa 7d 6b 3e 07 c5 a1 3d 3a ce 62 3b
       -0.10389758 0.22997275 0.07898908 0.0034607784
000040 1d 67 af bd 27 74 31 3e 40 1f 7e bd 51 3c 2b bd
       -0.08564589 0.17329465 -0.06204152 -0.04180557
000050 a4 cd 96 ba 09 c8 88 3e dc 4b 6a be b7 e9 95 3a
       -0.0011505377 0.26715115 -0.228805 0.001143745
000060 be d6 ee 3d ab 48 34 bb f0 fd 60 3d 45 3a 79 bd
       0.116620526 -0.0027509134 0.054929674 -0.060846586
000070 98 76 ed 3e 6a 73 9b 3c ec a1 69 3e 95 24 1e be
       0.46379542 0.018975932 0.22815675 -0.15443642
000080 f1 9a aa bb a4 e5 49 be a2 65 af 3c f1 2a 1f bd
       -0.0052064587 -0.19716507 0.021410767 -0.03885931
000090 53 a4 29 be 76 60 02 be c6 12 03 bd d8 04 4d 3d
       -0.16566591 -0.1273211 -0.032000326 0.050053447
0000a0 5d ea 59 3d 24 95 8a bd 46 d6 b1 3e 0d 08 49 be
       0.053202022 -0.067667276 0.3473379 -0.19631977
0000b0 12 cf 1d be 47 b8 97 bc 03 29 5f bd 4c 99 41 39
       -0.15411022 -0.018520487 -0.05448247 0.00018463022

cnn_head.1.running_mean f4 [48]
000000 21 75 0c 40 1d b8 c4 40 aa 23 e1 3f 07 02 0c 41
       2.194649 6.147475 1.7589009 8.750495
000010 eb 34 ee c0 91 4d 80 40 6e bc b0 c0 79 4b 4f 40
       -7.4439597 4.0094686 -5.5230017 3.2389815
000020 f6 ce 75 c0 c1 d1 05 c1 37 52 c2 c0 e1 61 2a 40
       -3.840757 -8.363709 -6.072536 2.662224
000030 b4 3a c8 40 7a be 84 c0 61 c8 91 c0 7c 5f c1 3f
       6.257166 -4.1482515 -4.5557103 1.5107265
000040 87 e9 ed c0 b8 32 7f c0 d6 4d 72 c0 98 68 81 c0
       -7.4347568 -3.9874706 -3.7860007 -4.044018
000050 53 2c 0f 40 ad 98 e2 3f d7 e8 da c0 6b c5 c6 c0
       2.2370803 1.7702843 -6.840923 -6.211599
000060 6d 7b 19 c0 19 84 bf 40 e0 1b b4 bf c2 a9 88 c0
       -2.3981583 5.984875 -1.4071007 -4.2707224
000070 11 59 4c 40 19 fe 95 3f 62 1b e9 3f 03 80 7d c0
       3.1929362 1.171817 1.8211482 -3.9609382
000080 32 27 81 c0 10 cf 3c 40 b0 7f 91 bf 60 27 c6 40
       -4.0360346 2.950138 -1.1367092 6.1923065
000090 ea e4 d7 c0 5c b5 b5 bd e5 69 74 c0 b2 f7 db c0
       -6.7466936 -0.08872482 -3.8189633 -6.8739862
0000a0 7a 7f 9d bf 14 8f 60 40 00 02 0d 40 09 10 a7 40
       -1.2304528 3.5087328 2.203247 5.2207074
0000b0 81 63 46 c0 3e 3c 39 c0 73 0f d2 bd fc 5b b0 40
       -3.0998232 -2.894302 -0.10256853 5.5112286

cnn_head.1.running_var f4 [48]
000000 bf 9c 06 41 fc 57 1c 42 36 2f 73 41 fb 17 5c 42
       8.413268 39.085922 15.199026 55.02342
000010 69 92 24 42 dd 39 40 41 ee 4a d5 41 88 6c 12 41
       41.14298 12.014127 26.661587 9.151497
000020 a4 f0 72 41 20 ca 59 42 14 f6 f7 41 4c 60 0d 41
       15.18375 54.447388 30.995155 8.83601
000030 a1 71 f3 41 4c 9d ca 41 92 00 a1 41 f6 5b d7 40
       30.430483 25.326805 20.125278 6.7299757
000040 a6 be 27 42 a2 d9 5e 41 9e f2 a5 41 6a ed 6e 41
       41.93618 13.928133 20.743465 14.932962
000050 c6 3a c1 40 2f fc 76 41 4a 65 16 42 3f fb 08 42
       6.0384245 15.436568 37.598915 34.245358
000060 f7 5a 39 41 a2 f9 d7 41 e6 9f 99 40 a4 f0 e2 41
       11.584708 26.996891 4.800769 28.3675
000070 fd 79 7b 41 6c 73 7f 40 c6 88 53 41 5e 8a 71 41
       15.717282 3.9914198 13.220892 15.096281
000080 f1 42 51 41 a1 54 6a 41 91 98 b2 40 d0 f9 e1 41
       13.078843 14.645661 5.581124 28.246979
000090 96 76 23 42 ae 46 31 41 ed 0a a8 41 c5 05 29 42
       40.865807 11.079756 21.005335 42.255634
0000a0 7b 94 fa 40 31 33 28 41 a2 1b e0 41 88 09 ad 41
       7.830625 10.512498 28.013493 21.629654
0000b0 57 59 24 41 f4 07 15 41 31 f3 a0 40 3f 68 e5 41
       10.2718115 9.314442 5.0296865 28.675901

BCBlocks.0.0.f2.0.block.0.weight f4 [24, 48, 1, 1]
000000 0e 01 01 3e 22 ed 59 be b1 f1 76 3d b1 dd 33 3e
       0.12598059 -0.21281865 0.06028909 0.17565037
000010 da 16 cf bc d0 e2 86 3d 07 31 92 3c 13 7d 0c 3e
       -0.025279451 0.0658623 0.017845644 0.13719587
000020 18 40 2b 3e 94 09 96 bc d2 f5 5a bc 0d 97 eb 3d
       0.16723669 -0.018315114 -0.013364272 0.1150342
000030 96 08 20 3e 0d f8 4b 3d df d3 86 bd b2 f6 0d 3e
       0.15628275 0.049797107 -0.0658338 0.13863638
000040 7b f3 2a bd 2b 74 5b be 56 04 e5 3c 08 76 01 3e
       -0.041736107 -0.21431033 0.02795617 0.12642682
000050 34 a9 57 3d 4d c9 f0 3d db c5 a4 bc e0 07 02 bd
       0.0526516 0.11757145 -0.020113876 -0.03174579
000060 db b3 4c be 91 b5 0d 3e 31 d2 b5 3d 85 dd 5a bd
       -0.19990484 0.13838793 0.088779815 -0.053433914
000070 fe fb 43 3e 99 e3 94 3d e8 90 63 3e 37 41 25 3d
       0.19139096 0.07269973 0.22223246 0.040345397
000080 01 55 02 bd df af 59 3e 66 0c 86 3e 37 8a fa 3d
       -0.031819347 0.21258496 0.26181334 0.12233394
000090 c5 16 b6 3d ba 36 60 3e 44 ef 5b bd 7e 45 58 bd
       0.08891062 0.21895877 -0.05369498 -0.052800648
0000a0 79 07 c6 3d 9c 38 bc 3d 25 8b 98 bd 45 c6 b1 3d
       0.09669394 0.09190485 -0.07448415 0.08680395
0000b0 4c a0 60 bc 0b 12 96 bd 91 24 47 be aa 87 18 3e
       -0.013710093 -0.0732766 -0.19447543 0.14895502
0000c0 3f 60 d1 bd a9 d8 45 bd d4 1c 8e be a6 3f 68 3e
       -0.102234356 -0.048302326 -0.2775637 0.2268053
0000d0 b0 35 11 bd d6 06 4a 3d 61 41 a4 3d 38 8b 3c 3e
       -0.03545159 0.049322926 0.080202825 0.18412483
0000e0 b8 bc a9 3e 89 9d a0 3d 1f c2 9e 3d 41 27 a0 3e
       0.33151793 0.078425474 0.077518694 0.31279948
0000f0 0f 69 97 3c b0 c0 c2 be 41 66 67 bd 16 6d 15 be
       0.018482713 -0.38037634 -0.056494 -0.14592394
000100 7e 20 9e 3d f4 1e 37 be 48 b3 6f 3b 27 2c 84 3d
       0.07721041 -0.17882901 0.0036575366 0.06453734
000110 07 bd e9 3c cd 33 05 be ec 44 3f 3e 38 c6 20 3d
       0.028532518 -0.13008042 0.18678635 0.039251536
000120 d8 c1 85 3e 99 5c 08 3e bf c9 34 3e 37 fd 57 3e
       0.26124454 0.13316573 0.17655085 0.21092688
000130 75 22 8f 3e ad 38 3e bc a6 8b aa be 94 e3 38 be
       0.27955976 -0.011610192 -0.33309668 -0.18055564
000140 97 a8 d3 bc b6 68 88 3e ee b7 c6 bc e1 a0 14 3d
       -0.025837226 0.26642388 -0.024257626 0.03628624
000150 d6 ab 76 3d 67 c8 81 3e b7 04 95 be fa b8 7d bd
       0.06022247 0.25348207 -0.2910516 -0.061943986
000160 35 f1 58 be 80 b1 77 3e cd ae 03 bf 36 74 2f bc
       -0.21185763 0.24188805 -0.514386 -0.010708859
000170 b0 b3 69 be 2b ec 30 be f0 df 56 3e 88 52 dc bd
       -0.22822452 -0.17277591 0.20983863 -0.10757929
000180 87 0f 49 bc ff e9 08 3e bd 6d 03 bd 1e 87 7a be
       -0.012271768 0.13370512 -0.032087076 -0.24465606
000190 6b 6c 76 3d 66 b1 9c bd c5 7a 32 bd 6f c0 0b be
       0.06016199 -0.076510236 -0.043574113 -0.13647626
0001a0 16 a5 60 3d 6a 6a 96 bd a4 b4 db bd ca b9 d3 bd
       0.05484494 -0.073445156 -0.10727814 -0.10338171
0001b0 a6 81 c3 bd 8c ee bc 3b 2e 62 1e be 3b eb 13 be
       -0.09546213 0.0057657417 -0.1546714 -0.14445202
0001c0 f2 be 43 bc 2f 82 c4 bc 7a 46 87 be c6 d4 59 3b
       -0.01194738 -0.023987858 -0.26420957 0.0033238395
0001d0 99 0b b8 bc 6a 3a 39 bd da 8e f7 3c 8e 49 00 be
       -0.022466468 -0.045221724 0.030219484 -0.12528059
0001e0 b1 f0 77 3e fc 91 6f bd 2a d0 dc bd 73 a3 54 be
       0.2421291 -0.05848883 -0.10781892 -0.20765476
0001f0 3b 65 53 be 06 39 27 be 29 14 2c bd bc 8a ea 3d
       -0.20644085 -0.16330346 -0.042011414 0.11452243
000200 57 4e 81 bd e2 6b 0d bd 72 83 84 3e fa a5 2a bd
       -0.0631377 -0.034526713 0.25881535 -0.041662194
000210 bc a6 93 bd 23 2d 17 3d 15 2b 8c 3e 19 67 b5 bd
       -0.072095364 0.03690828 0.2737662 -0.08857555
000220 26 33 f8 bb 57 10 67 bd 67 20 54 3d 2d 8d b5 bd
       -0.0075744567 -0.056412067 0.051788714 -0.08864818
000230 0f a9 c9 3d 73 1f 5b 3d a4 06 dc 3d 95 dd 7e bd
       0.098466985 0.05349679 0.10743454 -0.062223036
000240 d0 0e 54 bd 8d f7 a1 bc 3c e8 e1 bc a9 a0 03 be
       -0.05177194 -0.019771362 -0.027576558 -0.12854256
000250 21 cc 83 bd fd 86 39 bd 61 ab c5 3d f3 79 99 3d
       -0.06435419 -0.04529475 0.096518286 0.07493963
000260 98 7a 80 3d 49 5d b8 3d 42 fe d7 3c e7 32 f4 bc
       0.06273383 0.09002168 0.026366357 -0.029809428
000270 b0 76 b6 bd ac f7 ed bd f4 49 fc 3d e6 bc 8e bd
       -0.089093566 -0.11619505 0.12318793 -0.06969623
000280 55 68 cc 3d 90 89 d8 3d 57 51 bd 3d 99 98 61 bd
       0.09980837 0.10573113 0.0924403 -0.05507717
000290 1a 5a 32 be 57 da a9 bd ac 56 de 3d 59 6b 38 3e
       -0.17417184 -0.08293598 0.10856375 0.180097
0002a0 78 54 ce bd 01 02 fd bd 77 a8 29 3c 0e 04 15 3e
       -0.10074705 -0.12353898 0.010355107 0.14552328
0002b0 30 c4 b9 bd 90 18 35 3c 8c dd ad bc dc 94 af bd
       -0.09070623 0.011053219 -0.021223806 -0.085733145
0002c0 75 0e b5 3d 23 8e a2 bd ae de 34 bd 8a d2 87 bd
       0.08840648 -0.07937267 -0.044157676 -0.06631954
0002d0 24 32 20 3e 9a 7c f0 bb e2 9a fe bc 5c 6f 42 bc
       0.15644127 -0.0073390724 -0.031079713 -0.01186737
0002e0 bf dd a0 bd 0a 30 0b be cd 8b 01 3d 71 1b 3b bd
       -0.07854795 -0.13592544 0.031627465 -0.045680467
0002f0 b4 e9 31 bd 06 e7 bc 3d 8e 2d 70 bd 92 3d b1 bd
       -0.043435767 0.09223752 -0.058637194 -0.08654322
000300 15 14 2f be db 5a 8b 3c 4d c0 63 be 8c db 91 bc
       -0.17097504 0.017011097 -0.22241326 -0.017804883
000310 ef f3 d1 bd 85 1f 8d bd 6c df 2f 3e ed 99 35 3e
       -0.10251605 -0.068907775 0.17175072 0.177345
000320 ce 92 6b 3e df c1 23 3d 44 91 9a 3d 21 5e 41 3d
       0.2300522 0.03997981 0.075472385 0.04720891
000330 72 b7 da bc bd 7d cb 3d cb 54 3b bd 45 5c 27 be
       -0.026698802 0.09936092 -0.04573516 -0.16343792
000340 91 12 e4 3d 0c 06 0b bd 6a 64 ae 3d 5c 5c 5b 3e
       0.11136354 -0.033941314 0.08515246 0.21421951
000350 fb 4b 2f be 56 40 23 3e 51 9c 31 3e 2a 0a ee 3d
       -0.17118828 0.15942511 0.17344786 0.116230324
000360 cc 78 68 3e ae fb 6a 3d 4e a4 5e 3d b4 ba 63 bc
       0.2270233 0.057368927 0.054355912 -0.013899494
000370 1f 9c de 3d 29 10 40 be 9e e1 2c be 5a 07 33 bd
       0.108696215 -0.18756165 -0.16882941 -0.043708183
000380 ee a6 99 bd ed ae 9d 3d d2 96 70 3e 75 1d fd bd
       -0.075025424 0.0769938 0.23495033 -0.12359134
000390 45 3c e1 3d c5 78 a9 3d 27 08 00 be 2f 54 71 3c
       0.109978236 0.08274988 -0.1250311 0.014729544
0003a0 82 c2 2b be 3d 7a 17 3d c6 6e fd bd 34 89 c2 bd
       -0.16773418 0.03698181 -0.12374644 -0.09498826
0003b0 f7 5d 9e bd 09 73 79 bd c0 c1 d9 3d 55 35 0f be
       -0.07732766 -0.06090072 0.10632658 -0.13985188
0003c0 ea ee aa 3d e7 82 c2 3d 6b 8e 5a 3d e7 30 0d ba
       0.083463505 0.09497624 0.053358477 -0.000538601
0003d0 c7 dd 71 bd 78 a7 5f bd 72 48 ec bd e2 ab c8 bd
       -0.059049394 -0.05460307 -0.11537255 -0.09798409
0003e0 0a aa 9d ba a7 1a 2b be db 3b be bd 72 88 16 bd
       -0.0012028825 -0.16709386 -0.0928876 -0.03675122
0003f0 d7 30 3e 3c f7 9f 27 bd c0 fc bc bd 80 c7 93 3c
       0.011608324 -0.04092404 -0.09227896 0.018039465

BCBlocks.0.0.f2.0.block.1.weight f4 [24]
000000 6e cc 0a 3f ad 6d 36 3f 31 4c d0 3e f0 9e f2 3e
       0.54218185 0.712611 0.4068313 0.47386885
000010 a0 9c e9 3e 70 80 f1 3e 57 4a 0c 3f 87 c4 20 3f
       0.45627308 0.47168303 0.54800934 0.62799877
000020 ee 7e fc 3e ce a0 0d 3f c2 34 ea 3e bf 27 10 3f
       0.4931559 0.55323493 0.45743376 0.5631065
000030 a4 74 eb 3e d2 aa 46 3f cf 75 86 3f 3f 16 01 3f
       0.45987427 0.776044 1.0504702 0.5042457
000040 c2 f9 44 3f ad f7 1d 3f c3 9d 1f 3f a3 cf 04 3f
       0.769436 0.6170605 0.623501 0.5187933
000050 38 97 f6 3e f7 6c 0b 3f a5 09 e6 3e f2 a3 06 3f
       0.48162246 0.5446314 0.44929233 0.5259391

BCBlocks.0.0.f2.0.block.1.bias f4 [24]
000000 58 68 d9 bd 6b 18 40 3d 08 1b c4 3e 26 72 1f 3e
       -0.10615605 0.046898287 0.38301873 0.15570888
000010 14 4c 9c 3e 89 06 ee bd cf e6 4e 3d cb 55 99 3d
       0.30526793 -0.1162234 0.050513085 0.07487067
000020 7c 35 a7 bd 26 6d 6e bd 09 63 01 be 52 f4 a7 3c
       -0.08164498 -0.05820956 -0.12635435 0.020502243
000030 c3 79 12 3e 30 74 62 3e bb 8d 2c bf a1 e7 29 be
       0.14304261 0.22114635 -0.67403764 -0.16592266
000040 24 96 17 be 3a b0 4f 3e d3 2b 02 bf 70 b3 e0 3d
       -0.14803368 0.20282069 -0.5084812 0.10971725
000050 24 f4 c7 3d 0c 57 ab 3d ba d0 d8 3e c9 45 70 bc
       0.09763363 0.08366212 0.42346746 -0.014665076

BCBlocks.0.0.f2.0.block.1.running_mean f4 [24]
000000 cd 12 f7 3e 2e 68 8f be 1b 80 c3 be b7 83 04 be
       0.4825653 -0.2800917 -0.38183674 -0.1294087
000010 a2 a0 4c 3d 18 3e a4 be 97 05 be 3d 87 2c cb 3e
       0.04995788 -0.32078624 0.0927841 0.3968241
000020 ac 97 27 bf 91 59 1c 3f c7 4c 86 3e e6 d3 d1 3d
       -0.6546581 0.6107417 0.2623045 0.102454945
000030 65 12 30 bf ba 1d 8f 3d 51 28 6f 3f b0 8e db 3e
       -0.6877807 0.06988092 0.9342089 0.428823
000040 ac 14 0d be 7f 68 4b bf d6 ec 43 3f ad 82 3b bf
       -0.13777417 -0.79456323 0.7653326 -0.7324627
000050 e8 c0 27 bf 66 9b 07 3f 32 17 9c 3f 81 ca 8d b9
       -0.65528727 0.52971494 1.2194579 -0.00027044493

BCBlocks.0.0.f2.0.block.1.running_var f4 [24]
000000 8e 13 a5 3e c8 7c 60 3f 83 ff 1d 3e bb 41 74 3e
       0.32241482 0.876904 0.15429501 0.23853199
000010 7d 73 c7 3e 95 24 2f 3e 59 a7 8f 3e d1 7e 65 3f
       0.38955298 0.17103799 0.28057364 0.8964663
000020 e1 d1 53 3e 29 55 b5 3e fa 89 78 3d 7c 98 a2 3e
       0.20685531 0.35416535 0.06067846 0.3175696
000030 10 84 0a 3f 45 24 92 3f 25 e5 ed 3f d6 cd 1b 3e
       0.5410776 1.1417319 1.8585554 0.15215239
000040 24 80 43 3f eb 0b bc 3f d3 ce de 3e 98 29 c0 3e
       0.763674 1.4691137 0.4351717 0.37531734
000050 42 c6 28 3e ed 72 dd 3e 86 9c f7 3e 41 8d b7 3e
       0.1648188 0.43251744 0.48361605 0.35849956

BCBlocks.0.0.f2.1.block.0.weight f4 [24, 1, 3, 1]
000000 62 b1 98 3f 84 5c 37 3f 66 20 b2 3f 33 81 34 3e
       1.1929133 0.7162554 1.3916137 0.1762741
000010 5c e5 2c bf b3 9c a5 be 56 3d 83 be 36 6a 9c be
       -0.67537475 -0.32346115 -0.25632733 -0.30549783
000020 2d 3e d6 bc 0c bf cc 3d c7 63 cd be c7 d4 03 be
       -0.026152695 0.09997377 -0.40115187 -0.12874137
000030 3e ba 54 3e d5 05 01 bd 97 6c 0c bf ce fd f1 3e
       0.20774171 -0.031499702 -0.54853195 0.4726395
000040 c1 3f 69 be 6e b7 21 bd fb 20 bc be a1 d4 b6 be
       -0.22778226 -0.039481573 -0.36743912 -0.35709098
000050 77 d5 07 3e 95 63 12 3f 5a f4 b2 3e aa 8c fe bd
       0.13265024 0.571832 0.3495205 -0.12429173
000060 d7 a6 37 3e 8c b2 a7 be 70 3c 8f 3e ca 97 85 be
       0.17934738 -0.32753408 0.27975798 -0.26092368
000070 0b 0c 26 be 3d 1f 61 be 63 bc a2 3e 52 15 11 3f
       -0.16215532 -0.21984573 0.31784353 0.5667316
000080 f8 56 07 3e 9f a8 b4 be eb 4b 8b be 76 74 f1 3d
       0.1321677 -0.35284898 -0.27206358 0.11789791
000090 8e 5b b5 3c e6 2f c7 3d 2a cd a7 3e 83 5c 19 3f
       0.022138383 0.09725933 0.32773715 0.59906787
0000a0 4d 13 af bf d5 3a 0c 3f c9 e8 6f 3b 9b d8 a6 3f
       -1.3677765 0.5477727 0.0036607257 1.3034853
0000b0 94 02 a6 3e fa 42 91 be a8 18 c5 3e dc f5 54 be
       0.32423842 -0.28371412 0.38495374 -0.20796913
0000c0 8b ed 9e be 33 c6 27 3f 73 60 32 3f 57 6d 9d 3e
       -0.31040606 0.65536803 0.6967842 0.30747482
0000d0 00 c8 fb 3e 9b c8 0a 3f 99 bc 37 3f 99 6d 65 bc
       0.49176025 0.5421235 0.7177215 -0.014003181
0000e0 a7 0c 06 be 94 2c a0 bd 9b 5e d7 be f5 3d 27 be
       -0.13090764 -0.078210026 -0.42064366 -0.16332228
0000f0 1a 96 54 3e 80 3c ac 3e 43 62 89 be 30 55 cc bd
       0.20760384 0.33639908 -0.2683278 -0.09977186
000100 ff 1d 00 3e 7d 2e d3 be 23 e4 3f be e3 f2 fb 3e
       0.12511443 -0.41246405 -0.18739371 0.49208745
000110 b5 1a 03 bf 84 08 ee bd 13 4b df 3e 04 49 8c 3e
       -0.51212627 -0.11622718 0.43611965 0.27399457

BCBlocks.0.0.f2.1.block.1.ssnorm.weight f4 [120]
000000 cc b4 14 3f f1 2d da 3e 7e 5a 15 3f 47 8b e8 3e
       0.58088374 0.42613176 0.58341205 0.4541876
000010 0a 05 f9 3e cd aa 09 3f 4e 1f 01 3f 90 90 f1 3e
       0.48636657 0.53776246 0.5043839 0.47180605
000020 0c 04 24 3f 6a 59 cc 3e 98 ab e4 3e 1e 52 9c 3e
       0.64068675 0.39911968 0.44662166 0.305314
000030 8e 37 f7 3e 51 a9 f7 3e 78 06 d4 3e 22 50 cd 3e
       0.48284572 0.48371366 0.41411185 0.401002
000040 5c d0 01 3f 0f 94 1a 3f c0 19 de 3e fe 70 00 3f
       0.50708556 0.6038217 0.4337902 0.5017241
000050 1e 15 bd 3e c8 66 0d 3f ca 5f 06 3f e4 85 cf 3e
       0.36930174 0.55234957 0.5248991 0.40531838
000060 28 ec df 3e c2 53 f1 3e 3c f1 e2 3e 9a cd ea 3e
       0.4373486 0.47134215 0.44324672 0.45859987
000070 ba e2 c9 3e 7c 0d f8 3e bc 5d 8c 3e b4 2b 13 3f
       0.3943079 0.48447788 0.27415264 0.5748856
000080 23 72 c0 3e e3 b1 da 3e 12 36 01 3f b3 00 4d 3f
       0.3758708 0.42713842 0.5047313 0.8007919
000090 0e e9 03 3f aa 10 28 3f 98 e7 3f 3f 70 9a 1c 3f
       0.5152749 0.6565043 0.7496276 0.6117315
0000a0 3d 96 fc 3e 48 14 c5 3e 04 28 bf 3e 4a 6c 1a 3f
       0.49333373 0.38492036 0.37335217 0.60321486
0000b0 90 da f4 3e 94 d2 fa 3e 5a b3 b4 3e 6d 1d e9 3e
       0.47823 0.48988783 0.35293084 0.45530263
0000c0 0e 3f 0c 3f ad 31 07 3f 83 c2 02 3f a0 1e fa 3e
       0.54783714 0.52810174 0.5107805 0.4885149
0000d0 e2 fe fa 3e 8c 08 f7 3e 0d c0 ed 3e 34 2a fa 3e
       0.49022585 0.48248708 0.46435586 0.48860323
0000e0 b4 78 2a 3f f3 a7 02 3f b8 d4 e1 3e 15 f7 f6 3e
       0.6659043 0.5103752 0.44107604 0.48235384
0000f0 dc 4f e3 3e b4 74 c6 3e 84 74 e9 3e 6a 11 12 3f
       0.44396865 0.38760912 0.45596707 0.5705782
000100 40 a8 d2 3e 9b 0e 6e 3f 53 02 42 3f b9 fa 9a 3e
       0.4114399 0.92991036 0.75784796 0.3026941
000110 66 07 a8 3e 12 13 ab 3e 72 66 96 3f a0 d2 8c 3f
       0.32818145 0.33412987 1.1750014 1.1001778
000120 6c 12 46 3f 13 72 08 3f d6 d6 b9 3e 42 da 1a 3f
       0.7737186 0.53299063 0.3629672 0.60489285
000130 e4 86 df 3e dd f9 cd 3e 2c 19 ea 3e a4 a9 9e 3e
       0.436576 0.40229693 0.4572233 0.309888
000140 f3 b4 69 3f ab 54 63 3f 14 73 59 3f 90 4c e1 3e
       0.9129173 0.8880107 0.8494122 0.44003725
000150 52 d2 0b 3f a6 dd 79 3f d7 71 50 3f 5b 7c 3c 3f
       0.546178 0.97603834 0.81423706 0.7362725
000160 97 c1 34 3f 76 76 c8 3e f5 16 ab 3e 6f 55 09 3f
       0.70607895 0.3915288 0.33415952 0.53645986
000170 b2 90 1e 3f 6f e8 11 3f 67 0e f0 3e 3c c1 02 3f
       0.6193954 0.5699529 0.46885988 0.510761
000180 35 34 eb 3e 1d e2 db 3e cd 78 f9 3e 0c de e7 3e
       0.45938268 0.42945948 0.48724976 0.45286596
000190 9f 73 fa 3e 9a e6 da 3e 3f 45 fe 3e 87 57 01 3f
       0.48916337 0.4275406 0.49662206 0.5052418
0001a0 38 89 be 3e 58 cd 0c 3f 27 9c 16 3f 42 fc 01 3f
       0.37214065 0.5500083 0.5883202 0.5077554
0001b0 23 ab e1 3e 48 30 dd 3e 08 22 1f 3f 77 b6 01 3f
       0.4407588 0.43200898 0.621613 0.50669044
0001c0 94 c5 ca 3e a1 d1 89 3e 0e f3 03 3f d4 85 c6 3e
       0.39603865 0.26917747 0.5154275 0.38773978
0001d0 bc e8 14 3f f6 dd 10 3f 53 e9 ea 3e 76 ba ec 3e
       0.58167624 0.56588686 0.45881137 0.46236008

BCBlocks.0.0.f2.1.block.1.ssnorm.bias f4 [120]
000000 07 17 7a bc 22 25 ca 3d 4b c0 c3 3c a2 57 71 bd
       -0.015264279 0.09870364 0.023895403 -0.058921464
000010 0a e1 a5 3b 68 c0 13 3e 9d 69 8e 3e 34 89 6b 3e
       0.005062227 0.14428866 0.27814952 0.23001558
000020 ec 06 eb 3d 57 cb 89 3e 0f 4e 38 be ff 61 07 be
       0.114759296 0.26912948 -0.17998527 -0.13220976
000030 ff 78 bc b9 85 c5 2b bd 60 2b 9e bd 21 54 63 bd
       -0.00035948303 -0.041936416 -0.07723117 -0.055500153
000040 42 77 87 bd b6 44 1e 3e 37 9b a1 bd b1 5b 3c 3d
       -0.066145435 0.15455899 -0.07890933 0.04598588
000050 ff 38 4c 3e d8 7f 8b 3b d5 d5 ee 3d 76 47 96 bd
       0.19943617 0.0042571835 0.11661879 -0.07337849
000060 ac 30 30 be 8c 5e 0c be 41 4d e7 3b 77 5b a7 bc
       -0.17206067 -0.13707942 0.00705877 -0.020429356
000070 22 fe af 3d 58 63 96 bc 2f dc 04 3e c3 89 82 3d
       0.08593394 -0.018357918 0.12974618 0.06373932
000080 b0 8b c9 3d ae 51 14 be 2b 2a 1e 3d 7c 6d 1a 3e
       0.098410964 -0.14484283 0.038614433 0.15080827
000090 b1 17 10 3c b2 1d d3 3e dc 8e 20 3e be 63 de 3d
       0.008794711 0.41233593 0.15679497 0.10858868
0000a0 a8 4e 09 3d 8a a2 39 bd c4 27 64 bc 72 e3 2c 3e
       0.033522278 -0.045321025 -0.0139254965 0.16883639
0000b0 de e6 a9 3d 46 cc bf bc 0a 56 4c be dd 90 8a 3d
       0.082959875 -0.023412835 -0.19954696 0.06765912
0000c0 83 a0 2d 3e b7 b3 0a 3e 3d fd 29 bc 2f bf 21 3c
       0.16955762 0.13545118 -0.010375318 0.009872242
0000d0 62 18 84 39 6b bb 3e 3d a6 a9 60 bc 12 14 8d 3d
       0.0002519517 0.046565454 -0.013712322 0.06888594
0000e0 d5 f2 ed 3d 78 ce 7b 3d 17 8a 6b bd fd 75 77 3d
       0.11618582 0.0614762 -0.05750474 0.060415257
0000f0 55 98 20 3d bb ee 94 3d 53 1b ec 3c 42 dc 95 3d
       0.039207775 0.07272097 0.028821623 0.073174015
000100 d0 e2 3b bd 63 05 5d 3e 8e 8c bc 3d 68 95 0a be
       -0.045870602 0.21584086 0.09206496 -0.13533556
000110 c9 54 16 bb a3 b7 f1 bc 34 94 27 3f 8b 29 e2 3d
       -0.002293872 -0.02950651 0.65460515 0.1104308
000120 38 bf 84 be 58 9b e1 be 5e 42 12 be a1 4a 6e bd
       -0.25927138 -0.4406383 -0.1428313 -0.05817664
000130 ea cb f9 bc 37 f6 51 bc 4d db af 3c e9 17 2e be
       -0.030492742 -0.01281505 0.021466875 -0.17001309
000140 15 f2 b4 3d c0 cf 38 bd 54 12 33 bd b8 2d 01 be
       0.08835236 -0.04512 -0.04371865 -0.12615097
000150 ea 76 83 bd 7e 0d e4 3e dd 6f 1f 3e 38 f9 5b be
       -0.064191654 0.44541544 0.15570016 -0.21481788
000160 c0 d1 c7 bd 39 19 de bd eb 2e f9 bd 66 17 0f be
       -0.097568035 -0.108446546 -0.12167152 -0.1397377
000170 18 0b c8 bd 6a 45 93 bd 39 7c 80 bd e3 79 6d bd
       -0.09767741 -0.07190974 -0.062736936 -0.05797757
000180 ac 23 0b bd c9 ac a5 3d 4d 5d 18 3d 5f e0 3d 3d
       -0.033969566 0.08089597 0.037198354 0.046356555
000190 b6 04 8a 3c 52 af 93 3c 50 24 83 3d ce 3b 4f 3b
       0.01684795 0.018027935 0.064034104 0.003162134
0001a0 3b 84 31 bd 33 d4 cc 3d 15 46 1d 3d 41 67 19 bb
       -0.043338995 0.10001411 0.038396914 -0.0023407491
0001b0 e0 b3 82 3e 42 e8 bd 3d 0d da eb 3e ff b3 08 bd
       0.2552786 0.09272815 0.46064797 -0.033374783
0001c0 10 8f 54 bd e9 36 27 be f5 d4 21 39 b6 ed 4f be
       -0.051894248 -0.1632954 0.00015433489 -0.20305523
0001d0 a6 62 0d 3d c9 20 1d 3e aa e2 08 3d 3a f1 94 bd
       0.034517907 0.15344538 0.03341929 -0.07272573

BCBlocks.0.0.f2.1.block.1.ssnorm.running_mean f4 [120]
000000 a0 26 05 3f a9 37 16 3f 49 f8 2f 3f 26 70 26 3f
       0.5201206 0.5867868 0.6873823 0.65014875
000010 03 b3 1a 3f 12 56 8d be 7c 62 6c be 94 0a 32 be
       0.604294 -0.2760473 -0.23084444 -0.17386848
000020 dd b8 40 be 11 ee 07 be f9 44 7c be e3 ee 7c be
       -0.1882052 -0.13274409 -0.24635686 -0.24700503
000030 5c 60 6b be 7f 6e 6d be a4 8f 78 be b9 10 2a be
       -0.22985977 -0.23186682 -0.24273545 -0.16607942
000040 70 ac fa bd 4f d1 d8 bd 60 78 e7 bd ee d8 d3 bd
       -0.12239921 -0.105867974 -0.113022566 -0.103441104
000050 6b 43 32 be 89 aa 07 be d8 03 de bd ac aa ff bd
       -0.1740853 -0.13248648 -0.10840577 -0.12483725
000060 39 66 9c bd 52 e0 bb ba 33 c6 da 3c d7 3b aa 3c
       -0.07636685 -0.001433382 0.026705837 0.020780487
000070 9b 2d 10 3d bc 6b 8b 3c f3 c2 04 be 0a 13 1c be
       0.035199743 0.017019145 -0.12964992 -0.15241638
000080 2e d7 ff bd 2b c2 0f be 15 ad 11 be 3a e3 2e 3e
       -0.12492214 -0.14038913 -0.14226182 0.17078868
000090 b9 65 63 3e 8c 29 85 3e 1b b6 7d 3e b3 92 8a 3e
       0.22206773 0.2600826 0.24776499 0.27065048
0000a0 db 78 79 3c 4d fe ae 3c 9d dd d4 3c 6c 3d a5 3c
       0.015226568 0.021361494 0.02598458 0.02017089
0000b0 5b 40 68 3c e1 8e 2e be 28 96 05 be 45 13 d9 bd
       0.0141755 -0.17046691 -0.13045561 -0.105993785
0000c0 41 9f ea bd 35 92 0d be 03 f4 a8 3d 79 83 17 3e
       -0.114561565 -0.13825305 0.082496665 0.14796247
0000d0 76 28 2a 3e eb 31 20 3e 8e 9b 25 3e c0 da 00 be
       0.16616997 0.15644042 0.1617262 -0.12583447
0000e0 24 88 03 be ff 8d de bd f9 e8 f8 bd 0b a4 04 be
       -0.12844902 -0.10866927 -0.12153811 -0.12953202
0000f0 42 20 18 3e a0 73 02 3e b0 56 da 3d e2 4a e0 3d
       0.14856055 0.1273942 0.106610656 0.10951783
000100 82 cd af 3d e6 da 58 be 0f 57 a1 bd b8 cd a4 bd
       0.085841194 -0.21177253 -0.07877933 -0.0804705
000110 bc 18 d1 bd 3b c7 12 be 32 55 0c 3f 01 03 b5 3e
       -0.10209796 -0.14333813 0.548175 0.35353854
000120 2b b3 8a 3e 5c 90 99 3e 52 bd 9c 3e 3b 97 24 bc
       0.2708982 0.2999295 0.3061319 -0.010045822
000130 2b f9 93 bc 20 d2 58 bc 20 9f 51 bc b1 ef d7 bb
       -0.018063148 -0.013233691 -0.012794286 -0.0065898527
000140 b1 bf 7e 3e 48 a2 43 3e 37 07 2d 3e 52 b0 2b 3e
       0.24877812 0.19104874 0.16897283 0.1676648
000150 d4 07 08 3e 86 54 1c 3f d1 48 06 3f 82 df db 3e
       0.13284236 0.6106647 0.5245486 0.4294396
000160 84 ce df 3e e8 a8 cd 3e 37 86 81 3c 23 31 6e 3d
       0.43712246 0.40167928 0.015811069 0.05815233
000170 04 8e 50 3d f4 79 87 3d a5 9b 63 3d c7 bc 34 be
       0.050916687 0.066150576 0.055568356 -0.17650138
000180 66 75 31 be ba 48 22 be 0d 05 1e be 23 58 fc bd
       -0.1732994 -0.15848055 -0.15431614 -0.12321498
000190 82 a6 8c 3d 49 c9 97 3d 53 1a 8b 3d 06 2d 81 3d
       0.06867696 0.07411439 0.0679213 0.06307416
0001a0 9d a6 a7 3d f8 cc a5 bd 16 49 c3 bd e0 1d f2 bd
       0.08186076 -0.08095735 -0.095354244 -0.118221045
0001b0 23 ef dd bd 6b ba a6 bd b6 e5 9b bd a8 97 a4 bd
       -0.10836627 -0.08141025 -0.07612173 -0.08036739
0001c0 c3 42 ab bd 47 56 ba bd ee ff 00 bd cc f3 35 3e
       -0.08362343 -0.09098487 -0.031494074 0.17768782
0001d0 6f 79 00 3e e7 93 e0 3d c8 ee ec 3d 31 e2 d2 3d
       0.12546323 0.1096571 0.115689814 0.10297049

BCBlocks.0.0.f2.1.block.1.ssnorm.running_var f4 [120]
000000 d8 6e 48 3f dc 36 57 3f 7d 52 6a 3f 53 9e 53 3f
       0.78294134 0.84068084 0.9153212 0.8266346
000010 ff 60 3b 3f 0b fe e2 3d 80 0d a6 3d a1 65 86 3d
       0.7319488 0.11083611 0.08108044 0.06562353
000020 27 a8 98 3d ee 88 5f 3d 22 50 e4 3c a7 b4 1d 3d
       0.074539475 0.054573946 0.027870242 0.03850236
000030 b1 42 1d 3d fe d5 15 3d 79 82 10 3d a4 72 d9 3c
       0.03839368 0.036581032 0.03528068 0.026543923
000040 44 7f a3 3c d8 1d 98 3c 69 eb 9b 3c fb e1 8f 3c
       0.019958146 0.018568918 0.01903315 0.01756381
000050 de 81 1b 3d 9a e5 e0 3c f7 be d4 3c 6c 44 dc 3c
       0.037965648 0.027453233 0.025969965 0.026888095
000060 40 09 e0 3c ab 05 89 3b 69 05 00 3c 90 73 f8 3b
       0.02734816 0.004181584 0.00781379 0.0075821355
000070 0d a7 22 3c 5d 87 20 3c 0a 4c 11 3d 2d bb 1b 3d
       0.009927523 0.009797898 0.035472907 0.0380203
000080 73 0d 0e 3d 2a e7 1d 3d f8 df 19 3d 9e 09 85 3d
       0.034680795 0.038550533 0.03756711 0.06495975
000090 16 bc b2 3d e1 18 b8 3d d0 00 a6 3d 89 0d cc 3d
       0.08727281 0.0898912 0.08105624 0.09963519
0000a0 08 ec 5a 3b 5d dc 50 3b e3 3b 4e 3b 3f e6 62 3b
       0.0033404846 0.0031869628 0.00314688 0.00346221
0000b0 42 18 49 3b cf 08 23 3d 92 e3 08 3d 11 dc ed 3c
       0.0030684625 0.039803322 0.033420153 0.0290356
0000c0 8e 6c 05 3d eb 3c dc 3c 2a 29 18 3d b4 77 86 3d
       0.03257423 0.026884517 0.037148632 0.065658
0000d0 6a 9f 88 3d be 61 76 3d cb 10 76 3d 15 91 d5 3c
       0.06671031 0.060151808 0.06007461 0.026070157
0000e0 1e 23 db 3c de 4e c4 3c 3b 11 d7 3c b1 86 da 3c
       0.026750144 0.023963388 0.026253333 0.026675554
0000f0 d8 73 33 3c 4b 7f 3f 3c eb b5 34 3c e9 3d 37 3c
       0.010952912 0.011688064 0.011029701 0.011184194
000100 96 28 24 3c 1c c0 bf 3e e1 75 87 3e d6 45 65 3e
       0.010019442 0.37451255 0.26457122 0.22389922
000110 15 9b 80 3e 24 0b 80 3e 3e 8f 39 3f 8f c4 08 3f
       0.25118318 0.250085 0.72484195 0.53424925
000120 b1 57 d4 3e 0b 86 f1 3e 9b fe ea 3e 90 58 c9 3b
       0.41473153 0.4717258 0.45897374 0.0061445907
000130 2b 46 99 3b e8 e9 68 3b 58 aa 7c 3b 52 ea 78 3b
       0.004677554 0.003553981 0.0038553681 0.0037981463
000140 58 42 8b 3e 65 b9 53 3e 74 76 48 3e 4c 7e 3b 3e
       0.27199054 0.20676191 0.19576436 0.18309897
000150 ed 63 11 3e ba 2d 84 3e 44 f2 85 3e 93 58 6e 3e
       0.14198275 0.25816137 0.26161397 0.23275976
000160 e5 c9 7d 3e 26 2b 62 3e d1 0f c8 3c ae 4b 82 3d
       0.24784048 0.22086772 0.024421604 0.06362091
000170 40 17 68 3d 08 16 8e 3d f1 97 83 3d a7 ef f4 3c
       0.056662798 0.06937796 0.06425465 0.029899431
000180 f8 64 b5 3c c9 e6 94 3c ee df 87 3c 0a d8 74 3c
       0.022142872 0.018176453 0.01658627 0.014944086
000190 a1 e6 dd 3b 71 f7 1c 3c f8 69 04 3c 47 14 f7 3b
       0.006771878 0.009580479 0.008081906 0.007540259
0001a0 07 64 36 3c db dd cb 3c be c0 d2 3c ff a8 e9 3c
       0.011132247 0.024886062 0.025726672 0.028522966
0001b0 1d 3f d7 3c 3e 74 d8 3c e9 69 2f 3d 2a 44 18 3d
       0.026275212 0.026422616 0.042825613 0.03717438
0001c0 78 20 1f 3d 9d 3e 31 3d 3b 59 36 3e c0 84 41 3d
       0.038849324 0.043272603 0.17807476 0.04724574
0001d0 90 2b 15 3d 14 e9 0b 3d 5a cf 0b 3d 81 b9 f2 3c
       0.036418498 0.034157827 0.034133293 0.02962947

BCBlocks.0.0.f1.0.block.0.weight f4 [24, 1, 1, 3]
000000 58 d1 24 be 0d 7b 0c 3d 24 fc 63 be 60 26 92 bc
       -0.16095483 0.034297038 -0.22264153 -0.017840564
000010 4e 09 c4 be 78 73 c8 bb f2 d1 0f be 14 63 b8 3e
       -0.3828835 -0.0061172806 -0.14044932 0.3601309
000020 29 e1 f9 3d 34 db 7c 3e 20 2d 59 3e 9e fa 6a bd
       0.12201149 0.24692994 0.2120862 -0.057367913
000030 d3 cc e7 bd a1 c2 7e be bc f8 a3 be c5 58 f0 bc
       -0.11318364 -0.24878933 -0.32025707 -0.029339204
000040 e3 64 4f be e4 95 05 be 45 c1 e7 bc fc 19 77 3e
       -0.20253329 -0.1304546 -0.0282904 0.24131006
000050 7b 7b dc 3d d9 1e ac be 00 46 09 be e6 be ca 3d
       0.107657395 -0.33617285 -0.13405609 0.09899692
000060 d2 dd 18 be 98 f9 d9 3e f1 bd 25 be d2 2e 03 3e
       -0.14928368 0.42573237 -0.16185738 0.1281083
000070 a0 85 ac be d5 49 02 be 69 d0 4e bd 22 44 26 3d
       -0.33695698 -0.12723477 -0.050491724 0.04059232
000080 a6 5b 86 3e b8 5c b2 3d 82 37 7d be 0a f7 a3 3e
       0.26241797 0.08709091 -0.24728206 0.32024413
000090 b0 07 39 be 68 b6 4e 3d b1 bf 98 bc 28 1a 0e be
       -0.18069339 0.050466925 -0.018646093 -0.13877165
0000a0 92 ac ee be 57 a3 f5 3d 6f 08 d1 3d ff ac 1f be
       -0.46616036 0.11994045 0.10206687 -0.15593337
0000b0 44 8b b2 bd 69 69 f7 3e d5 5c 0a be 98 bf ac 3e
       -0.08717969 0.4832261 -0.13511975 0.33739924
0000c0 e5 fc 7d 3e f9 fc 05 be 05 2f c0 bd 6b 17 13 3e
       0.24803503 -0.13084783 -0.09383968 0.14364402
0000d0 ae ec 78 be ce 88 3c be c6 0e 87 be 8e c2 09 3d
       -0.24309036 -0.18411562 -0.2637846 0.033632807
0000e0 12 e5 e9 bd f4 9e 34 3e cc 83 a1 3e 5a b8 bb bc
       -0.11420645 0.17638761 0.31545866 -0.022915054
0000f0 f5 ed 3a be 72 c4 0b 3d b6 a5 ee 3e 87 d4 28 3d
       -0.18254836 0.03412289 0.46610802 0.041218307
000100 7d c1 73 3e be 59 96 3e fb e2 be bd c0 ff 2d be
       0.23804279 0.29365343 -0.09320637 -0.16992092
000110 05 46 02 be 80 e5 bc bd ba eb 08 bf 7b 14 7e 3e
       -0.12722023 -0.09223461 -0.5348469 0.248125

BCBlocks.0.0.f1.0.block.1.weight f4 [24]
000000 09 e8 8a 3e 15 6b bb 3e 17 71 e4 3e 41 80 b0 3e
       0.27130154 0.36605135 0.4461753 0.3447285
000010 9c a0 25 3d bf ad 38 3e 3b 6c b6 3e 3d 09 87 3e
       0.040436372 0.18035029 0.35629448 0.26374236
000020 c7 9a 9a 3e 36 0b 2e 3e fe b4 99 3e 45 b0 d1 3e
       0.3019621 0.16996464 0.300209 0.40954795
000030 f9 1b 2d 3e d9 48 4d 3e 9d 01 d2 3e f2 a4 9d 3d
       0.16905202 0.2004732 0.41016856 0.076974764
000040 6c 96 9b 3e 3a 95 d4 3e f3 68 a6 3e 6d 14 8d 3e
       0.303882 0.415201 0.32501945 0.27554646
000050 74 a1 5c 3e a3 f3 ef 3e 2a b5 b5 3e 2a 54 c1 3e
       0.21545964 0.46865568 0.3548978 0.37759525

BCBlocks.0.0.f1.0.block.1.bias f4 [24]
000000 c7 b7 9b be 78 49 6c 3d f1 77 64 b9 28 f6 ec bc
       -0.30413648 0.057687253 -0.00021788456 -0.02892597
000010 ce 80 01 3c 45 db 15 be 8a e4 0d be aa f0 fd bd
       0.007904245 -0.14634426 -0.13856712 -0.12399419
000020 a9 07 2c bd d8 a9 17 3d d5 88 0b be ad 04 26 bd
       -0.041999493 0.03702721 -0.13626416 -0.040531803
000030 6a 51 28 be 5f 6b 8e be e3 57 01 be 5f 7e 0a be
       -0.16437307 -0.27816293 -0.12631182 -0.13524769
000040 84 0d ae bc 5e 4a f5 bb 32 f3 51 be d9 86 57 be
       -0.02124668 -0.007485672 -0.20502928 -0.21047534
000050 71 53 55 be f0 06 29 be 79 57 58 bd 21 49 78 bc
       -0.20832612 -0.16506553 -0.052817795 -0.015154154

BCBlocks.0.0.f1.0.block.1.running_mean f4 [24]
000000 e5 53 91 bb c3 b2 ac bd c6 0a e4 bc 67 a2 6e 3a
       -0.00443505 -0.084325336 -0.027837168 0.00091031793
000010 ff 1e 26 bc 47 79 c7 3b fb 0a 44 3c 27 81 82 bd
       -0.010139226 0.0060874554 0.011965509 -0.0637229
000020 56 be be 3b b7 9e 23 bc 86 7c a5 3a 17 fd ea 3b
       0.0058210297 -0.009986571 0.0012625612 0.007171284
000030 f9 ce 91 bb c7 e1 60 bc 3b 8a 0e 3b 22 25 0c bd
       -0.004449722 -0.0137257045 0.0021749872 -0.0342151
000040 13 c0 a9 bb a8 86 2f bc 05 86 0c 3d 4f 87 d8 3b
       -0.0051803677 -0.010713257 0.0343075 0.006607927
000050 87 28 2c ba 76 2e 66 3d c5 e4 85 bc c1 54 ad 3b
       -0.00065673183 0.056196652 -0.016344437 0.0052896445

BCBlocks.0.0.f1.0.block.1.running_var f4 [24]
000000 7d 4b c8 3c c8 6d c9 3b 59 df 95 3c a7 a0 e8 3c
       0.024450058 0.00614712 0.018294977 0.028396918
000010 29 38 d8 3c 2b dc 50 3a 0c c2 98 3b 04 ff 3d 3d
       0.026393967 0.0007967378 0.004661804 0.04638578
000020 67 7d 79 3a b1 86 a0 3c 82 da 27 3c 2d 27 50 3b
       0.00095172826 0.019595476 0.010244967 0.0031761632
000030 79 38 58 3b d0 0c 53 3b 2f 35 42 3c e2 8e ee 3b
       0.0032992645 0.0032203682 0.0118535 0.0072802166
000040 ef 87 8d 3c cc 89 14 3d 59 26 66 3b f3 fc 72 3c
       0.017276732 0.036264226 0.0035118072 0.014830816
000050 be f7 7a 3c 97 8d e6 3c c7 75 9d 3a c6 1d 17 3d
       0.015317855 0.028143687 0.001201325 0.03689363

BCBlocks.0.0.f1.1.weight f4 [24, 24, 1, 1]
000000 00 98 64 3e c9 1a b1 3d 64 a0 86 3d b8 57 28 bd
       0.22323608 0.08647687 0.06573561 -0.04109928
000010 c3 ed de 3d c0 38 41 3e 91 66 24 3e aa 29 8d 3d
       0.10885193 0.18869305 0.16054751 0.068927124
000020 3c 24 e6 3d bc d8 b3 bd cc 30 84 3d c2 a5 e9 bd
       0.1123738 -0.08781573 0.0645462 -0.11408569
000030 c8 c4 9f bb 0d 48 c8 bb f6 b0 82 3d 51 65 cc bd
       -0.004875753 -0.0061121047 0.06381409 -0.09980262
000040 06 cb cb 3c 6f b1 23 bd 10 49 14 3e 87 72 c1 bd
       0.024877083 -0.039964136 0.14480996 -0.094456725
000050 f5 0c 64 3b 16 6e d7 3d fc 5c e8 3d 88 c9 3f 3d
       0.0034797762 0.10519044 0.1134586 0.046823055
000060 80 f2 ff bc 90 ac cd 3e 65 04 f2 bc 46 74 3c 3e
       -0.031243563 0.40170717 -0.029543111 0.1840373
000070 15 60 44 3d cf 21 66 3b 89 fa 3f bd 8b be 00 3e
       0.047943193 0.0035115366 -0.04686979 0.12572686
000080 be 0e a1 3d 18 fa 93 bd cc 41 11 be 53 a9 95 3d
       0.0786414 -0.07225436 -0.14185256 0.07307687
000090 af 13 db bd a0 b0 ea 3a 8c cf 4c 3d 42 de ad bd
       -0.10697114 0.0017905422 0.05000262 -0.08489658
0000a0 3c 6b 21 bd b4 cb 55 bd 59 33 2b bd cd a5 6e be
       -0.039408907 -0.05219622 -0.041797016 -0.23305435
0000b0 2b 2f a4 3d ec d1 21 3e 98 1c 22 be c9 7b 06 be
       0.08016809 0.15802735 -0.1583122 -0.13133158
0000c0 fc 27 81 3e 91 d1 c7 bd 96 e1 a3 3d ed 7b a2 3d
       0.25225818 -0.097567685 0.080020115 0.07933793
0000d0 c0 9d ad bd de dd 96 3d cf 5d 37 3e 9f 98 52 bd
       -0.08477354 0.073665366 0.17906879 -0.051415082
0000e0 0f b3 12 3e a0 a3 57 3e 75 ff b5 3d fd 5b 3b be
       0.14326118 0.21058512 0.08886615 -0.1829681
0000f0 df 67 96 3b fe 31 bd 3d 3a 87 04 3e 26 75 6e 3e
       0.004590019 0.09238051 0.1294221 0.23286876
000100 3a 7f b2 3b fb 86 b0 3b 84 32 95 bc 60 91 74 3c
       0.0054472955 0.0053871847 -0.018212564 0.014927238
000110 66 a3 c2 3e 84 f2 b5 bd 29 80 d1 3e 1d 08 09 be
       0.38015288 -0.08884147 0.4091809 -0.13382001
000120 04 46 a3 3b b1 e1 d8 3d af 76 46 3d b4 31 de bc
       0.0049827117 0.10589922 0.04845303 -0.02712331
000130 ff c3 af 3d ba bd f4 bd 49 16 b4 bb e7 f3 e4 3d
       0.08582305 -0.1195025 -0.0054958207 0.11179333
000140 a9 5d 90 3d 39 15 14 bd 54 9a d5 3d 68 ba c3 3d
       0.07049114 -0.036153052 0.104298264 0.095570385
000150 5d ef cb bc ff d1 5d bc 0a c7 f1 3c 5e 2b b1 bc
       -0.02489441 -0.0135388365 0.029513855 -0.021627124
000160 28 0b 6f bd 19 b5 7c bc ed 7f fe 3d 15 1c 31 bd
       -0.05836025 -0.015424036 0.12426744 -0.04323967
000170 a6 ce 9a 3d e9 12 50 bd 0e 53 53 3d 5b 04 5c bd
       0.07558946 -0.050799284 0.05159288 -0.05371509
000180 bf c0 dd 3c 3c 67 01 bb c2 fe ba bd b8 71 39 3d
       0.027069448 -0.001974537 -0.091306224 0.045274466
000190 41 a5 e1 3d 05 ea 13 bd c8 d5 0c 3e d8 9b 2f 3b
       0.11017848 -0.03611185 0.13753426 0.002679577
0001a0 06 e9 25 bd bf 4a 29 3d 70 95 76 be a8 c1 1b 3d
       -0.04050543 0.04133105 -0.24080443 0.038026482
0001b0 4a 6d 31 be 00 e9 6e be 12 b7 e0 bb c2 f8 18 3c
       -0.17326847 -0.2333107 -0.006857761 0.009336652
0001c0 9b fe fd 3c 90 ac c5 bd 1a 03 00 be bc 0d 50 bd
       0.031005194 -0.09652054 -0.12501183 -0.050794348
0001d0 e5 79 b7 3d a4 8a b6 3b 1c f2 8d bd 32 25 b5 bd
       0.089587964 0.0055707265 -0.06930944 -0.08844985
0001e0 d4 ab 81 3c 12 34 89 3c 3b e9 e1 bd 44 a0 1d 3d
       0.015829004 0.016748462 -0.11030813 0.03848292
0001f0 38 b4 91 3d d2 ee 51 bd 4b 69 d2 3d 84 49 7b bd
       0.07114452 -0.051253147 0.10273989 -0.061349407
000200 2d 8a 4e bd 5a dc 2a bd 12 7c 27 3d 5f 62 e5 3d
       -0.050424743 -0.04171405 0.040889807 0.112004034
000210 29 b0 97 3c 67 00 a1 3d 0d 1f 07 3d f4 96 32 3b
       0.018516617 0.07861405 0.032988597 0.002725062
000220 9b 04 f3 3d bd 05 3d 3e 7f 74 a3 bd 9a fa 06 3e
       0.11866113 0.1845922 -0.07981204 0.13181534
000230 15 89 bf bc 51 8c 02 be 82 af 8a bd 00 31 ce 3d
       -0.023380795 -0.12748839 -0.06771757 0.1006794
000240 d0 59 fe 3b 97 73 f6 bd 83 33 0b 3e 11 8e 21 bd
       0.0077621713 -0.12033766 0.13593869 -0.039442126
000250 14 7a 89 3d cf 79 18 3d 5e 5b 41 be 40 be ce 3d
       0.06712738 0.03722554 -0.1888251 0.10094881
000260 71 a4 9e 3c 12 c1 d6 3d 86 0e cf bd 94 14 cf bd
       0.019365521 0.10486044 -0.10110192 -0.10111347
000270 9b e4 a2 bc 74 6b 21 bd 3d 5b 66 bd 24 ba 2f 3d
       -0.019884398 -0.039409116 -0.056239355 0.042902127
000280 51 b8 f3 3d 90 c6 13 3d 15 3c 60 3d da d5 61 bd
       0.1190039 0.036078036 0.0547448 -0.055135585
000290 67 df da ba 69 1f 07 3e 48 30 4c 3d 69 fe 7d 3c
       -0.0016698659 0.13195576 0.049850732 0.015502551
0002a0 60 0c 80 bd a9 e3 30 be de ae d7 3d d7 cb 7d bd
       -0.0625236 -0.17274345 0.105314 -0.061961975
0002b0 7d b4 ea 3b 82 85 1e ba db f8 3c be b9 61 08 3d
       0.007162629 -0.0006047116 -0.18454306 0.03329632
0002c0 71 b2 53 3d 1e cf 29 3d d4 e0 fa bd 4e 9a 96 bd
       0.051683847 0.041457288 -0.12249914 -0.0735365
0002d0 e6 d1 f7 bd d3 64 a9 bc d9 be 46 be 35 25 0f bd
       -0.12100582 -0.02067796 -0.1940874 -0.034947593
0002e0 d8 5b 97 bd 47 45 e0 bd bb 0b ad 3b 52 21 f2 bd
       -0.07390565 -0.109507136 0.0052809394 -0.118227616
0002f0 c6 1b d7 3b a3 c9 26 3e 4c d4 c3 3d 47 67 13 3e
       0.00656459 0.16287856 0.09561977 0.14394866
000300 e7 d3 eb bd 2d 2f 12 3e 99 36 b5 bd 78 1d bd 3d
       -0.115150265 0.14275809 -0.08848304 0.09234136
000310 4f 56 5d bd 45 92 67 bd 02 c9 7d bc 1e 4a 94 3c
       -0.05403739 -0.056535978 -0.0154898185 0.018101748
000320 5a db 3a bc 34 71 f5 3d b6 87 9e b9 ec 7d 31 bd
       -0.011404837 0.119844824 -0.0003023722 -0.04333298
000330 e1 48 d1 bc a2 a3 ce bc 4c 48 a5 3c d8 3d 41 3d
       -0.025547447 -0.02522451 0.020176075 0.04717812
000340 39 e9 b9 3d c1 38 d0 3d 4e 13 c0 bd 95 29 37 3d
       0.09077687 0.10167075 -0.09378682 0.04471739
000350 32 b9 d4 bd 75 10 69 3d d6 4f eb bd 3d 01 e1 3d
       -0.10386886 0.05690046 -0.11489837 0.10986564
000360 f0 1f 26 3e 12 2d 2e 3d b8 cb 03 3c 9a 26 51 bc
       0.1622312 0.04252345 0.008044176 -0.012765551
000370 df bf 4d 3b 00 e1 7e bc 3d e1 c3 bd e2 f4 84 3e
       0.0031394882 -0.015556574 -0.09564445 0.2596808
000380 42 1a 4d 3e 1a 02 08 3d 9d 31 3d bd 18 3d 38 be
       0.20029548 0.03320513 -0.046189893 -0.17992055
000390 05 88 94 3c a5 93 a4 3e 55 0f 48 bd 35 30 8c 3c
       0.018131265 0.32143894 -0.048842747 0.01711283
0003a0 10 e7 33 3c 27 d4 14 be c2 ba 4e bc ec 87 96 bd
       0.010980383 -0.14534055 -0.012617769 -0.07350144
0003b0 66 f2 37 be 60 ee e2 3d 0b d0 82 3d 24 37 52 3d
       -0.17963561 0.11080623 0.06387337 0.051322117
0003c0 c4 68 60 bc d1 4f 34 3d 43 86 b1 3c 66 75 a1 bd
       -0.013696853 0.04402143 0.021670466 -0.0788372
0003d0 48 6a 2a 3c 43 4d e7 3c 57 0e b1 3d 34 99 2e 3d
       0.010401316 0.028235083 0.08645313 0.042626575
0003e0 a0 18 5e 3c 42 4c 51 bd 46 01 8a 3d 62 cc bb 3d
       0.013555676 -0.051098116 0.06738524 0.09169842
0003f0 13 35 82 3d f9 de 29 3d b9 b7 0c 3d 62 da 40 3d
       0.06357779 0.04147241 0.0343549 0.047083266

BCBlocks.0.1.f2.0.block.0.weight f4 [24, 1, 3, 1]
000000 70 d6 ac be 9c 98 db 3e 55 36 6f 3e 8b 65 43 bf
       -0.33757353 0.4288987 0.2336057 -0.7632682
000010 eb b3 e2 bc 9c 60 84 3c 7e 74 18 3e ac 00 7f 3e
       -0.027673682 0.016159348 0.14888188 0.249026
000020 bf 9b 48 3e 5c eb ec bd 59 2d 0b be ab f2 a0 be
       0.19590662 -0.11568329 -0.13591518 -0.3143514
000030 62 c2 c5 3d 65 30 de be 4c 40 ae be ef b9 23 be
       0.09656216 -0.43396297 -0.3403343 -0.15988897
000040 b8 f1 4b be 95 fe 40 3e da 2b 8e 3d da 14 04 bf
       -0.19916427 0.18847115 0.06941958 -0.51594317
000050 04 b1 36 be c8 14 bd 3e d0 d1 38 3e ad 41 97 3c
       -0.17840964 0.36929917 0.18048787 0.018463934
000060 4f e4 35 be 72 24 fe ba d1 4f ab be 61 63 62 3d
       -0.17762874 -0.0019389524 -0.33459333 0.055270556
000070 0d b4 7b 3e c5 d2 48 3e 5e 93 54 be f2 44 23 be
       0.24580403 0.19611652 -0.20759341 -0.1594427
000080 85 0b ab 3d a6 90 6a 3e 03 73 b7 3e cf f0 00 be
       0.083518066 0.22906741 0.35829934 -0.12591861
000090 1c 1e 65 3d a8 9e bc be 4a aa 3f be 02 f3 ff 3e
       0.055936918 -0.36839795 -0.18717304 0.49990088
0000a0 0a cc fd 3e b7 96 d5 be f9 41 d9 3e ef bf 7f 3f
       0.49569732 -0.4171655 0.42433146 0.9990224
0000b0 52 19 0b bf ba dd 5f be f1 98 cb be d1 d4 ff bd
       -0.5433551 -0.21861926 -0.39765123 -0.124917634
0000c0 ba 27 50 bc e8 6f 25 3f 76 a3 7c bf f7 1f 00 be
       -0.012704784 0.6462388 -0.9868692 -0.12512194
0000d0 97 a5 e6 3e a7 72 bc 3e c6 a6 c9 3e 29 b7 fb 3d
       0.4504821 0.36806223 0.3938505 0.122907944
0000e0 0c 1d 7b bd 2f 53 02 3f cd 1e 9c 3d b5 00 5d bd
       -0.061306998 0.5090818 0.07623062 -0.053955752
0000f0 52 ea fb 3e ec c2 e2 bb 6b e5 37 be df 8e e4 be
       0.4920221 -0.006920209 -0.1795861 -0.44640252
000100 e9 ae 93 bd 34 6b a7 bd cb 52 d6 be 82 cc a3 bc
       -0.07211096 -0.08174744 -0.4186004 -0.019994978
000110 a1 36 cf be ce fe a2 bd f6 88 7c be 78 d6 5a be
       -0.40471366 -0.079587564 -0.24661621 -0.21370876
