models/mycmds_tau1.5/model_best.pth (torch, 158151 bytes, 165 tensors)

cnn_head.0.weight f4 [24, 1, 5, 5]
0	0x3dd51b09	0.10405547
1	0xbc9d9bc3	-0.019239312
2	0xbdf57ee1	-0.11987091
3	0xbdba894a	-0.09108217
4	0xbe288f42	-0.16460899
5	0xbcc70d7b	-0.02429842
6	0xbb6ae2e8	-0.0035840813
7	0xbdb7f9c1	-0.08983184
8	0xbe034910	-0.1282084
9	0xbe3fd9f7	-0.1873549
10	0xbcacb4bb	-0.021082273
11	0x3de6818e	0.11255179
12	0x37619251	1.3445112e-05
13	0x3d0c5cf9	0.034268353
14	0xbdf4a1e4	-0.11944941
15	0x3d91ef3d	0.07125709
16	0x3e160e1e	0.14653823
17	0x3dd03609	0.101665564
18	0x3dc9a6a0	0.09846234
19	0xbe1df438	-0.15425193
20	0xbc0797e6	-0.0082759615
21	0xbda35207	-0.0797463
22	0x3c3b9267	0.011448479
23	0x3d9fa772	0.077956095
24	0xbdb851bd	-0.08999965
25	0xbe1634ac	-0.1466853
26	0xbe5ed184	-0.21759611
27	0xbd9f6d36	-0.07784502
28	0xbe1069b5	-0.14102824
29	0xbe8fec58	-0.28110003
30	0xbdcf7d96	-0.101313755
31	0xbdc10911	-0.094255574
32	0x3d4f2794	0.050574854
33	0xbdff3de9	-0.1246298
34	0xbd9dd480	-0.07706547
35	0xbe467ef2	-0.19384363
36	0xbea24310	-0.3169179
37	0xbdfc3413	-0.1231462
38	0xbe68fcdd	-0.2275271
39	0xbe9d6270	-0.30739164
40	0xbe028c16	-0.12748751
41	0xbedb0067	-0.42773744
42	0xbe4e4eb7	-0.20147215
43	0xbe3de503	-0.18544392
44	0xbea2d2c6	-0.31801432
45	0xbe17e632	-0.14833906
46	0xbe22630f	-0.158581
47	0xbe021cc2	-0.12706283
48	0xbe19885a	-0.1499342
49	0xbde1305e	-0.109955534
50	0x3e0137ef	0.12618993
51	0xbdab628a	-0.08368404
52	0xbdf79901	-0.1208973
53	0xbda40d2a	-0.08010323
54	0xbdebaa14	-0.11507049
55	0x3e9211fa	0.2852934
56	0x3dc46e60	0.09591365
57	0x3dd41160	0.103548765
58	0xbcf1a7a8	-0.02949889
59	0x3e28cad1	0.16483618
60	0x3e9f21f7	0.310806
61	0x3e82447a	0.25442868
62	0x3e5e6c6b	0.21721046
63	0xbc8d5805	-0.017253885
64	0x3dcdafba	0.10043283
65	0x3e08f4d7	0.13374649
66	0xbcff641b	-0.031175664
67	0xbd8cbe30	-0.06872213
68	0xbdff0209	-0.1245156
69	0xbd9ee4d3	-0.077584885
70	0x3da0a72e	0.07844387
71	0xbd89efff	-0.06735229
72	0x3ca638dd	0.020290786
73	0xbe031684	-0.12801558
74	0xbda86171	-0.082217105
75	0x3d5f9755	0.05458768
76	0xbe5d5e37	-0.21617971
77	0xbe5ab649	-0.21358599
78	0xbe86f0ba	-0.26355535
79	0xbe23a044	-0.15979105
80	0xbd8b807d	-0.068116166
81	0xbdb08e0e	-0.08620845
82	0xbd8d06a6	-0.06886034
83	0xbe5c000f	-0.21484397
84	0xbe3d70d8	-0.18500078
85	0x3e1bebb4	0.15226632
86	0x3c3b0710	0.011415258
87	0x3c9b4ae2	0.018956605
88	0xbdbaa5d1	-0.09113658
89	0xbcc4b3f5	-0.024011591
90	0x3dc3afab	0.095549904
91	0xbccc2585	-0.024920234
92	0x3e1877aa	0.14889398
93	0x3d3d08e5	0.04615106
94	0xbda96fb3	-0.08273258
95	0x3e0af416	0.13569674
96	0x3e2afbb5	0.16697581
97	0x3e747046	0.23870954
98	0x3dc5fea1	0.09667707
99	0x3d890993	0.06691279
100	0x3e977eed	0.29589024
101	0xbe39908a	-0.18121544
102	0x3d9f435c	0.0777652
103	0x3e03f97d	0.12888141
104	0xbda4c83c	-0.08046004
105	0x3e00a95d	0.12564607
106	0xbda7caea	-0.08193
107	0xbd8ddcd5	-0.06926886
108	0x3c3fa25b	0.011696423
109	0xbe0af7f9	-0.13571157
110	0xbbc91d88	-0.0061375536
111	0xbecdcddb	-0.40196118
112	0xbd79b059	-0.060959194
113	0xbd4698fa	-0.048485734
114	0xbdc33daa	-0.09533246
115	0x3c88e0dd	0.016708786
116	0xbea219f1	-0.31660417
117	0xbdebeeac	-0.115201324
118	0x3dc31351	0.09525169
119	0xbdc7e3e3	-0.09760263
120	0x3daf30bb	0.085542165
121	0x3e1fbed9	0.15600146
122	0x3e3d515e	0.1848807
123	0x3e83f107	0.25769827
124	0x3d0e861c	0.034795865
125	0x3d8f5c92	0.07000078
126	0xbc81b3fb	-0.015832892
127	0xbd25ee6c	-0.04051058
128	0x3bfcd2f2	0.0077155763
129	0xbe2d3b02	-0.16917041
130	0x3e47596e	0.19467708
131	0x3d07e226	0.033174656
132	0xbbf3c893	-0.007439682
133	0xbe6c513a	-0.2307786
134	0xbe27e3df	-0.1639552
135	0x3d68d18e	0.056840472
136	0xbda6fdc2	-0.08153869
137	0xbe44cf1e	-0.19219634
138	0xbe96fa9f	-0.29488084
139	0xbeb25b86	-0.34835452
140	0x3cf7b6fa	0.030238617
141	0xbdb12742	-0.08650066
142	0xbe6522d9	-0.22376575
143	0xbe473bb5	-0.1945637
144	0xbe70ab16	-0.23502764
145	0x3da5a938	0.080889165
146	0x3d9278e7	0.071519665
147	0xbd9338e2	-0.07188584
148	0xbcee44db	-0.029085567
149	0xbd5ee582	-0.054418094
150	0x3dad9e8f	0.08477508
151	0x3ca5966b	0.020213326
152	0x3dc04256	0.093876526
153	0x3eacd947	0.3375952
154	0x3ec45e06	0.38352984
155	0x3dddeb45	0.1083589
156	0xbd51755e	-0.05113732
157	0x3d954161	0.07287861
158	0x3de15085	0.11001686
159	0x3dc05b57	0.09392422
160	0xbd902735	-0.07038728
161	0xbe8867af	-0.26641604
162	0xbe7a289b	-0.24429552
163	0xbe30d7ae	-0.17269775
164	0xbec04c92	-0.3755842
165	0x3dfb7c8e	0.12279616
166	0xbcdb0701	-0.026736738
167	0xbd598c74	-0.053112462
168	0x3e07ddfb	0.13268273
169	0x3d57b1f6	0.05265995
170	0xbd2a60b5	-0.041596133
171	0x3cf4843c	0.02984821
172	0x3d8dd620	0.06925607
173	0x3dc09a16	0.094043896
174	0xbd873b1f	-0.06603073
175	0x3dc1d98d	0.09465323
176	0x3c97c37a	0.018525828
177	0xbe10bf29	-0.14135422
178	0xbdac60a0	-0.08416867
179	0xbd997ed3	-0.07494893
180	0x3d876db4	0.06612721
181	0xbd3dbd3b	-0.046323042
182	0xbd82ed69	-0.06392939
183	0xbdf13d5f	-0.11779284
184	0xbdd21990	-0.10258782
185	0x3d762b25	0.06009974
186	0x3c4d8f06	0.0125463065
187	0x3bdd6832	0.006756806
188	0xbd34d76c	-0.044150755
189	0xbde07e69	-0.10961611
190	0xbd95a180	-0.07306194
191	0x3c094706	0.00837875
192	0xbdac5553	-0.08414712
193	0xbdc33acd	-0.095327
194	0x3d5b3150	0.053513825
195	0xbd52a018	-0.05142221
196	0x3db90e39	0.09035916
197	0xbb9a3ee8	-0.004707206
198	0xbdf40ca1	-0.11916471
199	0xbd990784	-0.074721366
200	0x3e0054d1	0.12532355
201	0x3e3a1d64	0.18175274
202	0x3d8c4bf6	0.06850426
203	0x3e1c50c9	0.15265192
204	0x3e0ad69d	0.13558431
205	0x3e59fa2b	0.21286838
206	0x3d7539bf	0.059869524
207	0x3e02550a	0.12727752
208	0x3b8087ed	0.0039224536
209	0x3dac02bf	0.08398961
210	0x3e2fd252	0.17170075
211	0x3dfc1741	0.12309123
212	0x3bbaed8e	0.0057045883
213	0x3e2eadd7	0.17058502
214	0x3cdc63a5	0.026902983
215	0x3e9499bb	0.29023537
216	0x3e1e3cf0	0.15452933
217	0x3e21c656	0.15798315
218	0x3d557be5	0.05212011
219	0x3dcaaf40	0.098967075
220	0x3df046fe	0.11732291
221	0x3e06590b	0.13119905
222	0x3dd734c0	0.10508108
223	0x3e050e1f	0.12993668
224	0x3e23c9b5	0.15994914
225	0xbf4b2f68	-0.7936921
226	0xbecfa96c	-0.40558946
227	0xbf03de20	-0.5151081
228	0xbef6c423	-0.48196515
229	0xbf564ede	-0.8371409
230	0xbf2e60c6	-0.68116415
231	0xbe93d472	-0.2887302
232	0xbeadc378	-0.33938193
233	0xbe23a692	-0.1598151
234	0xbe70fb05	-0.23533256
235	0xbe544b5b	-0.20731871
236	0x3e54d288	0.20783436
237	0x3e3ae834	0.18252641
238	0x3e3924ad	0.18080397
239	0x3e2323c7	0.15931617
240	0x3ee5ff62	0.44921404
241	0x3f5f9492	0.87336075
242	0x3f3b2749	0.7310682
243	0x3f2216af	0.6331586
244	0x3f198d0a	0.59980834
245	0x3f1b46d9	0.6065498
246	0x3f21db0b	0.6322486
247	0x3e423265	0.18964536
248	0x3ed15431	0.40884545
249	0x3e962b6f	0.29330012
250	0x3d22c95f	0.039742824
251	0xbd916009	-0.070983954
252	0xbe050a83	-0.12992291
253	0xbe0111f6	-0.12604508
254	0xbe675446	-0.22590742
255	0x3e329db1	0.17442967

cnn_head.1.weight f4 [24]
0	0x3ecd44e3	0.4009162
1	0x3ecbc252	0.39796692
2	0x3ef0e6da	0.47051126
3	0x3efb9ebf	0.4914455
4	0x3f06b5e0	0.5262127
5	0x3e935f0f	0.2878346
6	0x3ef5adb3	0.47984084
7	0x3ebf58e6	0.37372512
8	0x3e93497c	0.28767002
9	0x3fb30e78	1.398879
10	0x3ee64ad3	0.4497896
11	0x3f3b7d9b	0.73238534
12	0x3ef2bb6c	0.47408617
13	0x3f57e67c	0.84336066
14	0x3f335107	0.7004551
15	0x3f12a1c0	0.5727806
16	0x3ed65665	0.4186279
17	0x3ebd5c8e	0.36984676
18	0x3fa06038	1.2529364
19	0x3ec87fef	0.39160106
20	0x3ec2af00	0.3802414
21	0x3f54c9af	0.83120245
22	0x3e884190	0.2661252
23	0x3ece8990	0.40339327

cnn_head.1.bias f4 [24]
0	0xbe04e9a6	-0.12979755
1	0xbdca06f3	-0.09864607
2	0xbd2e4c5c	-0.04255329
3	0xbdfe2fc4	-0.12411454
4	0x3e5fe0af	0.21863054
5	0xbea0ea44	-0.3142873
6	0x3e10d6b2	0.141444
7	0xbe2428a0	-0.16031122
8	0xbe140685	-0.14455612
9	0x3dd74547	0.105112605
10	0xbe43d257	-0.19123207
11	0x3ee2531e	0.44204038
12	0xbe09703a	-0.13421717
13	0xbe12fbbf	-0.14353846
14	0x3e00f7d9	0.12594546
15	0xbe7e1ab8	-0.2481488
16	0x3d84c23c	0.0648236
17	0xbe48eb10	-0.19620919
18	0x3e7cf4b3	0.2470272
19	0x3d626624	0.05527319
20	0xbd2a9fed	-0.041656423
21	0xbe506db3	-0.20354347
22	0xbe2e69dc	-0.1703257
23	0xbdc8521f	-0.09781288

cnn_head.1.running_mean f4 [24]
0	0x3ff92447	1.9464196
1	0x4185d9bd	16.731318
2	0xc0552ce6	-3.3308654
3	0x3fcfbbb7	1.6229161
4	0x3f810202	1.0078738
5	0x40ee1d51	7.4410787
6	0xbfb7e85b	-1.4367784
7	0x4056df87	3.357393
8	0xc13ad0d5	-11.675984
9	0xc0b3ac67	-5.614795
10	0xbee3961d	-0.44450465
11	0xc05baaed	-3.4323075
12	0xc16b75ba	-14.716242
13	0x401c58fe	2.4429317
14	0xc0d01366	-6.502368
15	0x410e1a3d	8.881406
16	0x409d36d5	4.9129434
17	0x405f6968	3.4908085
18	0xc135233b	-11.321101
19	0x40e08bdf	7.017074
20	0x40a1fbbf	5.0619807
21	0xc0d80735	-6.75088
22	0xc0dee343	-6.965242
23	0x410f5523	8.958285

cnn_head.1.running_var f4 [24]
0	0x4085bdc4	4.1794147
1	0x4327564d	167.33711
2	0x411a7e62	9.655855
3	0x40d9299a	6.7863283
4	0x40319ccf	2.7751958
5	0x4218a4bd	38.160877
6	0x405d4167	3.4571168
7	0x40f9aa81	7.8020635
8	0x42a46a3e	82.207504
9	0x426e0ce7	59.5126
10	0x40a924b2	5.2857294
11	0x4180e744	16.112923
12	0x4305c571	133.77126
13	0x41aa2211	21.266634
14	0x422bb880	42.930176
15	0x42519431	52.39472
16	0x41c2b9e7	24.340773
17	0x4101f84f	8.123122
18	0x42dd4b05	110.64652
19	0x41f92702	31.144047
20	0x418e9f29	17.827715
21	0x4220bc82	40.18409
22	0x41ed7bf0	29.685516
23	0x42454d09	49.32523

BCBlocks.0.0.f2.0.block.0.weight f4 [12, 24, 1, 1]
0	0xbd46bb3c	-0.048518404
1	0xbe2a9312	-0.16657665
2	0x3d94ce67	0.072659306
3	0xbe93fa09	-0.289017
4	0xbec268b8	-0.3797052
5	0xbe06f9bc	-0.13181204
6	0xbe10ed7f	-0.14153098
7	0xbd048422	-0.032352574
8	0x3dbb33c4	0.09140733
9	0xbf9e7b85	-1.2381445
10	0xbc8148ba	-0.015781749
11	0xbf0eb1f2	-0.55740273
12	0x3de62ad3	0.11238637
13	0xbf2e6e92	-0.68137467
14	0x3f35e707	0.71055645
15	0x3d563510	0.052296698
16	0xbeb94514	-0.36185515
17	0xbd7a31e1	-0.061082724
18	0x3f221cbb	0.6332509
19	0x3eac0188	0.33594918
20	0xbbd59449	-0.006517921
21	0x3f42baa6	0.7606605
22	0x3e0fd4c1	0.14046003
23	0xbe5055af	-0.20345186
24	0x3da57f05	0.08080868
25	0x3c8d88ff	0.017277239
26	0x3e8abe70	0.27098417
27	0x3e39daa5	0.18149813
28	0x3e621cfd	0.2208137
29	0x3e55f5ea	0.2089459
30	0x3b168bac	0.0022971435
31	0x3dd72a17	0.10506075
32	0x3d81ede4	0.06344202
33	0x3e90010a	0.28125793
34	0x3e702ee7	0.23455392
35	0x3e8ff380	0.28115463
36	0x3cbd2abb	0.023091665
37	0xbc6165e0	-0.013757199
38	0x3d8c6c9a	0.068566516
39	0x3e0c46e2	0.13698915
40	0x3e72dc3e	0.23716828
41	0x3e597cf7	0.21239077
42	0x3da2d5ff	0.07950973
43	0xbd8d7964	-0.06907919
44	0x3deb101c	0.11477682
45	0x3dbcc283	0.09216788
46	0xbd7ad6a5	-0.061239857
47	0x3e120ca3	0.14262633
48	0x3e068f75	0.13140662
49	0xb98d78b8	-0.00026983558
50	0x3dfd6ea7	0.12374621
51	0x3e41231a	0.18861046
52	0x3e14acaf	0.14518999
53	0x3e240c8c	0.16020411
54	0xbe1c380e	-0.15255758
55	0x3d83560c	0.064128965
56	0xbcb47aa7	-0.022031141
57	0x3c70492c	0.014665883
58	0x3e82d150	0.25550318
59	0x3d002b95	0.031291563
60	0xbddff196	-0.10934751
61	0x3e3ef8d2	0.18649605
62	0xbc003a38	-0.00782638
63	0xbe2ccdfa	-0.16875449
64	0xbe14aaea	-0.14518324
65	0xbcbb8103	-0.022888666
66	0xbdf43f6e	-0.11926161
67	0xbe60a18b	-0.21936624
68	0xbeb4e1ac	-0.35328424
69	0xbea71ea7	-0.32640573
70	0xbe0ca57d	-0.13735004
71	0x3d451574	0.048116162
72	0x3e82bdfe	0.25535578
73	0x3bf6b3a0	0.007528737
74	0x3cfd21ee	0.030899968
75	0x3dee5ee4	0.11639193
76	0x3d52d30a	0.051470794
77	0x3d67a821	0.056556825
78	0xbdc8509b	-0.09780999
79	0x3e4656b7	0.19369017
80	0xbd6dcffa	-0.05805967
81	0xbdb8692e	-0.090044364
82	0x3e435210	0.19074273
83	0x3ca6986b	0.02033635
84	0xbda2cf69	-0.079497166
85	0x3dd101c4	0.10205415
86	0xbd886405	-0.06659702
87	0x3de9619f	0.11395573
88	0x3d807525	0.062723435
89	0x3dad2212	0.08453764
90	0xbe819a81	-0.2531319
91	0x3c5e777b	0.013578291
92	0xbe4c7453	-0.19966249
93	0xbdc4a47e	-0.09601687
94	0x3cacf42b	0.021112522
95	0x3dc64075	0.09680263
96	0xbdacec14	-0.08443466
97	0x3d8aa353	0.06769433
98	0xbd9e8a9c	-0.077412814
99	0xbdebf010	-0.11520398
100	0xbdb8a01b	-0.09014913
101	0xbd1c0649	-0.03809193
102	0x3ef4845e	0.47757238
103	0xbd34538b	-0.044024985
104	0x3e3ec2e9	0.1862904
105	0xbeeb6690	-0.45976686
106	0xbe47cb00	-0.19511032
107	0xbdc4ff8e	-0.09619056
108	0x3ef0e7c1	0.47051814
109	0xbe9969d0	-0.2996354
110	0x3e2d8188	0.16943944
111	0x3e2f49d9	0.17118014
112	0x3abe19d1	0.0014503543
113	0xbc1f68f7	-0.009729615
114	0x3f63edda	0.8903481
115	0x3e2381d4	0.15967494
116	0xbe2491fa	-0.1607131
117	0x3ed3ca3a	0.41365224
118	0x3e82712d	0.2547697
119	0xbe0fd8b8	-0.14047515
120	0xbdf02105	-0.11725048
121	0xbc5ae1f9	-0.01335954
122	0x3e865b42	0.262415
123	0xbd81b491	-0.063332684
124	0xbe770173	-0.24121647
125	0xbce5ca89	-0.028050678
126	0x3d66ba6a	0.056330122
127	0xbd9bf79b	-0.07615586
128	0x3e143fc6	0.14477453
129	0x3e5d30a1	0.21600582
130	0xbe6d52fb	-0.23176186
131	0x3e3d1ebe	0.18468758
132	0x3e9c6c9a	0.30551606
133	0x3c299ca3	0.0103522865
134	0x3e5983dd	0.21241708
135	0xbd2ac829	-0.041694794
136	0xbe0746f1	-0.13210656
137	0xbe076355	-0.13221486
138	0xbdafdbe1	-0.085868604
139	0x3e3aa6c4	0.18227679
140	0x3c081e38	0.008307986
141	0xbd04652c	-0.032323048
142	0x3d606bdd	0.054790366
143	0xbe3bdb44	-0.18345362
144	0xbdaf43b9	-0.08557839
145	0x3e3efc42	0.18650916
146	0x3ee3e93e	0.44513887
147	0x3906857c	0.00012828963
148	0xbdaf0522	-0.08545901
149	0xbbda2e47	-0.0066583487
150	0xbc97f37b	-0.018548718
151	0xbd8a8771	-0.06764115
152	0x3de1690d	0.11006365
153	0xbdec6b68	-0.115439236
154	0xbe6289c8	-0.22122872
155	0x3e2b6a50	0.16739774
156	0x3dbf63c4	0.09345201
157	0x3d9a3e66	0.07531433
158	0x3eb351e6	0.3502342
159	0xbe21d489	-0.15803732
160	0x3d4e2ddb	0.0503367
161	0xbdbc1930	-0.09184492
162	0x3e116b9a	0.14201203
163	0x3cc3b027	0.023887707
164	0xbdc2e65c	-0.09516594
165	0x3dcec739	0.100965925
166	0x3dbb525a	0.09146567
167	0xbd2eddf1	-0.04269213
168	0xbe3dcfa9	-0.18536247
169	0x3e5c1482	0.21492198
170	0x3e8a80c3	0.27051362
171	0xbe295796	-0.16537318
172	0x3dc1cea5	0.094632424
173	0x3e62f243	0.22162728
174	0x3e4a101e	0.1973271
175	0xbd9e8b97	-0.077414684
176	0x3e0b0fe4	0.1358028
177	0xbeed958d	-0.4640316
178	0xbe2a88f5	-0.16653807
179	0xbeb70953	-0.357493
180	0x3ddf2a53	0.108967446
181	0xbf23f86e	-0.6405095
182	0x3e700e22	0.23442891
183	0x3e12f846	0.14352521
184	0xbd12a08d	-0.035797644
185	0xbd50677e	-0.050879948
186	0x3eac269b	0.33623204
187	0xbda0e8c8	-0.078568995
188	0x3df2879c	0.11842272
189	0xbd91589f	-0.07096981
190	0x3e1eb5fb	0.15499108
191	0xbde1699b	-0.11006471
192	0x3b42889f	0.0029683483
193	0x3dc3de83	0.09563925
194	0xbda9ceaf	-0.08291375
195	0x3d83b701	0.064313896
196	0x3e7dc552	0.24782303
197	0x3d04b314	0.032397345
198	0xbd86253d	-0.065500714
199	0x3dfe80f5	0.1242694
200	0xbdee3b63	-0.11632421
201	0xbe903850	-0.28167963
202	0xbd35799a	-0.04430542
203	0xbdd06b82	-0.101767555
204	0x3c80e357	0.015733404
205	0xbd3fcac7	-0.046824243
206	0xbe2f1a30	-0.17099833
207	0x3de5531f	0.11197495
208	0x3e56e5d9	0.20986117
209	0x3e036ceb	0.12834518
210	0xbe1b0ff6	-0.15142807
211	0xbdb341a9	-0.08752758
212	0x3d2d8479	0.042362664
213	0xbd105021	-0.035232667
214	0xbd61dd67	-0.055142786
215	0x3e4f57c7	0.20248328
216	0x3bcfaca2	0.006337718
217	0xbd67c4fc	-0.056584343
218	0xbb6efce0	-0.0036466643
219	0x3e44a345	0.19202907
220	0xbdd5d36d	-0.10440717
221	0x3dbe7a8a	0.09300716
222	0x3e3a5171	0.1819513
223	0xbdeaec73	-0.1147088
224	0x3e310270	0.17286086
225	0x3f401abd	0.750408
226	0x3c4e62df	0.012596815
227	0x3f100ef7	0.56272835
228	0x3e83ac30	0.25717306
229	0x3c6996cb	0.014257143
230	0x3ddb3bec	0.107047886
231	0x3e0547e8	0.13015711
232	0x3de2b685	0.11069969
233	0xbd52da16	-0.051477514
234	0x3e200c29	0.15629639
235	0x3e65a7df	0.22427319
236	0xbdbbde49	-0.09173257
237	0x3e3e694f	0.1859486
238	0x3d311029	0.043228302
239	0xbcac2bac	-0.021016918
240	0xbe0ce26d	-0.1375825
241	0xbd5a3481	-0.053272728
242	0xbea4eac0	-0.3221035
243	0xbdf77316	-0.12082498
244	0x3e06517a	0.13117018
245	0xbe60af25	-0.21941812
246	0x3ec4a227	0.38404962
247	0xbe290273	-0.1650484
248	0x3dd2046e	0.10254751
249	0xbcf94ae2	-0.030431215
250	0xbe08d5eb	-0.13362853
251	0xbef39fc0	-0.47582817
252	0x3e0f9b28	0.14024031
253	0xbc8c7975	-0.017147759
254	0xbf001b30	-0.50041485
255	0x3efac27a	0.489765

BCBlocks.0.0.f2.0.block.1.weight f4 [12]
0	0x3f6b55ee	0.91927993
1	0x3f004a2f	0.50113195
2	0x3efac2ef	0.48976848
3	0x3efd3fd8	0.4946277
4	0x3f489f3f	0.7836799
5	0x3f030b40	0.5118904
6	0x3f0a8014	0.5410168
7	0x3ec35242	0.38148695
8	0x3f1243df	0.57134813
9	0x3f06cf2d	0.52659875
10	0x3ddb94dc	0.10721752
11	0x3ef9758f	0.48722503

BCBlocks.0.0.f2.0.block.1.bias f4 [12]
0	0x3e738ed9	0.23784961
1	0xbd9bc209	-0.07605369
2	0xbdedebe8	-0.11617261
3	0xbd265f11	-0.040618006
4	0xbdedc59c	-0.116099566
5	0x3e1d43c6	0.15357885
6	0x3def9997	0.11699217
7	0x3ef78344	0.48342335
8	0x3d1fdf11	0.039031092
9	0x3e5b1ed3	0.21398477
10	0x3f399d51	0.7250567
11	0x3eb4d21a	0.35316545

BCBlocks.0.0.f2.0.block.1.running_mean f4 [12]
0	0xbf032447	-0.5122723
1	0x3f3717a5	0.71520454
2	0xbe36600f	-0.17810081
3	0xbe200209	-0.15625776
4	0x3f0be581	0.5464707
5	0x3e576ebe	0.21038339
6	0x3eaa5e77	0.33275196
7	0xbe4c35a7	-0.19942342
8	0xbe820d20	-0.2540064
9	0x3f8b900e	1.0903337
10	0x3eb68dca	0.3565505
11	0x3f218c33	0.6310455

BCBlocks.0.0.f2.0.block.1.running_var f4 [12]
0	0x40197716	2.3978934
1	0x3e2e2853	0.1700757
2	0x3de801c5	0.113284625
3	0x3e506567	0.20351182
4	0x3fb4d860	1.4128532
5	0x3e46d7ea	0.19418302
6	0x3e470e52	0.19439057
7	0x3efcb75f	0.4935865
8	0x3e9a1e4a	0.30101234
9	0x3f59f172	0.8513404
10	0x3f54b511	0.83088785
11	0x3ec19a71	0.37813142

BCBlocks.0.0.f2.1.block.0.weight f4 [12, 1, 3, 1]
0	0x3fd1d82e	1.6394098
1	0x3e8b8420	0.2724924
2	0x3d1c172e	0.038108043
3	0xbf13991b	-0.57655495
4	0xbe58aadb	-0.21158926
5	0xbf638abb	-0.8888356
6	0xbdc7a7b7	-0.09748786
7	0x3d5b99e7	0.05361357
8	0xbebad4d6	-0.36490506
9	0x3eabed68	0.33579564
10	0xbeb35d83	-0.3503228
11	0xbeebfea9	-0.46092728
12	0x3ed5dae2	0.41768557
13	0x3e3844d5	0.17995007
14	0x3f883e06	1.0643928
15	0xbeb06228	-0.34449887
16	0xbee38d4e	-0.44443744
17	0x3dd5b9ea	0.10435851
18	0xbed9804a	-0.4248069
19	0xbda5bedc	-0.08093044
20	0xbf025173	-0.5090553
21	0xbf6d0b11	-0.9259501
22	0x3f06fea0	0.52732277
23	0x3cc7d47b	0.02439331
24	0x3d22183a	0.039573886
25	0xbebe7006	-0.37194842
26	0xbe1381fe	-0.14405057
27	0xbeb58969	-0.35456398
28	0x3e6409ca	0.22269359
29	0x3f846a25	1.0344893
30	0xbf3481bd	-0.70510465
31	0x3fb18441	1.3868486
32	0xbf0203c1	-0.5078698
33	0xbefd238f	-0.49441192
34	0xbf0105d7	-0.50399536
35	0x3ecba0d8	0.39771152

BCBlocks.0.0.f2.1.block.1.ssnorm.weight f4 [60]
0	0x3eff9362	0.49917132
1	0x3fb35377	1.4009846
2	0x3f615512	0.8802043
3	0x3f87960d	1.0592667
4	0x3f43e31b	0.7651841
5	0x3f1213b9	0.57061344
6	0x3eb4fc85	0.35348907
7	0x3ee9e279	0.45680597
8	0x3f148dda	0.5802895
9	0x3ee0a18a	0.43873245
10	0x3eeb11df	0.45912072
11	0x3eed95f7	0.46403477
12	0x3ef3a937	0.47590038
13	0x3eb5aa7b	0.3548163
14	0x3ecad287	0.39613745
15	0x3ef4ff60	0.47851086
16	0x3ee9ad2f	0.4563994
17	0x3ed8ecae	0.42368072
18	0x3f0d431a	0.55180514
19	0x3ef3f4f0	0.4764781
20	0x3f60b898	0.8778167
21	0x3ebe3c2e	0.37155288
22	0x3e9ce013	0.30639705
23	0x3f064fa1	0.52465254
24	0x3f15a0bb	0.5844838
25	0x3f0c6444	0.54840493
26	0x3f161aa1	0.5863438
27	0x3f0904b5	0.5352281
28	0x3ef37737	0.4755189
29	0x3e76ebd2	0.24113396
30	0x3f100324	0.5625479
31	0x3ef2b4bf	0.47403523
32	0x3f25b9f7	0.64736885
33	0x3e9d4eac	0.30724084
34	0x3efb1fd7	0.4904773
35	0x3d565b49	0.05233315
36	0x3f3b732f	0.7322263
37	0x3f14dadd	0.5814646
38	0x3e9b71ed	0.30360356
39	0x3f22c142	0.6357614
40	0x3ef666c8	0.4812529
41	0x3ef7e43e	0.48416322
42	0x3f22b4ff	0.6355743
43	0x3f0babde	0.54559124
44	0x3f03ca57	0.5148062
45	0x3f82f0af	1.0229701
46	0x3e07acaf	0.13249467
47	0x3eaaf4be	0.33389848
48	0x3f4150e6	0.75514066
49	0x3e8f5859	0.2799709
50	0x3e3253bf	0.17414759
51	0x3f8d2e93	1.1029838
52	0x3f00cc02	0.5031129
53	0x3f198a1e	0.59976375
54	0x3e9bfc47	0.3046591
55	0x3ee1ed08	0.44126153
56	0x3ef998a7	0.48749277
57	0x3efdd769	0.49578407
58	0x3f137d49	0.57613045
59	0x3f1d3d66	0.6142181

BCBlocks.0.0.f2.1.block.1.ssnorm.bias f4 [60]
0	0x3e22af99	0.15887298
1	0x3eb9632f	0.36208484
2	0x3e91ec9b	0.28500828
3	0x3e55a35f	0.20863102
4	0xbd5b8a57	-0.053598728
5	0x3e1235f2	0.14278391
6	0xbe5ae965	-0.21378095
7	0x3d63a6c1	0.05557895
8	0x3d30b9f2	0.04314608
9	0xbd7297e4	-0.059226885
10	0x3d89969b	0.06718179
11	0x3d515725	0.051108498
12	0x3cdaffe5	0.026733348
13	0xbd8e2557	-0.06940716
14	0x3cc3b90b	0.023891946
15	0x3d31a63d	0.043371428
16	0xbd551ea8	-0.05203119
17	0x3c55124b	0.01300485
18	0x3e378545	0.17921932
19	0x3bb62d35	0.0055595883
20	0x3ef9fa15	0.4882361
21	0xbb85d5b2	-0.0040843124
22	0xbe8f48a4	-0.27985108
23	0xbcd94bc8	-0.026525393
24	0x3a94a7dc	0.001134153
25	0xbd35b500	-0.04436207
26	0x3c83cf0f	0.016089944
27	0x3dc04e23	0.093899034
28	0x3cdec379	0.027192818
29	0xbe66b9ca	-0.2253181
30	0xbd9d522f	-0.07681691
31	0xbdc59789	-0.09648044
32	0x3d00c484	0.031437412
33	0x3d26234e	0.040561013
34	0x3dcf893e	0.10133599
35	0xbeabd904	-0.33564007
36	0xbb6fc5d9	-0.0036586432
37	0x3ea7427d	0.32667914
38	0xbd647819	-0.055778597
39	0xbca8151b	-0.020517876
40	0x3e6a4d21	0.22880985
41	0x3da56570	0.08075988
42	0x3d8bd594	0.06827846
43	0xbca212a4	-0.01978428
44	0x3cfe5d7d	0.031050438
45	0x3bf7502b	0.0075473986
46	0xbe2d2e99	-0.16912307
47	0x3e766e59	0.24065532
48	0x3e409ac2	0.18809035
49	0xbde74120	-0.112917185
50	0xbea9a9c6	-0.3313734
51	0x3effbd37	0.49949047
52	0x3d4ef553	0.05052693
53	0xbd966a13	-0.07344451
54	0xbdcfe2e7	-0.101507
55	0xbe373b35	-0.1789368
56	0x3df3898e	0.11891471
57	0xbc3dcd69	-0.011584618
58	0x3c0e9e04	0.008704666
59	0x3e436164	0.1908012

BCBlocks.0.0.f2.1.block.1.ssnorm.running_mean f4 [60]
0	0x3fb2b523	1.3961529
1	0x3f82abfd	1.0208737
2	0x3f350484	0.70710015
3	0x3f0c4fa4	0.5480902
4	0x3f1ee1b7	0.62063164
5	0xbe8f1abb	-0.2795008
6	0xbe38a4f4	-0.18031675
7	0xbe2fef13	-0.17181043
8	0xbe425850	-0.18979001
9	0xbec632dc	-0.38710678
10	0xbd05d6ce	-0.032675557
11	0xbd0fd36f	-0.03511375
12	0xbd3696cb	-0.0445774
13	0xbd3f33b5	-0.04668017
14	0xbd9f6349	-0.07782609
15	0xbdbd73cb	-0.092506014
16	0xbdacd436	-0.084389135
17	0xbde274c4	-0.110574275
18	0xbdc76f68	-0.09738046
19	0xbddb26f9	-0.10700793
20	0x3f335028	0.70044184
21	0x3eeaf701	0.45891574
22	0x3e8351a3	0.2564822
23	0x3e8011a9	0.25013474
24	0x3e6a5aa9	0.22886147
25	0xbe7dce50	-0.24785733
26	0xbe533827	-0.20626889
27	0xbe29c520	-0.16579103
28	0xbe38efdf	-0.18060254
29	0xbe3fc48b	-0.18727319
30	0xbed66ec3	-0.4188138
31	0xbe9db9b1	-0.30805734
32	0xbe59eabc	-0.2128095
33	0xbe5b160b	-0.21395127
34	0xbe4aabea	-0.19792143
35	0xbe1e30a5	-0.15448244
36	0xbe4086ce	-0.18801424
37	0xbe56cdbe	-0.20976922
38	0xbe2081ac	-0.15674466
39	0xbe5e0ae4	-0.21683842
40	0xbdc93886	-0.09825234
41	0xbe036f50	-0.12835431
42	0xbe19fb1d	-0.15037198
43	0xbe12a2c6	-0.14319906
44	0xbe052fc2	-0.130065
45	0x3eca7a23	0.39546308
46	0x3e4be9df	0.19913433
47	0x3e77af65	0.24188001
48	0x3e892d20	0.2679224
49	0x3eaafcac	0.33395898
50	0x3e950c4e	0.2911095
51	0x3e04c7e5	0.12966879
52	0x3df90bd7	0.121604614
53	0x3df93858	0.1216895
54	0x3e556826	0.2084051
55	0xbe48681a	-0.19570962
56	0xbe7bfdb9	-0.24608506
57	0xbe3f2952	-0.18668106
58	0xbe6fd0a3	-0.23419432
59	0xbe8985c4	-0.26859868

BCBlocks.0.0.f2.1.block.1.ssnorm.running_var f4 [60]
0	0x4000ce84	2.0126047
1	0x3fba5bc5	1.4559256
2	0x3f03e2bf	0.5151786
3	0x3e89d6c4	0.26921666
4	0x3ea543ea	0.32278377
5	0x3e1d613c	0.15369123
6	0x3db2899c	0.08717653
7	0x3dbb7184	0.09152511
8	0x3dc2453e	0.09485863
9	0x3e72cc37	0.23710714
10	0x3bd0f291	0.0063765724
11	0x3bd592c0	0.006517738
12	0x3c022378	0.007943027
13	0x3c022ad2	0.0079447795
14	0x3cf07a0c	0.029355071
15	0x3ca02b0c	0.019551776
16	0x3c504c52	0.012713509
17	0x3c803f08	0.015655056
18	0x3c67d896	0.014150759
19	0x3c863631	0.016383262
20	0x3ed684be	0.4189815
21	0x3eddbd8e	0.4330868
22	0x3e3b5bb0	0.18296695
23	0x3e41e467	0.18934785
24	0x3e398244	0.18116099
25	0x3d966f3f	0.07345437
26	0x3d776746	0.060401224
27	0x3d4b4154	0.04962285
28	0x3d5b60ff	0.0535593
29	0x3d7eb060	0.062179923
30	0x3e0564e1	0.13026763
31	0x3e153d5b	0.14574187
32	0x3dcd109a	0.10012932
33	0x3ddc4d37	0.10756915
34	0x3dcf36a0	0.10117841
35	0x3e98e71c	0.29863822
36	0x3d98e606	0.074657485
37	0x3d2090a3	0.039200436
38	0x3d21fa48	0.039545327
39	0x3d43b370	0.047778547
40	0x3cacafa9	0.021079855
41	0x3cb6bd2e	0.022307005
42	0x3cc5994c	0.02412095
43	0x3cbf7f5f	0.023376165
44	0x3ca5141a	0.020151187
45	0x3e898ea2	0.26866633
46	0x3df73a66	0.120716855
47	0x3e02ae72	0.12761858
48	0x3e101c38	0.14073265
49	0x3e2892b2	0.1646221
50	0x3e3a5937	0.18198095
51	0x3c104c5a	0.008807266
52	0x3b99026f	0.0046694796
53	0x3b8465a7	0.004040438
54	0x3cc4bc2b	0.024015507
55	0x3e0cc0b1	0.13745381
56	0x3dc7bfbd	0.09753368
57	0x3da06bba	0.07833047
58	0x3da4bd06	0.08043866
59	0x3e128e0a	0.14311996

BCBlocks.0.0.f1.0.block.0.weight f4 [12, 1, 1, 3]
0	0xbd58fe34	-0.052976802
1	0x3ea2d73c	0.31804836
2	0x3e790557	0.24318443
3	0xbeaff86e	-0.34369224
4	0xbe53a738	-0.20669258
5	0x3bdb7bbb	0.0066980994
6	0xbe6dc95c	-0.23221344
7	0x3e98d6b6	0.2985131
8	0x3e43d6f9	0.19124974
9	0xbcd7d824	-0.026348181
10	0xbc42cc3c	-0.011889514
11	0x3eba883e	0.3643207
12	0xbdf86dfc	-0.12130353
13	0xbd0e113e	-0.034684412
14	0xbdc87d92	-0.09789576
15	0xbe867e2e	-0.26268142
16	0x3e14a595	0.1451629
17	0xbe419558	-0.18904626
18	0xbe0c15f9	-0.13680257
19	0xbe9bddfd	-0.304428
20	0x3cf17bfc	0.029478066
21	0xbefb91eb	-0.49134764
22	0xbd140b77	-0.036143746
23	0x3db8b346	0.09018569
24	0xbe87022a	-0.2636884
25	0xbd2aed0d	-0.041729975
26	0xbe160c54	-0.1465314
27	0xbe268139	-0.16260232
28	0x3e4eaba2	0.2018266
29	0x3e0e7f0b	0.1391565
30	0xbdd71902	-0.10502817
31	0xbed1bf55	-0.40966287
32	0x3db11fff	0.08648681
33	0xbe317d02	-0.17332843
34	0x3e6f032f	0.23341058
35	0x3e92516f	0.28577754

BCBlocks.0.0.f1.0.block.1.weight f4 [12]
0	0x3eacff29	0.33788422
1	0x3ea98ec2	0.33116728
2	0x3e8594c7	0.2609007
3	0x3e8cb554	0.27482092
4	0x3ed30d47	0.41221067
5	0x3e1d60dd	0.15368982
6	0x3ddec1f0	0.108768344
7	0x3e98a162	0.29810625
8	0x3f264a2a	0.64956915
9	0x3e504d38	0.20341957
10	0x3f2dc278	0.6787486
11	0x3e5e40dc	0.2170443

BCBlocks.0.0.f1.0.block.1.bias f4 [12]
0	0xbe6527c7	-0.22378455
1	0xbde722e4	-0.11285952
2	0xbe51e1b1	-0.2049625
3	0xbe2bb918	-0.16769826
4	0xbdaaede8	-0.08346158
5	0xbe0c93c0	-0.13728237
6	0xbdf99498	-0.12186545
7	0xbddc570e	-0.10758792
8	0xbbf7e8fd	-0.007565616
9	0xbe14c0dd	-0.14526697
10	0xbc2e60b6	-0.010643175
11	0xbdbe4be6	-0.0929182

BCBlocks.0.0.f1.0.block.1.running_mean f4 [12]
0	0x3dc7e6bc	0.09760806
1	0x3b86f96a	0.004119088
2	0x3bf78cc1	0.007554621
3	0x3c688cfa	0.014193768
4	0xbc197b21	-0.009367735
5	0x3c0dbc5a	0.008650864
6	0x39789488	0.00023706455
7	0x3c04c282	0.008103015
8	0xbd0da03a	-0.034576632
9	0x3bb4b50b	0.005514746
10	0xbb6ee060	-0.0036449656
11	0x3c119a44	0.008886877

BCBlocks.0.0.f1.0.block.1.running_var f4 [12]
0	0x3d677e72	0.056517072
1	0x3cf6440a	0.03006174
2	0x3c6153c7	0.013752884
3	0x3c85c026	0.016326975
4	0x3c0ce7a7	0.008600152
5	0x3c6a6547	0.014306373
6	0x3cf09ae1	0.029370727
7	0x3ad4acb1	0.0016225782
8	0x3d2cfc2a	0.04223267
9	0x3b97dd16	0.00463451
10	0x3acefcfd	0.0015791949
11	0x3c2d0fac	0.0105628185

BCBlocks.0.0.f1.1.weight f4 [12, 12, 1, 1]
0	0xbec1f0c8	-0.37879014
1	0x3d8dc9d8	0.06923264
2	0x3d9370a5	0.071992196
3	0xbc95a4e6	-0.018267106
4	0xbe1e3335	-0.15449221
5	0x3d9672fb	0.073461495
6	0x3dfc0cc2	0.12307121
7	0xbe807ac6	-0.2509367
8	0xbeb49360	-0.35268688
9	0x3e4fbbfd	0.20286556
10	0x3e8f7fca	0.28027183
11	0xbe204e54	-0.1565488
12	0x3e5560d7	0.20837723
13	0x3cc6aec8	0.024253264
14	0x3d498e41	0.04920793
15	0x3d29a927	0.041421082
16	0x3cca6e82	0.024710897
17	0x3e156628	0.14589751
18	0x3e04c15c	0.12964386
19	0xbd0afeea	-0.03393451
20	0xbd71cdbc	-0.059034094
21	0x3e07a796	0.13247523
22	0x3c21467d	0.009843466
23	0xbdcf4d5d	-0.10122178
24	0x3e6216d6	0.22079024
25	0xbe63786b	-0.22213905
26	0xbcb784bb	-0.022402158
27	0x3d51e91d	0.051247705
28	0xbb962736	-0.004582311
29	0xbda9577a	-0.08268638
30	0x3dbb32d7	0.09140556
31	0xbe02cf1a	-0.12774315
32	0xbe41bd0f	-0.18919776
33	0xbdaa70f2	-0.08322324
34	0x3e2f99a0	0.17148447
35	0x3d0a9726	0.033835553
36	0xbe9c59a0	-0.30537128
37	0xbe50ed8c	-0.20403117
38	0xbeb5d861	-0.35516647
39	0xbd892f21	-0.06698442
40	0xbd70731c	-0.058703527
41	0xbd7608d0	-0.060066998
42	0xbdbb4ac6	-0.09145121
43	0x3c00f7b2	0.007871555
44	0xbe1f8dbb	-0.1558141
45	0xbbf1ddea	-0.0073811905
46	0xbd21b2de	-0.03947722
47	0xbe19b65d	-0.15010972
48	0x3bdd26b4	0.0067489985
49	0xbc34fb65	-0.011046265
50	0xbda44599	-0.08021087
51	0x3cff1017	0.031135602
52	0x3d5b4d9a	0.053540803
53	0x3daa3d76	0.08312504
54	0xbcd6e27e	-0.026231047
55	0xbcbd3c49	-0.023100035
56	0xbe3f706a	-0.18695226
57	0xba7a52d4	-0.00095490855
58	0x3ea5ad36	0.32358712
59	0x3ca967ce	0.02067938
60	0xbd97ad1e	-0.07406066
61	0x3eb6d87d	0.35712042
62	0x3e0cc323	0.13746314
63	0xbd7d35ef	-0.061819013
64	0x3e714009	0.23559584
65	0xbdfa1aab	-0.12212118
66	0xbd36d642	-0.044637926
67	0xbd5e9618	-0.05434236
68	0x3eea70e1	0.45789245
69	0x3da849b2	0.08217181
70	0x3d0c0d17	0.03419217
71	0x3d3b9c84	0.04580356
72	0x3b3e16a3	0.0029005192
73	0xbe65945b	-0.22419874
74	0xbdb99c11	-0.090629704
75	0xbdc5e1bf	-0.09662198
76	0xbd5a74a4	-0.053333893
77	0xbd32802f	-0.043579277
78	0xbd2b434d	-0.04181223
79	0xbc905e97	-0.017623229
80	0xbe0917d4	-0.13387996
81	0xbde28601	-0.110607155
82	0xbe5b1404	-0.21394354
83	0xbc1365da	-0.008996451
84	0x3c964346	0.018342625
85	0xbe5523af	-0.20814393
86	0x3e47d41d	0.19514509
87	0xbd1a58f1	-0.037682477
88	0xbdb05560	-0.08610034
89	0xbddb3edf	-0.10705351
90	0xbcd4de90	-0.025985032
91	0xbe15aa39	-0.14615716
92	0xbe17d8b3	-0.14828758
93	0x3d8bf266	0.06833343
94	0xbd983c0b	-0.07433327
95	0xbd5bf210	-0.053697646
96	0xbd949d72	-0.07256593
97	0x3d934d92	0.0719253
98	0xbd31c4d0	-0.043400586
99	0x3c9f6fa0	0.019462407
100	0xbd48ee1e	-0.04905521
101	0x3d5686ed	0.05237477
102	0xbc146c21	-0.009058983
103	0x3d22325a	0.0395988
104	0x3d8f95bf	0.07010984
105	0xbd664027	-0.056213524
106	0x3e853cd5	0.26022974
107	0xbe4b1eab	-0.19835918
108	0xbdc3d960	-0.09562945
109	0x3da1c9de	0.07899831
110	0xbd8c81cb	-0.068606935
111	0xbdd230ca	-0.10263212
112	0x3d7806bf	0.06055331
113	0xbd783939	-0.060601447
114	0x3ce1240a	0.027483005
115	0xbe776d64	-0.24162823
116	0xbdacbf8d	-0.08434973
117	0x3dd97bb7	0.106193
118	0xbc1e066f	-0.009645089
119	0xbcc1db1e	-0.023664054
120	0x3e87c98b	0.26520953
121	0x3d8314b8	0.06400436
122	0xbcceb730	-0.025233835
123	0xbc16caeb	-0.009203653
124	0x3e358a15	0.17728455
125	0xbd1372dc	-0.03599821
126	0xbce435a2	-0.027857605
127	0x3d44e60a	0.048070945
128	0x3e56e658	0.20986307
129	0x3e056b9b	0.1302933
130	0x3e7a85ae	0.24465057
131	0x3cc481d5	0.02398769
132	0x3cf8a571	0.030352326
133	0xbe1ed176	-0.1550959
134	0xbe3d3bd5	-0.18479855
135	0xbd8232f7	-0.06357377
136	0xbe0948d6	-0.13406691
137	0xbc97f432	-0.018549059
138	0xbe36f022	-0.17865041
139	0x3d7e8a1a	0.062143423
140	0xbc1d4000	-0.009597778
141	0xbcaca282	-0.021073584
142	0xbea8a52d	-0.3293852
143	0xbd339fc4	-0.043853536

BCBlocks.0.1.f2.0.block.0.weight f4 [12, 1, 3, 1]
0	0x3f1475bb	0.5799214
1	0x3f886f5a	1.0658982
2	0xbe813ab7	-0.25240108
3	0xbec34188	-0.38135934
4	0xbe2d0e77	-0.16900049
5	0x3e4bfa9d	0.1991982
6	0x3e939e20	0.28831577
7	0xbe2555a6	-0.16145954
8	0x3e14aacb	0.14518277
9	0xbebdd867	-0.37079164
10	0xbec4f14c	-0.38465345
11	0xbdad87a9	-0.08473141
12	0xbd6cb84e	-0.057792954
13	0x3f295f84	0.6616137
14	0xbed93e9e	-0.42430586
15	0xbc3951c2	-0.0113109965
16	0x3e968c9f	0.2940416
17	0x3e3b7f81	0.18310358
18	0x3ea91722	0.3302546
19	0x3e15b502	0.1461983
20	0xbe831269	-0.25599983
21	0x3f28b7a7	0.6590523
22	0xbdec5066	-0.11538772
23	0x3dca3c35	0.09874765
24	0x3e6cd705	0.23128898
25	0x3e8ff472	0.28116184
26	0x3dc43147	0.095797114
27	0xbe4b9b59	-0.19883479
28	0x3f200579	0.6250835
29	0x3ee99f57	0.4562938
30	0xbef901be	-0.48634142
31	0x3f1730de	0.5905894
32	0xbeea271e	-0.4573297
33	0x3e9f5759	0.31121328
34	0x3ea05ec5	0.31322303
35	0xbe3009b9	-0.17191209

BCBlocks.0.1.f2.0.block.1.ssnorm.weight f4 [60]
0	0x3f263f21	0.6494008
1	0x3f8691d7	1.0513257
2	0x3e602c11	0.2189181
3	0x3f031c6a	0.5121523
4	0x3ec87f2f	0.39159533
5	0x3efbe6d2	0.4919954
6	0x3ed523ec	0.4162897
7	0x3ee4de0a	0.44700652
8	0x3ee6fca4	0.45114625
9	0x3efe6ccd	0.49692383
10	0x3ee9804a	0.4560569
11	0x3eeaecbb	0.45883736
12	0x3ee46e21	0.44615272
13	0x3f005adf	0.5013866
14	0x3efe777e	0.4970054
15	0x3efb0d0e	0.49033397
16	0x3ef72005	0.48266616
17	0x3f1eea07	0.6207585
18	0x3eade37f	0.33962628
19	0x3ec979f2	0.3935085
20	0x3f0ded47	0.5544018
21	0xbd331c15	-0.043727953
22	0x3d89169d	0.06693766
23	0x3ef3c6c5	0.47612587
24	0x3f1d64cf	0.61481947
25	0x3f236f6c	0.6384189
26	0x3f0148f1	0.50501925
27	0x3ed8e2c8	0.4236052
28	0x3ef2dab5	0.47432485
29	0x3eda9a71	0.42695954
30	0x3f16e686	0.589455
31	0x3ee07b02	0.43843848
32	0x3ea8785a	0.3290432
33	0x3ee6fca4	0.45114625
34	0x3ef75a81	0.48311237
35	0x3ee5d6cc	0.4489044
36	0x3f69d1fb	0.9133603
37	0x3f04d4bd	0.5188711
38	0x3d8fe4aa	0.07026036
39	0x3ea66d07	0.32505056
40	0x3ec8b49b	0.3920029
41	0x3e852d89	0.26011303
42	0x3f066323	0.5249502
43	0x3f10c374	0.5654824
44	0x3ed17a8c	0.40913808
45	0x3f4119ee	0.7543019
46	0xbe0b0c88	-0.13578999
47	0x3ee520a7	0.44751474
48	0x3f03a08f	0.5141687
49	0x3ebb8348	0.36623597
50	0x3eb5fa4d	0.35542527
51	0x3f7823ae	0.9692944
52	0x3ec29d7d	0.3801078
53	0x3f1cc085	0.6123126
54	0x3eff1549	0.49820927
55	0x3f16ce66	0.5890869
56	0x3ceb172d	0.028697575
57	0x3f100053	0.56250495
58	0x3eef7737	0.4677064
59	0x3edae656	0.42753857

BCBlocks.0.1.f2.0.block.1.ssnorm.bias f4 [60]
0	0xbe3d1d9e	-0.1846833
1	0x3d1dc002	0.03851319
2	0x3e2a7571	0.16646363
3	0x3e7ba64c	0.24575156
4	0xbd6c0c93	-0.05762918
5	0x3dca3607	0.09873586
6	0xbd9b0ccd	-0.07570801
7	0xbc0c4b0b	-0.0085628135
8	0x3d75d161	0.060014132
9	0xbd29af39	-0.04142687
10	0xbc05bbf5	-0.008162488
11	0xbd835042	-0.06411792
12	0x3d3be7fe	0.045875542
13	0xbdaf96cd	-0.08573685
14	0xbcb5f5ed	-0.022211993
15	0xbd78252b	-0.06058232
16	0xbe18a3a1	-0.1490617
17	0xbd97e580	-0.074168205
18	0x3cd078ec	0.025448285
19	0x3d59767e	0.05309152
20	0x3ea5857e	0.3232841
21	0xbd6ce9ee	-0.05784028
22	0xbe689999	-0.22714843
23	0xbcc2a0c6	-0.023758303
24	0x3d23d808	0.040000945
25	0xbc8ac437	-0.016939266
26	0x3db41e17	0.08794802
27	0x3d85d8c5	0.06535486
28	0xbc5e0dc8	-0.01355309
29	0xbde33dea	-0.110957935
30	0x3d24a76c	0.04019873
31	0xbd3d8612	-0.046270438
32	0xbd711d81	-0.058866028
33	0xbb0bb372	-0.0021316675
34	0x3cfae55b	0.030626943
35	0xbdf56378	-0.11981863
36	0x3e16799a	0.14694825
37	0x3e75f6aa	0.24019876
38	0xbc008db6	-0.0078462865
39	0xbd0f952f	-0.035054382
40	0x3de1108b	0.109894834
41	0xbd96dbb1	-0.073661216
42	0x3d6ba09d	0.05752622
43	0x3ca1f88e	0.01977184
44	0xbc9b0875	-0.018924931
45	0xbded557b	-0.1158857
46	0xbdfa7653	-0.122296
47	0x3cca3d66	0.02468748
48	0xbae0eb91	-0.0017160048
49	0x3c8ff873	0.017574525
50	0xbed09c97	-0.4074447
51	0xbd0193ec	-0.03163521
52	0xbe208821	-0.15676929
53	0xbdb8ae18	-0.09017581
54	0xbd9e358c	-0.07725057
55	0xbd35876c	-0.0443186
56	0x3da3ccef	0.07998072
57	0x3da7f764	0.08201483
58	0x3d661c7b	0.056179505
59	0x3d09e15a	0.033662178

BCBlocks.0.1.f2.0.block.1.ssnorm.running_mean f4 [60]
0	0x3ea71f85	0.32641235
1	0x3f613f24	0.8798697
2	0x3f3069d7	0.689115
3	0x3f421bc1	0.758236
4	0x3ef47450	0.4774499
5	0xbdab8581	-0.08375073
6	0xbc8a2714	-0.016864337
7	0xbd1f9051	-0.03895599
8	0xbd8d47da	-0.0689847
9	0xbd54830e	-0.051882796
10	0x3d1df046	0.03855922
11	0x3d3f2247	0.04666355
12	0x3d24d67e	0.04024362
13	0x3ce06817	0.027393384
14	0x3cbd76ca	0.023127932
15	0xbe4de649	-0.20107378
16	0xbe33c54f	-0.17555736
17	0xbe47b982	-0.1950436
18	0xbe9eb1d5	-0.3099505
19	0xbe562f74	-0.2091654
20	0x3e0f306f	0.1398332
21	0x3d00859c	0.03137742
22	0xbbab43ca	-0.005226587
23	0x3ce05b46	0.027387273
24	0x3d84c7bd	0.064834096
25	0x3e0f8714	0.14016372
26	0x3e2b6960	0.16739416
27	0x3e32c2cf	0.17457126
28	0x3e0a9057	0.13531624
29	0x3d15b588	0.036550075
30	0x3cc9844f	0.024599222
31	0x3ce7408e	0.028229024
32	0x3d6466c9	0.055762086
33	0x3d19c460	0.037540793
34	0x3d74a629	0.059728775
35	0x3c139263	0.009007069
36	0x3e0debb2	0.13859442
37	0x3e5ea4bd	0.2174253
38	0x3dddd3c2	0.10831405
39	0x3e107507	0.14107142
40	0x3e50dc99	0.20396651
41	0x3e2b1870	0.16708541
42	0x3e4174d0	0.18892217
43	0x3e18b48d	0.14912625
44	0x3e1369e6	0.14395866
45	0x3ea18271	0.3154483
46	0x3cbfd643	0.023417598
47	0x3e84678f	0.2586026
48	0x3ea72254	0.32643378
49	0x3d4d6515	0.050145227
50	0xbdb274e4	-0.08713701
51	0xbdedae0b	-0.11605462
52	0xbdce8124	-0.10083225
53	0xbd18e9dd	-0.037332404
54	0xbc4c29f0	-0.012461171
55	0x3cac67af	0.021045534
56	0x3db9e61d	0.09077094
57	0x3db6be91	0.089230664
58	0x3db02ca4	0.086022645
59	0x3e3a5e8b	0.18200128

BCBlocks.0.1.f2.0.block.1.ssnorm.running_var f4 [60]
0	0x3e91425c	0.2837094
1	0x401dc81c	2.4653387
2	0x3f908d6b	1.1293157
3	0x3f923e2a	1.1425221
4	0x3f182922	0.59437764
5	0x3c1bdf5f	0.009513705
6	0x3b87882d	0.0041361065
7	0x3b100c8a	0.002198013
8	0x3b6917e0	0.003556721
9	0x3b3a48bf	0.0028424708
10	0x3af74334	0.0018864633
11	0x3ad2de62	0.0016088004
12	0x3ac9c8ed	0.0015394964
13	0x3a51af88	0.00079988735
14	0x3b11c576	0.002224294
15	0x3cb9ce72	0.022681449
16	0x3cb2123e	0.021737214
17	0x3cfcac7c	0.030843966
18	0x3d80163c	0.06254241
19	0x3d1a5af1	0.037684385
20	0x3e8bb24a	0.2728446
21	0x3c2792cd	0.010227871
22	0x3b9559aa	0.004557808
23	0x3c3ed6ae	0.011647863
24	0x3cfb6cbd	0.030691499
25	0x3cde3bb7	0.027128084
26	0x3cff8366	0.031190585
27	0x3ced7c53	0.028989946
28	0x3cba67dc	0.022754602
29	0x3bd14ef9	0.006387588
30	0x3b916ad0	0.004437782
31	0x3b375bc1	0.0027978274
32	0x3b7d36bc	0.003863736
33	0x3b038cfd	0.002007305
34	0x3b93b384	0.004507484
35	0x3a8a6c05	0.0010560757
36	0x3db19386	0.08670716
37	0x3dbad582	0.09122755
38	0x3d153dae	0.036435775
39	0x3d837fc9	0.064208575
40	0x3c755c89	0.014975675
41	0x3c94be2a	0.018157084
42	0x3d0102f7	0.031496968
43	0x3ca6c237	0.02035628
44	0x3c92301e	0.01784521
45	0x3ea4da13	0.32197627
46	0x3c797168	0.015224792
47	0x3dda1234	0.10648003
48	0x3e846d5f	0.25864694
49	0x3c6272fd	0.013821361
50	0x3dac25e5	0.08405665
51	0x3f3273a4	0.69707704
52	0x3e11c1d4	0.14234096
53	0x3df15672	0.11784066
54	0x3d3541cf	0.044252213
55	0x3b8a81c5	0.0042268955
56	0x3c88f41c	0.016717963
57	0x3c673663	0.014112088
58	0x3c9ed9ee	0.019391026
59	0x3d23d3c0	0.039996862

BCBlocks.0.1.f1.0.block.0.weight f4 [12, 1, 1, 3]
0	0x3e597f0d	0.21239872
1	0x3e4ecd05	0.20195396
2	0x3e476a5a	0.19474164
3	0xbeb0a079	-0.3449743
4	0xbe35e873	-0.17764454
5	0x3e043a7c	0.12912935
6	0x3eb8bfdd	0.3608388
7	0x3e7e095a	0.24808255
8	0xbe5d1eb3	-0.21593742
9	0xbeb1f181	-0.34754565
10	0x3d8f1825	0.06987027
11	0x3eb741b6	0.3579232
12	0xbd9d1d09	-0.07671554
13	0xbcfaa1d7	-0.03059475
14	0x3e8475d2	0.2587114
15	0xbcd04e18	-0.025427863
16	0x3e650317	0.2236446
17	0x3e4ab00a	0.19793716
18	0x3e480fea	0.1953732
19	0x3d80705d	0.062714316
20	0xbe88ca35	-0.26716772
21	0x3d059bce	0.03261929
22	0xbda36b8e	-0.07979499
23	0xbe6d2095	-0.2315696
24	0x3e3116c4	0.1729384
25	0xbdaa8384	-0.08325866
26	0x3e51206f	0.20422529
27	0x3e2aa372	0.16663912
28	0x3c49fe96	0.012328764
29	0x3e5bee65	0.21477659
30	0x3e8ec29f	0.2788286
31	0x3dd6b3a3	0.10483482
32	0xbdca54e0	-0.0987947
33	0xbcec8471	-0.028871747
34	0xbe84d149	-0.25940922
35	0x3d59e2af	0.053194698

BCBlocks.0.1.f1.0.block.1.weight f4 [12]
0	0x3f1e503f	0.61841196
1	0x3e824850	0.25445795
2	0x3ebe16c2	0.37126738
3	0x3f104da3	0.56368464
4	0x3e9eeadf	0.31038567
5	0x3f03d6ab	0.5149943
6	0x3ec6e8ea	0.38849574
7	0x3ee47993	0.44624004
8	0x3ec78647	0.38969633
9	0x3eb89ae9	0.36055687
10	0x3edd75f8	0.43254066
11	0x3e8bbca1	0.2729235

BCBlocks.0.1.f1.0.block.1.bias f4 [12]
0	0xbe151950	-0.14560437
1	0xbe465052	-0.19366577
2	0xbe01d52b	-0.12678973
3	0xbccdac29	-0.025106506
4	0xbe46a90e	-0.19400427
5	0xbd7a98ee	-0.061181
6	0xbcf1b5cd	-0.029505635
7	0x3d7150b8	0.05891487
8	0xbd974e19	-0.07387943
9	0x3d8b261a	0.06794377
10	0xbdd98bcc	-0.10622367
11	0xbe3129d5	-0.17301114

BCBlocks.0.1.f1.0.block.1.running_mean f4 [12]
0	0x3cd2f9bc	0.025753848
1	0xbb5a8bdc	-0.0033347523
2	0xbc3f0d23	-0.011660847
3	0xbb9f57dd	-0.004862769
4	0x3adf8d8e	0.0017055736
5	0x3a25e044	0.00063276687
6	0xb9e0a1dc	-0.00042845204
7	0xbc4d948e	-0.012547625
8	0x3baaf2bf	0.005216926
9	0xbc766b6c	-0.01504026
10	0xbd313263	-0.043260943
11	0xbc1ebc15	-0.009688397

BCBlocks.0.1.f1.0.block.1.running_var f4 [12]
0	0x3c7d8042	0.015472474
1	0x3bff6e89	0.0077951592
2	0x3c030def	0.0079989275
3	0x3bc6e405	0.0060696625
4	0x3a167b29	0.0005740398
5	0x3d089fba	0.033355452
6	0x3a5180b9	0.00079918985
7	0x3aa1f91f	0.0012357569
8	0x3c3b31d9	0.011425459
9	0x3bec733a	0.0072158845
10	0x39a768b6	0.00031930738
11	0x3acacad6	0.0015471827

BCBlocks.0.1.f1.1.weight f4 [12, 12, 1, 1]
0	0xbf19e902	-0.60121167
1	0xbdcf8808	-0.10133368
2	0x3c2c7e8f	0.010528221
3	0x3e18fcbd	0.14940162
4	0x3dddbc8f	0.1082698
5	0xbea1a675	-0.3157231
6	0x3d4c2f55	0.049849827
7	0xbc8356e7	-0.01603265
8	0x3e561907	0.20907985
9	0x3eda3a4a	0.42622596
10	0x3d49d101	0.049271587
11	0x3ddc67e4	0.10762003
12	0x3d8e68f8	0.06953615
13	0x3e0f45bd	0.13991447
14	0xbde25e37	-0.11053126
15	0xbd92b892	-0.0716411
16	0xbdbec1fc	-0.09314343
17	0xbe264890	-0.16238618
18	0x3e23c93b	0.15994732
19	0xbe54ebed	-0.20793124
20	0xbd7b0d4c	-0.061291978
21	0xbe869991	-0.26289037
22	0x3ccc11a3	0.024910754
23	0xbddaf978	-0.10692114
24	0xbe61f361	-0.22065498
25	0x3e37a99f	0.17935799
26	0x3dc42894	0.09578052
27	0xbdd5025a	-0.10400839
28	0x3c60d675	0.013723006
29	0x3b947615	0.004530678
30	0xbd267395	-0.04063757
31	0xbe0955b3	-0.13411598
32	0x3dcfa303	0.10138514
33	0x3c10c559	0.008836114
34	0xbd64e1ec	-0.05587952
35	0xbe166d32	-0.14690092
36	0x3d6b621d	0.057466615
37	0x3c87519b	0.016518405
38	0x3eaf23b7	0.34206936
39	0x3ed6d3ac	0.41958368
40	0x3e2ed4f1	0.17073418
41	0x3d3135fc	0.043264374
42	0xbd9bf217	-0.07614534
43	0x3dffedb1	0.12496508
44	0xbe310787	-0.17288028
45	0x3d10d052	0.03535492
46	0x3d2b67ac	0.041846916
47	0x3e5baffb	0.2145385
48	0x3d3d9d83	0.046292793
49	0xbe1e14c2	-0.15437606
50	0x3d3778f9	0.044793103
51	0x3e06d642	0.1316767
52	0x3dbb9fe3	0.09161355
53	0xbd10e5e0	-0.035375476
54	0x3ddaedcf	0.1068989
55	0x3df67cca	0.120355204
56	0x3da37866	0.079819486
57	0xbdd39c23	-0.10332515
58	0x3e6d423f	0.23169802
59	0x3bc82d29	0.006108899
60	0xbe076e02	-0.13225558
61	0xbba82816	-0.0051317317
62	0xbc26b7f3	-0.010175693
63	0x3e43a8f7	0.19107424
64	0x3d33cb73	0.043895196
65	0x3e0e35d2	0.13887718
66	0x3bc3b54a	0.005972539
67	0x3dc2f0fc	0.0951862
68	0xbe1a39db	-0.15061133
69	0xbe1bd42e	-0.15217659
70	0x3c9f1a33	0.019421672
71	0x3c821bf5	0.015882472
72	0xbe65a5b3	-0.2242649
73	0x3d13263b	0.03592513
74	0xbc6df949	-0.014524766
75	0xbe195fa3	-0.14977889
76	0xbcc29f02	-0.023757461
77	0xbd1089da	-0.035287715
78	0xbdfe68b1	-0.12422312
79	0x3d87a32c	0.066229194
80	0x3e0b311c	0.13592952
81	0xbd7c6f5e	-0.061629646
82	0x3de8b366	0.113623425
83	0x3887114f	6.4405256e-05
84	0xbd696e93	-0.056990217
85	0xbdd4e36b	-0.10394939
86	0x3dddf135	0.10837022
87	0x3e114853	0.14187746
88	0xbdff7e1a	-0.12475224
89	0x3e3e35ab	0.1857516
90	0x3e085060	0.1331191
91	0x3e31ece8	0.17375529
92	0xbd84554a	-0.0646158
93	0x3c28f45c	0.010312166
94	0xbd3060f3	-0.043061208
95	0xbe085500	-0.13313675
96	0xbd3bcd52	-0.045850106
97	0x3d0a0468	0.03369561
98	0x3a6a32cc	0.0008933961
99	0x3d93efaf	0.072234504
100	0x3e24ca3f	0.16092776
101	0x39388e08	0.00017600518
102	0x3d16a3cd	0.036777306
103	0x3e3394ee	0.17537281
104	0xbe1754e6	-0.1477848
105	0xbce60a83	-0.028081184
106	0x3d871ad0	0.06596911
107	0xbaf6ee74	-0.0018839375
108	0xbc3b46e2	-0.011430474
109	0x3cbb8f1b	0.022895386
110	0x3e27cc71	0.16386582
111	0x3e05c5df	0.13063763
112	0x3e865d23	0.26242933
113	0xbdfd1e28	-0.123592675
114	0x3de3f8ab	0.11131414
115	0x3e953e78	0.29149222
116	0xbe451838	-0.1924752
117	0xbd79859a	-0.060918428
118	0x3dacf41f	0.08445
119	0xbc174c35	-0.009234478
120	0x3e74bfda	0.2390131
121	0x3dc34a5e	0.09535669
122	0xbd46e703	-0.048560154
123	0x3ced3051	0.028953703
124	0x3e21bda4	0.15794998
125	0x3e2060a1	0.15661861
126	0x3ddc7b70	0.10765731
127	0xbe277633	-0.16353683
128	0xbe422b24	-0.1896177
129	0x3de2b402	0.1106949
130	0x3e02436a	0.12721029
131	0xbd22ab7f	-0.039714333
132	0x3de86caf	0.11348855
133	0xbd4bbef9	-0.049742673
134	0xbd0de79e	-0.034644715
135	0xbd3ff186	-0.046861194
136	0x3d800eca	0.06252821
137	0x3d063ba6	0.03277173
138	0xbdb34d7b	-0.087550126
139	0x3d5602a1	0.0522486
140	0xbde8db37	-0.11369937
141	0xbd98a7c4	-0.07453874
142	0xbdf9bf73	-0.12194719
143	0x399d3303	0.0002998338

BCBlocks.1.0.f2.0.block.0.weight f4 [18, 12, 1, 1]
0	0x3e17d9f5	0.14829238
1	0xbe619c78	-0.22032344
2	0x3e38721c	0.1801228
3	0xbd35e196	-0.04440459
4	0xbea4c89b	-0.321843
5	0xbe916f4e	-0.2840523
6	0xbe2c3050	-0.16815305
7	0xbe682c6d	-0.22673197
8	0x3dfb61b8	0.12274498
9	0xbdb08cd6	-0.08620612
10	0xbe23811a	-0.15967217
11	0x3f0c1cba	0.54731333
12	0xbdf97521	-0.12180544
13	0x3ceba534	0.028765298
14	0xbe4c4ee9	-0.19951977
15	0x3d7cd0ee	0.06172269
16	0x3e69b904	0.22824484
17	0xbd915d60	-0.07097888
18	0x3dfe9cb3	0.12432232
19	0xbe77b4d5	-0.24190076
20	0x3e8ed2a9	0.27895096
21	0x3e9bfe53	0.3046747
22	0xbdaee0fa	-0.085390046
23	0x3da43e20	0.08019662
24	0x3e302dea	0.17205015
25	0x3dbef968	0.09324914
26	0xbe03440f	-0.12818931
27	0x3e3a878b	0.18215768
28	0x3f0964e3	0.53669566
29	0x3e9b984e	0.30389637
30	0xbe971752	-0.2950998
31	0xbc578d71	-0.013156281
32	0xbe177d9b	-0.14794008
33	0xbe5ece1d	-0.21758313
34	0xbdae0f79	-0.08499045
35	0xbdb7eada	-0.08980341
36	0x3f995a7a	1.1980736
37	0xbe16e107	-0.14734279
38	0xbbb92393	-0.0056499927
39	0xbd2f2dcb	-0.04276828
40	0xbc617423	-0.013760599
41	0xbd1ee488	-0.038792163
42	0xbdf65ad5	-0.120290436
43	0xbef51d70	-0.47874022
44	0x3d98ab93	0.074546
45	0x3f1e9c7e	0.6195754
46	0xbe8e7975	-0.2782704
47	0xbd808373	-0.06275072
48	0x3f415c09	0.7553106
49	0xbe6f392e	-0.23361656
50	0x3d9f5a52	0.07780899
51	0xbeca64aa	-0.39529926
52	0x3e3c5e77	0.1839541
53	0xbe91fa26	-0.2851116
54	0xbd8048f8	-0.06263918
55	0xbedf60b0	-0.43628454
56	0x3d6d3786	0.05791428
57	0xbec80ef5	-0.3907391
58	0xbd243f0d	-0.040099192
59	0xbe4ecab9	-0.2019452
60	0x3f946899	1.1594421
61	0x3d256456	0.04037889
62	0x3ce3f627	0.027827336
63	0xbe914b88	-0.28377938
64	0x3db6570c	0.089033216
65	0xbe7d0b89	-0.24711432
66	0x3d91bf7a	0.071165994
67	0x3deb4876	0.1148843
68	0xbd9e3725	-0.07725362
69	0xbdc5b786	-0.09654145
70	0xbddd2ef7	-0.107999735
71	0x3d2c3125	0.042039055
72	0xbe5c010a	-0.21484771
73	0x3e2424d5	0.16029675
74	0x3b5f19bc	0.0034042438
75	0x3e13fd53	0.14452104
76	0x3c12757d	0.008939144
77	0xbe1f13c9	-0.15534891
78	0x3d8ef513	0.06980338
79	0xbdd50ba1	-0.10402609
80	0x3cb04d55	0.02152125
81	0x3f028a08	0.5099187
82	0xbd9a6722	-0.07539202
83	0xbc385a68	-0.011252023
84	0xbe133207	-0.14374553
85	0xbdc4ca14	-0.09608856
86	0xbe1bb3bb	-0.1520528
87	0xbdddbcb4	-0.10827008
88	0x3cc9473c	0.0245701
89	0x3e99457e	0.2993583
90	0xbd0847a4	-0.033271447
91	0xbe3f9430	-0.18708873
92	0xbe52de9f	-0.20592736
93	0xbcc80920	-0.024418414
94	0xbc6166ae	-0.013757391
95	0x3e65cb65	0.2244087
96	0xbe0d28d3	-0.13785104
97	0xbda2aaa1	-0.07942701
98	0xbd843292	-0.06454958
99	0x3c835f21	0.016036572
100	0xbdac0d61	-0.08400989
101	0x3efba448	0.49148774
102	0xbd12150f	-0.035664614
103	0x3d3c06db	0.045904975
104	0xbe5ac27a	-0.2136325
105	0xbc62c92f	-0.013841911
106	0xbdbbf2a2	-0.09177138
107	0xbda77680	-0.08176899
108	0xbe3a44ef	-0.18190359
109	0x3d0b7060	0.034042716
110	0xbc7a5451	-0.015278892
111	0xbbfd6f1e	-0.0077341935
112	0x3e4e2334	0.20130616
113	0x3ea3a5bc	0.31962383
114	0x3c5e97e0	0.0135860145
115	0xbe9a111c	-0.30091178
116	0xbd3d6dba	-0.04624722
117	0xbd7d3199	-0.061814878
118	0x3e4f5f0e	0.20251104
119	0xbe12e027	-0.1434332
120	0x3ed58b65	0.41707912
121	0x3e1e3a09	0.15451826
122	0x3d95b206	0.07309346
123	0xbd05ecc0	-0.032696486
124	0x3cd12326	0.025529455
125	0x3dca18c3	0.09868004
126	0x3e44b108	0.19208157
127	0xbe84c288	-0.25929666
128	0xbdb2aeaa	-0.08724721
129	0x3e0b096c	0.13577813
130	0xbdce4226	-0.100712106
131	0x3f0d7b38	0.5526614
132	0x3dcdb9e0	0.100452185
133	0xbd96eeae	-0.07369743
134	0xbde59f58	-0.11212033
135	0x3e63272d	0.22182913
136	0x3eaa9bb6	0.33321923
137	0x3f33911b	0.7014329
138	0xbe54fa00	-0.20798492
139	0xbde016a4	-0.10941818
140	0xbd7636ae	-0.06011074
141	0x3ec993c0	0.39370537
142	0x3d4b479f	0.04962885
143	0xbde0f4c8	-0.10984188
144	0x3f3e049a	0.7422577
145	0x3e1f0512	0.15529278
146	0x3c797314	0.015225191
147	0x3e384ddc	0.17998451
148	0xbded5c46	-0.115898654
149	0xbcc1bc11	-0.023649247
150	0x3eed3481	0.4632912
151	0x3e9d7c91	0.307591
152	0xbd85eb24	-0.0653899
153	0xbd8c8371	-0.06861008
154	0x3e368f3b	0.17828076
155	0xbd064c40	-0.03278756
156	0x3f0da5f5	0.55331355
157	0xbe483f4e	-0.19555399
158	0xbdbff4b8	-0.09372848
159	0x3ed724fa	0.42020398
160	0x3f1567d9	0.58361584
161	0xbe7cb570	-0.24678588
162	0xbe4bc09e	-0.19897696
163	0x3ebe52bf	0.37172505
164	0x3ef3a5cd	0.47587433
165	0x3c3a31f4	0.011364449
166	0x3f1b5fa4	0.6069281
167	0xbf047618	-0.51742697
168	0x3f0aa420	0.54156685
169	0x3e486bc6	0.19572362
170	0xbe07b889	-0.13253988
171	0x3e78f214	0.24311095
172	0xbebe7451	-0.37198117
173	0x3e6e3bdf	0.23265027
174	0x3dcff16d	0.1015347
175	0xbee5e772	-0.4490314
176	0xbef7cfeb	-0.48400816
177	0xbebaac41	-0.36459544
178	0xbf434ead	-0.76291925
179	0x3e5636e3	0.20919375
180	0xbdaa0f26	-0.083036706
181	0x3e3c7992	0.1840575
182	0x3dee2287	0.11627679
183	0xbcc861fc	-0.024460785
184	0x3f274e40	0.65353775
185	0xbe95989d	-0.29217997
186	0xbea3f8cd	-0.32025757
187	0x3ebde887	0.37091467
188	0x3dbfb232	0.0936016
189	0xbf2c3f8a	-0.6728445
190	0x3f91900d	1.1372086
191	0xbd77dc2d	-0.06051271
192	0x3f198e6c	0.59982944
193	0xbb52f0c3	-0.0032186962
194	0x3d93995c	0.07206985
195	0x3c8c2cf1	0.017111273
196	0xbe50f5f1	-0.20406319
197	0xbb515a2d	-0.0031944618
198	0xbcd337ef	-0.025783507
199	0xbee71b34	-0.45137942
200	0xbddea422	-0.108711496
201	0xbb7c1d9c	-0.0038469797
202	0xbd97db2b	-0.0741485
203	0x3e89a7c3	0.26885805
204	0x3ba8db1b	0.0051530725
205	0xbd8ea390	-0.06964791
206	0x3e40fc2b	0.18846194
207	0xbb9a7ff4	-0.00471496
208	0xbd1ff793	-0.039054465
209	0x3ea17ffe	0.31542963
210	0xbdc8a97c	-0.097979516
211	0xbe260ee6	-0.16216621
212	0xbe938266	-0.28810424
213	0xbe3322f2	-0.174938
214	0x3ea1787d	0.31537238
215	0xbde37003	-0.11105349

BCBlocks.1.0.f2.0.block.1.weight f4 [18]
0	0x3eccd137	0.40003368
1	0x3efab0fe	0.4896316
2	0x3f0268e1	0.5094128
3	0x3ed86d2d	0.42270795
4	0x3f0e3f9a	0.555658
5	0x3f277d4e	0.65425575
6	0x3efa1701	0.48845676
7	0x3cbba85b	0.022907427
8	0x3ee6021b	0.4492348
9	0x3ef81d3f	0.48459813
10	0x3effd280	0.49965286
11	0x3eb7cf60	0.35900402
12	0x3f00d016	0.50317514
13	0x3f06736b	0.52519864
14	0x3f148347	0.58012813
15	0x3f385a4f	0.720128
16	0x3efe9348	0.49721742
17	0x3efd6f90	0.49499178

BCBlocks.1.0.f2.0.block.1.bias f4 [18]
0	0x3e9649d4	0.293532
1	0x3d4e10c9	0.050308976
2	0xbc5d51a9	-0.013508239
3	0x3ef601b2	0.48048168
4	0x3e65e927	0.22452222
5	0x3dedb734	0.11607209
6	0x3d2e0df0	0.04249376
7	0xbf0d1920	-0.5511646
8	0xbe6636b4	-0.22481805
9	0xbdc627f9	-0.09675593
10	0xbe0bb507	-0.13643275
11	0xbeb5ea64	-0.35530388
12	0xbde75b50	-0.11296713
13	0x3e360330	0.17774653
14	0x3d8d44a6	0.06897859
15	0x3e1e2b4c	0.15446204
16	0xbe5fea99	-0.21866836
17	0x3db9faef	0.09081065

BCBlocks.1.0.f2.0.block.1.running_mean f4 [18]
0	0xbe162742	-0.14663413
1	0x3e19b7f7	0.15011583
2	0x3e565116	0.2092937
3	0x3f382d6c	0.7194431
4	0xbdc3313b	-0.09530874
5	0x3f1d80c8	0.6152463
6	0x3c977bd6	0.018491667
7	0xbe064a4c	-0.1311428
8	0xbd7d4b92	-0.061839648
9	0xbc5dde94	-0.013541836
10	0x3f0e6e76	0.556373
11	0x3f16bfa5	0.58886176
12	0x3f4e5a8f	0.8060693
13	0x3f58d97a	0.8470684
14	0xbe781ce0	-0.24229765
15	0x3e885488	0.26626992
16	0x3e5bf72b	0.21481006
17	0xbd3e4540	-0.04645276

BCBlocks.1.0.f2.0.block.1.running_var f4 [18]
0	0x3e9abfcf	0.30224463
1	0x3e7a4be6	0.24443015
2	0x3ebcc2c5	0.36867347
3	0x403db25a	2.9640107
4	0x3fa4e9c4	1.288384
5	0x40117a90	2.2731056
6	0x3e9562d0	0.2917695
7	0x3e396709	0.18105711
8	0x3ea319c2	0.3185559
9	0x3e42e17d	0.1903133
10	0x3ed9f1a8	0.42567182
11	0x3edce626	0.4314434
12	0x3f60d270	0.878211
13	0x3fe68188	1.800828
14	0x3f8f8a57	1.1214093
15	0x3fd89595	1.6920649
16	0x3f247024	0.64233613
17	0x3e742ba4	0.23844773
