models/finetune_tau3_50%/model_best_finetune.pth (torch, 316679 bytes, 165 tensors)

cnn_head.0.weight f4 [48, 1, 5, 5]
00000000: aa0d 69bb 7318 813c 2fd0 1e3e dcaa 72bd
00000010: e6a5 cfbd 63ff d1bc a98b d53d f382 c03e
00000020: 9d59 fabd a352 33be 2ea0 fc3d 1738 233e
00000030: e91e ca3e a44d 05be 2793 6dbe 581f 753d
00000040: c0bf aabd bba3 663d d5ce 8bbd 91c4 dbbc
00000050: ef54 39bd 2a7a 56bd 55db 493d b95b 08bd
00000060: b350 6a3d 87b6 83be 8fff 443e e658 9f3e
00000070: 2e0e fa3d 788a 83be c3f6 91bc 6578 673e
00000080: f960 783e c7ca c2bc 7b35 a5be 4409 e03d
00000090: 1241 b33d 765a a13d bb26 f3bd 7f68 15be
000000a0: 2642 6c3d 7c5d 3d3c efed 823d ea5c b1bb
000000b0: 3376 1a3d e659 0fbb f4b3 b03d 9d3a e23d
000000c0: 5d1b dfbc 5152 a1bd 6b7b 35b1 c2a9 afae
000000d0: bdd3 81b1 7946 28b1 e972 adb0 8493 dcb1
000000e0: 31b5 8b30 4b2d 29b1 aff0 80b1 ec4c 26b1
000000f0: c676 b0b1 9cfe 1e32 1f29 6c31 9bc8 20b1
00000100: fe71 8db1 3dbd 28b2 8e6b 1e31 5827 bbb0
00000110: 6f7a 9cb1 54aa aab1 3074 70b1 0b33 0c31
00000120: 118a cab0 fc35 8eb0 cbe4 11b0 e541 b22a
00000130: bc99 03ac f900 802c e59d b8ac c848 aaad
00000140: 6a97 35ad 7e9a edac ac9e 192d 1c7f c02c
00000150: 7572 abac e85a e5ac e675 23ad 0e06 0b2c
00000160: e7a3 1c2d 1a60 4e2d a377 53ad 8d34 bbad
00000170: 998f 66ad c7e7 61ac 29ac 032d c3ef 3fad
00000180: a904 80ad 3004 75ad 0ff8 fbac 86e0 12aa
00000190: 10f6 fd2b e3ed e82c 4a82 69ac 3f48 a6ab
000001a0: 4be6 6e2b 1844 d52b feb8 ca2c 71c7 a5ac
000001b0: b287 28aa f145 742c 2c12 192c 3c8a e82c
000001c0: c008 b8ac af20 f4ab 6633 802b d79f 852c
000001d0: 7fc3 292d d825 b6ac da5c 8daa ec20 292c
000001e0: 44b7 b42c b26a 2d2d c959 43ab acc8 1f2c
000001f0: d628 8f2c fea3 afbc b421 43be 41c5 07be
00000200: 06d7 fcbd 6131 f8bc 0dda c03e 6029 cd3e
00000210: cae0 063f 8b95 633e 0978 ae3c 8950 36be
00000220: b71a 6bbe 038c 2cbe 8ae6 f8bd 4cef 553d
00000230: 38d7 04bb e3c9 fdbc f174 71bc 5c78 443c
00000240: b630 843d 5ea3 153d 7602 0c3d dfdc 74bc
00000250: 1fcd 78bc c2dc a6bc 6079 22ba f19f f5b9
00000260: 4359 84b8 de67 5bb9 b59c 0539 9d3e 923a
00000270: 0ff6 a13a 9249 c03a 81e2 8c3a d907 c23a
00000280: 3175 3b3a 64f8 083a 3d99 313a 35e0 3b39
00000290: 6bd2 6839 0e30 4a3a 1943 d639 81d2 5b3a
000002a0: f31b 403a b509 803a e4c4 61ba 874f 27ba
000002b0: 2f72 9638 45b3 46b8 6992 d237 dd0d fdab
000002c0: 8bd7 66ab 043c 1e2c 9284 7e2c e9e1 112c
000002d0: c1a2 8d2c f584 992c fc30 c02c 52ad aa2c
000002e0: dbcb 9d2c de72 042d 3fa6 0c2d e646 2a2d
000002f0: e9f9 192d f478 f22c 2bdb 352c 3c7b 712c
00000300: edc7 d32c 311d 9b2c 576b 902a 3746 38ab
00000310: 3b3e c82a bae3 042c 3d8d a728 d963 44ac
00000320: ed55 1637 5ba4 bf36 8c67 ff37 a1ff a938
00000330: 11e4 f038 8fc9 2437 35d1 c237 df98 4738
00000340: c1cd bc38 df4e 0339 40fd dfb8 0855 f7b8
00000350: cc31 deb8 106e 9db8 7381 48b8 d130 8c38
00000360: 6bfe 5c38 c85e 9e38 fe79 bb38 2e0e ba38
00000370: b013 b238 e14e a038 b8c7 eb38 474d d538
00000380: 5d32 9b38 711b 512e 721f b72d 0400 d5ac
00000390: fc7e 72ad b058 31ad d2c7 bcad ab77 14ae
000003a0: 3390 2dae fc09 26ae d4aa 24ae d759 76ae
000003b0: 4304 60ae 038d 77ae 09e3 75ae dc8b 94ae
000003c0: b869 a62c 6ba7 822a c02c 81ad 95b1 c9ad
000003d0: 5e40 e6ad 41de e12c 375f b3ac 84f7 08ad
000003e0: 43f4 7fad 2b53 b3ad 7e81 20be 6f86 46be
000003f0: 025f cebd ad8c 94bd b78c 6ebd 0d2a 74bd
-0.0035561123 0.015758729 0.15509103 -0.059244975 -0.101390645 -0.025634473 0.10427029 0.37599906
-0.122241236 -0.17511992 0.12335239 0.15939365 0.39476708 -0.13017899 -0.23200665 0.059844345
-0.08337355 0.05630849 -0.068265595 -0.026827129 -0.045247015 -0.0523626 0.049281437 -0.0332906
0.057205867 -0.25725195 0.19238113 0.31122512 0.12209736 -0.2569158 -0.01781786 0.2260452
0.24255742 -0.023778332 -0.32267365 0.10939267 0.087526456 0.07878582 -0.118726216 -0.14590643
0.05768027 0.011557933 0.063930385 -0.0054126875 0.03771038 -0.0021873652 0.08628073 0.11046336
-0.027234728 -0.07877029 -2.6409122e-09 -7.988234e-11 -3.778466e-09 -2.4487277e-09 -1.2620066e-09 -6.4196133e-09
1.0165079e-09 -2.4618483e-09 -3.752653e-09 -2.4199904e-09 -5.135777e-09 9.254702e-09 3.4365895e-09 -2.3397095e-09
-4.1165995e-09 -9.821915e-09 2.3053164e-09 -1.3617223e-09 -4.5541166e-09 -4.9670152e-09 -3.4990641e-09 2.0401696e-09
-1.4736675e-09 -1.0347203e-09 -5.3075827e-10 3.1664875e-13 -1.870156e-12 3.638087e-12 -5.2471243e-12 -1.9359084e-11
-1.03222795e-11 -6.753097e-12 8.732275e-12 5.47108e-12 -4.8728196e-12 -6.518664e-12 -9.291656e-12 1.975645e-12
8.903967e-12 1.1731083e-11 -1.2020526e-11 -2.1282776e-11 -1.3105871e-11 -3.2103085e-12 7.484715e-12 -1.0910331e-11
-1.4553985e-11 -1.3927567e-11 -7.161389e-12 -1.3045302e-13 1.8045027e-12 6.6202473e-12 -3.3183616e-12 -1.1815062e-12
8.487418e-13 1.515346e-12 5.7617236e-12 -4.7117245e-12 -1.4968476e-13 3.471331e-12 2.1752695e-12 6.6091837e-12
-5.230566e-12 -1.7346314e-12 9.109213e-13 3.797833e-12 9.649947e-12 -5.1769526e-12 -2.511106e-13 2.403462e-12
5.1362543e-12 9.857603e-12 -6.940252e-13 2.2706654e-12 4.068838e-12 -0.021440502 -0.19055825 -0.1325884
-0.123457 -0.030296983 0.3766636 0.4007063 0.5268675 0.22225015 0.021297472 -0.17804159
-0.2295941 -0.16850285 -0.12153347 0.052230164 -0.0020269882 -0.030980056 -0.014737354 0.011991587
0.064546034 0.036532752 0.034182034 -0.014945238 -0.015185623 -0.020368937 -0.0006197896 -0.00046849207
-6.310877e-05 -0.00020924161 0.00012742246 0.0011157576 0.0012356656 0.0014670363 0.0010748656 0.0014803364
0.0007150947 0.00052250014 0.00067748484 0.00017917233 0.00022203631 0.0007712849 0.00040867252 0.00083855545
0.00073283835 0.0009768518 -0.0008612408 -0.0006382395 7.173826e-05 -4.7373836e-05 2.5102128e-05 -1.7980579e-12
-8.201154e-13 2.2486466e-12 3.6169162e-12 2.0731145e-12 4.0255303e-12 4.3632827e-12 5.4624066e-12 4.850933e-12
4.484841e-12 7.528837e-12 7.994993e-12 9.679124e-12 8.752534e-12 6.891482e-12 2.584331e-12 3.4316569e-12
6.019177e-12 4.408606e-12 2.565402e-13 -6.5467374e-13 3.5570318e-13 1.8884742e-12 1.8601977e-14 -2.7908702e-12
8.960703e-06 5.711377e-06 3.0446587e-05 8.1061626e-05 0.000114865725 9.822091e-06 2.3224022e-05 4.758767e-05
9.002863e-05 0.00012522515 -0.0001068064 -0.00011793716 -0.0001059506 -7.506844e-05 -4.7804275e-05 6.684813e-05
5.2689033e-05 7.5516815e-05 8.939578e-05 8.871812e-05 8.4913685e-05 7.644087e-05 0.00011242874 0.000101710255
7.400357e-05 4.754547e-11 2.0818656e-11 -6.053826e-12 -1.37843036e-11 -1.0080978e-11 -2.1461864e-11 -3.375759e-11
-3.946372e-11 -3.7752898e-11 -3.744101e-11 -5.6013718e-11 -5.093549e-11 -5.628654e-11 -5.5908198e-11 -6.755105e-11
4.729741e-12 2.3208808e-13 -1.4685475e-11 -2.2929917e-11 -2.6176557e-11 6.4195598e-12 -5.098057e-12 -7.7856645e-12
-1.4549309e-11 -2.0386878e-11 -0.15674397 -0.1938722 -0.10076715 -0.07253394 -0.058239665 -0.059610415

cnn_head.1.weight f4 [48]
00000000: a2aa 993e 2965 773e b387 9531 32a7 2a2c
00000010: fb3c a12c 8492 c03e e8f7 b539 f315 0a2b
00000020: da23 ea37 0a42 f02d 61fc a63e 895c a02c
00000030: 68ea c02c 6e4d 142d e590 482c d0ea b32c
00000040: 38bc 412c 0c46 9b2b 96dd 3c3e 866c b12d
00000050: 2aa0 003d e00a 1336 593d fa2e cd24 442e
00000060: a3fb a93e e8a0 1b2c b72f 6fb3 53fc 6c3d
00000070: e23d 532e 78d6 8b2d 48e0 a12c 0322 8d2b
00000080: 82f7 3f2a 8095 6dbc 4705 d82d 584b 503e
00000090: 26a9 0e3f c091 832d 1f2d d83e 7dc2 573e
000000a0: c3a6 6630 1f8a e22f 712c bb3e 48ff a23e
000000b0: b16f ec2b 7030 532c b0c4 c93e 3c09 9e2b
0.30012995 0.24159683 4.351898e-09 2.4251265e-12 4.5826654e-12 0.37611783 0.00034707715 4.905791e-13
2.7911668e-05 2.7314168e-11 0.32614425 4.557747e-12 5.4829925e-12 8.430019e-12 2.8502142e-12 5.1135554e-12
2.7531432e-12 1.1032854e-12 0.18443903 2.0170764e-11 0.031402744 2.1911037e-06 1.1379581e-10 4.4597926e-11
0.33199796 2.2116146e-12 -5.568992e-08 0.057857823 4.803081e-11 1.5897714e-11 4.6007954e-12 1.0028093e-12
1.705008e-13 -0.014500976 2.45587e-11 0.20341241 0.5572685 1.4957702e-11 0.42221925 0.21070285
8.3910495e-10 4.1207301e-10 0.36557344 0.3183539 1.6799809e-12 3.0011792e-12 0.39407873 1.1229138e-12

cnn_head.1.bias f4 [48]
00000000: 8dd4 c83c 34e4 a93e 409a 84b2 1301 6bad
00000010: 45cf 88ad 81bf 39be 5e3e adba f485 85ac
00000020: 6453 00b9 c009 c9ae d88e 943e c59b b4ad
00000030: 9c2d adad 0901 00ae 7bcd ebad c29e a5ad
00000040: ae5a 39ad 83ba 95ac 56db a43c ae3c ceae
00000050: 9814 8ebc a5e5 1bb7 6f16 01b0 557c 7aaf
00000060: 4f86 9a3e 63eb 4fad adae 58b4 cb1d 753a
00000070: 5399 3eaf 32b8 79ae f77c abad fa22 a1ac
00000080: ae41 abab 49a5 d53b 9141 1daf ae0d 243e
00000090: d0ea c0be 9e6d 80ae a91c 16be 4c7f b33d
000000a0: 1c40 6eb1 b74b 18b1 a91d 34be b066 2abe
000000b0: dd85 c6ac 76ea 39ad 5c63 5d3e a800 7cac
0.024515415 0.33181918 -1.5436967e-08 -1.3358442e-11 -1.5553456e-11 -0.18139459 -0.0013217439 -3.794959e-12
-0.00012238097 -9.142154e-11 0.2901523 -2.0532806e-11 -1.9688078e-11 -2.910475e-11 -2.6807659e-11 -1.882883e-11
-1.0536167e-11 -4.2555417e-12 0.020124119 -9.378574e-11 -0.017343804 -9.292188e-06 -4.6961807e-10 -2.2781539e-10
0.30180594 -1.1818854e-11 -2.0180114e-07 0.0009350448 -1.7334871e-10 -5.6779643e-11 -1.9495945e-11 -4.5797784e-12
-1.2168511e-12 0.0065199477 -1.430236e-10 0.16020843 -0.37679148 -5.840238e-11 -0.1465937 0.08764514
-3.467e-09 -2.216195e-09 -0.1758944 -0.16640735 -5.6423603e-12 -1.0568093e-11 0.21619934 -3.5811718e-12

cnn_head.1.running_mean f4 [48]
00000000: 91b4 aec0 9be1 d2c0 4a85 2235 034d cb30
00000010: ca9a 1fb0 e96c aec0 d5a2 05be 3a09 9db0
00000020: b171 3fbc ce4b ef31 62e5 8341 e384 d3b1
00000030: b200 4031 fcb5 a131 6c19 1db0 3e5d 0331
00000040: a87e 3830 668d 8a2f 545b 47c0 57ab f331
00000050: aafb 4d3f 9772 c439 b807 33b3 e9ba 8632
00000060: 4443 a4c0 ba07 ddb0 5d26 1e37 0afa 873e
00000070: 6b0e 20b2 2fa0 f131 5472 dd30 1766 882f
00000080: 5741 aaaf 02ee b6bd 8135 c131 2574 f83f
00000090: f9b4 9dc1 2582 a331 bb48 b6be 3734 edbf
000000a0: 1b23 4134 5c1c b733 9220 efbf b00f 87c0
000000b0: b664 bbaf 9cc1 9b30 ab53 933f 8677 452f
-5.459542 -6.5900397 6.0543664e-07 1.4792082e-09 -5.806383e-10 -5.4507947 -0.13050397 -1.1425876e-09
-0.011684821 6.9644335e-09 16.487003 -6.1560157e-09 2.7940072e-09 4.706406e-09 -5.7152394e-10 1.911601e-09
6.71188e-10 2.5202523e-10 -3.1149492 7.09171e-09 0.80462134 0.0003746941 -4.1683705e-08 1.568465e-08
-5.133211 -1.6082062e-09 9.426466e-06 0.26557952 -9.316504e-09 7.032234e-09 1.611236e-09 2.4810795e-10
-3.0969247e-10 -0.08932115 5.623122e-09 1.9410444 -19.713366 4.75872e-09 -0.35602364 -1.853156
1.7987297e-07 8.52676e-08 -1.8681815 -4.220665 -3.408666e-10 1.1332761e-09 1.1509908 1.7959509e-10

cnn_head.1.running_var f4 [48]
00000000: 3350 1140 bcb8 4d40 c2b3 1928 7d82 511f
00000010: c270 411e 5a69 1f41 00cd a839 2755 4e1e
00000020: 1909 aa36 95a2 e720 e225 0641 fc7e e420
00000030: 0ba6 9320 71d8 fa20 b6ed bc20 bf82 3c20
00000040: 4c2c 2e1e ebd2 0f1d 6443 7340 b6ca 5e22
00000050: e359 4e3c cecd 4032 8829 c224 c8f9 ef21
00000060: dd7e 5d41 9695 e91f df83 de2b 1c71 d83c
00000070: 71a2 e521 fb24 1021 ebb8 941e 55df 601c
00000080: 0b17 b11c de96 073b 1bb7 3e22 8237 fd40
00000090: 03a8 0f41 b221 0921 a97c 3f40 5000 1441
000000a0: 1b1a 1826 ffd9 9a25 3952 0d40 8201 4440
000000b0: 1c35 141d 190e 9b1e 2193 a341 ebb7 271c
2.27052 3.2144003 8.532185e-15 4.436541e-20 1.0240653e-20 9.963221 0.00032196194 1.0923158e-20
5.067454e-06 3.924051e-19 8.384249 3.8708734e-19 2.5012647e-19 4.2494876e-19 3.2005743e-19 1.596748e-19
9.220644e-21 1.9034934e-21 3.8009882 3.0193925e-18 0.012594673 1.12226655e-08 8.4204445e-17 1.6261386e-18
13.8434725 9.892681e-20 1.581065e-12 0.026421122 1.5560641e-18 4.883804e-19 1.574659e-20 7.4404033e-22
1.1718834e-21 0.002068929 2.5846737e-18 7.913026 8.9785185 4.6462e-19 2.9919837 9.250076
5.2770973e-16 2.6862461e-16 2.2081435 3.062592 1.9615094e-21 1.6417094e-20 20.44684 5.5493373e-22

BCBlocks.0.0.f2.0.block.0.weight f4 [24, 48, 1, 1]
00000000: e5d7 f0bd 45fb a03d a948 0a31 1557 532d
00000010: 6a10 92ab 7835 e23d 415d 4fba e24e 1a2b
00000020: e3f4 85b8 2119 1aac f928 5dbd 1e43 5cac
00000030: 837d 472d 4490 24ac 6856 b4ad 83b1 9d2d
00000040: 2dd5 7a2c b69c d9aa dfa4 ae3d c8c3 2aae
00000050: 64bc 9e3b 5b75 9bb5 8992 222f fb29 dc2e
00000060: 7818 17bd 544d 85ac cb94 8ab3 53cb 0dbc
00000070: 9e1b 7aad 17ab feab 9c82 bdab e34e 0b2c
00000080: 8651 3e2b 4f9a 773b a960 e4ad df89 de3d
00000090: aeb8 9f3d 4195 5a2d 5762 d6bc 5725 9abe
000000a0: 4830 0231 8952 5eb0 4af4 5bbd 72df 9abd
000000b0: 0219 e0ab b199 c42c 4bb4 3dbd 3a8d 2d2b
000000c0: 88bc 533e 3126 db3d 8f18 8831 76c4 c1ab
000000d0: 5903 68ac 784e 033e 5b45 66ba ef5e 57ac
000000e0: feb1 7cb8 7874 ceac ed38 62be 49ca 512b
000000f0: 9ce6 fb2c 9852 242d 1e83 2a2c bf7d dcac
00000100: 62d9 ac2c 9774 142c 43d6 d3bc 1bd5 4bae
00000110: 6a0c 46bb c462 86b6 eda6 96af f1cf 7e2e
00000120: 7744 843c 9078 90ac 1a7d 02b2 6ffe 56bb
00000130: be06 a7ad 1982 f6ab ab1c fcaa c136 85a9
00000140: 0716 30aa fb71 b6ba 7a0b 892e d8b9 4cbd
00000150: 5300 3d3d 4f51 37ac bcfd 3d3b 94f7 80bd
00000160: c9d1 e630 ae7c b5b0 821e 243e 7eb8 183e
00000170: 810c e72b fee2 542c b25c 6c3d 6b32 26a8
00000180: 0bb6 b8bd 0d0e b4bc 42f0 1e31 644f f92b
00000190: 3464 f1a9 3d07 c0bc 96d3 d7b9 f96a f12b
000001a0: 52b1 1837 c122 24ab 41dc 4cbc 3abf 682c
000001b0: 6900 a12c d036 862c e135 892c 19bf 762c
000001c0: 1a3f d42b d917 f82a 4b57 46bd ba6f f12c
000001d0: b673 7cbc 7db1 92b6 ab3c 9e2d c979 f1ac
000001e0: 5b5c 70bd 91cc e3ab c99b 2f31 ab05 0dbb
000001f0: 8e26 462d e775 dca9 69f2 91ac cd0d b52b
00000200: 925e 9f2a bfa2 873a b8b0 952d 045f a3bc
00000210: 3cb7 f9bd 994f 262c d6f5 183e 1152 ac3d
00000220: bbe9 9a2c 8f70 b1ae e493 e4bd f9ff cd3b
00000230: 2b85 4d2b 0979 78a8 9de0 b83e dc33 5b2a
00000240: 2726 173d c3a3 e23d 8f5e 0930 9185 1ead
00000250: d276 b22b b5fa 32be c260 57ba a75f 64ab
00000260: 0402 9a38 9985 08ae 2bd7 a03d bad2 5f2d
00000270: b2c4 542d bb2a d0ac 0303 4cad c71a 1dae
00000280: f994 092c 6977 bc2b 4997 2b3e 3c8a cd2e
00000290: bedb ee39 69db 37b7 bee9 7e2f ab71 162e
000002a0: 8524 8d3d d83c f2ac 0577 00b4 ca49 8dbc
000002b0: 04bd d4ae f1b1 aaac 3dc0 d1ad afeb 8d29
000002c0: 4712 9b2b 5d33 c4bb 3e25 992e c8d0 82be
000002d0: f3ac 0b3e 2011 02ad 31ab b0bb 5699 b7be
000002e0: 868d 44af 5ac1 85b0 b0bf 0bbd ac1c 67be
000002f0: 479e f929 ef40 c8ac cc80 e03c 1c88 492a
00000300: 0c43 253e 0556 783e 9e2d 7e31 eba4 e0ac
00000310: 4237 f8ab 4d3e 2f3d 33a4 62b9 b9c5 baab
00000320: 13d9 adb8 4e02 55ad 9024 75bd 123b 132d
00000330: ca94 19ad f6b1 972c 252d 4f2c a47d a12d
00000340: 75d5 bb2b 2129 10aa 1746 343d 473f 802e
00000350: 93fa 27bc 476a 84b6 7a48 a5af 9ebf 03ac
00000360: bd43 a7be 57bd 3b2b a3fd 66b4 365b fa3b
00000370: 5482 b1ad 394d 2e2d 8028 952c 1f16 9eab
00000380: 482c e8a9 bfbc f6ba af3e f1ac 5bc2 debb
00000390: 23e1 d33d f8a4 acac 1bb1 45be fd6a 93bc
000003a0: a8da 9cb0 f5f9 9c2f d248 d0bc 8201 cb3c
000003b0: c53a 1a2a f054 0cad f4b8 2b3e d8f0 a12a
000003c0: aa53 71b8 efc0 6d3e 51aa 95b0 872a 08ad
000003d0: debc 2ead 65cd ac3b d0fc 54ba 91ea 422b
000003e0: af63 1238 f734 c32a 03ac 5f3d 2300 0cae
000003f0: 1cb2 81ab 5042 d3ad a2ae 202d 9637 2ead
-0.117599286 0.07860426 2.0122946e-09 1.20132975e-11 -1.037848e-12 0.110453546 -0.0007910319 5.482126e-13
-6.387548e-05 -2.1898666e-12 -0.053994153 -3.1301138e-12 1.13397096e-11 -2.3385885e-12 -2.0502003e-11 1.7927665e-11
3.5645473e-12 -3.8655683e-13 0.085275404 -3.8827414e-11 0.0048442353 -1.1582555e-06 1.4785874e-10 1.0011899e-10
-0.03688857 -3.7886725e-12 -6.453191e-08 -0.008654433 -1.4216987e-11 -1.8095272e-12 -1.3465509e-12 1.979688e-12
6.7614696e-13 0.0037781184 -2.5963525e-11 0.108661406 0.07798897 1.2425006e-11 -0.026169939 -0.30106613
1.8944935e-09 -8.088042e-10 -0.05369977 -0.0756215 -1.5923098e-12 5.5877182e-12 -0.04631452 6.165794e-13
0.20677388 0.10700644 3.960913e-09 -1.3768004e-12 -3.2971041e-12 0.12822902 -0.00087841385 -3.0606036e-12
-6.024725e-05 -5.8678028e-12 -0.22092028 7.4532443e-13 7.159452e-12 9.34066e-12 2.4231238e-12 -6.2667367e-12
4.9126684e-12 2.1096785e-12 -0.025859004 -4.6346132e-11 -0.0030219802 -4.005009e-06 -2.740345e-10 5.7937603e-11
0.016145928 -4.1061113e-12 -7.595441e-09 -0.0032805463 -1.8988696e-11 -1.7515461e-12 -4.4784085e-13 -5.915885e-14
-1.5639582e-13 -0.0013919467 6.2320774e-11 -0.049981922 0.046142887 -2.6051e-12 0.0028990349 -0.06297222
1.6794327e-09 -1.3204919e-09 0.16027263 0.14914128 1.6417008e-12 3.0253018e-12 0.05770559 -9.225784e-15
-0.09019097 -0.021979356 2.3128597e-09 1.7714549e-12 -1.07199324e-13 -0.023440951 -0.0004116564 1.7153771e-12
9.101192e-06 -5.8312735e-13 -0.0125036845 3.3075335e-12 4.5759408e-12 3.8145945e-12 3.899756e-12 3.5064783e-12
1.508102e-12 4.4070197e-13 -0.048423093 6.862036e-12 -0.015408447 -4.3718014e-06 1.7989462e-11 -6.863153e-12
-0.058681827 -1.6186099e-12 2.5554405e-09 -0.002151827 1.1263558e-11 -9.7904154e-14 -4.148061e-12 1.2864654e-12
2.8309695e-13 0.0010348185 1.7017818e-11 -0.019942768 -0.12193152 2.3634204e-12 0.14937529 0.084140904
4.4028925e-12 -8.0690225e-11 -0.111610204 0.006286618 7.301544e-13 -1.3793011e-14 0.36108866 1.94691e-13
0.03690162 0.11066391 4.9974686e-10 -9.010918e-12 1.268064e-12 -0.1747845 -0.0008216017 -8.1134616e-13
7.343668e-05 -3.104148e-11 0.0785354 1.2722873e-11 1.209448e-11 -5.9164596e-12 -1.1596726e-11 -3.572145e-11
1.9551567e-12 1.3391346e-12 0.1675693 9.346876e-11 0.00045558618 -1.0958735e-05 2.3184207e-10 3.420701e-11
0.06891731 -6.8848087e-12 -1.1964228e-07 -0.0172471 -9.67422e-11 -4.851446e-12 -2.384592e-11 6.3025424e-14
1.1018485e-12 -0.0059875683 6.96425e-11 -0.25549912 0.13640194 -7.393447e-12 -0.0053915014 -0.35859174
-1.7876375e-10 -9.731977e-10 -0.034118354 -0.22569531 1.1085278e-13 -5.691551e-12 0.027405165 1.7899609e-13
0.16138858 0.24251564 3.6987795e-09 -6.3847725e-12 -1.7636797e-12 0.042784024 -0.00021614209 -1.3270974e-12
-8.289716e-05 -1.210816e-11 -0.05984932 8.369099e-12 -8.730081e-12 4.3114358e-12 2.944153e-12 1.8359377e-11
1.3346395e-12 -1.2804039e-13 0.044012155 5.8320064e-11 -0.010252613 -3.946279e-06 -3.0064823e-10 -1.8722589e-12
-0.32668868 6.669851e-13 -2.1512692e-07 0.0076402677 -2.0180448e-11 9.907902e-12 4.239331e-12 -1.1232715e-12
-1.0310551e-13 -0.0018824561 -6.8565912e-12 -0.0067980713 0.10345676 -4.9068492e-12 -0.19305842 -0.017995352
-1.141264e-09 2.855384e-10 -0.025425348 0.024780992 1.3698337e-13 -7.9769386e-12 0.16769773 2.8766464e-13
-5.7536796e-05 0.2321813 -1.0889584e-09 -7.740148e-12 -9.932692e-12 0.0052735084 -0.000812483 6.924817e-13
3.490195e-05 3.467571e-13 0.054607403 -3.1832436e-11 -9.215437e-13 -2.4017371e-11 9.133723e-12 -9.9030974e-12

BCBlocks.0.0.f2.0.block.1.weight f4 [24]
00000000: d5ce 043e 240f 733e 644c 803e 8819 7b3e
00000010: 419c 283e f270 443e be24 05be 4434 1caf
00000020: ec9c f1af f896 7dbe 8fa9 8a3e 554c e3bd
00000030: 310f 0931 f1dd 57be 0cc6 cbbd 396a 02be
00000040: 5c6f 963e 5dd4 983e 475c 4d3e bff5 eb3d
00000050: 73cc 523e 3876 823e 6695 a7be 3161 583e
0.12969525 0.23736244 0.2505828 0.24521458 0.16465856 0.1918371 -0.13002297 -1.4206686e-10
-4.3949144e-10 -0.24764621 0.27082488 -0.110985436 1.994476e-09 -0.21080758 -0.09949884 -0.12735833
0.29381835 0.2984952 0.20054732 0.11521482 0.20585804 0.2548082 -0.3273117 0.21130826

BCBlocks.0.0.f2.0.block.1.bias f4 [24]
00000000: a295 cd3d 84b8 e6bd 4d48 f23d 3cde 333d
00000010: daf5 503d b907 993d 5a76 313c 1687 75b1
00000020: bcc9 7fb3 f089 c1bd deae 183c a196 923e
00000030: 1293 11b1 8e39 493e 069d 0c3c e279 8a3c
00000040: 2dd8 fabd 581a 1fbe 3fac 203e 3cd0 383e
00000050: da41 3a3e 6ec7 ef3d b9a2 05be c705 253c
0.10038306 -0.11265662 0.118301965 0.04391311 0.051015712 0.07472176 0.01083144 -3.572898e-09
-5.955529e-08 -0.094501376 0.009319035 0.28630546 -2.1183877e-09 0.19650862 0.008582359 0.016903821
-0.122482635 -0.15537393 0.15690707 0.18048185 0.18189183 0.1170796 -0.13050355 0.010072178

BCBlocks.0.0.f2.0.block.1.running_mean f4 [24]
00000000: 745b 3ebc fca0 c7bb bc51 4e3d 4787 073d
00000010: 0357 7f3c fe7e aa3d 7028 12be 8806 8eaf
00000020: 3cd6 bd31 a5fd 2c3d 4bfe cdbd b638 dd3d
00000030: c7f2 9c30 0c7b 32bc 9866 cdbd 6da5 cfbc
00000040: 562a ecbc f60e 93bc 7153 4e3d 9413 e33c
00000050: a979 0bbe 75d8 95bd 7c9b 69bb 2e84 133c
-0.011618484 -0.006092189 0.050370917 0.033087995 0.01558471 0.08325003 -0.14273238 -2.583429e-10
5.5249796e-09 0.04223408 -0.10058268 0.108018324 1.1419495e-09 -0.0108935945 -0.10029334 -0.025347436
-0.028828781 -0.01795147 0.050372545 0.027719297 -0.13620628 -0.073166765 -0.0035645654 0.009003682

BCBlocks.0.0.f2.0.block.1.running_var f4 [24]
00000000: 2f33 a53a 33ad 313c 1aa4 863c b1fd 893c
00000010: 07c2 223d 9ba3 d03c f846 083b 4cdc 6522
00000020: 25a7 0d26 afd6 c73b f26f 903c 5ab3 de3c
00000030: 3707 9b21 33a8 063d 29a5 713c a397 c73b
00000040: 99d2 c93c 0654 1c3d b509 ca3c 8da4 0d3c
00000050: baae d63c a5c5 8d3c f304 fa3c deaa 8a3b
0.0012603755 0.010844517 0.016435672 0.016844602 0.03973582 0.025468638 0.0020794254 3.1151911e-18
4.9145725e-16 0.0060985903 0.017631505 0.02718513 1.0505118e-18 0.03287525 0.01474885 0.0060910746
0.024636554 0.03816607 0.024662832 0.008645189 0.026206363 0.017306158 0.030519938 0.0042317947

BCBlocks.0.0.f2.1.block.0.weight f4 [24, 1, 3, 1]
00000000: 2fe3 1c3e 6600 60be a0ce a33d 257f f4bd
00000010: a4eb 5cbe 90b0 c43e 5582 e8bc 9cb9 eabd
00000020: 6425 98bd 1ef2 8cbe 4390 b13e 5ccf de3c
00000030: c926 9b3d ccca 593e 7f02 5ebd 0c2c f7bd
00000040: b77e a43e 7424 54bd 0dd2 753e b854 95bd
00000050: 3df5 36bb b587 c9b0 b7cf c6b0 4ace 45b0
00000060: 607d a2b2 c03e 89b1 731e 96b2 6359 6ebd
00000070: 8d59 4ebe cda4 2e3e edfb bcbd 3a0b d5bc
00000080: c622 00be 06dc 533d be44 da3e 3e48 d3be
00000090: c2cc 1831 7368 e42f 14c4 6aaf f409 18be
000000a0: 078b fd3e 99ea 10be 5aa6 53be 280c 2b3c
000000b0: 3134 9a3d f2d5 853c 525b e8bd 13c0 0d3e
000000c0: 6727 293e f7e2 3bbe a7a3 65be 8002 d93e
000000d0: d6cf 79be fb90 243a 9d87 ac3e f9f8 02be
000000e0: 282a 40bd 3aa1 10bd 36a9 13be 2a19 55bd
000000f0: bd41 053f 783f 84be 3091 81bd bf3b a33e
00000100: f7f7 87be b266 82bd 3246 773e 6ef8 d6be
00000110: 1062 c83b 9d1b 87bc d943 26be b64b 18be
0.15321039 -0.21875152 0.07998395 -0.119383134 -0.21574265 0.38415956 -0.02838246 -0.114611834
-0.07429007 -0.2752847 0.34680375 0.027198486 0.07575757 0.21268767 -0.0542016 -0.12068948
0.32127926 -0.051792577 0.2400591 -0.072915494 -0.002791717 -1.4663245e-09 -1.4465432e-09 -7.1961337e-10
-1.8916296e-08 -3.9943586e-09 -1.7476145e-08 -0.058190715 -0.20151348 0.17055054 -0.092277385 -0.02600633
-0.12513265 0.051723503 0.4263057 -0.41266054 2.2235302e-09 4.1547174e-10 -2.1351837e-10 -0.14847547
0.49520132 -0.14151992 -0.20668927 0.01043991 0.07529486 0.016337369 -0.11345543 0.13842802
0.16518937 -0.18348299 -0.2242571 0.4238472 -0.2439569 0.0006277707 0.33697215 -0.12790288
-0.046915203 -0.035310008 -0.14420018 -0.05202595 0.52053434 -0.25829673 -0.063265204 0.3188152
-0.2655637 -0.06367244 0.24147871 -0.41986412 0.0061152056 -0.01649266 -0.1623682 -0.14872631

BCBlocks.0.0.f2.1.block.1.ssnorm.weight f4 [120]
00000000: cb7e d7bd 731e 01be f2c4 a5bd 1b48 323e
00000010: c469 863a 2c82 463e a442 413e af8d e43d
00000020: fe1b b63d 6994 d13d 16ef 1abd e151 e3bd
00000030: 410f f53d 5407 343e 3d25 403e 5547 aa3d
00000040: 2968 0e3e c950 d93d ba65 043e 9b89 2ebe
00000050: defd dd3d 74c2 333e 34bb 4c3e 128d 353e
00000060: c0ea 2a3e e951 403e 9182 5f3e 4f94 1b3e
00000070: 0532 193e 862e 0c3e 2a2c 59b9 67e5 313e
00000080: ab62 e33d 6836 033e 0de0 e43d 015b 1d31
00000090: 3d82 cd30 f8e6 fb2f a714 6730 a2ae a030
000000a0: 4b0d af32 46d4 7d32 5354 7a32 dd8c 3f32
000000b0: 839f 0533 ded1 5e3e cf59 1f3e 57d9 3a3e
000000c0: ab12 173e e055 003e a5bc 82bd c38b 053e
000000d0: e1ec 99bd d1fd 283e af74 273e 027b 623e
000000e0: 2a99 3b3e 2b84 403e dda1 173e 39da 473e
000000f0: 63ef 25b0 1945 1eb0 1589 92b0 637c 982e
00000100: 19c6 b2af f5b1 573e e955 6b3e daae 283e
00000110: 3eb8 543e e6fc 5c3e fef4 98bb 0402 f7bd
00000120: 4fa3 913c 0c9e 413b 7048 ec3c c9e3 daba
00000130: 7a07 d63d 6b07 f03d 6b1b 8b3d b870 59bb
00000140: 82eb 713e 547f c53d ae6e 003e 3a74 f23d
00000150: 25d5 d23d fd08 473e ee9c 443e bf4f 343e
00000160: 1d7c 253e 8c99 373e b70c 223e f456 103e
00000170: 379c 103e 58fc 3a3e 1782 0c3e 1a7e 863d
00000180: c213 5fbd 4fd2 f63d 9918 033e e9f6 4d3e
00000190: a331 283e 6e08 443e 98ba 513e 5159 253e
000001a0: d35f 013e 4fda 4a3e 78d6 eb3d 304c 393e
000001b0: c776 453e 22f7 063e bf54 7fbe 5eb5 6cbe
000001c0: fd87 67be 221b 2bbe 38f5 3abe 1555 7d3e
000001d0: 704b 66ba 1385 873d 67ed d43d aa05 0a3e
-0.10522231 -0.12609272 -0.08094205 0.17410319 0.0010254909 0.19385594 0.18873078 0.111598365
0.08892058 0.10233385 -0.037825666 -0.110996015 0.119658 0.1758092 0.18764205 0.08314387
0.13906921 0.10611112 0.1292943 -0.1704468 0.10839437 0.17554647 0.19993287 0.17729595
0.16691113 0.18781246 0.21827151 0.15193294 0.14960487 0.13689622 -0.00020711185 0.17372666
0.11102804 0.12813723 0.11175547 2.2898237e-09 1.4952729e-09 4.5820747e-10 8.406666e-10 1.1691166e-09
2.0378726e-08 1.4774804e-08 1.4571088e-08 1.1149692e-08 3.111155e-08 0.21759745 0.15561603 0.18246971
0.14753215 0.12532759 -0.06383637 0.13041596 -0.07515884 0.16503073 0.16353105 0.22117236
0.18320146 0.18800418 0.1480784 0.19516839 -6.036684e-10 -5.757826e-10 -1.0661859e-09 6.934255e-11
-3.2518768e-10 0.21063979 0.22981991 0.1647295 0.20773408 0.21580848 -0.004667877 -0.12060931
0.017778067 0.0029543666 0.028843135 -0.0016699965 0.10450645 0.11720165 0.06792339 -0.0033178758
0.23624995 0.096434265 0.12542221 0.11838575 0.1029456 0.19437023 0.19200489 0.17608546
0.16160627 0.17929667 0.15825163 0.1409567 0.14122091 0.18260324 0.137215 0.06567021
-0.054462202 0.12051832 0.12802352 0.2011372 0.16425185 0.1914384 0.20481336 0.16147353
0.1263421 0.1980984 0.11515516 0.1809547 0.19283591 0.13180211 -0.24934672 -0.23116061
-0.22610469 -0.16709569 -0.18257606 0.24739487 -0.0008785045 0.06617179 0.103968434 0.13478723

BCBlocks.0.0.f2.1.block.1.ssnorm.bias f4 [120]
00000000: 5697 8ebb 8d5d 5fbb 16f3 fabb 894a c0bb
00000010: 6b36 54bc 8345 143d be66 a4bb 1765 163d
00000020: 919f 66bd 0377 86bd 9544 f2bc 11cd 47bd
00000030: 5f0f e93c 333c 693d bf36 023d 1c5a 1a3e
00000040: e010 4d3e 29cf 383e b312 123e c179 053c
00000050: d360 3f3c b07e b33d bdcb e23c e3bb 923b
00000060: c410 ae3d b813 88bc 8246 2b3d 7c2d 9abc
00000070: 72b6 0abb d1f0 41bd 186e 98bc 2e2a 843b
00000080: 1445 b93d c1f5 a03c 6fcd 5e3b fba8 933d
00000090: b886 8a3d 22fc 3d3c 8cca e53d 1dd4 633d
000000a0: 18a0 193c ba86 e03c c28c b43d 9178 a63d
000000b0: 9ca7 a03c a90b b6bd a340 25bb fd0d 50bd
000000c0: 1a91 32bb 1bc4 e6bc 151a 453d 9dbc 013e
000000d0: 5e12 e13d d928 183d 95ac 033d c681 b7bc
000000e0: b8fa 1b3c 2e0a 9c3b e888 2d3d 978f c93d
000000f0: 230f e8bb e1ad bc3d ac1e 8a3d 57bd 3d3b
00000100: a082 c7bb f539 083e 9941 433e 9c3d 1a3e
00000110: 1a77 303e 28c2 0d3e 9cf5 b8bc 1c41 f0bd
00000120: 049b 3ebd 9f7d 5abc 0aa2 edbc 1f09 bfbb
00000130: 0c79 9f3c 1761 c63b a91f b3ba 378e 2c3c
00000140: 3948 943d d7d0 b73d ec39 6e3d ba73 a23d
00000150: 60df 193e c330 4d3d 99cc 093d 92a9 3f3c
00000160: 39b1 9bbc fa47 4bbd fbdd b13d 6bfe df3d
00000170: 70c4 fd3d 56cd 123e f835 203e 0f52 ec3c
00000180: c10f 02bc 86b4 a53d 6f8b 403c 4795 b23c
00000190: 558c cebd a782 81bd d510 69bd 8c86 8939
000001a0: c175 1cbd 1ba6 20bd 7718 463c 3f6f c0bb
000001b0: bbf4 febc 3732 03bd 0f32 3fbc 980d b13a
000001c0: 98a2 ab3c bbe7 1d3d a419 54bd 53da 6d3d
000001d0: e59c c0bc 7ec1 8d3d 8506 713d 5699 583d
-0.0043515367 -0.003408286 -0.0076583726 -0.0058682603 -0.012952427 0.036199104 -0.0050171306 0.0367175
-0.056304518 -0.065656684 -0.029573718 -0.04877955 0.028449712 0.056942176 0.03179049 0.15073436
0.20025969 0.18047775 0.14264946 0.008146704 0.0116808 0.08764398 0.02768504 0.0044779642
0.084992915 -0.016610965 0.04181529 -0.018820517 -0.0021165875 -0.0473488 -0.018607184 0.0040333485
0.09046379 0.019648435 0.003399696 0.07209965 0.06763977 0.011595758 0.112202734 0.05562221
0.009376548 0.027407993 0.0881591 0.08128465 0.019611172 -0.08888943 -0.0025215528 -0.05079459
-0.0027247132 -0.028169682 0.048120577 0.12669607 0.109898314 0.03714833 0.03214701 -0.022400748
0.009520225 0.0047619557 0.042366892 0.09841841 -0.0070818826 0.09212852 0.067441314 0.0028951967
-0.0060885698 0.13303359 0.19067992 0.15062565 0.17232934 0.13843596 -0.022578053 -0.11731169
-0.046534553 -0.013335614 -0.02900793 -0.0058299447 0.0194669 0.0060540545 -0.0013666052 0.010531954
0.07240338 0.0897538 0.058160707 0.07932229 0.15026617 0.05009533 0.033642385 0.011698144
-0.019005405 -0.04962919 0.086849175 0.10937198 0.12390983 0.14336142 0.15645587 0.028847722
-0.007938326 0.08091073 0.011751994 0.021799697 -0.1008536 -0.06323748 -0.056900818 0.00026230922
-0.038198236 -0.03922091 0.012090794 -0.0058726366 -0.031122556 -0.03203031 -0.01166965 0.001350808
0.020951554 0.038551074 -0.051782265 0.05806954 -0.023512313 0.06921671 0.058844108 0.052880608

BCBlocks.0.0.f2.1.block.1.ssnorm.running_mean f4 [120]
00000000: bae8 07bc 89ee a93a 21ee a93a aeee a93a
00000010: c3c8 8abb f8e6 5ebd eea2 6c3a 6ba0 6c3a
00000020: 1ea2 6c3a df94 4fba 3f65 d0bc 26c0 00bd
00000030: 33c0 00bd 35c0 00bd 20a1 f8bc d524 623c
00000040: 7909 153c 9409 153c 6709 153c ad96 a13c
00000050: 12f2 033d 54c0 503c 1ec0 503c 03c0 503c
00000060: e1a8 5b3c 366b 9d3c 75a1 693c 75a1 693c
00000070: 73a1 693c 2cbc 623c 4f74 a23c 64de 7a3a
00000080: abdf 7a3a 19dc 7a3a 6112 753a 0400 0080
00000090: 0400 0080 0400 0080 0400 0080 0400 0080
000000a0: 0400 0080 0400 0080 0400 0080 0400 0080
000000b0: 0400 0080 f632 71bd 9401 7cba 2f02 7cba
000000c0: 1d00 7cba 99b7 b7ba 0a4d f1bb 157b 0dbc
000000d0: 187b 0dbc 107b 0dbc 8219 03bc 84dd d83c
000000e0: e69b 9b3c e69b 9b3c e69b 9b3c cf41 483d
000000f0: 0400 0000 0400 0000 0400 0000 0400 0000
00000100: 0400 0000 de52 1e3d 45bd 503d 64bd 503d
00000110: 66bd 503d 3a14 683d 30bb 95bc f047 9aba
00000120: 6647 9aba 4c46 9aba 80db aeba 8b1b 17bc
00000130: 0c53 bb39 c151 bb39 db51 bb39 beca 8938
00000140: b0ae eebb f377 14bb 6674 14bb 4374 14bb
00000150: 613c edba 5de2 373d adfa 3d3b a5f9 3d3b
00000160: 03f8 3d3b c018 343b a9b5 ac3b 1083 083d
00000170: 1a83 083d 2e83 083d 8e21 113d 2665 34bd
00000180: 1360 25bd 1c60 25bd 1c60 25bd b94d 1dbd
00000190: 0ac7 f53c e976 163d de76 163d d976 163d
000001a0: eb35 1d3d 2d3b 95bc 148d f0ba a78d f0ba
000001b0: 478c f0ba 4949 1b3b eb80 9abc e0e7 1ebb
000001c0: 8ce6 1ebb 8be6 1ebb e8f5 34bb 152e 27bd
000001d0: 7e96 11ba 5d94 11ba ac92 11ba 0e03 bdb9
-0.008295232 0.0012964766 0.0012964645 0.0012964809 -0.0042353584 -0.054419488 0.0009026964 0.00090265897
0.0009026843 -0.0007918607 -0.025438903 -0.031433247 -0.031433295 -0.031433303 -0.030350268 0.013802727
0.009096497 0.009096522 0.00909648 0.019725168 0.032213278 0.012741167 0.012741117 0.012741092
0.013406963 0.019216161 0.014259686 0.014259686 0.014259684 0.013838809 0.01983085 0.0009569882
0.0009570072 0.000956954 0.0009348747 -6e-45 -6e-45 -6e-45 -6e-45 -6e-45
-6e-45 -6e-45 -6e-45 -6e-45 -6e-45 -0.05888649 -0.0009613272 -0.00096133625
-0.0009613054 -0.0014016508 -0.00736392 -0.008635302 -0.008635305 -0.008635297 -0.008001687 0.026472814
0.018995237 0.018995237 0.018995237 0.048890885 6e-45 6e-45 6e-45 6e-45
6e-45 0.038653247 0.05096175 0.050961867 0.050961874 0.056659915 -0.018277735 -0.0011770707
-0.0011770546 -0.0011770218 -0.0013340563 -0.009222875 0.00035729294 0.0003572833 0.00035728407 6.570433e-05
-0.007284008 -0.0022654503 -0.0022652387 -0.0022652305 -0.0018099659 0.04489361 0.0028988526 0.002898791
0.0028986938 0.0027480572 0.005270679 0.033328116 0.033328153 0.033328228 0.03543239 -0.044041775
-0.040374827 -0.04037486 -0.04037486 -0.0384042 0.030002136 0.036734495 0.036734454 0.036734436
0.0383815 -0.018216694 -0.0018352591 -0.0018352763 -0.0018352353 0.0023694804 -0.018860301 -0.0024247095
-0.0024246303 -0.00242463 -0.0027612392 -0.04081543 -0.0005553736 -0.0005553419 -0.0005553167 -0.00036051165

BCBlocks.0.0.f2.1.block.1.ssnorm.running_var f4 [120]
00000000: 9718 483b b1d7 9d33 2348 9a33 c7cf 9c33
00000010: 3e37 7639 abd5 803b 0c6d 2338 9d68 2338
00000020: 9c66 2338 2e63 0e3a b0c9 f03a 9753 1a3b
00000030: 9753 1a3b 9553 1a3b 04d9 023b 6221 a039
00000040: 3c19 3438 8a13 3438 1817 3438 3fd9 a539
00000050: b733 3a3a 0280 5439 977f 5439 4a7f 5439
00000060: 774c 6f39 5cd4 9e39 9243 0739 5743 0739
00000070: 2843 0739 ced3 1439 3ab8 493b f052 7738
00000080: 0154 7738 3a52 7738 5c08 7d38 0400 0000
00000090: 0400 0000 0400 0000 0400 0000 0400 0000
000000a0: 0400 0000 0400 0000 0400 0000 0400 0000
000000b0: 0400 0000 d70f b73b c9fc 0738 85fc 0738
000000c0: 7ffc 0738 b8ed a738 0679 4b3b c3d4 853b
000000d0: c3d4 853b c3d4 853b 7061 573b cfc8 1139
000000e0: 21d6 6837 fdca 6837 60c8 6837 3780 183b
000000f0: 0400 0000 0400 0000 0400 0000 0400 0000
00000100: 0400 0000 6e8a 0a3b 4303 4e38 7e00 4e38
00000110: 7d00 4e38 aed1 1539 8ea4 923a dcc0 2a38
00000120: e2c0 2a38 0fc0 2a38 42f0 6e38 e716 e039
00000130: 02d7 a935 ecd1 a935 96d4 a935 d9db e935
00000140: f94d 853c a382 9739 917f 9739 187f 9739
00000150: 5858 6b39 03f5 643d 4da8 c839 13a8 c839
00000160: e3a6 c839 d3a3 bf39 16cd 6b3a cc59 f537
00000170: 5059 f537 4458 f537 e5d9 4238 a162 1f3a
00000180: 93b4 353a 84b4 353a 7fb4 353a 7498 263a
00000190: 034f 4a3c 90a9 373a 62a9 373a 10a9 373a
000001a0: 70e3 4b3a 0578 1a3a 28d7 5634 ef96 5034
000001b0: a4b3 5234 a94c 4e38 fe5d 013c 8bb8 a039
000001c0: 6ab7 a039 22b7 a039 c0f3 e639 ed17 7a3b
000001d0: 5302 a437 69ff a337 23fb a337 127c 3d37
0.0030532235 7.350116e-08 7.1843054e-08 7.3021106e-08 0.00023480968 0.003931721 3.8963786e-05 3.8959657e-05
3.895779e-05 0.0005431649 0.0018370654 0.0023548359 0.0023548359 0.0023548354 0.0019965777 0.0003054245
4.2938846e-05 4.293354e-05 4.2936852e-05 0.00031633113 0.0007103043 0.00020265582 0.00020265426 0.00020265314
0.00022821302 0.00030294328 0.00012899775 0.0001289969 0.00012899621 0.00014193283 0.0030779974 5.896663e-05
5.8967624e-05 5.896597e-05 6.0327686e-05 6e-45 6e-45 6e-45 6e-45 6e-45
6e-45 6e-45 6e-45 6e-45 6e-45 0.005586605 3.2421933e-05 3.2421685e-05
3.2421663e-05 8.007459e-05 0.0031047477 0.004084201 0.004084201 0.004084201 0.0032864474 0.00013903085
1.3878133e-05 1.38755395e-05 1.3874931e-05 0.0023269781 6e-45 6e-45 6e-45 6e-45
6e-45 0.002113964 4.9117265e-05 4.9114686e-05 4.9114682e-05 0.00014287859 0.0011187957 4.0710773e-05
4.0710795e-05 4.0710027e-05 5.696738e-05 0.00042741673 1.2654057e-06 1.2652577e-06 1.2653352e-06 1.7423837e-06
0.016272532 0.00028898296 0.0002889601 0.00028895657 0.00022444257 0.055897724 0.00038272367 0.00038272198
0.00038271313 0.00036552417 0.0008995099 2.924809e-05 2.9247865e-05 2.9247378e-05 4.6456134e-05 0.00060800655
0.00069315097 0.0006931501 0.0006931498 0.0006355115 0.012347939 0.0007006163 0.0007006136 0.0007006088
0.0007777726 0.0005892518 2.0008576e-07 1.9426419e-07 1.9623127e-07 4.9185623e-05 0.007895945 0.00030655073
0.00030654232 0.00030654023 0.00044050626 0.0038161234 1.9551406e-05 1.9550049e-05 1.9548059e-05 1.1294165e-05

BCBlocks.0.0.f1.0.block.0.weight f4 [24, 1, 1, 3]
00000000: 2eb6 522f df01 df2d 3a4b 0cb0 6eff 973d
00000010: 7716 3a3d 43e8 c13b 5dda 6e3d f3c2 323d
00000020: f821 e8bc 15ee f632 647a 73b2 56b6 91b2
00000030: a9ca ab3c 29fa 183e 98e6 d3bb 1e92 ebbb
00000040: 920b 41bc 9be1 37bc 4235 41b5 8e5c 1534
00000050: 34ff c534 a530 68af 65c6 54b0 5071 47ae
00000060: 5053 fa31 5d2c 2eb3 18e6 d5b0 a241 443d
00000070: 6454 883d 3136 933d 2904 27be 5cb5 c53d
00000080: c08d 113d 24a8 a43d ec33 623d cc30 b7bc
00000090: 11e0 7d30 29f9 80af 75c2 372f d66a 5bbd
000000a0: a129 9c3d 3702 8b3d 137c ee33 c30c fb33
000000b0: 90d7 0534 fa32 9f30 4ae7 e0b0 a771 0db1
000000c0: 2366 bb3c a932 88bc 5b87 5dbd 4bd1 803d
000000d0: 65b7 b13c 6a00 32bc dc7f d9a8 30ec c4ab
000000e0: 69da 092a 960a bcbb da14 2abe e4d7 763d
000000f0: 902e 283c 179d 12bc a73b c7bd 6135 423d
00000100: 06a6 373d 5d57 223d 26e9 3a2c 042e a02b
00000110: 7983 86ab 54b5 8f2d 10df dbac 8e75 f9ac
1.9164112e-10 2.5352996e-11 -5.1038607e-10 0.07421766 0.04543158 0.0059175803 0.058313716 0.04364295
-0.02833651 2.8746436e-08 -1.417229e-08 -1.6963138e-08 0.02097066 0.14939179 -0.006466698 -0.0071890494
-0.011782544 -0.011223222 -7.1975603e-07 1.3910378e-07 3.6879794e-07 -2.1117559e-10 -7.7407086e-10 -4.5348003e-11
7.285429e-09 -4.055288e-08 -1.5563186e-09 0.047914155 0.06656721 0.071880706 -0.1631018 0.09653732
0.035535574 0.08039883 0.055225298 -0.022362135 9.235928e-10 -2.3460103e-10 1.6712838e-10 -0.053568684
0.076251276 0.06787532 1.11053076e-07 1.169042e-07 1.2465011e-07 1.1583261e-09 -1.6363881e-09 -2.0582804e-09
0.022875851 -0.01662572 -0.054084163 0.062899195 0.021693895 -0.0108643565 -2.414729e-14 -1.3992193e-12
1.224382e-13 -0.0057385666 -0.16609517 0.060264483 0.010265008 -0.008948586 -0.09728175 0.047414187
0.044836067 0.039634097 2.6561613e-12 1.1381456e-12 -9.557764e-13 1.6337744e-11 -6.2491193e-12 -7.090057e-12

BCBlocks.0.0.f1.0.block.1.weight f4 [24]
00000000: 0b20 f2af 32b4 b5bd 4e3e d9bd ef78 cd32
00000010: 9d69 433e 6b6c bd3c c896 d7b3 1062 5c30
00000020: d3b5 1333 89eb 2c3e 62fe 223e 3eb5 0f3e
00000030: c15f 8330 85eb 4b3e 264b 5d34 b7bd 3931
00000040: ec40 b73d 37b4 923d fcf7 beaa c229 693e
00000050: c51a 063e 5b86 ac3d 2e58 472c 4f85 132d
-4.4042311e-10 -0.0887226 -0.10607587 2.3920135e-08 0.19083257 0.023122987 -1.00391446e-07 8.017489e-10
3.4391473e-08 0.16886725 0.15917352 0.14033982 9.558719e-10 0.19914062 2.0609568e-07 2.7028884e-09
0.0894793 0.071632795 -3.3922854e-13 0.22769836 0.1309615 0.08424064 2.832855e-12 8.385583e-12

BCBlocks.0.0.f1.0.block.1.bias f4 [24]
00000000: db7b cfb3 b400 3f3c 3ae7 bdbb c749 a035
00000010: 6a6d 25bc 918e 99bb c601 7834 8382 0bb4
00000020: 9e77 8d35 9c45 2d3b 6a8b 4f3c aba1 8b3c
00000030: c073 1333 a292 303d 89f8 1b36 22df 1634
00000040: 05b0 723b 1af4 043c 8df9 00b0 baae 273d
00000050: 6cb9 133d f7bc 21bc e5a4 fab0 ad8f 9930
-9.661718e-08 0.0116578825 -0.0057953866 1.1942401e-06 -0.010096887 -0.0046861847 2.3097445e-07 -1.2992864e-07
1.0540132e-06 0.0026439195 0.012667516 0.017044863 3.433138e-08 0.04310859 2.3241466e-06 1.4051014e-07
0.0037031185 0.008114839 -4.692076e-10 0.040938117 0.036065504 -0.009871713 -1.823676e-09 1.117305e-09

BCBlocks.0.0.f1.0.block.1.running_mean f4 [24]
00000000: 5966 0c2c 8845 baba 89a3 f439 502e 9caf
00000010: 37a1 eb3b ec69 b139 c6c2 2e31 5c4e 90ae
00000020: 3788 d8b0 2348 c7bb 4b72 45bb bd39 653b
00000030: 3c04 de2d d23a 773c d553 8bb2 46c0 51ad
00000040: 1ece 9abb ced8 df39 190e 35aa 832a 46bb
00000050: 0141 973b 2f5d 22bb 6912 33a9 6509 532a
1.995201e-12 -0.0014211396 0.0004666115 -2.8409142e-10 0.007190849 0.0003383899 2.5431048e-09 -6.562281e-11
-1.5754783e-09 -0.0060815974 -0.0030127938 0.0034977042 2.5240358e-11 0.015089707 -1.6219852e-08 -1.1922968e-11
-0.004724278 0.00042695407 -1.608092e-13 -0.0030237741 0.0046159034 -0.002477478 -3.9761953e-14 1.8743824e-13

BCBlocks.0.0.f1.0.block.1.running_var f4 [24]
00000000: 77bb 1116 a4d4 7d38 a339 fd37 70ac c322
00000010: 08fe 133a 89c8 3e37 4660 ec26 0904 1118
00000020: 071a aa1c 9b74 2839 6bdd e337 3430 cb38
00000030: 15e4 1519 1878 5f39 2cc1 5423 4a83 661d
00000040: fe77 6937 d8cd de38 ad0a bd14 3bb3 4a39
00000050: 383f 4b39 8469 2a36 685c 5716 f83a 9816
1.177216e-25 6.0517938e-05 3.018679e-05 5.303743e-18 0.00056454586 1.1371573e-05 1.6401885e-15 1.8742848e-24
1.1256384e-21 0.00016065167 2.7163615e-05 9.688773e-05 7.74918e-24 0.00021311676 1.1533449e-17 3.0508121e-21
1.391582e-05 0.00010624126 1.9088334e-26 0.0001933099 0.0001938314 2.5393392e-06 1.739672e-25 2.459414e-25

BCBlocks.0.0.f1.1.weight f4 [24, 24, 1, 1]
00000000: e7e0 f631 af61 0f3c cf27 8a38 3551 d0b3
00000010: dd0a a9bb d274 833b e39e 57b4 cbb9 2032
00000020: 9755 8cb3 004b 82bc a0a1 6ebc 5f67 dabc
00000030: 9b92 37b1 5031 8cbd 3d1c 52b4 4950 35b2
00000040: 60db 10bc 72fc 6cbb 6e5d 192e 4f83 693c
00000050: 8975 6e3c eec0 03bb 29ec 122f 765c b0ae
00000060: 55f4 48b2 f3cd 623d 9502 503c 2b5b 1834
00000070: 66a0 253b 493e 86bb 78ee 05b4 f600 8ab2
00000080: f7e7 1534 3d2d 61bd 3060 a7bb 3a73 2f3c
00000090: 2339 8a31 cff2 abbb 0705 9934 7156 9232
000000a0: 8736 69bd a75c 00bd f8e1 7eae cc30 34bd
000000b0: cd53 c9bb f2f8 a9bc 64f4 76af 6119 1a2f
000000c0: 256d 3333 0185 f7bc 4b7c 0f3d 2ba0 0bb5
000000d0: 2ed9 cbbd 1993 2e3c 961c 1332 8be2 7133
000000e0: 91cb f5b4 f209 b1bc 8359 cebd 33d3 99bc
000000f0: 5d49 7db2 2c8f 96bc 88f5 85b5 f4d4 82b3
00000100: f895 26bd 3cf3 3fbd 3c52 5f2f 69ec cabc
00000110: 76dd d3bb e4a7 bbbc 5e39 5930 4461 05b0
00000120: 4275 3933 e41d 66bb 6fea d5bc a129 10b5
00000130: a0fa 763d d76d 233b e019 31b4 be1f 7a33
00000140: 81da feb4 9622 473d c2e3 bc39 1b71 d23c
00000150: 09b9 83b2 bb61 e4bd b38d 8cb5 8346 88b3
00000160: 0643 89bb d875 443c 6b02 672f 77a2 863b
00000170: c58a 26bd 7b46 103c 6a61 6030 7ab9 09b0
00000180: dcd7 dab2 97bd 74bb 4bf7 60bb 217b a734
00000190: f792 bbbd c56b f8bb 3966 62b3 62e3 12b3
000001a0: 8f85 8e34 6e17 b53b a9d3 27bc 3caf 1aba
000001b0: 456e 1d32 71f5 893c 76d1 2a35 1e35 1b33
000001c0: 54d0 30bc 311a a2bc f0d5 07af 7143 bcbd
000001d0: f146 ff3d 45ea a3bb 5c16 04b0 aff3 a02f
000001e0: b6b6 45b2 7b9d c13c 3af7 dbbc 5e4f 1934
000001f0: 7425 eabd 5ebc 783c 88ee 3b34 2e7a 80b2
00000200: 4bbf c733 49cb 4ebd a789 34bd db9f ddbc
00000210: 80ba 8d31 88c3 1dbd af0e 9d34 3571 8732
00000220: 9176 823c f926 fc39 8a95 6cae 61db 23bd
00000230: ac55 373c a8b7 81bc d186 64af f4d2 0c2f
00000240: a418 e0b1 7ac6 5bba 87b0 d1bb 443a 9b33
00000250: 2fa7 383d 67a7 55bb d8af 6634 d860 0fb2
00000260: e940 5a33 5cfb 0f3d ed73 c3bb e2d2 553b
00000270: 2369 1531 3123 45bc 5e08 4734 5395 2132
00000280: 1cee 1f3c b0e7 2739 b9f5 02ae 725d 183d
00000290: 7839 053b 2088 f3bb 26ee 00af 8b0c 9c2e
000002a0: 3a2e a233 d9e9 6cbc 464e fb3c e679 79b5
000002b0: 98d2 90bd f444 0f3c 0486 4cb4 ff69 da33
000002c0: b102 5cb5 5939 81bd faa8 093e d498 5abd
000002d0: 6068 eab2 d30c 44bd e129 f4b5 af22 eab3
000002e0: 8ae3 f5bc a521 443b f0ac c92f fbe5 c4bd
000002f0: b9e0 0b3d c7e8 b53c 1215 c430 82d2 6eb0
00000300: 12ab 0033 c572 583c a214 1bbd df94 c6b4
00000310: 8508 183c be03 e2bb 5005 2bb3 b005 2e33
00000320: dcf6 b4b4 d3d7 03be 3616 d63d 328a 903d
00000330: 52bd 32b2 f63e 1dbd 484b 42b5 b83d 3eb3
00000340: c8e7 d7bc b1a4 a43c 12e2 202f 3bb3 163d
00000350: df9b f7ba 7139 393c c14d 1c30 cfe6 c0af
00000360: 4254 8c32 e8de 35bb b043 a0bc 9376 54b4
00000370: 40cf 4a3d d10f 503b 6478 0db4 3d75 ba32
00000380: 201a 3cb4 b02c 953d 0667 42bb 0303 f5bb
00000390: bd50 c8b1 9f1c 14bd 40ae cfb4 e48a c5b2
000003a0: d925 eb3c f92d 2c3c bcb9 ac2e 8844 d0bc
000003b0: c339 1dbd 73f7 9ebb 40bf a82f e1cf 4eaf
000003c0: de8f 0e33 f823 373c fcfb 023c 2ca6 d9b4
000003d0: 0359 033b 57a1 80bb 0055 54b3 e0b2 3f33
000003e0: 523f c1b4 db8c 603d ad6a 363c e4e2 523d
000003f0: 2c01 4db2 26b3 2b3c 4dc8 54b5 6bdd 4cb3
7.1851107e-09 0.008751317 6.587768e-05 -9.700526e-08 -0.0051587657 0.004011729 -2.0081238e-07 9.35547e-09
-6.534827e-08 -0.015904903 -0.014564902 -0.02666062 -2.671334e-09 -0.06845343 -1.9568047e-07 -1.0553841e-08
-0.008841366 -0.0036161211 3.4871155e-11 0.014252498 0.01455439 -0.0020104009 1.3362524e-10 -8.019978e-11
-1.1697087e-08 0.05537219 0.012695928 1.418927e-07 0.0025272607 -0.0040967804 -1.2473345e-07 -1.6065751e-08
1.3961095e-07 -0.054974783 -0.005107902 0.0107086245 4.0228243e-09 -0.005247451 2.850213e-07 1.7035946e-08
-0.056936767 -0.03133836 -5.7953614e-11 -0.04399185 -0.006144023 -0.02074859 -2.2460395e-10 1.4015235e-10
4.177595e-08 -0.030214788 0.035030644 -5.201461e-07 -0.09953533 0.010655188 8.563026e-09 5.6318225e-08
-4.578292e-07 -0.021611188 -0.10075667 -0.018777465 -1.4743219e-08 -0.018378817 -9.980731e-07 -6.092333e-08
-0.040670365 -0.046862826 2.0310947e-10 -0.024770932 -0.006465609 -0.022907205 7.9025664e-10 -4.852334e-10
4.3180314e-08 -0.003511303 -0.026112763 -5.370476e-07 0.06029761 0.0024937296 -1.6493823e-07 5.823653e-08
-4.747017e-07 0.048616968 0.00036027847 0.025688699 -1.5334551e-08 -0.11151453 -1.0472053e-06 -6.3458195e-08
-0.004188898 0.011990987 2.1010187e-10 0.004108723 -0.040659685 0.008805866 8.162916e-10 -5.010389e-10
-2.5476702e-08 -0.003734445 -0.0034327086 3.1195762e-07 -0.09158891 -0.0075812065 -5.2712696e-08 -3.4200077e-08
2.6546738e-07 0.0055264747 -0.010243335 -0.0005900746 9.163675e-09 0.016840668 6.363474e-07 3.613706e-08
-0.010791857 -0.01978788 -1.2354184e-10 -0.09192551 0.12464703 -0.0050022923 -4.8053095e-10 2.9276978e-10
-1.1508453e-08 0.023634663 -0.026851285 1.4278109e-07 -0.11432925 0.015181629 1.750251e-07 -1.4956722e-08
9.3014556e-08 -0.050486837 -0.044076588 -0.027053764 4.1248427e-09 -0.03851655 2.9254213e-07 1.5767549e-08
0.015925677 0.00048094222 -5.3793005e-11 -0.040004138 0.011189859 -0.015834644 -2.0784376e-10 1.2807871e-10
-6.5220593e-09 -0.00083837623 -0.0063992175 7.2283484e-08 0.045081314 -0.0032601 2.1484391e-07 -8.345715e-09
5.0816116e-08 0.035151824 -0.005964747 0.0032626917 2.1742117e-09 -0.012032316 1.8536363e-07 9.405386e-09
0.00976136 0.00016012671 -2.9776823e-11 0.03719849 0.0020328443 -0.007431999 -1.172614e-10 7.096287e-11
7.5521214e-08 -0.0144600505 0.030676972 -9.2937114e-07 -0.070714176 0.008744467 -1.9047735e-07 1.01706966e-07
-8.1960303e-07 -0.06309766 0.13443366 -0.053368405 -2.728865e-08 -0.047863793 -1.8191605e-06 -1.0902783e-07
-0.030015726 0.002992728 3.6684566e-10 -0.09614178 0.03414986 0.022205723 1.4266865e-09 -8.6883045e-10
2.995791e-08 0.013210957 -0.037861474 -3.6988692e-07 0.009279375 -0.0068974188 -3.981887e-08 4.0517705e-08
-3.3707227e-07 -0.12875299 0.10453455 0.07057609 -1.040401e-08 -0.038390122 -7.238018e-07 -4.4293955e-08
-0.02635564 0.020098062 1.4632232e-10 0.03679202 -0.0018891058 0.011305199 5.6862964e-10 -3.5088596e-10
1.6336461e-08 -0.002775127 -0.019563526 -1.9787176e-07 0.049514055 0.0031747709 -1.3175446e-07 2.1706564e-08
-1.7518369e-07 0.07283914 -0.0029663458 -0.0074771657 -5.829945e-09 -0.036160108 -3.8683538e-07 -2.2996979e-08
0.02870457 0.010509008 7.8546475e-11 -0.025423303 -0.038385164 -0.0048512756 3.0694913e-10 -1.8809444e-10
3.3192798e-08 0.011178009 0.007994648 -4.0540306e-07 0.0020042069 -0.003925483 -4.9437404e-08 4.463334e-08
-3.5995123e-07 0.05482183 0.011133832 0.05148591 -1.1932837e-08 0.010479724 -7.926763e-07 -4.769883e-08

BCBlocks.0.1.f2.0.block.0.weight f4 [24, 1, 3, 1]
00000000: e681 153e 7d03 153d 8f03 d63d 1d85 49bd
00000010: fca5 a43d 68fb 313e 9401 f5bc fed5 10be
00000020: 8db7 0bbd 1252 ef3d 2ea4 813e 9268 82bb
00000030: 7320 0bbd 1b90 8b3d e0c2 ec3d 1252 22be
00000040: 8f63 463e f040 71bd d327 19be d304 cf3d
00000050: 949d 89bd 12da 4c3d 6aeb 4b3d 46b3 843d
00000060: ef05 ca3b 2899 94bd 3370 adbd 7a25 f53d
00000070: fc90 de3d 4c1e 97bd c751 59bc e1e4 52be
00000080: 3ed5 1ebb 11d3 813e 6724 dfbd 8fc9 953d
00000090: 7da1 06b3 48d4 d5b3 607d 1db4 b38b fd3d
000000a0: 8bd3 1e3e ed7d 2ebc 3690 2cbe 4969 ba3d
000000b0: eff4 563d f616 0fbd 683f c13d b609 c4bd
000000c0: ddac 053e 3bd1 883d b6c7 2cbb 8fc4 60be
000000d0: 32d6 133e 6fff 9c3c 2d82 67be 2b2f fd3d
000000e0: 3ef0 a13d edfb 963b c6dd ac3d 02e4 da3d
000000f0: d1a3 ebbd b42b 7b3e 2d8f 043d ce6a 963d
00000100: f1a2 493e 5cf6 c0bd b281 123d 66f2 c83c
00000110: ce81 52be e9e5 f53d 3d8f 74bd 6485 20be
0.14600334 0.03638028 0.104498975 -0.049199212 0.080394715 0.1738106 -0.02990798 -0.14144132
-0.034110595 0.116855755 0.25320572 -0.003979751 -0.033966493 0.06814595 0.11560607 -0.1585162
0.19373916 -0.05889982 -0.14956598 0.10108342 -0.06719509 0.050012656 0.049785055 0.06479506
0.006165258 -0.07255775 -0.08468666 0.11970039 0.10867497 -0.073788255 -0.013264126 -0.20595123
-0.002423599 0.25356343 -0.10895615 0.07313835 -3.134618e-08 -9.957199e-08 -1.4667376e-07 0.12380161
0.15510385 -0.01065014 -0.16851887 0.09102113 0.05247968 -0.034934007 0.09435922 -0.09572165
0.13054223 0.066805325 -0.0026364154 -0.21949981 0.14437178 0.019164769 -0.22608252 0.12362512
0.07907151 0.0046076686 0.084407374 0.1068802 -0.11505855 0.2452839 0.032363106 0.0734459
0.19691063 -0.09421989 0.03576822 0.024529647 -0.20557329 0.120067425 -0.059706915 -0.15675884

BCBlocks.0.1.f2.0.block.1.ssnorm.weight f4 [120]
00000000: 0923 153e 911b 983c 4652 093d 759e 9d3d
00000010: 5e7e 59bb 13e6 dd3d b58d 013e 14e8 a03d
00000020: 150e 953d 3212 c03d 2244 943c 4d2a edbc
00000030: ea77 dfbd 7956 17be 09aa 5fbe 66f9 293e
00000040: 6caa 9f3d 7aad 0e3e 99ca cd3d 27ad a6be
00000050: bf9f 233e 8307 8c3d f1e7 0e3b 5a3d 303c
00000060: 4fdd 3b3d e261 d73d a42f d33d c903 043e
00000070: 090d f43d e513 d73d edd5 a13c 754c 4f3d
00000080: 2953 073e 3a0b f53d d6c1 b03c 0598 893d
00000090: d4c6 503d 9987 02bd 5f3e 953c f15b 063e
000000a0: 35e9 1dbd 150c 9bbd 2dbf ffbd 3016 bc3c
000000b0: e46d 263c 770f c13d aa37 8c3d ab81 123e
000000c0: b37d 1d3e 9c8c e93d 4fee d3bd 6466 693e
000000d0: 699d bdbd 6fc3 433e 5713 303e 6c66 ff3d
000000e0: 62af 4d3e d10c 533e fce5 263e af24 0e3e
000000f0: e4ea 13b1 dbc1 f5b2 c873 3db4 01a4 f2b2
00000100: 644b 8cb2 dd67 ce3d 2480 f93d 22c6 1a3e
00000110: bfa6 fb3d 75d2 1b3e b9a0 a2bc a629 39be
00000120: 3ac7 c2bd 21e6 dcbb b503 dfbc d604 863c
00000130: 76b3 cb3d 5dc0 a53d ab98 cbbd a664 8bbb
00000140: 1ecf d73d a974 b23d 8dfb 313d 5f4b 683d
00000150: 1e37 0b3e 9e4d 873d d51c b13d 9377 ca3d
00000160: 1653 2abc da0d b03c 8281 fc3d 6058 f03d
00000170: 2e24 0f3e 819e bd3d a30c eb3d 9beb 90bd
00000180: 949b 0a3d 696b df3d 5354 ee3d 37bb 383e
00000190: e6cc f03d 33df fe3d 7c06 e63d a6f6 083e
000001a0: 4847 9d3d f249 b03d f27d 173e a774 c03d
000001b0: 5e0b c83d 06e7 ca3d c122 d8bd f452 bd3c
000001c0: 5ee9 843d 32da 8fbc 3f10 b8bd a2bb f03d
000001d0: 7d6b 16bc 3d18 a4bd 1659 06be 1295 1bbe
0.14564146 0.018567832 0.033525728 0.07696239 -0.0033186893 0.10834899 0.12651713 0.078567654
0.072780766 0.093784705 0.018098895 -0.028950835 -0.10911544 -0.1477908 -0.21842207 0.16599044
0.07796177 0.13933364 0.10048408 -0.3255398 0.15978907 0.0683737 0.0021805728 0.010756815
0.045865353 0.105167165 0.10311821 0.12892069 0.11916549 0.105018415 0.019755328 0.050610024
0.13215317 0.11965032 0.021576803 0.067184485 0.050970867 -0.031867597 0.018218217 0.1312101
-0.03855248 -0.07570664 -0.12487636 0.022959799 0.010158036 0.09426778 0.068465546 0.14307277
0.15379982 0.11403772 -0.10348188 0.22792965 -0.09258539 0.19117521 0.17194878 0.12470707
0.20086434 0.20610358 0.1629867 0.13881181 -2.1524835e-09 -2.8609909e-08 -1.7644118e-07 -2.8247088e-08
-1.6332429e-08 0.10078404 0.12182644 0.15114644 0.12287664 0.15217002 -0.01985203 -0.18082294
-0.09510656 -0.0067413007 -0.027223447 0.016359728 0.09946339 0.08093331 -0.099412285 -0.0042539416
0.10537551 0.087136574 0.04345279 0.056712504 0.13595244 0.06606601 0.086480774 0.09886088
-0.010395786 0.02149098 0.12329389 0.11735606 0.13978645 0.09258748 0.1147702 -0.07076188
0.033839777 0.10909159 0.11637177 0.18040167 0.11757831 0.124449156 0.112317055 0.13375339
0.076796114 0.08607854 0.14794138 0.0939725 0.09767793 0.099073455 -0.10553504 0.023110844
0.06489824 -0.017560098 -0.08987474 0.11754538 -0.009180901 -0.080124356 -0.13119921 -0.15193585
