models/mycmds_tau2/model_best.pth (torch, 205703 bytes, 165 tensors)

cnn_head.0.weight f4 [32, 1, 5, 5]
00000000: db2a 8ebd 77c3 69be 9630 4dbe 7430 8dbd
00000010: 6d06 82be 52d3 76be e095 0fbe 8202 52be
00000020: 24aa afbe b8c1 43be 30d5 a7bd 8ca7 dabd
00000030: 04cd 83be cd2b e2bd fb9c 20be 9986 c13d
00000040: f2cf 85bd df12 9cbd 014f e5bd f5c9 7a3b
00000050: 16c6 fdbd dde6 c1bd 8a54 01be 1de4 27bd
00000060: 3a71 3bbe 6aa9 1cbe 1b6b af3d 40b5 dfbb
00000070: 9809 e9bd 39b2 23be 61c1 653d c363 253e
00000080: b025 8a3c b360 123e 9d50 3d3e 19cf 593d
00000090: 63f2 5f3e 4da5 903d afad 2f3d bd38 413e
000000a0: 0cc4 893d 8c1d 183e a04c 7dbd 4cac b03d
000000b0: 780d c33d f0fe abbc f76f ff3d 04e6 ec3c
000000c0: b345 003e 5d5d a83d b966 fd3d e088 af3d
000000d0: 0509 83bb 41b7 36bd d545 06be 6586 d23d
000000e0: 1cd3 6f3e 57e1 4f3e 6f2b bf3d ce9e 943d
000000f0: 8ed1 043e 7747 173e fa34 843c 5bc1 8fbd
00000100: 311a 59bd ddc1 1e3e 0d89 193e 90f2 d83d
00000110: 95fb a13c e03d f5bd 1ced ac3c 08be 73bc
00000120: 14f7 0e3d 0ffc 3f3c 3cf6 75bc c25c bf3c
00000130: b9e6 803e 3834 903d 9d0a 713e 48f8 543d
00000140: dffa 50bd 4d9e 0e3e 4771 173e 5542 cd3d
00000150: b6f2 263e ad60 03be 4357 3d3e 2fe2 203d
00000160: 27f1 a53c 8a72 893d ee9e 67bd dae6 ba3c
00000170: 4519 3f3c 5a18 483c e72f d13d 47e8 d03b
00000180: f9dd be3d 3f9f 433c 8312 b83d c9c8 563d
00000190: 8298 5abc 0e18 cf3d 60b4 353d dc79 423d
000001a0: 7055 683e e830 45bd eb9c 573e 682e dc3d
000001b0: f9b1 7e3e 8e5a 613e c085 ca3d 8fe5 4a3e
000001c0: e04e c73d 5c76 143e b9ba c73e 41b7 dabd
000001d0: ebde ca3c bd21 35bd de00 283d 408d 423e
000001e0: 49a5 863d 58ea e33d 4655 39bd 18fe 403b
000001f0: 8180 113e d150 1bbd da83 843d 3d4d ed3d
00000200: b3e5 f83d d470 823e dca7 b3bd 63a7 1a3e
00000210: 8f87 253e da11 2c3e 658c 7e3e 55a9 f6bd
00000220: 2cb7 8e3e cc47 233e 110f 0e3e 3fb5 0d3e
00000230: 078b 85bd d589 183e a7db 303c b3b5 ab3d
00000240: 49c8 263d 6446 96bd 5d0e a3bd 540d 41bd
00000250: 7e92 863d ae96 e63d cee3 e5be 2e8b 03bf
00000260: 75e1 dabe b3bf d1be b26e 05bf 304a 403e
00000270: c97c 383d d1c1 253d b7f5 cb3d fd34 023e
00000280: 5566 983d 37bc 77bd 7dbe 573d 7777 38bd
00000290: 9221 113c af93 023e 7ec6 1fbe d5b0 20bc
000002a0: 757d 03be 1ea1 51bc dfdc 52bc 8051 b1bd
000002b0: 1257 c73a 59fd e4bd eacd a93d 4e9d 1fbe
000002c0: dd7c 253e 3a8f bf3d c62e c23d d1a2 793e
000002d0: 7e92 31be 40c6 5b3d 11c6 ea3d e437 733e
000002e0: d56d 583e 45e1 eebc 8e42 f83d e6a0 723e
000002f0: 2afa 243e fc93 803e 0fba 76bd 903c 333e
00000300: 0d54 69bc a211 3c3e 56ad 153d 45d1 34bd
00000310: 798f a03d 6095 bbbd 14e4 b2bd dc92 903d
00000320: 8be9 74be 49e1 80be 345f 79be 618c 86be
00000330: 73e7 bbbe a069 bf3d 521b 50bd e818 58bc
00000340: 78f5 1ebe 6338 80bd 5090 063e 5d92 0c3e
00000350: 0c2f 4abb ba90 1fbd 2f87 c6bd 5b67 b43d
00000360: ec60 ec3d 09b6 8cbc 75b1 4a3c 8c99 1abe
00000370: ece2 063e 7223 303d f5ff c2bb 3c86 80bb
00000380: cfea 1bbe fa8a 0ebc f70e d53b cb81 87bd
00000390: 2996 a43d d978 cfbd bcb2 82be 3b22 86be
000003a0: 0322 a5be 073a 8cbe 05f4 a0be 2a34 3b3d
000003b0: 65f5 2abd 0be0 5dbd 33c8 6c3d 3453 0ebd
000003c0: 1402 1b3d 8cab 243d 4f85 eabd effe abbc
000003d0: 2cd8 48bc ec0d 4a3c 0559 6abc 8039 45bd
000003e0: 1b03 4c3d 462b a0bc bd14 a53d 8da5 483e
000003f0: 5bad 203e eacd 2dbc 7e57 0d3e 37c7 843d
-0.06941768 -0.2282847 -0.20038065 -0.06894007 -0.25395527 -0.2410405 -0.14022017 -0.20508769
-0.34309494 -0.19116867 -0.08194959 -0.10676488 -0.25742352 -0.110435106 -0.15684883 0.094495006
-0.06533803 -0.07620787 -0.111967094 0.0038267348 -0.123912975 -0.09467862 -0.12629905 -0.04098903
-0.18304911 -0.15299001 0.085653506 -0.0068270266 -0.11378783 -0.15985955 0.056092624 0.16151337
0.016863674 0.142947 0.18487783 0.05317602 0.21869807 0.070627786 0.042890247 0.188693
0.06726846 0.14855021 -0.061840653 0.08626613 0.09524053 -0.020995587 0.124725275 0.028918274
0.12526588 0.08220933 0.123731084 0.08571029 -0.003998878 -0.04460836 -0.13112576 0.1027954
0.23420376 0.20300804 0.09334456 0.07256852 0.12970564 0.14773355 0.016138542 -0.070193015
-0.053003494 0.1550364 0.14993687 0.1059314 0.019773284 -0.11974692 0.021109156 -0.01487685
0.0349036 0.01171781 -0.01501232 0.02335966 0.25176027 0.0704121 0.23539205 0.051994592
-0.0510205 0.13927574 0.14789306 0.100224175 0.16303524 -0.12829848 0.18490319 0.039278205
0.020256592 0.067113 -0.05654805 0.022815157 0.01166374 0.012212837 0.10214215 0.006375346
0.09319682 0.011939823 0.08987906 0.052437577 -0.013342025 0.1011201 0.044361472 0.047479495
0.22688842 -0.048142344 0.21055953 0.10751039 0.24872579 0.220072 0.09888792 0.19814132
0.09731841 0.14498276 0.39009646 -0.10679484 0.024764499 -0.04422163 0.041016452 0.18999195
0.065744944 0.11128682 -0.04524734 0.0029448327 0.14209177 -0.03791887 0.06470461 0.11586998
0.12153187 0.25476706 -0.08772251 0.15102915 0.16164993 0.16803685 0.24858244 -0.12044016
0.27874124 0.15945357 0.13872935 0.13838671 -0.06520658 0.14896329 0.010794557 0.08384266
0.04071835 -0.07337645 -0.07961724 -0.04713185 0.0657091 0.112592086 -0.44900364 -0.51384246
-0.42750135 -0.40966567 -0.5212203 0.187783 0.04504088 0.04046804 0.09958976 0.12715526
0.07441393 -0.06048223 0.0526719 -0.045035806 0.008858101 0.1275165 -0.15603063 -0.009807785
-0.12840827 -0.012794761 -0.012870043 -0.08658123 0.0015208444 -0.11181135 0.08291228 -0.1558735
0.16160913 0.0935349 0.094815776 0.24378516 -0.17341039 0.053655863 0.114635594 0.2375179
0.21135648 -0.029160151 0.12122069 0.2369419 0.16111055 0.25112903 -0.060236033 0.17503572
-0.014241231 0.18366101 0.03654226 -0.044144887 0.07839865 -0.091593504 -0.08734909 0.07059261
-0.23917215 -0.2517188 -0.24352723 -0.26278976 -0.3670002 0.09346318 -0.050807305 -0.013189532
-0.15523326 -0.06260755 0.13140988 0.13727708 -0.0030850796 -0.03895638 -0.09693753 0.08808776
0.11541924 -0.017176645 0.012371411 -0.15097636 0.13172501 0.043002553 -0.0059509226 -0.003922252
-0.15226291 -0.008700127 0.006502028 -0.06616553 0.08036453 -0.10130472 -0.25526989 -0.2619799
-0.3225251 -0.2738802 -0.31436172 0.045704044 -0.041737933 -0.054168742 0.057808112 -0.034747317
0.03784378 0.040202662 -0.11451208 -0.020995585 -0.012258571 0.012332421 -0.0143034505 -0.04815054
0.04980765 -0.019551884 0.08060596 0.19594403 0.1569113 -0.010608176 0.13802907 0.0648331

cnn_head.1.weight f4 [32]
00000000: abb3 fb3e f7b9 513e e816 883e 854f f33e
00000010: 8282 1f3f c3de 0c3f 8a0b 303f ec3f 163f
00000020: 16ff dd3e ebcc 023f 8a64 f93e 90c5 043f
00000030: 3d5c d23e edae c53e dabc fd3e b1e2 f53e
00000040: fd9c 013f ab0d c83e 1e3c 2e3f 60a5 d33e
00000050: 7469 bf3e 6fcd 1a3f e994 283f 7088 393f
00000060: f74e 1e3f 93df 3a3f ca91 133f fb5f 0c3f
00000070: 0962 c93e c06d 433f 3bf4 cc3e 64c9 bd3e
0.49160513 0.20481096 0.26579976 0.47521606 0.62308514 0.5502741 0.6876761 0.5869129
0.43358678 0.5109393 0.48709518 0.51863956 0.41085997 0.3861002 0.49558145 0.48024514
0.5063017 0.39072928 0.6806048 0.4133711 0.37385142 0.60469717 0.6585222 0.7247381
0.6183924 0.729974 0.5764433 0.54833955 0.39332607 0.7633934 0.40030083 0.3706771

cnn_head.1.bias f4 [32]
00000000: 1341 f6bd a118 1cbf 719c 35be c870 803d
00000010: 4981 76be a033 1dbd 3e87 1ebb 7be9 333d
00000020: fdd8 a03d 2b11 44be 972b 643c 829f 583e
00000030: 77d2 8cbe 54f4 4c3c 7412 fcbe 59b4 82bd
00000040: bf1f 3dbe 0694 c9be 9659 213e 6bdd 863c
00000050: fdd9 14be cc80 b5bc 5c49 a6bd 4a83 51be
00000060: 5783 f5bd 1405 d23e ce14 b63e ce1a dfbc
00000070: c541 853d 270d b43e 7244 493e 1998 33be
-0.12024131 -0.6097508 -0.17735459 0.06271511 -0.24072756 -0.03837931 -0.0024189497 0.043923836
0.07853887 -0.19147174 0.013926408 0.21154597 -0.27504322 0.012509424 -0.4923283 -0.06382055
-0.18469141 -0.39370745 0.1575683 0.016463002 -0.14536281 -0.022156142 -0.08119461 -0.20460239
-0.11987942 0.410195 0.35562748 -0.027234461 0.06506685 0.35166284 0.19655016 -0.1753849

cnn_head.1.running_mean f4 [32]
00000000: e88d 3f41 ab83 a9c0 5171 8fc0 ffa9 bbc0
00000010: cfb2 0bc1 79ea dec0 abb0 ea40 ba26 d7c0
00000020: 18eb 9540 40eb b640 ddd6 abc0 a06f cfbf
00000030: 8675 a240 5533 83c0 2d5d f6c0 11ff 2d41
00000040: 2f6d ea3f 4112 fb3e 0ff5 11c1 14e7 5d41
00000050: 9d1e c4c0 1739 dec0 2e3e 1b40 4788 f640
00000060: 82c8 0541 7786 da40 b525 26c1 4f90 e0c0
00000070: 8b38 73c0 bcb8 d540 c0d3 bd40 cf49 f3c0
11.972145 -5.2973228 -4.4825826 -5.8645015 -8.731154 -6.966122 7.334066 -6.7234774
4.684948 5.716217 -5.3699784 -1.620594 5.076846 -4.100016 -7.698874 10.874772
1.831457 0.49037364 -9.122329 13.868916 -6.128737 -6.944469 2.4256701 7.7041354
8.361452 6.828914 -10.384206 -7.017616 -3.800326 6.6788006 5.9320984 -7.60276

cnn_head.1.running_var f4 [32]
00000000: 1c46 c742 3c65 9e41 cb27 8241 f368 c941
00000010: f089 5842 ad6a 1342 385f 3142 64e1 0942
00000020: d23f a941 5c68 d041 4bf7 a641 468e 3f41
00000030: 823f a641 64ba 6441 62ac 3642 12fa a642
00000040: 3f55 ce40 2448 a340 af5e 7e42 60fa 0043
00000050: dd67 db41 30b2 1442 7346 3141 b12d 6742
00000060: f77d 7b42 b46b 4242 bb5f a842 9bdd 1442
00000070: e86e 3f41 7f1a 3e42 c8a6 f441 be03 2642
99.63693 19.79943 16.26943 25.176245 54.134705 36.854176 44.342987 34.470108
21.156162 26.050957 20.870749 11.972235 20.78101 14.295506 45.668343 83.48842
6.447906 5.102556 63.592464 128.97803 27.425714 37.17401 11.0796995 57.79462
62.873013 48.60518 84.18697 37.21641 11.964577 47.525875 30.581436 41.503654

BCBlocks.0.0.f2.0.block.0.weight f4 [16, 32, 1, 1]
00000000: 3568 653e cc73 543d cb17 753d d67a bebd
00000010: b97b 2dbe c724 353d 1b71 ff3e 8f69 86bd
00000020: db2b 703e 68c9 df3d 87ae c5bd 2023 8b3c
00000030: cf37 9d3d 84f5 f03b 0a54 75bd dc33 833e
00000040: ac49 8cbe b738 8dbd b167 d1bd 2066 a83e
00000050: 581a 19be 5ebd f0bd 31df afbe f724 d43d
00000060: acde 4d3e 5e80 cd3e 55f2 233e 17c7 e93c
00000070: 1bdb 39bd c65e 233f 2be6 1dbe 236d 3b3e
00000080: 8393 c73c bb70 273e 20ef bb3d 85fe 443e
00000090: 6ce3 1d3e 0fb6 803e a16a c53c ca6d 273e
000000a0: 5b79 acbd 78e8 e6bb 4586 863e 8532 4bbd
000000b0: 24c0 eb3d 19b4 903e 6f3f 643e 4c35 823d
000000c0: 200a 753d 4a81 0cbe dedb 32bd 399d 79bb
000000d0: ac97 a43e 53f8 833e 9402 01bd eb0d 7d3d
000000e0: 21a8 95bd 1f08 8ebc ee67 9f3e 7cec 483e
000000f0: 87fb 073e 1012 a5bd 24a9 cf3d 6092 af3d
00000100: 1f15 76bd 234c 5a3c 8533 253e 8720 6f3d
00000110: 8ab8 16bd 01e0 073e 8dd4 5bbe f40b 3e3e
00000120: 9e52 0abe a7b5 5fbd 2c5a 823b 2c13 88be
00000130: 4532 89bd 6954 e8bb 91ee b5bd c790 efbd
00000140: 2a1f 19be 4ff3 c13d b4a1 f13b a565 d1bb
00000150: eecf 92bc bc56 b13c f7e1 c7bd 67ef dcbd
00000160: 0990 49bd e979 36be 9742 e13d bff3 0c3e
00000170: acc8 1e3e dd70 87be 6bf0 83bd bb27 01be
00000180: 1daa 22bd 4563 5fbd 4d4c 29bd b1d8 99bc
00000190: 9eb0 57bd 426e fcbc 148c 37be 3779 b33d
000001a0: ca36 12be da62 54bc dcf4 36bd 3227 ee3e
000001b0: 04e6 3f3d f4f0 b0bd b1ea 033b df69 50bd
000001c0: 487b c73d 080b bd3e 7384 6bbd d9a8 d0bd
000001d0: 6556 a5bd 2385 3e3e a492 4b3d a65d c03d
000001e0: d327 b9bd 161f 4cbd aabb 39be 47eb 283b
000001f0: bf9b 40bd d32a 83be 4aa8 1e3d 9110 63bd
00000200: 388b a6bd f8f4 e1bd 77ad 863d e169 42be
00000210: ef79 d1bd 8441 41be 9bd0 913e a6db a4bd
00000220: 106c 3d3e 9dd0 edba cd62 19be 4d95 103e
00000230: 8f15 b63d 0b88 00bd a362 2ebd 7e67 49bd
00000240: 25db 46be bf55 983e 0014 8d3e 146d 0fbe
00000250: 17d8 343d c18e 2a3d 283f c2be 63bc 2b3e
00000260: 65f2 723e 1d50 203f 2801 923e e394 fbbd
00000270: bf59 88be 7c13 dd3e 7f71 a6be 3b83 b13e
00000280: 5c9d 8a3c 619c 5f3d 5658 dc3d ea48 b6bd
00000290: 767d 17be 2fbd 543a b7c2 0f3e d6a2 eebd
000002a0: 4c65 d43d 8468 b63d 9de0 2abd 8918 4a3e
000002b0: 2834 823d 8979 453e d7c6 ef3c a4b7 d03d
000002c0: aa17 6d3e 0141 273e 412d e8bd 5be9 1d3e
000002d0: 9722 6cbb c0c1 18be 2d5e 933e 3284 ab3d
000002e0: 7806 ea3c 0ede 753e a159 c73d f5dd e1bc
000002f0: f485 313d 5da1 a93d 7fb1 483e 5d7e 6d3d
00000300: 1a44 0b3d 71a7 1dbd 32ab ad3b 2ebd f93d
00000310: 4808 b1be 73b5 fabd 27be 843d 9919 24be
00000320: 0db2 df3d b834 8b3c 3a16 e73d 9666 b33e
00000330: f00a 25bd f714 d73d b611 86bd d479 233d
00000340: 91c0 a33e 899d 49ba 5989 f9be bbf4 bdbd
00000350: dff3 c4bd d765 b4be c2ea d23e 0320 5f3e
00000360: cd5c 8c3e 4d4a 7dbd 8139 85be a925 51bd
00000370: 2ddf 1d3e 2c3b 56bd e158 da3d 8a5c 08bb
00000380: c175 793d 2284 bf3e 2a37 413e ffc0 4a3e
00000390: 662a c73e d485 723e 0c31 d8bd e0e0 ae3e
000003a0: c393 8b3c 18e0 b1bd 5b4f d33d 6bae 20be
000003b0: d48a 25bd 1a22 84bc da0f 0a3f 46ca 02bd
000003c0: 287d 13be 13e1 49be 0ad4 0d3f a952 8c3d
000003d0: ed5f 3c3d f394 a63e 6dd7 5c3d 2e80 fbbd
000003e0: 4d1f 4ebe 2025 e2be 741f c23e 73e6 a93e
000003f0: 9402 f23d 52d2 b13d d8d6 053f 1b68 703d
0.22403033 0.051868245 0.059837144 -0.09300773 -0.16941728 0.044224527 0.4989098 -0.065631025
0.2345423 0.10927087 -0.09652429 0.016984522 0.0767666 0.0073534865 -0.0598946 0.25625503
-0.27399957 -0.06895583 -0.10224856 0.32890415 -0.14951456 -0.11754869 -0.3434997 0.10358613
0.20104474 0.40137 0.16010411 0.028537316 -0.04537497 0.6381649 -0.15419833 0.18303351
0.024362331 0.16351597 0.09176469 0.19237716 0.15418786 0.251389 0.024098696 0.16350475
-0.08421584 -0.0070467554 0.26274315 -0.049608726 0.11511257 0.28262404 0.22289823 0.06357822
0.05982411 -0.13721195 -0.043666713 -0.0038088097 0.32146966 0.25775394 -0.0314966 0.06178085
-0.07307459 -0.017337857 0.3113398 0.19621462 0.13279544 -0.08060086 0.10139683 0.08572841
-0.060078736 0.0133238165 0.16132934 0.05838063 -0.036797084 0.13269044 -0.214678 0.18559247
-0.13508078 -0.054616597 0.0039780345 -0.26577127 -0.06699041 -0.0070901406 -0.088833936 -0.11697536
-0.14953294 0.094702356 0.007374013 -0.006390291 -0.017921414 0.021647803 -0.09759896 -0.1078785
-0.04920963 -0.17819943 0.10999029 0.13764857 0.15506238 -0.26453295 -0.064423405 -0.12612812
-0.039713014 -0.05453803 -0.04133253 -0.018780084 -0.05265867 -0.030814294 -0.1792453 0.08763354
-0.14278713 -0.012963021 -0.04466711 0.4651428 0.04685022 -0.08639708 0.00201289 -0.050882217
0.09740311 0.3692248 -0.05749936 -0.10188455 -0.08073119 0.18605475 0.049700394 0.09392862
-0.09040799 -0.049834333 -0.18137994 0.0025775002 -0.04702353 -0.2561861 0.03873471 -0.05543572
-0.081320226 -0.11033052 0.065760545 -0.18985702 -0.10228335 -0.18872648 0.28479466 -0.08049707
0.18498254 -0.0018143837 -0.14979096 0.14119454 0.08890831 -0.03137974 -0.042574536 -0.049170963
-0.19419535 0.2975292 0.2755432 -0.14006454 0.04415139 0.041640047 -0.3793881 0.16771083
0.23725279 0.62622243 0.28516507 -0.12284257 -0.2663097 0.43178928 -0.32508466 0.34670433
0.016920738 0.054592494 0.10759036 -0.08900626 -0.14793953 0.0008115349 0.14039122 -0.11652152
0.10370883 0.089066535 -0.041718114 0.19735922 0.06357604 0.19284643 0.029269619 0.10191277
0.23153558 0.16333391 -0.113367565 0.1542105 -0.003603136 -0.1491766 0.28782788 0.08374824
0.028567538 0.24010488 0.09733892 -0.027571658 0.04334064 0.08282731 0.1959896 0.057981838
0.034000494 -0.038489763 0.005299949 0.12194286 -0.3457663 -0.1224164 0.06481581 -0.1602539
0.10922632 0.016992912 0.11283536 0.35039204 -0.040293634 0.105020456 -0.06546347 0.039911106
0.31982854 -0.0007691016 -0.487376 -0.09275194 -0.09616827 -0.35233948 0.4119473 0.21789555
0.2741455 -0.061838437 -0.26020434 -0.051061306 0.15417166 -0.052302524 0.106614836 -0.002080711
0.060903315 0.37405497 0.188687 0.19800185 0.38899535 0.23683864 -0.1055623 0.3415594
0.017038232 -0.086853206 0.1031787 -0.15691535 -0.0404156 -0.016129542 0.5393044 -0.031931184
-0.14403212 -0.19714765 0.5540167 0.06851704 0.04598992 0.32535514 0.053916384 -0.12280308
-0.20129128 -0.4416895 0.37914622 0.3318363 0.11816898 0.086826935 0.5228095 0.058693033

BCBlocks.0.0.f2.0.block.1.weight f4 [16]
00000000: 2a5a 113f ed4b 343f 7fe3 163f 037a f13e
00000010: 7c76 363f 76b1 f93e 5550 163f 25cc 6f3f
00000020: db1d ff3e 7478 083f ef3f 493f 662c 023f
00000030: 4ed2 663f 2825 233f dd10 173f 29b3 193f
0.56778204 0.70428354 0.5894088 0.471634 0.7127454 0.48768204 0.58716327 0.93670875
0.49827465 0.53308797 0.7861318 0.50848997 0.9016465 0.6372857 0.59010106 0.60039

BCBlocks.0.0.f2.0.block.1.bias f4 [16]
00000000: 54e9 acbe c22c 2fbd 848d 0fbd a7c1 013e
00000010: 947a 083f a739 a8bb 8af8 043f 66ae 89bc
00000020: 880a a7be 0501 caba 0a09 373e 81b1 76bd
00000030: ac5e 483d e6b9 c3be 1cf9 803e ca66 153f
-0.33771765 -0.042767294 -0.03504707 0.12671529 0.5331204 -0.005133826 0.5194174 -0.016806792
-0.32625222 -0.0015411681 0.17874542 -0.060227875 0.04891841 -0.38227767 0.25190055 0.5835997

BCBlocks.0.0.f2.0.block.1.running_mean f4 [16]
00000000: 7c0d 463f 6b2a 0f3f 0f2a b0be 47e2 47be
00000010: a9dd 233f da0b ef3e dc64 bcbd df00 2d3f
00000020: 4e63 b23e 924a 7bbd a43f c23e b085 7b3e
00000030: 15bd b23e 2836 f53e ef90 bdbe 0363 bf3e
0.77364326 0.559241 -0.34407088 -0.19519912 0.640101 0.4668873 -0.09198925 0.67579454
0.34841388 -0.061350413 0.3793918 0.24562716 0.34909883 0.4789288 -0.37024638 0.37380227

BCBlocks.0.0.f2.0.block.1.running_var f4 [16]
00000000: 462e ac3f 4008 003f 1803 da3e 93f6 d23d
00000010: 3aa2 2f3f e072 993e 188c 0a3f f31f b13f
00000020: 7ea6 053e d014 2b3f 8cb8 dd3f 226d 533e
00000030: f989 7d3f 4601 c53e ffe3 bd3e ba2a 4f3f
1.3451622 0.5001259 0.42580485 0.103009365 0.68606913 0.29970455 0.54120016 1.3837875
0.13051793 0.6682863 1.7321944 0.206471 0.99038655 0.38477534 0.3708801 0.8092457

BCBlocks.0.0.f2.1.block.0.weight f4 [16, 1, 3, 1]
00000000: 5537 63be 8c49 bdbd 997f 613f b2d4 bd3e
00000010: 209a 133f 0d81 933e 5663 c5be cd28 93be
00000020: 73b4 453d b14f 003d 5b80 073f e21d 23bd
00000030: 5edb 23bf de49 4abf 2913 f63e 6e58 c63e
00000040: 587f b6bc 967e 5fbe 2288 973e eb47 cbbe
00000050: 4ea3 00bf b6a6 db3f 626f f93e 0909 9dbf
00000060: 599a bfbd f962 57be ec58 3abe 083c ccbd
00000070: 0663 523e b65a 18bf 368f 2ebf d9f9 823f
00000080: 3a62 b63e d35a 57bd 6cc0 aebe c1cc e8bd
00000090: df75 01bf 0901 adbe ee97 2c3c 08fd 60bd
000000a0: 02cb 3b3f 8b59 21bd 9900 4e3f 136e e3be
000000b0: 6fbd 2fbe 0914 4c3e 7a67 d3be 5f90 21bf
-0.22189076 -0.092425436 0.88085324 0.37076336 0.5765705 0.28809395 -0.3855235 -0.28742066
0.048267793 0.031326 0.5293023 -0.03982342 -0.640066 -0.7901896 0.48061493 0.38739341
-0.02227752 -0.21825632 0.2959605 -0.39703307 -0.50249183 1.7160251 0.4871779 -1.2268382
-0.09355611 -0.21033849 -0.18197984 -0.099723876 0.20545587 -0.59513414 -0.6818727 1.0232497
0.35621816 -0.05257685 -0.3413118 -0.11367179 -0.5057048 -0.33789852 0.01053427 -0.05492881
0.7335664 -0.039392035 0.8046966 -0.44419917 -0.17162107 0.19929518 -0.41289884 -0.6311092

BCBlocks.0.0.f2.1.block.1.ssnorm.weight f4 [80]
00000000: 9a93 a63e 9ef0 013f 7df4 023f 1bba 0c3f
00000010: 374f 213f d3aa 433f fb4d 843f 1a93 1b3f
00000020: c877 273f 5049 0e3f ee1c 0b3f 3d70 fa3e
00000030: 3001 fc3e caad ff3e 340e 133f 0b55 0c3f
00000040: 9e2a 133f e757 173f 05b9 d53e 48e4 8c3e
00000050: ef40 0f3f 44ee 293f 482b 0e3f 9400 1b3f
00000060: 09c0 0b3f 66be e33e 1a01 e73e 74f1 fe3e
00000070: a9b4 ea3e 4a8d f33e 1d67 dc3e 3b75 093f
00000080: c578 3c3f 5764 2e3f 58d6 983e 7359 7f3f
00000090: e365 8f3f 7b73 603f 46f4 373f 655f f73e
000000a0: 6d2f 9e3e e15e f43e ca5c b43e 7ee2 1a3f
000000b0: b480 0c3f 4edc f93e 7f2d cf3e d793 ec3e
000000c0: 8325 fc3e 15fe c13e 0650 623f 5ba1 373f
000000d0: c785 083f d573 1a3f 077a 113f d82f 0e3f
000000e0: 95d3 053f 2ccc fd3e 2d27 da3e df31 033f
000000f0: 183c d53e 3332 243f be14 b83e 41a4 033f
00000100: 420f b23e 2b1c 073f 2af3 1a3f ce9a 043f
00000110: dc56 1e3f 9bb7 0d3f 27f3 123f 96e8 193f
00000120: f640 d63e 0372 023f c2b0 c63e c3e0 223f
00000130: 9ac8 403f 5d2e 4f3f 37bd 383f afc7 f63e
0.32534486 0.5075778 0.5115431 0.54971474 0.630115 0.7643253 1.0336298 0.60771334
0.65417147 0.55580616 0.5434102 0.48913756 0.49219656 0.49937278 0.5744355 0.54817265
0.57486904 0.59118503 0.4174272 0.27517915 0.55958456 0.6637919 0.5553479 0.6054776
0.545899 0.444812 0.45118028 0.4979359 0.45840958 0.47568733 0.4304742 0.53694504
0.7362178 0.68121856 0.2985103 0.99745864 1.1202968 0.8767621 0.71857107 0.48314968
0.30895558 0.47728637 0.35227042 0.6050185 0.54883885 0.48800892 0.40464398 0.46206543
0.4924737 0.37889162 0.88403356 0.71730584 0.5332913 0.60332996 0.56826824 0.55541754
0.52275974 0.49569833 0.42608014 0.5124797 0.4164741 0.641391 0.35953325 0.51422507
0.34777266 0.52777356 0.6052729 0.51798713 0.61851287 0.55358285 0.5740227 0.6012052
0.41846436 0.5095522 0.3880673 0.6362421 0.75306094 0.8093012 0.7216372 0.48199221

BCBlocks.0.0.f2.1.block.1.ssnorm.bias f4 [80]
00000000: 3bdb 203e d04b dabd fc7f 73be b932 9d3e
00000010: 818a 80bc 5d27 283f 8359 b4be 833b a6be
00000020: f186 ddbc 11dd b8bd df57 b33c a9c8 003e
00000030: 9cc0 42bd 3a9d a33d 4c26 8f3d faaa 8d3d
00000040: d6e1 933d cba0 1b3e abd6 8b3d 209a d0bd
00000050: c508 003d 30b3 c7bd a015 503e 9a98 f03d
00000060: 53ad 263e 6eca 9a3a 53d0 c53c 784f 35bc
00000070: 667a 7f3d c9ba 8fbd 5b7a 82bd 28e7 0b3f
00000080: 827d 993d 9d76 223e e6cb fbbd 1ea9 833e
00000090: c3fd 583d 4f0c 0d3e 8b3f 8b3d 1986 15be
000000a0: dcba c6bd c35c 063e 703a a6be 6313 403e
000000b0: 6139 1a3d 91d4 06bd 9fea 0ebe e0a1 aa3d
000000c0: d1f1 c33c f030 0bbd 9f77 353d 0102 953e
000000d0: b37a 783e f463 933e 3c7b 203d 4ef0 b83d
000000e0: 8ccc 413d 4e1f 013e 921c fcbd 03ae a53d
000000f0: cb1f 1cbe 0df3 363d 154d b8be 9096 d03d
00000100: f11d 003e 8ea9 6d3e 8c64 abbd aa9d 91be
00000110: d58b 023e f4b6 8e3e 19d4 eabc 09ef a83d
00000120: 5fff 853e bb01 ebbc 3321 ddbd 5af2 7d3d
00000130: 9773 303e ccfb 8c3e fc15 3d3e cab7 f339
0.1570863 -0.10658991 -0.23779291 0.3070276 -0.015691044 0.65685064 -0.35224542 -0.3246728
-0.027041884 -0.0902654 0.021892486 0.12576546 -0.047546968 0.07988973 0.069897264 0.06917377
0.07220809 0.15198056 0.06828054 -0.10185647 0.031258363 -0.09750974 0.2032075 0.117478564
0.16277055 0.0011809596 0.024147188 -0.01106631 0.062372588 -0.07018048 -0.06370994 0.5464959
0.07494642 0.1586556 -0.1229475 0.25714964 0.05297638 0.13774227 0.06799229 -0.14601935
-0.09703609 0.13121323 -0.3246646 0.18757395 0.037652377 -0.032917563 -0.13956688 0.083316565
0.023919018 -0.033982217 0.044303533 0.2910309 0.24265556 0.28787196 0.039180025 0.090302095
0.04731421 0.12609598 -0.12310137 0.08089831 -0.15246503 0.044665385 -0.3599631 0.101849675
0.12511422 0.23209211 -0.08368787 -0.284406 0.12748654 0.27873957 -0.02866559 0.08248717
0.26171395 -0.028687349 -0.10797348 0.061998703 0.17231594 0.27535856 0.18465418 0.00046485505

BCBlocks.0.0.f2.1.block.1.ssnorm.running_mean f4 [80]
00000000: f7ee a83d e48e 803d 9b06 cc3d 7092 993d
00000010: e24b 183d 7330 033f b878 c13e d6fc 8c3e
00000020: 9162 913e f0ed 933e 6f12 3fbe 74af 2ebe
00000030: e906 03be 699e fdbd 7dcc 0abe 58c0 233e
00000040: 1e2b 103e 0773 0e3e e66e 053e e7f1 073e
00000050: bac5 32be 2d28 0fbf bf8e 18bf 2b12 27bf
00000060: 5f2d 37bf bb78 973b 39ed e83c 9d15 093d
00000070: f462 013d c4a5 453d 30a0 b0be f80c b5be
00000080: 8bed bebe 851e bbbe 160b 93be 38e5 c93e
00000090: fbd3 0f3f 0ed0 a33e a1c5 983e 4bfa e13e
000000a0: df02 9bbd e2c5 54bd f85f 19bd 9116 25bd
000000b0: 65ce 27bd 7d98 cdbd 0e5f edbd 5ae7 0dbe
000000c0: fa9f 05be afcb b5bd 8ec8 933e 4196 983e
000000d0: 2e86 c13e 2375 ab3e d6c7 993e 3e72 85bd
000000e0: 485c cbbd 1520 f3bd f81f e7bd 142b dcbd
000000f0: 58cf e6be 3d8b c7be 032f 90be 2baa 8fbe
00000100: 7603 9bbe 7fd5 953d 9ae5 a73d 6ad0 ee3d
00000110: ef64 b53d 65a1 cd3d 5210 333d cfb1 ba3d
00000120: 2d05 993d 496a 763d cac3 a93d fef5 f4be
00000130: 6799 07bf 459a 16bf 9ae8 11bf 7a6e e5be
0.08248704 0.06277254 0.099621974 0.07498634 0.037181742 0.512458 0.37787414 0.2753665
0.28395513 0.2889247 -0.18659376 -0.17059118 -0.12795605 -0.1238373 -0.13554569 0.15991342
0.14078948 0.13911067 0.13030586 0.13275872 -0.17458239 -0.5592068 -0.59592813 -0.652621
-0.71553606 0.0046225465 0.02843343 0.033467878 0.03158851 0.04825379 -0.34497213 -0.35361457
-0.37290606 -0.36546722 -0.28719395 0.39432693 0.5618283 0.3199467 0.2983828 0.4413627
-0.07568907 -0.05194653 -0.03744504 -0.040304724 -0.040968318 -0.100388505 -0.11590396 -0.13857785
-0.13049307 -0.0887674 0.2886395 0.29802135 0.37797683 0.33487806 0.30035275 -0.065159306
-0.099297106 -0.118713535 -0.112853944 -0.10750404 -0.45080066 -0.38973418 -0.28160867 -0.28059515
-0.30276078 0.07316112 0.0819809 0.116608456 0.08857142 0.10040549 0.043716736 0.091159455
0.0747169 0.060159955 0.08289297 -0.47843927 -0.5296845 -0.58829147 -0.56995547 -0.4481085

BCBlocks.0.0.f2.1.block.1.ssnorm.running_var f4 [80]
00000000: 0c1a 0b3d c605 b73c c5cd fd3c 1db6 db3c
00000010: 5df7 833c 1fdb ab3e 161c a23e f56c 7b3e
00000020: 0072 833e 2cef 843e 79d1 de3c 2c05 073d
00000030: 0997 db3c 0595 dc3c 628d ef3c efd1 9e3c
00000040: ebd0 c83c 6f67 e63c 857b c33c 596e bf3c
00000050: d161 813e d9b5 f03e 974b c83e 1294 c93e
00000060: 1096 ea3e 3570 793b efb5 783b a4d1 773b
00000070: fca5 3b3b dc18 c03b ba68 173e bfb6 b73d
00000080: b514 b33d 29a6 b03d b7c9 aa3d b148 443f
00000090: f625 373f d821 a53e 81b9 993e b6ab 303f
000000a0: 5156 643c 5958 323c ce22 0a3c 0ec9 0e3c
000000b0: b2ed 0e3c 5900 a33c 678d aa3c ab84 bc3c
000000c0: 3c13 ac3c 9854 9c3c 4344 783e f6dc 503e
000000d0: 7205 6e3e a8b2 533e ce2d 2d3e eff9 893c
000000e0: d983 c53c 23b3 da3c 60e8 bd3c 43f4 b33c
000000f0: df55 633e 0aa4 7d3e 7710 433e 0c97 483e
00000100: 721b 5d3e 1893 323d a4d5 393d 0d39 673d
00000110: 3c70 343d fb88 3d3d 0673 0e3e 35a4 e13c
00000120: 3205 c63c 4a59 a43c be82 b53c 8076 823e
00000130: 1aca 543e 5278 563e 857f 523e acff 3d3e
0.033960387 0.02234162 0.030981908 0.026820237 0.016109163 0.33565614 0.31662053 0.24553283
0.25672913 0.25963724 0.027199494 0.032963917 0.026805418 0.026926527 0.029242221 0.019387214
0.024513682 0.028125493 0.02386261 0.023368048 0.2526994 0.4701374 0.3912017 0.3937078
0.45817614 0.0038061265 0.0037950238 0.0037814165 0.002863287 0.0058623385 0.14786044 0.08970403
0.08744184 0.086254425 0.08339255 0.7667342 0.715423 0.32252383 0.3002434 0.6901201
0.013936595 0.010885322 0.00843115 0.008714927 0.008723663 0.019897627 0.020819379 0.02301248
0.021005265 0.019083306 0.2424479 0.2039679 0.23244265 0.2067362 0.16912004 0.01684281
0.024110721 0.026696747 0.023182094 0.021967059 0.22200726 0.24769607 0.1904925 0.1958887
0.21592501 0.04359731 0.04536976 0.056450892 0.044052348 0.046273213 0.13911065 0.02754412
0.0241724 0.020062108 0.02215707 0.25481033 0.2078022 0.20944336 0.20556457 0.18554562

BCBlocks.0.0.f1.0.block.0.weight f4 [16, 1, 1, 3]
00000000: 47cc 3cbe 2fc6 cb3c 8f2a 9d3c 67cb 45be
00000010: 4fc0 2abe 69cd 3fbe 4e9c 92bb a2bb 203e
00000020: 9571 943e cc32 0a3e fb05 babd 79c2 573e
00000030: df1a d8bd 4939 47be 6ecd 70be a8f0 4cbd
00000040: 23e9 55be 2c0f 6fbe ccff f9bc 1626 7fbe
00000050: fa47 7ebd 7a84 c53d 1eba 74bd 1d6b 803e
00000060: 2682 573e 4ae9 86bd 4882 bd3e 8bb8 dcbd
00000070: 2106 513e 76cb 90be 6661 873e db1e 583e
00000080: 8df1 1cbe 7c14 b73d 5f30 60be ebf5 27be
00000090: 07dd ab3d b82a c3be 1ccb 463f 0e75 1cbd
000000a0: c272 dc3d b38a a33e 5e24 4a3e 5fe6 c8bc
000000b0: e5be 363d 43b2 493e 6166 603e 4d81 73be
-0.184373 0.024874775 0.019185333 -0.19315873 -0.16674922 -0.18730702 -0.0044741994 0.15696576
0.28992906 0.1349594 -0.09083172 0.21070279 -0.10552 -0.19455446 -0.23515865 -0.050034195
-0.20889716 -0.23345631 -0.030517481 -0.24916872 -0.06208036 0.096444085 -0.059747808 0.2508172
0.21045741 -0.06587465 0.3701346 -0.10777386 0.20412494 -0.28280228 0.26441497 0.2110552
-0.1532652 0.08939454 -0.21893452 -0.16402404 0.08391767 -0.3811853 0.7765367 -0.03819757
0.10764076 0.31941757 0.19740435 -0.024523912 0.044615645 0.19696908 0.21914054 -0.23779793

BCBlocks.0.0.f1.0.block.1.weight f4 [16]
00000000: f044 9f3e 593f 0a3f 2869 693e cb40 6a3e
00000010: 943f 913e 2599 9a3e 61d0 df3d 974d 2d3e
00000020: c02e e13e ee85 1a3e 435f 4b3e edcc 923e
00000030: ef4f c93e 1ae6 b13e 62cc 9b3e c043 843e
0.31107283 0.5400291 0.2279402 0.22876279 0.2836882 0.30194965 0.10928417 0.1692413
0.4398098 0.15090153 0.19860558 0.2867197 0.39318797 0.34745866 0.3042937 0.2583294

BCBlocks.0.0.f1.0.block.1.bias f4 [16]
00000000: 027e 27be 4dd1 673e 5e85 a6bd f671 2cbe
00000010: 58ae 62be a03b 13bd e12e 26be 8adf 46be
00000020: 042c dabd d8ca 0bbc 2e50 34be 3dd2 00be
00000030: daf1 cebc dafc 92bd 610f b93c 6793 10be
-0.16356662 0.22638436 -0.081309065 -0.16840348 -0.2213682 -0.035945535 -0.1622882 -0.19421211
-0.106529266 -0.008532248 -0.17608711 -0.125802 -0.025261808 -0.07177134 0.022590341 -0.1411873

BCBlocks.0.0.f1.0.block.1.running_mean f4 [16]
00000000: 8116 56bb a8a1 693c 73c4 af3c 131a 4f3c
00000010: c3fe 35bd 4de3 3cba e5d0 25bd b208 b13c
00000020: f946 efbb e1ec 713b 8c6b 733d 9893 5cbc
00000030: 5f44 c4bc 233c aa3c e33c fc3b 43d9 c13c
-0.0032667222 0.014259733 0.021455979 0.012640494 -0.044432413 -0.00072055013 -0.04048242 0.021610592
-0.007302162 0.0036914872 0.059428737 -0.0134629235 -0.023958383 0.020780629 0.007697688 0.023663169

BCBlocks.0.0.f1.0.block.1.running_var f4 [16]
00000000: a789 143b aab7 ec3d 412c 233d 61e9 4a3b
00000010: 7b1c 1f3d 408b 903c 061c b63c 1021 c83c
00000020: 16a6 273d 7577 833b 63e1 cb3c cc01 883c
00000030: 6f49 223d b78c f73c 0220 833a d45f 7c3c
0.0022665055 0.11558469 0.039837126 0.0030961859 0.03884552 0.017644525 0.02223016 0.024429828
0.040929876 0.004012043 0.024887746 0.01660242 0.039620813 0.030218465 0.0010004046 0.015403707

BCBlocks.0.0.f1.1.weight f4 [16, 16, 1, 1]
00000000: fcc4 513e 0c65 7a3e 6174 9f3d bc8b b2bd
00000010: 29ea 45be 57a2 8b3d 1ec5 97bd a5e9 3ebe
00000020: a53b 42bd b4c6 9e3b 6386 11bd 381e 1dbe
00000030: 914d bfbd 70ea e5bd 272d fc3d 8335 0ebd
00000040: 51ed 45bd a25c 8c3e bf5f b8bc f317 3ebd
00000050: 3fd1 97bd 89d0 abbd a42d 0a3d 1223 98bd
00000060: 7082 16be f9c1 703d e952 e43b d81e e93c
00000070: 147c 9f3e 9f6b fb3d cb8b 853d 27b6 a53d
00000080: 3550 4cbd e1b6 183b f13f c53b a007 e23b
00000090: d2bb 7ebd 2e78 0137 86da 4e3c 1924 18be
000000a0: eb27 9c3b 98f1 f6bd 3ded 9abd 1145 e2bc
000000b0: bd3e d03d a1bc d3bd 07f4 263e 0d15 8d3d
000000c0: 45aa 9c3c 6f0f 813b 7817 963d c74d f6bd
000000d0: 25d0 02be 4957 f33d da8b c3bd 77d4 ffbd
000000e0: a6d4 d9bd 1c81 d8bc dd81 6fbd 1e32 0dbe
000000f0: 0bf0 f9bd 5cc5 09be 6fce c73c 3b15 953d
00000100: 84be efbc a3c4 873e 00fb b53d 1999 db3c
00000110: d2eb c4bd 7c06 9d3d be7d 233d 9b86 66be
00000120: 9eb3 913e c48f 33ba 2edb 6abb 4557 67be
00000130: cde7 b23e 8a15 2cbe ccce f73d b1a0 e4bd
00000140: e6b5 cebc 2c3a 2b3e 57a1 733d b8db aabd
00000150: d8f6 8fbb d721 cb3b 6d13 95bd 98ec ac3c
00000160: 236a 98bc a795 353d 8c58 353d 9198 90bd
00000170: f5fd 9ebc 5b2d 383d 681e c1bc 6a6c ccbd
00000180: a3b0 0c3a 60bb cd3e 8a9f 8c3d 4351 f03d
00000190: df2d 3cbe 5bd0 a83d 8cf1 103c ca03 6cbe
000001a0: 531f 3e3d 2c16 c33c f653 f93c e343 1d3c
000001b0: a6bd d5bd e845 b2bd 5dc6 243e c473 d23d
000001c0: 80c6 debd 5370 fc3d a023 ec3d f6c8 ae3d
000001d0: 080f 5a3c 7413 0cbc 1331 01be 1976 10bd
000001e0: 4076 cbbe dab0 e63d 0db6 913c 61bb c5bc
000001f0: 38e2 f1bc dd07 45bd f1c6 d1bb a04e ca3c
00000200: 15de f0bc e6b0 93bd 6e5e 0c3e 7ccd d63d
00000210: 1366 4a3d 1202 8abd 05f3 f03c 6c29 083d
00000220: 727a d73c fe9b 763d 13bd 383e 294e cb3b
00000230: ef9b 9c3d 24ce 283d a423 6b3d 7e42 2b3d
00000240: 5741 313d 8db7 1e3e d031 6f3d a662 c13c
00000250: c4c1 463c 302a 523c d016 463d f37a adbd
00000260: 2902 03bd eea0 cc3d 4851 a73b 15a4 dc3b
00000270: 9c66 f33c 5228 3b3d 7b38 d6bd a227 adbd
00000280: c3d3 653e 3fb9 223e f161 233d e453 27be
00000290: ec45 47be 12e5 803e e587 11bc 5dcb f53c
000002a0: 2107 63bb 4dd1 533d 7a69 9ebd 8e6c 3fbe
000002b0: eaf5 9b3d ee4e 4bbe 12dd db3d 44f2 35b9
000002c0: 0292 23bd 56b2 603e 6500 ff3d 4e1e 543d
000002d0: 2d71 573d 412d 043e df30 8c3d 85c4 41be
000002e0: 5502 31be 4635 2c3d 333c 5c3c a671 56bd
000002f0: 3e6e d5bd b33f f03d 80b3 433e 1b84 bebb
00000300: 46b1 a23d 27fb 3fbe 2f4a 25bd 5110 0abc
00000310: 1a17 0a3d 0383 013c 1f37 a63d eab2 e83b
00000320: 8ff9 043d 4383 9b3d bc47 6e3d 997c b8bd
00000330: 5d36 15be 11b2 a0bd 2014 6bbd 47ac ffbc
00000340: fad2 c43d edf8 f63d 1e3f 813d e094 6e3d
00000350: 5e0d a3bd 31c9 10be d0f4 c73a fabe 5fbd
00000360: ed19 28bd 4f5f d63c 36a3 4abd 8825 a03c
00000370: 8c3e b93c a2d4 76be 1e05 4abb 06ff d8bc
00000380: a139 01bd e4f7 9b3b 7385 81bc b932 e83d
00000390: fdd6 293e 78ba 223d fb71 953d 096e e63c
000003a0: 3b2c a0bd cb86 6b38 c533 c1bc 488e 9c3d
000003b0: c41d 65bd eaf6 733d 81fc 02bd 32c2 a1bc
000003c0: 22af 3bbc 19c3 c13e 2771 04be 8f10 12be
000003d0: a874 0bbe f836 d63d daa1 cd3c 23e6 0dbe
000003e0: 3fb3 e43d dcea b8bd 77c2 81be b1b6 29bd
000003f0: 4b92 a73d 6c6d f8bd d3bb fc3d 99d5 a9bd
0.204853 0.24452609 0.077858694 -0.087180585 -0.19327606 0.06818073 -0.07410644 -0.18643816
-0.047420163 0.0048454646 -0.03552855 -0.15343559 -0.093409665 -0.11226356 0.123132996 -0.034719
-0.048322026 0.27414423 -0.022506593 -0.04640956 -0.074129574 -0.08389384 0.033734933 -0.07428564
-0.14698195 0.058778737 0.0069678915 0.02845709 0.31149352 0.122763865 0.06520804 0.080913834
-0.04988118 0.0023302364 0.0060195853 0.0068978816 -0.06219084 7.716981e-06 0.012625342 -0.1485752
0.004765501 -0.12057799 -0.07564781 -0.027620824 0.101682164 -0.103387125 0.16304027 0.06888781
0.01912416 0.0039386074 0.07328695 -0.120265536 -0.12774713 0.11881883 -0.09548159 -0.12491696
-0.106362626 -0.026428752 -0.058473457 -0.1378865 -0.12203988 -0.13454193 0.024390427 0.0727944
-0.02926565 0.2651721 0.08885765 0.026806401 -0.09615292 0.076672524 0.03991484 -0.22512285
0.2845735 -0.0006849731 -0.0035836208 -0.22591884 0.34942475 -0.16805092 0.1209999 -0.11163462
-0.02523322 0.1672141 0.059480038 -0.08342689 -0.0043934397 0.0061991024 -0.07279096 0.02110891
-0.018605297 0.044332173 0.044273898 -0.0706035 -0.019408206 0.04496513 -0.02357407 -0.09981616
0.0005366897 0.40182018 0.06866367 0.117342494 -0.18376873 0.08242866 0.008846652 -0.2304832
0.04641659 0.023814283 0.030435544 0.009598705 -0.10436563 -0.0870474 0.16091295 0.10275987
-0.108777046 0.12326112 0.115302324 0.08534424 0.013309248 -0.00854956 -0.12616377 -0.035268877
-0.39738655 0.112642005 0.017787004 -0.0241372 -0.029526815 -0.048103202 -0.0064018895 0.024695694
-0.029402772 -0.07211475 0.13707897 0.10488412 0.04941375 -0.06738676 0.029412756 0.033242628
0.026303504 0.06020736 0.18040876 0.006204386 0.076469295 0.041212216 0.057407036 0.04181146
0.043275204 0.15499707 0.058397114 0.02360661 0.012131158 0.012827441 0.0483616 -0.08470716
-0.031984482 0.099916324 0.005106125 0.0067334273 0.029712014 0.04569275 -0.104599915 -0.08454825
0.22444062 0.15890978 0.039888326 -0.16340595 -0.19460267 0.25174767 -0.008882497 0.030004198
-0.00346417 0.051713277 -0.07734962 -0.18693754 0.07615264 -0.19854328 0.10735525 -0.00017351756
-0.039934166 0.2194303 0.12451247 0.051786713 0.052598167 0.12907888 0.06845259 -0.18922623
-0.17286046 0.042042993 0.013442087 -0.052354477 -0.10421418 0.117309 0.19111443 -0.005814088
0.079439685 -0.18748151 -0.04035395 -0.008426742 0.033713438 0.007904771 0.08115982 0.0071014063
0.03246456 0.075933956 0.05817388 -0.0900814 -0.14571519 -0.078464635 -0.05739224 -0.031210078
0.09610553 0.120591976 0.06310867 0.058247447 -0.07961534 -0.14139248 0.0015255455 -0.05462549
-0.04104035 0.026168494 -0.049472056 0.019549146 0.022612832 -0.2410455 -0.0030825804 -0.026488792
-0.0315491 0.0047597755 -0.015810704 0.113377996 0.16585918 0.03972861 0.07297131 0.02812864
-0.07820936 5.6153902e-05 -0.023584256 0.076443255 -0.05593659 0.059561647 -0.031979088 -0.01974592
-0.011455329 0.3784416 -0.12933789 -0.14264129 -0.1361872 0.10459703 0.02510159 -0.13857321
0.11167001 -0.09029171 -0.25343677 -0.041433994 0.081822 -0.121302456 0.12340512 -0.08292694

BCBlocks.0.1.f2.0.block.0.weight f4 [16, 1, 3, 1]
00000000: e726 75bd 58cd f23e 0f81 bd3e 7aeb 143f
00000010: c473 c13e ff8b 79be 8040 fe3e 54c9 b1bc
00000020: 34a9 253d 0430 da3e 446f dbbe 5d14 95bd
00000030: 2757 c2be 3f01 123f d22e 483e c0d0 a03e
00000040: 4e78 74be d539 8bbe f747 e5be 96e4 533e
00000050: 858c 2e3f 09dc 2ebf 1492 243f 7542 5a3f
00000060: 819c 37bd 90d7 84bc 3c4c 0f3f da60 bbbe
00000070: c81a b4bd c76f 82be 9e79 033e 7f4d 203f
00000080: 6910 28bf 6a92 16be ab71 6bbe 955a 61be
00000090: 6518 b4bd 2d99 81be c9e7 9fbe 2dae ed3e
000000a0: 4070 a73e e469 6fbc 505b bb3e f44e 8f3d
000000b0: 6309 34bf fefa 1e3f 9c2e dcbd 26a1 59bf
-0.059851553 0.4742229 0.37012526 0.5817181 0.37783635 -0.2436981 0.49658585 -0.021702446
0.040444568 0.42614758 -0.42858326 -0.072792746 -0.37957117 0.5703315 0.1954911 0.31409264
-0.23874018 -0.2719256 -0.44781467 0.20692667 0.68183166 -0.68304497 0.642854 0.85257655
-0.044826988 -0.01621607 0.559757 -0.3659733 -0.087941706 -0.25475904 0.12839362 0.6261825
-0.6565004 -0.1470429 -0.2299258 -0.2200721 -0.087937154 -0.25312176 -0.31231526 0.46421948
0.32702827 -0.014612649 0.36593103 0.06997481 -0.70326823 0.62101734 -0.107510775 -0.8501152

BCBlocks.0.1.f2.0.block.1.ssnorm.weight f4 [80]
00000000: f17b 563e 4759 0b3f 7c51 193f 86c8 2c3e
00000010: 0158 1e3f ad1b 1a3f 9286 163f ba7f 103f
00000020: 0efb 083f 2af0 003f f8ec c03e 6897 e13e
00000030: bd22 003f 95e0 c93e 5616 e13e 3cf6 f73e
00000040: a486 d63e eb73 083f 6869 0d3f b78f c13e
00000050: 9725 ac3e b2e4 c13e 1cf8 1e3f 0c9e 033f
00000060: 4cb0 013f 0b73 0d3f 73ba 063f de22 de3e
00000070: 2b4f 0e3f f468 1b3f 6dae f13e 7db1 fb3e
00000080: 5041 cd3e eff8 8f3e b040 c83e a172 953f
00000090: 0277 293f 18e2 653e 529f d03d 97d5 313f
000000a0: a7a0 f03e 8676 a13e 98a7 2d3f 9e02 9f3e
000000b0: ae1b ed3e a870 1c3f f2a6 fc3e 3658 d83e
000000c0: c5cf 1e3f 753c fb3e 8b93 1e3f c067 ea3e
000000d0: a651 f73e 8b63 053f b992 c53e c971 1f3f
000000e0: 3db6 f33e a89a b23e 9fd3 d73e 8e56 f53e
000000f0: 0dec cd3e 9781 293f 1b23 d73e 4107 de3e
00000100: cf96 0b3f d913 933e 7ac8 d93e 3092 c03e
00000110: 2b4b 3c3f dd68 133f bccc 073f 762e fb3e
00000120: ec4d e93e 908b bd3e 90a7 153f a6b3 673f
00000130: 6e28 0a3f da4b 233f afe2 013f b9ea 403e
0.20945717 0.544331 0.5988996 0.16873369 0.61853033 0.6019848 0.5879909 0.56444895
0.5350808 0.5036646 0.37680793 0.44060826 0.50053006 0.39429155 0.43962353 0.4843005
0.41899598 0.53301877 0.5523896 0.37804958 0.3362243 0.37869793 0.62097335 0.51413035
0.5065963 0.55253667 0.5262825 0.43385977 0.5558955 0.6070702 0.4720339 0.4915885
0.40088892 0.2811961 0.39111853 1.1675607 0.66197217 0.22449529 0.10186638 0.6946654
0.46997568 0.3153574 0.6783385 0.31056684 0.4631018 0.611094 0.4934612 0.422548
0.6203578 0.49069563 0.6194388 0.4578228 0.4830448 0.52105016 0.38588503 0.62283
0.47599974 0.34883618 0.42153642 0.47917598 0.40219155 0.66213363 0.4201897 0.4336491
0.5452699 0.2872608 0.42535764 0.37611532 0.735522 0.57581884 0.53046775 0.49058884
0.45567262 0.3702054 0.58458805 0.90508497 0.5396794 0.63787615 0.50736517 0.1883954

BCBlocks.0.1.f2.0.block.1.ssnorm.bias f4 [80]
00000000: 5961 77bd 0220 abbc 201c f03d e494 0c3d
00000010: 9719 e8bb d38b b13e a04d 03be 5016 4fbe
00000020: ea2e c6bd b70b 73be 3992 ba3c 8fa1 a73c
00000030: bc54 a2bc 9c0c 43bd fc39 1d3d 91e4 8a3d
00000040: e182 07bd 1b2f 8f3d 70c0 a03d 073d 0bbe
00000050: d007 d63d b663 1abc e159 6d3d d62b f93d
00000060: af8c 213e 08a4 013d 6bc3 d03d dfae 3a3c
00000070: 5191 943d a664 913d 256c 83bd 8625 ac3e
00000080: 7ee6 53bd 732c cc3d 010f 20bd a764 e33e
00000090: 64f5 833e e6bb 103e e458 3bbe 3e0d 1ebe
000000a0: 796c 80bc 91f8 8b3d f2ed fc3d 40a9 b9bd
000000b0: 503c 38bd bce8 47bd c49e a33b 1543 7bbd
000000c0: 195b 253d c53d 073d e839 ba3e ac0a 61bd
000000d0: a6d6 3c3e 28ff aa3e 65b0 d03c 6873 a8bc
000000e0: 79c8 0e3e b12b 063e 74de a2bd d133 f23d
000000f0: 28c6 e9bd af91 843d 1adc 65bd c7c5 21bb
00000100: 8850 953c 0da0 693d 9235 39bd c93f 073e
00000110: 4637 af3d 515e 333e b052 fa3c 0197 023e
00000120: 2837 3b3e 1277 61bd aac0 46bd 4769 243e
00000130: b738 1abe 6cf4 9f3e d3cd c5bd 17c4 9a3d
-0.060395572 -0.020889286 0.117241144 0.03432168 -0.0070831287 0.3467699 -0.1282258 -0.20223355
-0.09676917 -0.23734938 0.022774803 0.02046278 -0.019815795 -0.047619447 0.038385376 0.06781877
-0.0330838 0.069914065 0.078492045 -0.13597499 0.10450709 -0.009423187 0.057947043 0.12166564
0.15776323 0.031650573 0.10193523 0.011394232 0.072542794 0.07099275 -0.06417111 0.33622378
-0.051733486 0.099694155 -0.03907681 0.4441273 0.25773156 0.14134178 -0.18295628 -0.15434739
-0.015676724 0.0683452 0.12350072 -0.09065485 -0.044979393 -0.048805937 0.0049932916 -0.06134327
0.04037008 0.033017892 0.36372304 -0.054941818 0.18441257 0.33397794 0.025474736 -0.020562842
0.13943662 0.13102604 -0.07952586 0.118262894 -0.114147484 0.064730994 -0.05611811 -0.0024684535
0.018226877 0.057037402 -0.045217104 0.13207926 0.085554644 0.17516448 0.030557007 0.12752916
0.18282759 -0.055045195 -0.048523583 0.16055785 -0.15060697 0.31241167 -0.096583985 0.075569324

BCBlocks.0.1.f2.0.block.1.ssnorm.running_mean f4 [80]
00000000: a931 513e e034 eb3d 28a9 f13d a71f ac3e
00000010: 3f7e 033e 0179 de3e 46f4 9a3e d0c9 d63d
00000020: 77bb 1d3e 7663 213e f60b cb3d 7ecc 193e
00000030: 909f f33d 7519 0c3e 2359 1b3e 2387 6cbd
00000040: 4623 b1bc c4b9 d8bc f1d0 e1bb 961d 153c
00000050: 6952 d33d f258 ed3d 93da 293e 9e5d 113e
00000060: 2507 fc3d 6c91 8ebd ab57 d1bc bf85 83bd
00000070: 1e65 10bd 7c28 0ebd e1b4 4d3e 579d 923e
00000080: 66b7 1b3e 2930 093e 17ac 2b3c b0ec 213f
00000090: ca49 a53e 9ffc 9f3e 1c8d 493e 21cd d33d
000000a0: 37ce 413d 8d6c ba3d 4e8a 2e3d 4447 143e
000000b0: 1a5d 863d e106 d8bd 0746 9ebd 398d 1dbe
000000c0: 6e80 17be 8f4a b1bd 24bb 4fbd 90d6 823d
000000d0: e2cb aa3c e020 323d 8dc4 bb3d 0517 29be
000000e0: 319f 29be c736 36be 227a bcbd f7d2 1dbe
000000f0: 4398 33bd 8d6b 10be 915d c3bc 7289 0ebe
00000100: d60d d1bd 4005 1d3e 36b2 2a3e c1fa c63d
00000110: 2bf2 1f3e ae11 703e da69 b9bd 8187 d5bd
00000120: 6ca8 4dbd f9f3 54bc 24de 81bc 2eef 64be
00000130: a92c 3ebe 323d 45be 496f d1bd 3a59 3fbd
0.204291 0.114846945 0.11799842 0.336179 0.12841128 0.43451694 0.3026449 0.104877114
0.15403543 0.15760598 0.09914391 0.15019414 0.118956685 0.13681586 0.15170722 -0.057746064
-0.021623265 -0.026455767 -0.006891363 0.009101292 0.10318453 0.115892306 0.16587286 0.14195868
0.1230605 -0.06961331 -0.025554499 -0.064219944 -0.035252683 -0.034706578 0.20088531 0.28635666
0.1520668 0.13397278 0.010478041 0.6325178 0.3228286 0.31247422 0.19682735 0.103418596
0.047315802 0.09102736 0.042612366 0.1448031 0.065607265 -0.10548187 -0.077282004 -0.15385903
-0.14795086 -0.08656799 -0.05071558 0.06388581 0.020849172 0.043488383 0.091683485 -0.16512688
-0.16564633 -0.17794333 -0.092029825 -0.15412508 -0.04384638 -0.14103527 -0.023848327 -0.13919619
-0.10207717 0.15334034 0.16669545 0.09715796 0.15619723 0.23444244 -0.09053393 -0.10426236
-0.050209448 -0.012997621 -0.015852995 -0.22356865 -0.18571724 -0.19261625 -0.10226304 -0.046715952

BCBlocks.0.1.f2.0.block.1.ssnorm.running_var f4 [80]
00000000: e43c 423d 5858 773d ae7d 2b3d dbed 093e
00000010: 46c1 c63d 1fd9 723e a845 893e ea7e 993d
00000020: db98 db3d f857 d73d 1e50 733c 1af2 aa3c
00000030: fcba 383c 009f 3e3c 6ebb 773c e156 443d
00000040: 0563 713d 2a54 8b3d 9b69 033d 5f5f 3b3c
00000050: 1b84 703d e376 b03c 65e4 113d c182 f73c
00000060: 8216 f23c 3846 ae3c 78a5 833c dea4 ba3c
00000070: 5a3a 9f3c 448b 883c 1ebb 643d eb1c d43d
00000080: aacd 6f3d a76f 603d edb2 823c adb7 6b3f
00000090: eb38 5e3f 926f f83e 05d8 583e 0f45 f53d
000000a0: 8e93 8d3b 9f49 063c b9f1 113c 9de1 063c
000000b0: a671 8f3b c033 003c aa3c b33b 2d39 9c3c
000000c0: cafa 953c 7eed b53b e092 713e 83b4 133e
000000d0: 7c22 9b3d 5340 e23d 8d42 8d3d 9e6f 0d3c
000000e0: 045e 523c 32f7 8f3c 3a06 cf3b 9630 733c
000000f0: 7718 823b 5d74 7a3c 777e cb3a 2733 1e3c
00000100: 6b05 ce3b 600b b43d e2f6 143e 7312 723d
00000110: 9bd3 053e f881 123e a047 a43d 373c c93d
00000120: 8368 7e3d 1f44 4e3d 5f41 c63c be63 923d
00000130: aff9 963d 3053 7f3d d07a 1a3d 06e2 283d
0.04742135 0.060386986 0.041867904 0.13469641 0.09704833 0.23715638 0.26810956 0.0749491
0.10722514 0.105148256 0.014850644 0.020867396 0.011275049 0.011634588 0.01512037 0.047934417
0.058932323 0.068031624 0.032083135 0.011436312 0.058719736 0.021541065 0.035618205 0.030213716
0.029551748 0.021273717 0.016070113 0.022783693 0.019437004 0.01666797 0.05584251 0.10357078
0.058545746 0.05479398 0.01595446 0.9207714 0.868056 0.4852262 0.21176155 0.119760625
0.0043205684 0.008196264 0.008907729 0.008232501 0.0043775616 0.007824838 0.005469878 0.019070232
0.018308062 0.005551993 0.23591185 0.14424329 0.07574937 0.11047425 0.06897459 0.008632569
0.012839798 0.017573927 0.006317881 0.014843127 0.0039702016 0.015286532 0.001552536 0.00965575
0.006287267 0.08791232 0.14547303 0.059099626 0.13069002 0.14307392 0.08021474 0.09825938
0.06211139 0.050357934 0.024201093 0.071479306 0.07371842 0.062335193 0.03771478 0.041231178

BCBlocks.0.1.f1.0.block.0.weight f4 [16, 1, 1, 3]
00000000: b736 3d3e b47d a8bd d6a8 593e f659 6a3d
00000010: 77c0 49be bc15 1ebe 83f2 dabc 17f4 0cbe
00000020: c800 4bbe ef9b dfbd 3b38 073e 1dfc 8a3e
00000030: bf89 84be 380b 633e 6694 66be fe53 66be
00000040: f6a1 e13d 4034 01be ff76 013e f28a 33bd
00000050: 0681 343e 632a 89be 4019 a13d 1845 19be
00000060: 76bc e1bd 196a 903e b214 073e 8cf2 4cbe
00000070: 500f 703c f17f 14be eb1d a1be 00bd 2c3e
00000080: 92ba 7e3e 0916 0f3d 684e f0bd a3a0 5ebe
00000090: 8ee4 87be 4b2b bf3d e443 40be cf3e 603e
000000a0: 9543 563d 89a3 453e c344 2a3e 505a 6a3e
000000b0: e643 53be 0ecb 383e e6c0 513e 3a3c 5e3e
0.18477903 -0.08227101 0.21255812 0.0572147 -0.19702326 -0.15437979 -0.026726967 -0.13764988
-0.19824517 -0.10918414 0.13205044 0.27145472 -0.25886342 0.22172248 -0.22517547 -0.22492978
0.1101722 -0.12617588 0.1264305 -0.04383368 0.17627344 -0.2679015 0.07866144 -0.14967763
-0.11022274 0.28205946 0.13191488 -0.200144 0.014652088 -0.14501931 -0.31468138 0.16868973
0.24875858 0.034933124 -0.11733705 -0.21740966 -0.2654156 0.09334429 -0.18775898 0.2189896
0.052310545 0.19300665 0.16627793 0.22886014 -0.2063137 0.18046209 0.20483741 0.21702662

BCBlocks.0.1.f1.0.block.1.weight f4 [16]
00000000: 5d15 c93e a83c 053f 7b78 163f e0b1 d43e
00000010: 9ca9 ee3e b8e0 a93e fcdf cb3e bea2 cd3e
00000020: 96da ac3e d8c1 453e d125 d53e d7cc 9f3e
00000030: eb71 c13e 1cbc b03e 89f5 673e 8bc7 583e
0.3927411 0.5204568 0.5877759 0.41541958 0.46613777 0.3317926 0.39819324 0.40163225
0.33760518 0.19312227 0.41630414 0.31210968 0.37782225 0.34518516 0.22652258 0.2116987

BCBlocks.0.1.f1.0.block.1.bias f4 [16]
00000000: b1f0 4ebd f90e b63d 1060 07be f5da 9cbd
00000010: 97b5 f1bc 848a 12bd 1741 79be adb3 4dbd
00000020: fa72 3cbe 3db7 68be 4f03 74bd ace0 8abd
00000030: 8a67 00be 6d62 0ebe f68b 4bbe 0c9a 09be
-0.05052251 0.088895746 -0.13220239 -0.0765895 -0.029505534 -0.03577663 -0.24341236 -0.05022018
-0.18403235 -0.2272615 -0.059573468 -0.06781134 -0.12539497 -0.13904734 -0.1987761 -0.1343767

BCBlocks.0.1.f1.0.block.1.running_mean f4 [16]
00000000: 4635 953b 98ef 963c b946 68ba 4054 2b3b
00000010: d2ec b1bc a993 5abc 87d3 6a3c bc37 0cbd
00000020: b082 133b e4fa 743a e22a 8f3c f744 89bc
00000030: 6d36 d83b d86a 1a3d 173b 133c a868 143d
0.00455347 0.018424794 -0.0008860636 0.0026142746 -0.02171937 -0.013340869 0.014332659 -0.03423284
0.0022508316 0.0009345247 0.017476503 -0.016756518 0.006598285 0.03769955 0.008986256 0.03623262

BCBlocks.0.1.f1.0.block.1.running_var f4 [16]
00000000: 0562 113c b5c2 8a3c d0e8 763c b478 0339
00000010: ee9d 393b 1ba4 393b 5b35 043b e552 333c
00000020: 3334 973b 2612 433c 9a1d 0939 ff6f 6f3c
00000030: af6b 6c3c ff90 023d 2865 fa38 487a 1e3d
0.008873467 0.016938547 0.015070155 0.00012538099 0.0028322893 0.0028326574 0.0020173404 0.010945057
0.004614377 0.011906182 0.00013076366 0.014614104 0.014429971 0.03187656 0.00011939771 0.038690835
