models/speechcmds_tau3_25%/model_best.pth (torch, 323271 bytes, 165 tensors)

cnn_head.0.weight f4 [48, 1, 5, 5]
000000 73 03 ab bc d9 e4 5e bd f8 a7 ca bd 91 ed 0f bc
       -0.020875668 -0.054417465 -0.09895319 -0.008784668
000010 c4 9f 35 bc e7 e8 39 3e 7b 7e 19 3d e0 be 92 bd
       -0.011085454 0.18155251 0.037474137 -0.07165313
000020 b1 cf 5a bd 1f d7 12 be 5f 16 07 3f 08 cd 4e 3e
       -0.053420726 -0.14339875 0.5276851 0.201954
000030 c0 38 a7 bd 40 ea 2d be 72 5b 90 be d8 ad c6 3e
       -0.08165121 -0.1698389 -0.28194767 0.38804507
000040 e9 ad 01 3e da 09 29 be 23 32 32 be 65 a1 4c be
       0.12663998 -0.16507664 -0.17401938 -0.19983442
000050 b7 35 8a 3d f2 d2 d8 bc 55 4c 1a be 6b b9 21 bd
       0.067485265 -0.026467774 -0.15068181 -0.03948347
000060 14 23 14 3d 7d 90 32 ba b9 a1 f1 b9 70 23 84 b9
       0.036166266 -0.00068116916 -0.00046087595 -0.00025203405
000070 e3 d8 8e b9 13 f4 aa b9 4b 9b 99 b7 4a 2c aa b9
       -0.00027245944 -0.00032606776 -1.8311335e-05 -0.00032457925
000080 7b 2d 3b 39 ca 48 82 b9 08 b3 d1 b9 24 c5 d3 39
       0.00017850653 -0.00024849764 -0.00039996975 0.00040391937
000090 88 0f 08 39 11 42 d2 39 76 3b 29 b9 5a aa 07 ba
       0.00012975757 0.00040103545 -0.00016139247 -0.00051752257
0000a0 a8 27 70 39 a6 6c 8c b8 d1 a1 76 39 56 fe f1 b8
       0.00022902957 -6.6959576e-05 0.0002352067 -0.00011539149
0000b0 ed c0 09 ba d6 3a 81 b9 3c 3e 97 b9 33 26 e1 38
       -0.00052548834 -0.00024648634 -0.00028847333 0.00010735951
0000c0 28 d8 ae 38 f1 72 cd b9 08 34 33 3d 03 5b 3d 3d
       8.337229e-05 -0.00039186285 0.043750793 0.046229374
0000d0 4f d6 ca 3c 23 eb c2 3c 24 54 54 3c 47 dd 9a 3d
       0.024760393 0.023793763 0.012959514 0.075617366
0000e0 72 81 6f 3d c3 47 4e 3c 24 34 87 3c 63 dd 38 bc
       0.058473058 0.0125903515 0.016504355 -0.011283251
0000f0 a5 87 1a 3d 2a 3a c2 3c cb db 3d bc 36 5c b9 3c
       0.037727017 0.023709375 -0.011588047 0.022626977
000100 f9 73 05 3c 87 ba 7a bd cf bf 23 bd 86 8f 64 bd
       0.008145326 -0.061213043 -0.039977845 -0.055800937
000110 ab 59 bd bc 79 41 09 bd 8e cc ac bb ed d0 b1 3c
       -0.023114046 -0.033509705 -0.0052734083 0.021706069
000120 61 f2 34 3c 0e 5d d2 3c 77 cc 1d 3c 75 f7 17 3b
       0.011044116 0.025679138 0.009631268 0.0023188267
000130 6f f7 df 3a 5a f6 2f 3a cf 56 bf 39 cd 84 66 3a
       0.0017087291 0.00067124295 0.00036495036 0.00087935926
000140 b4 c4 95 39 ef 8a 83 39 46 8a a1 b9 c9 68 8f b9
       0.0002856605 0.0002508978 -0.00030811335 -0.00027353156
000150 69 da 0a 3a ef 53 8b ba a3 7c 44 ba 67 f8 b6 ba
       0.0005296828 -0.0010629873 -0.0007495379 -0.0013959528
000160 80 11 9e ba 1e ca c3 38 fc 49 0a 3b 3f 4f cc 3a
       -0.0012059659 9.335972e-05 0.0021101227 0.0015587582
000170 6c 0d 58 3a 05 33 87 3a e1 e5 f7 3a ec 2e 40 3b
       0.0008241746 0.0010314888 0.0018913114 0.0029324843
000180 68 02 0f 3b cd 87 4f 3a 13 8b 25 3a 11 6b 3b 3a
       0.0021821503 0.0007916659 0.0006314974 0.0007149438
000190 ca db 6c 3c b0 28 ff 3c 3f d9 83 3d ab af 07 3d
       0.014456699 0.031147331 0.06437921 0.033126514
0001a0 77 79 4f 3c c8 e9 1a bd 69 54 34 bd 06 a6 4d bd
       0.012663237 -0.037820607 -0.044025812 -0.05020716
0001b0 60 5b be bc 0c 66 b4 3c 67 2d 70 be d6 d5 f5 bd
       -0.02323693 0.022021316 -0.2345482 -0.120036766
0001c0 c4 df de bd f9 6a 09 be 0b cb 0b be 61 b4 00 3e
       -0.10882524 -0.13419713 -0.13651673 0.12568809
0001d0 f3 84 5a 3e 3d fa 6e 3e a6 12 c8 3d 89 01 92 3d
       0.21339779 0.23337646 0.09769182 0.07129199
0001e0 9a d5 84 3b fa fd d6 3c 39 8c 28 3c dc d8 16 bb
       0.0040537836 0.026244152 0.010287338 -0.0023017442
0001f0 f4 69 a5 bc d3 0b 67 bb 44 51 a1 bd 62 55 ec bc
       -0.020192124 -0.003525485 -0.07876828 -0.028849307
000200 8e 8c eb bc e3 ff 4e bc 99 40 92 3d 84 c1 d0 bc
       -0.028753545 -0.01263425 0.07141227 -0.0254829
000210 39 6c 38 3c 4c 30 a0 3d 7d ac 24 3e 5b eb 81 be
       0.011256271 0.07821712 0.16081424 -0.25374874
000220 3d ed 43 be 74 50 2e be 5c 88 01 be 41 c0 31 bd
       -0.19133468 -0.17022878 -0.12649673 -0.04339624
000230 d5 75 e2 3d ed d7 d6 3d 4c b3 01 3e f7 38 5a 3d
       0.11057631 0.10490403 0.12666053 0.053276982
000240 95 9e 61 3d 20 99 36 3c 2e d5 52 3c ac 14 90 3c
       0.055082876 0.011144906 0.012868209 0.017587982
000250 ca 1f 41 bc 8f 14 92 ba d6 fd 24 3d 38 37 4c bd
       -0.011787364 -0.0011145043 0.04028114 -0.04985735
000260 d3 18 99 bd 81 7e 09 3c a4 33 3c 3c 62 68 6b 3e
       -0.07475438 0.008391977 0.011486921 0.22989038
000270 ae eb 15 3d e1 20 96 bd 3e 90 a1 bd 9b 13 2f be
       0.036601715 -0.0733049 -0.0788884 -0.17097323
000280 93 01 18 3f 5e 87 31 3e d4 ed 09 be a4 ad 5e be
       0.593774 0.17336795 -0.1346963 -0.21745926
000290 f3 30 bc be a6 ef fa 3e a1 5e 23 3e a9 4d 1a be
       -0.36756095 0.49010962 0.15954067 -0.15068687
0002a0 1f 86 63 be f6 72 91 be 80 e6 ef 3d 0d e0 85 3c
       -0.22219132 -0.2840802 0.11713886 0.016342187
0002b0 b1 bf b4 bd d5 54 49 bd b1 fe 0d 3d df 94 9a 3d
       -0.08825625 -0.049153168 0.03466672 0.07547926
0002c0 0e 00 22 bc de 2d 44 bd 2d f2 98 3a 33 30 fd bc
       -0.009887708 -0.047895305 0.0011668854 -0.030906772
0002d0 70 8f 87 3e 83 e9 58 3d 3c 02 a5 bd a8 ca b6 bd
       0.26476622 0.05295707 -0.08057067 -0.08925372
0002e0 4a f6 70 be 8f dc 0a 3f 87 eb 12 3e 93 e0 0b be
       -0.23531452 0.54242796 0.14347659 -0.13659887
0002f0 a5 a8 2e be 7a c1 bd be f7 5b 01 3f eb c5 2b 3e
       -0.1705652 -0.37061673 0.5053095 0.16774718
000300 18 c2 f9 bd 15 fe 2b be 64 a2 96 be 99 39 2e 3e
       -0.121952236 -0.16796143 -0.2942077 0.1701416
000310 9b 83 29 3c 01 17 b5 bd a7 1a 23 bd a4 1a 9d 3b
       0.010346319 -0.08842278 -0.03982034 0.0047944356
000320 33 67 26 39 1c 36 7b 39 0e 59 79 39 06 8f 93 39
       0.00015869438 0.00023957383 0.00023779666 0.00028144586
000330 b1 ee 76 39 54 5b 66 39 53 84 7b 39 38 8e b8 b7
       0.00023549308 0.00021968532 0.0002398652 -2.2000735e-05
000340 56 9b 42 39 4f a7 8a 39 01 30 a9 39 50 35 a7 39
       0.00018559149 0.00026446066 0.00032269958 0.00031892443
000350 1d 03 94 b8 63 9c f1 38 9f 9b 68 39 39 a9 8b 39
       -7.05777e-05 0.00011520905 0.00022183218 0.00026638227
000360 8d 5d 46 39 a5 7b 8f b7 c4 8d 8e 39 c7 9f 51 39
       0.00018917602 -1.7104505e-05 0.00027189974 0.00019991315
000370 64 e4 a5 b8 19 74 36 39 30 d6 70 b9 0a f8 03 b8
       -7.910354e-05 0.00017400122 -0.00022967975 -3.146384e-05
000380 aa 4e 06 b9 83 01 c6 3d 9c fe 7d 3d 7f 15 5b 3c
       -0.0001280854 0.09668257 0.062010393 0.013371824
000390 ee d1 62 3c f8 a7 3b bc b4 ee 83 3c c8 2e e2 ba
       0.013843996 -0.011453621 0.016105033 -0.0017256374
0003a0 ab 86 21 bd 7f 2f 0b bd 60 28 91 bd 8d 8f 0d bd
       -0.03943507 -0.033980843 -0.07087779 -0.03456073
0003b0 78 78 be bc 40 f9 8b bc 1a 4e 85 bb 5b 3e 2a bd
       -0.023250803 -0.017086625 -0.0040681483 -0.041563373
0003c0 52 2b 60 bd e7 d9 29 bd 83 85 90 bc b7 88 01 3c
       -0.054728813 -0.041467573 -0.017641788 0.0079061305
0003d0 0e 38 4a 3b 95 3c 23 3c 0c 69 ae 3b d9 8d 7a bc
       0.0030856165 0.009963174 0.005322581 -0.015292608
0003e0 1f 0d ab bc cb ad b2 bc 30 fb a1 bd f9 be 2d 3d
       -0.02088028 -0.021811387 -0.07909238 0.042418454
0003f0 ee bd ca 3d ec d1 71 3d e4 07 27 3d 85 ea 85 bd
       0.098995075 0.059038088 0.04077901 -0.06538872

cnn_head.1.weight f4 [48]
000000 fe 49 88 3e 67 d8 23 39 1b f0 fa 3d 39 58 a3 39
       0.26618952 0.00015625508 0.12252828 0.00031155514
000010 ac 54 44 3e 73 3a 2a 3e 37 44 b8 3e a8 65 b1 3e
       0.19172925 0.16623859 0.35989544 0.3464787
000020 1c 72 88 38 25 78 c0 3d b9 3d 98 3e 4d f6 29 3c
       6.50624e-05 0.09397916 0.2973459 0.010373664
000030 e0 71 24 39 31 41 e0 3c 33 c3 ca 3e d5 a4 4f 3d
       0.0001568268 0.027374836 0.3960205 0.050694305
000040 53 13 e6 3d c1 d3 8d 3e cd 00 14 3f b7 4e 30 3c
       0.112341546 0.27700618 0.5781372 0.010760955
000050 6b 0e a2 3e 71 52 cf 3e 20 7b d4 39 46 b4 82 3e
       0.31651625 0.40492585 0.00040527526 0.25528163
000060 b9 19 29 bc 19 4f 0d 3e 65 d7 33 3c bc cc eb 3e
       -0.010321074 0.13799705 0.010976647 0.46054637
000070 10 9b 69 3e 28 f8 5c 3e 40 1e 8a 3e 1d 62 b2 3e
       0.22813058 0.21579039 0.26976204 0.3484048
000080 4d f9 91 3e 81 b9 4b 3e e0 50 aa 39 e4 e1 04 3a
       0.28510514 0.19894983 0.00032485183 0.0005069061
000090 f4 b5 6b 3e a2 37 c5 3a bc 4d 22 39 ce 77 34 3e
       0.23018628 0.0015046487 0.00015478482 0.17623827
0000a0 fa 0c c8 3e 55 ad 1c 3d a7 89 f9 3e 39 58 54 3a
       0.390724 0.03825124 0.48737833 0.00081003044
0000b0 9a e6 e6 3d a1 5a 59 bc 11 7d ff 3e 2d eb 71 3e
       0.112744525 -0.0132662365 0.49900106 0.23624869

cnn_head.1.bias f4 [48]
000000 d0 38 41 3e 5e c9 22 ba c7 e2 89 bc 84 64 ab ba
       0.18869328 -0.00062098156 -0.016831769 -0.0013076221
000010 0c d9 1a 3e c3 0b 8c 3d 2f 7e 0c 3e 62 2b 2c 3e
       0.1512186 0.06838181 0.1372001 0.16813424
000020 38 d2 b1 b9 f4 ad 58 3c 9e 66 cd 3e b5 a7 97 bb
       -0.00033916696 0.013225067 0.40117353 -0.0046281465
000030 24 85 1d ba 7f 81 23 bd e1 10 3e be 75 95 f0 3c
       -0.0006008914 -0.03991842 -0.18561126 0.029368142
000040 39 3c 81 3b 4e a8 fb bb f9 6a b0 be 22 27 f5 39
       0.0039439467 -0.0076799756 -0.34456614 0.00046759198
000050 df a0 ea 3d c1 5c 98 3e 22 d3 e5 ba 0a 05 a9 3d
       0.11456465 0.29758266 -0.0017534236 0.08252914
000060 cd 13 e9 3c b9 84 82 bd d2 55 09 3c 27 d2 45 be
       0.028451825 -0.06372971 0.008382278 -0.19318448
000070 dc e8 10 3b 9f 4b 31 3e f3 b2 18 3e 14 71 af bd
       0.0022111451 0.17314003 0.14912014 -0.0856649
000080 88 dd be 3d 2f 69 bd 3c dd e9 69 ba 2f c0 0a bb
       0.093195975 0.023121445 -0.0008923093 -0.002117168
000090 df ed ba bd 76 e8 c3 bb 44 b0 82 ba 99 29 54 3d
       -0.091274016 -0.0059786392 -0.0009970744 0.051797483
0000a0 81 71 2a be fd aa cd bb e4 38 97 be 34 6e 40 bb
       -0.16644861 -0.006276487 -0.29535592 -0.0029362561
0000b0 41 8e 14 bd 8a f6 15 3d b0 b0 99 be f1 3f 24 bd
       -0.036268476 0.03661207 -0.30017614 -0.04010004

cnn_head.1.running_mean f4 [48]
000000 d9 ad 0b 3f b7 10 20 3c 20 f7 1d bf c1 a4 43 bd
       0.54562145 0.00976961 -0.6170521 -0.047764543
000010 20 b9 37 be b5 83 02 3f 0d b8 45 3e ff fb fa bd
       -0.17941713 0.5098222 0.19308491 -0.12255096
000020 ea 62 28 bc a9 dd 2b 3f a2 ba 11 c0 61 06 69 3d
       -0.010277489 0.671351 -2.2770162 0.05689085
000030 be 1e d6 3b 90 f1 35 3f d6 d9 ef bd 80 85 a2 3e
       0.0065344265 0.7107172 -0.11711471 0.31742477
000040 ad 27 8a be c9 4a a8 bf d7 28 35 c0 55 47 ab 3c
       -0.26983395 -1.3147823 -2.8306177 0.020908037
000050 59 f8 de 3f 5c 14 af bf b0 72 c0 3c ed 97 df 3f
       1.741954 -1.3678088 0.023492187 1.7468239
000060 90 4f 74 be b0 1e 1d be c7 1f b2 3d a5 dc 22 c0
       -0.23858476 -0.15343738 0.08697467 -2.544717
000070 82 5d 84 bf 4e ab ce be b4 d9 94 3f 42 1a eb bf
       -1.0341036 -0.4036507 1.1628938 -1.8367388
000080 1a 53 1d c0 46 ab 0a bf 5b de 95 3c 36 76 96 3c
       -2.458197 -0.5416759 0.018294504 0.018366914
000090 21 1d 63 bf 2c f2 94 bd 86 aa 6c 3c f4 22 2a 3f
       -0.8871632 -0.07272753 0.014444953 0.66459584
0000a0 84 28 5c bf 90 95 87 3d 6a f0 6a c0 69 cb 2e 3d
       -0.8599932 0.06620324 -3.6709237 0.042674456
0000b0 57 bb 26 bc a7 7e 5b bf bb ca d7 bf 21 eb 9a bd
       -0.010176501 -0.8574013 -1.6858743 -0.075643785

cnn_head.1.running_var f4 [48]
000000 5b 4d 12 41 ce 2c 23 39 7d d2 68 3f 8f d5 62 3b
       9.143886 0.00015561582 0.9094618 0.0034612154
000010 22 4e df 3f 21 51 d0 3f 13 10 57 41 60 e4 6c 41
       1.7445719 1.6274759 13.441424 14.805756
000020 4c 64 2a 39 01 75 65 3f bf f1 4a 41 bf 8e a9 3b
       0.00016249827 0.8963166 12.68402 0.0051744874
000030 3a 6b a1 38 36 ca c6 3f dc 94 18 40 57 e3 91 3e
       7.697051e-05 1.553046 2.3840857 0.2849376
000040 13 0f 57 3e 93 f3 b4 40 5a 47 75 41 aa 9e a0 3b
       0.21001844 5.654733 15.32992 0.0049017267
000050 9b 51 03 41 a5 49 28 41 45 7d 61 3a c5 5b ba 40
       8.207423 10.51798 0.00086017355 5.8237023
000060 df 91 ac 3d 16 a9 f5 3e 49 a5 40 3c ef 20 3c 41
       0.0842626 0.47980565 0.011758157 11.75804
000070 c5 e6 c7 40 17 a5 09 41 5a ef 10 41 aa 5c 28 41
       6.24692 8.602805 9.058435 10.522623
000080 85 f9 3b 41 ea 93 b8 3f d5 ba 1a 3a 75 ba 09 3a
       11.748418 1.442014 0.0005902474 0.00052539195
000090 92 f0 0a 40 e9 2a 2d 3c 39 53 12 3a fe 29 fa 3f
       2.1709332 0.010569313 0.0005581859 1.9544065
0000a0 06 7e 83 40 a5 fb 00 3d 92 b3 a0 41 c7 22 37 3b
       4.1091337 0.031489987 20.08768 0.0027944313
0000b0 ab 55 75 3e 28 5c 8c 3f 3e 3f 0b 41 46 89 44 40
       0.23958461 1.0965624 8.70294 3.0708785

BCBlocks.0.0.f2.0.block.0.weight f4 [24, 48, 1, 1]
000000 05 a9 b9 bc d5 40 cb b8 32 66 eb 39 08 98 9c b8
       -0.022663603 -9.69187e-05 0.00044898834 -7.466978e-05
000010 9e c9 de bc 2b ae 71 bd 44 ad 0a bc 44 ea 62 3b
       -0.027195748 -0.05900399 -0.008464161 0.0034624496
000020 69 b7 4c 38 36 4e 4b bc f9 05 4c 3d ca f3 8f 3a
       4.8808204e-05 -0.012408784 0.049810383 0.0010982689
000030 30 d4 2d b7 52 0d ca 3c b3 97 c7 bc 8b 8c 20 bc
       -1.0361007e-05 0.024664555 -0.024364328 -0.009799133
000040 62 08 96 3c c0 54 f5 3c 79 b5 e7 3d 32 aa 7d 3a
       0.018314544 0.029947639 0.1131391 0.0009676545
000050 cd eb 00 bc 25 2c f9 3c 03 70 bd 37 7a c5 f5 bb
       -0.007868719 0.030416558 2.2582715e-05 -0.0075003477
000060 c5 2f b3 bb 65 e2 30 3d d8 f9 bf 38 dc a2 15 3e
       -0.005468341 0.043184657 9.154127e-05 0.14612907
000070 6f 65 8e 3d e9 b6 7c 3d 54 42 9f bd 12 4b 31 bd
       0.06952941 0.061697874 -0.07776323 -0.043284483
000080 fa 79 95 3d 97 e7 00 3d fb 3c 28 39 44 17 b2 b7
       0.07298656 0.03147086 0.00016044446 -2.1230087e-05
000090 69 c3 8f 3c ae d3 92 b9 8d db 05 38 2b ec 3f bd
       0.017549234 -0.00028005004 3.1914144e-05 -0.046856087
0000a0 52 05 c0 bd 62 d8 eb 3b 08 24 05 3e 5e 3f c0 39
       -0.09376015 0.0071974257 0.13002026 0.00036668306
0000b0 e5 6c a7 bb c5 d4 51 bb 1f 6f 82 bd 4f 89 63 bd
       -0.005109417 -0.003201769 -0.06368851 -0.05555087
0000c0 b2 d6 41 3c 4f 76 61 39 6e f5 2b bd 14 be 4c ba
       0.0118309725 0.00021501746 -0.041982107 -0.0007810306
0000d0 23 0d 46 bc 3e 2f 26 3e ff 26 7c 3d 5a 0a 86 3d
       -0.012088093 0.16228959 0.061560627 0.06544943
0000e0 ea cc 30 38 61 36 38 bc 74 f7 76 3e 82 4d 2c bb
       4.215251e-05 -0.011243434 0.24117833 -0.0026291315
0000f0 55 26 de 38 10 86 30 bd d1 11 32 3d ab 48 19 bc
       0.00010592925 -0.043096602 0.043474022 -0.009355704
000100 81 a3 43 3d 77 8a 0e 3e 68 54 34 3e a2 c8 9d 3a
       0.04776335 0.13920008 0.17610323 0.0012037943
000110 ec e2 5d be b6 db c5 bd 75 a5 1c 3a a3 03 bd bd
       -0.21668595 -0.09661047 0.0005975583 -0.09229209
000120 ea 55 27 bc d7 ce 70 bb 4f f4 ed bb a3 14 a8 bc
       -0.010213355 -0.003674438 -0.00726179 -0.020517653
000130 80 4d 7a bd 66 0d 33 b9 38 b1 35 be 8a 31 a0 bd
       -0.061109066 -0.00017075762 -0.17743385 -0.07821949
000140 e4 10 2b 3e f3 94 d1 bd f6 3c 88 39 a5 f7 0c 3a
       0.16705662 -0.10233488 0.0002598536 0.0005377478
000150 bb 96 13 3e c7 df f0 ba e0 a1 77 b9 f2 57 01 be
       0.14412968 -0.0018377238 -0.00023616059 -0.12631205
000160 00 eb b7 3e 5a 0e 3b 3b 28 50 86 3d d3 f3 84 3a
       0.35921478 0.002854249 0.06558257 0.0010143466
000170 c3 eb 19 b9 3b e7 f4 bc 0d 11 a0 3e a6 af 2f bd
       -0.00014679045 -0.029895416 0.3126301 -0.04289212
000180 48 67 b7 be 85 eb c2 b9 68 1c 27 3d 6b 43 32 ba
       -0.35820985 -0.0003717804 0.040798575 -0.0006800207
000190 15 da bc bd 58 db 2c bd 99 b3 b1 be 94 6a a0 be
       -0.09221283 -0.04220137 -0.34707335 -0.31331313
0001a0 34 03 38 b8 09 31 c5 3d 55 f4 7d 3d f1 26 71 ba
       -4.3872e-05 0.09628493 0.06200059 -0.0009199223
0001b0 70 92 f1 b8 1d ad 05 ba 02 c4 5a be 1e 0f eb 3c
       -0.000115190516 -0.0005099343 -0.21363834 0.028693732
0001c0 ee 6d 6a 3d 07 ea 81 ba e9 b8 f6 3d 32 a3 c8 3b
       0.057233743 -0.0009911665 0.120469876 0.00612297
0001d0 25 b6 06 3d e3 fb 0a be ad b0 da b9 7e a7 b9 3d
       0.03288855 -0.1357265 -0.00041711834 0.0906515
0001e0 a7 0e 19 3b d2 bf 4f 3c 7f 91 40 3b 9b f7 37 be
       0.002335468 0.012680011 0.0029383597 -0.17965548
0001f0 7c 44 11 3e bc 63 4f bb 5a 44 8e be 7c eb b4 3e
       0.14186281 -0.003164514 -0.27786523 0.3533591
000200 d7 35 a4 bc 68 b9 fd bd 0d e9 3b ba 57 ba 40 ba
       -0.020045204 -0.12388879 -0.0007168211 -0.00073519856
000210 2a 3b bf 3d 99 d5 8f 3b 40 4c 3a ba 8a 09 ac 3d
       0.093374565 0.0043894765 -0.0007106699 0.08400257
000220 75 fe 8f bd 8e 7f b0 3c 1a 46 25 ba 9f c0 d9 b9
       -0.07030956 0.021545198 -0.00063046964 -0.0004153298
000230 61 a0 88 bd 62 a0 fc bb 32 30 d7 bd ab 62 31 3e
       -0.06671215 -0.007709549 -0.105072394 0.17322795
000240 fd c2 28 3e 2b b3 4e 39 62 ac 23 bc fd 8b 71 3a
       0.16480632 0.00019712436 -0.00998983 0.000921428
000250 c9 b7 9a bb d5 05 d7 3c ea 3f 69 3e c9 34 52 3e
       -0.004721616 0.026247898 0.22778288 0.20527948
000260 bd c6 53 b8 0d 5f 2b 3c 95 a0 12 3e c7 bc 1a 3a
       -5.049141e-05 0.010459674 0.1431907 0.0005902764
000270 b2 e8 ca b7 9f ee 68 bc f4 e2 4a bd 63 77 80 bc
       -2.4188634e-05 -0.014217048 -0.049532846 -0.015681928
000280 4c 7d ad bc e8 e2 99 bd bd 4b 1c 3e 72 fa 37 3a
       -0.02117791 -0.07513982 0.15263267 0.0007018215
000290 b3 c6 a7 3c 51 0f 77 be 78 0c 14 b9 36 ed 61 bd
       0.02048049 -0.24126936 -0.00014119025 -0.055157863
0002a0 82 d6 11 3b b1 12 72 3d 71 4b 4e 3a 69 99 94 bb
       0.00222531 0.059099857 0.0007869518 -0.0045348895
0002b0 f0 38 f3 3c 0d 4d e1 bc 0a 6b 37 3b 48 55 8e be
       0.029690236 -0.027502561 0.0027987384 -0.2779944
0002c0 d0 0e 39 3d 60 dd 3c bd 1c 58 75 3a de 02 e6 b6
       0.045180142 -0.046109557 0.00093591376 -6.854868e-06
0002d0 40 80 ae 3d 32 b1 9a ba 7e 67 c6 b8 ed 74 90 3c
       0.085205555 -0.0011802076 -9.460653e-05 0.01763388
0002e0 d2 2b ca 3c 2d 31 c4 bb ec 0d cd bc b8 f4 1a 3a
       0.024679098 -0.0059873075 -0.025031053 0.00059111
0002f0 27 ce 04 3d a5 20 7d ba 45 21 bb 3c 16 57 8e 3d
       0.032423165 -0.00096560485 0.022843013 0.06950204
000300 c6 fa bd 3c 51 98 a0 37 68 0f 59 bd 51 bb f2 38
       0.023190867 1.9144414e-05 -0.05299321 0.000115743496
000310 55 a7 4f 3e 9b b2 00 3e 86 33 1f 3d 4d 7a 97 3d
       0.20278676 0.12568133 0.038867496 0.07396374
000320 34 ff 92 38 1e 14 c2 3c 2c a7 30 bd 10 b7 e8 b9
       7.009358e-05 0.023691233 -0.043128178 -0.0004438688
000330 41 df 18 b7 89 4f c1 bc e6 f1 cd bb 52 f9 7c bc
       -9.111886e-06 -0.023597496 -0.00628494 -0.015440302
000340 48 3b 1a 3d 7d 94 bb bc 02 b3 71 bd 82 9e 21 ba
       0.03765419 -0.022897953 -0.059008606 -0.0006165282
000350 20 c1 d8 3c b9 36 46 bd 2d d9 9a 37 ac a5 f2 3d
       0.026459277 -0.04839203 1.8459361e-05 0.11848006
000360 c5 44 fa 39 52 de 01 bd c2 1b be 3a b3 d7 d5 3d
       0.00047734953 -0.03170616 0.0014504122 0.10441532
000370 50 65 3b 3d 6b 66 0d 3e a0 31 a4 3d 87 95 c7 bc
       0.045750916 0.138086 0.08017278 -0.024363292
000380 5d 91 3e bd 1e 1d ff bd e5 6b d9 b8 f8 15 a7 b9
       -0.046525348 -0.124567255 -0.00010367463 -0.0003186909
000390 ba 16 27 3d cc 61 49 ba 78 4c 20 3a c5 7a d7 bb
       0.040793158 -0.00076821144 0.00061149104 -0.0065759146
0003a0 a3 82 70 3d 6c 46 82 3c 86 0b a0 bc 96 85 09 ba
       0.058718335 0.01590272 -0.019536745 -0.0005246041
0003b0 8c c1 3d bd d0 5e 33 bc 85 a0 08 3d 81 99 a9 3d
       -0.04632716 -0.010947898 0.03335621 0.08281232
0003c0 33 40 e6 3c 6b 04 59 39 e0 61 2f 3c 66 c3 72 ba
       0.028106784 0.00020696378 0.010704488 -0.0009260684
0003d0 d6 28 88 bc bd 73 af bd 4d c2 31 3d 25 1b 9c 3d
       -0.016621035 -0.08566997 0.04339819 0.07622365
0003e0 52 13 8b b9 90 1f ad 3c 8f b4 8a 3e 71 c4 92 ba
       -0.0002652654 0.021133214 0.2709088 -0.001119746
0003f0 b9 23 c3 36 c2 ca 54 3d 37 52 67 be ee 96 fa bc
       5.8156115e-06 0.051951177 -0.22589956 -0.030589547

BCBlocks.0.0.f2.0.block.1.weight f4 [24]
000000 65 da 70 3e 6a 3d c0 3e 14 c6 eb 3e ed d8 88 3e
       0.23520811 0.37546855 0.4604956 0.26728
000010 e3 d1 37 be f7 f7 02 3e 1c 2e 67 3e be 7d f8 3e
       -0.17951159 0.12789904 0.22576183 0.48533434
000020 5c 64 65 3e 5d 16 5c 3e c1 49 b0 b8 d8 df 31 3e
       0.22401565 0.21492906 -8.406072e-05 0.17370546
000030 90 5f 4e 39 48 63 dc 3e 16 d5 14 3e 3f 2d 66 3e
       0.0001968129 0.43044496 0.14534411 0.22478198
000040 75 fb d8 3e 36 fc 28 3e 88 11 bf 3e 69 84 d8 3e
       0.42379346 0.16502461 0.37318063 0.4228852
000050 27 13 96 3e d1 e7 8b 3e 3f ac 12 3e 34 cb 5d 3e
       0.29311487 0.273253 0.14323519 0.21659547

BCBlocks.0.0.f2.0.block.1.bias f4 [24]
000000 f4 b1 80 bd 42 33 fb bd 9d 39 32 be cf cc 57 3e
       -0.06283942 -0.12265636 -0.1740479 0.21074222
000010 14 49 d3 3c 43 ff 27 3e d0 11 cb 3d 6c 09 ec 3c
       0.025791682 0.16405968 0.09915507 0.028813086
000020 30 36 e3 3d ba a2 19 bd 9b 0a 01 bb f6 b2 fc 3d
       0.1109432 -0.037508704 -0.001969016 0.123388216
000030 99 0a ad bb 4b b5 a7 3e 78 54 a9 3c 30 1c c0 bd
       -0.0052808044 0.32755503 0.02067016 -0.09380376
000040 7d cc 0d be a3 65 a0 3d f5 0f 90 be c9 80 0f be
       -0.13847537 0.07831886 -0.28137174 -0.14013971
000050 70 9a 28 3e 6d 3f 45 bd 57 b2 2b 3c 71 ad 29 3d
       0.16465163 -0.04815619 0.010479531 0.041425172

BCBlocks.0.0.f2.0.block.1.running_mean f4 [24]
000000 7f 02 29 3d 78 1d c0 3d 73 c4 84 be 46 9c b0 3d
       0.041262146 0.09380621 -0.2593113 0.08623557
000010 a9 f5 c7 3d 3d a4 25 3d b7 2e 87 3d 8d c2 82 3e
       0.09763653 0.040439833 0.06600707 0.25539055
000020 82 ca 63 be 60 33 30 bc 73 f0 c8 39 e5 03 36 3d
       -0.2224522 -0.010754436 0.0003832612 0.044437308
000030 1a 6e 29 bb 07 c7 1b 3e e6 47 f5 bc 71 4b fb 3d
       -0.002585298 0.15212642 -0.02994151 0.12270249
000040 8e 09 13 3e 70 f4 0f bd f7 7d 03 3e 32 1f 88 be
       0.14359114 -0.035145223 0.1284102 -0.265863
000050 da 72 74 be 4b 26 9c bd 77 4c 04 be ed 96 9f bd
       -0.23871937 -0.07624491 -0.12919794 -0.07792459

BCBlocks.0.0.f2.0.block.1.running_var f4 [24]
000000 c4 e0 29 3c 11 1a 4c 3d 8e a4 86 3d a1 58 3f 3d
       0.01036853 0.049829546 0.06574355 0.046715382
000010 68 e7 4e 3c 83 d7 83 3d fc 1d 28 3d 2d 09 a7 3d
       0.012628414 0.0643759 0.04104422 0.08156047
000020 ec 21 bc 3c e8 06 9a 3c 19 b6 9f 34 6f 09 19 3d
       0.022965394 0.018802121 2.974855e-07 0.037362512
000030 82 2b 66 36 b6 81 72 3d f4 99 00 3c be 31 3d 3c
       3.4297996e-06 0.059205733 0.007849205 0.011547504
000040 89 49 e8 3c 04 cf ca 3c 1c f0 34 3d 48 52 cc 3d
       0.028355377 0.024756916 0.0441743 0.099766314
000050 02 dd 02 3d fd b5 e4 3c cd 0d be 3b c7 7d cd 3c
       0.03194905 0.02791881 0.005799985 0.02508439

BCBlocks.0.0.f2.1.block.0.weight f4 [24, 1, 3, 1]
000000 fa 1b 81 3d d5 a2 56 3d 15 ed 1d 3e 0b b2 a2 be
       0.06304164 0.052401382 0.15422471 -0.3177646
000010 bb bc 08 3f f7 6a e3 3b a6 bd 01 3f c3 a5 65 be
       0.5341298 0.0069402414 0.50680006 -0.22426514
000020 61 a6 e3 bd b9 cd e6 bd 38 c5 a2 be d0 f5 83 3e
       -0.11115719 -0.11269707 -0.3179109 0.25773478
000030 45 24 84 bd 1e 3f 5c 3e 0c fa 1e be c1 44 ab 3d
       -0.0645223 0.21508452 -0.15525073 0.08362723
000040 17 f3 5d 3e d3 4d de 3d 0e 56 ef 3e 5d f2 9c be
       0.21674763 0.108546875 0.46745342 -0.30653659
000050 0e e3 36 bd 10 a1 37 be a8 43 01 be a9 7f d3 bd
       -0.04465013 -0.17932534 -0.12623465 -0.103270836
000060 7a 1c 31 be bc 2c ad 3e 19 3d 0b 3c 35 e1 8d bd
       -0.17296019 0.33823192 0.008498454 -0.069277205
000070 84 7f fe bd 7b c2 d5 bc 11 4c 16 ba db 30 18 ba
       -0.124266654 -0.026093712 -0.00057333807 -0.000580562
000080 d7 a0 ae 38 02 41 94 bd 4f fe c2 3e 6c 16 16 be
       8.326925e-05 -0.07238962 0.38084647 -0.14656991
000090 2a 07 1f ba fa fe 16 bb 61 8e 4b bb ac 1a c2 3d
       -0.0006066436 -0.0023040161 -0.0031060206 0.094777435
0000a0 a0 27 16 bf eb b2 c2 3d 6e 5d d3 bd 24 64 23 3e
       -0.5865421 0.09506782 -0.10320555 0.1595617
0000b0 50 dd a1 3d e1 ae 59 3e e5 89 1f be ef 75 12 bd
       0.0790354 0.21258117 -0.15579946 -0.035757
0000c0 80 e7 55 be 04 dd 30 be cf 47 07 bb 55 be 49 3c
       -0.20889091 -0.17271811 -0.0020642166 0.012313445
0000d0 59 b4 a5 3e a9 de 02 be 3c 89 d9 3e 60 13 33 be
       0.32364157 -0.1278025 0.42487514 -0.1748786
0000e0 54 f0 a2 bd 41 8b db be dd dd 0a 3f 30 3a 9d 3d
       -0.07955995 -0.4287968 0.54244787 0.07677114
0000f0 f0 f9 f9 3e fc 1c ad be c4 e5 0a be 6c a4 99 3e
       0.488235 -0.33811176 -0.13564211 0.30008256
000100 79 07 92 be 87 b0 a4 3c 69 6d 7b 3c e1 ef 4b bd
       -0.28521326 0.020103706 0.01534591 -0.049789313
000110 da 5a 0d be 06 62 ee 3d 74 be 5c 3d 04 6c 9b 3d
       -0.13804188 0.1163979 0.053892568 0.07588962

BCBlocks.0.0.f2.1.block.1.ssnorm.weight f4 [120]
000000 07 95 c4 bc 90 fe 3d be 86 be e1 bd b5 9b f5 3c
       -0.023996843 -0.18554139 -0.110226676 0.029981473
000010 43 1b 20 3e 6a 0b b2 3e de dd a5 3e 29 58 57 3e
       0.156354 0.34774333 0.32395834 0.21029724
000020 7c 58 30 3e 9f d5 fd 3d 00 1b b9 bd fb 46 69 3e
       0.17221254 0.123942606 -0.09038353 0.22780983
000030 ff e9 66 3e 38 b7 75 3e c4 f5 4c 3e bb 86 54 3e
       0.225502 0.23995674 0.20015627 0.2075452
000040 2d 30 72 3e c0 4f 81 3e b6 14 07 3e f1 58 c8 3d
       0.2365119 0.25256157 0.13191494 0.09782589
000050 5a 10 92 3e c8 09 13 3b 78 79 11 be b5 54 66 3b
       0.285281 0.002243625 -0.14206493 0.0035145704
000060 3e 51 e4 3d 1a 8c 5f 3e 57 c2 ef 3d 4b 4c 0e 3e
       0.11148308 0.21830788 0.11706989 0.13896291
000070 65 53 25 3e dd 37 6d 3e 0b 35 b4 3e 82 ad 77 3e
       0.16145094 0.23165841 0.3519672 0.24187282
000080 41 2e 54 3e 35 86 8f 3d 95 06 0f be b7 3a 7c 3e
       0.2072077 0.0700802 -0.13967355 0.24631773
000090 89 ad 88 3e f8 58 ab 3e a0 e3 af 3e 39 62 bd 3e
       0.26694897 0.33466315 0.34353352 0.36989
0000a0 53 1c 9b 3e 47 ea 43 3e 29 18 5a 3e 6f cb 96 3e
       0.30295047 0.19132338 0.21298279 0.29452083
0000b0 3f f0 6a 3e fe 51 05 3e ae 29 13 bb ad 7d 01 3e
       0.22943209 0.13019559 -0.0022455263 0.12645598
0000c0 ae 89 5d 3c eb b9 12 3e 2f a5 57 3a ce 18 84 3a
       0.013521595 0.14328735 0.00082262134 0.0010078193
0000d0 b8 86 00 3a 23 95 a8 39 c9 91 3d 3a f1 1d 3c 3e
       0.0004902887 0.00032154573 0.00072315015 0.18370797
0000e0 19 ad 66 3e 28 e4 84 3e 65 a1 6d 3e b2 80 8e 3e
       0.22526969 0.2595532 0.23206098 0.27832562
0000f0 7e 4d 17 bb 3a a5 fd b7 44 aa 47 3a 03 12 e2 3a
       -0.002308696 -3.023689e-05 0.0007616619 0.00172478
000100 2e f8 38 3b 21 6d 85 3e d2 b5 9c 3e 92 dd 7c 3e
       0.0028224098 0.2605982 0.30607468 0.24693897
000110 40 63 61 3e a6 6a 6f 3e a1 7e 87 3b 9d 17 17 bd
       0.22010517 0.23380527 0.0041349684 -0.036887754
000120 81 ed ca 3d 43 57 b0 3d 96 74 24 3e 57 90 15 3e
       0.099085815 0.08610394 0.16060099 0.14605843
000130 ca 69 2a 3e c5 89 5e 3e 9b 78 62 3e bd aa 5e 3e
       0.16641918 0.21732242 0.2211632 0.21744819
000140 2c 76 74 3e 4f 26 ca 3e 36 82 2e 3e c2 fd 7c 3d
       0.23873204 0.39482352 0.17041859 0.06176544
000150 9f 2a 84 3c 3b a0 7c 3e 57 42 32 3e 9f c0 1c 3e
       0.016133605 0.24670498 0.17408119 0.15307854
000160 36 98 ff 3d a5 30 15 3e 84 cd 98 3e f4 bf 99 3e
       0.12480204 0.14569338 0.29844296 0.3002926
000170 8a af 19 3e d6 56 6c 3e aa 6f 48 3e 47 fe 6a 3e
       0.15008369 0.2308 0.19573846 0.22948562
000180 06 23 75 3e 6c 95 9e 3e 67 4a 30 3e a3 16 45 3e
       0.23939142 0.30973375 0.17215882 0.19246916
000190 94 03 2c 3e 8f c2 58 3e 2f 75 51 3e b2 a3 49 3e
       0.1679824 0.21167968 0.20454858 0.19691351
0001a0 de 4a 93 3e 1d 54 43 3e 40 19 2a 3e 9a 56 60 3e
       0.28768057 0.19075055 0.16611195 0.21908036
0001b0 f0 81 50 3e 94 43 51 3e c9 32 7e 3d 03 c8 df 3c
       0.20362067 0.20435935 0.06206015 0.027317053
0001c0 a9 d4 90 bd e7 2b 5d 3d 48 c0 2b 3e d4 2a 41 be
       -0.07071812 0.053996947 0.16772568 -0.18863994
0001d0 f4 bf d6 bd 14 34 44 bd 7d 5a c2 bd fd ec 9a 3d
       -0.10485831 -0.047901228 -0.094899155 0.07564733

BCBlocks.0.0.f2.1.block.1.ssnorm.bias f4 [120]
000000 3a 28 44 bd 9c 7f e2 3d 99 33 c3 3d 7e 7d 50 bd
       -0.047889926 0.11059496 0.09531326 -0.05090093
000010 32 c2 1d bd b1 fb 38 3d cb 9a 95 3d 99 b6 fa 3d
       -0.038515277 0.045161907 0.07304915 0.12241859
000020 20 76 67 3d fc 23 0d bd dc ad f9 bc 7f 2f a4 3d
       0.056509137 -0.034458145 -0.03047841 0.08016872
000030 53 6c cb 3c f4 7a ea 3c b7 03 b5 bc e6 a4 39 3d
       0.024831926 0.028623082 -0.022096498 0.045323275
000040 e6 be db 3d d9 24 dc 3d 8f a1 14 3e d9 6a 12 3e
       0.1072977 0.10749216 0.14514755 0.14298572
000050 5b 9a 2e bd 45 e5 9e bc b4 87 c2 3d ae b1 16 bd
       -0.042627674 -0.019396434 0.094985396 -0.036790542
000060 36 51 52 bd f0 f6 7f 3e 2c 7f 21 3e 0d fd 01 3e
       -0.05134698 0.24996543 0.15771168 0.12694187
000070 55 e6 20 3e 72 1f 47 3e 0f 0a 20 be f9 c4 7b bd
       0.15712865 0.19445589 -0.15628837 -0.061467145
000080 78 65 96 bd 68 22 d4 bc 27 01 5d 3c 44 8b 11 3e
       -0.073435724 -0.025895312 0.013489044 0.14213282
000090 10 64 ec 3d ed a3 b9 3d 8e 37 a2 3d dc 82 f1 3d
       0.11542523 0.090644695 0.079207525 0.117925376
0000a0 20 c9 99 bd 9b 0d ed bc ee c0 e9 bc a8 f3 e2 bc
       -0.07509065 -0.028937152 -0.028534379 -0.027704075
0000b0 b0 fc b3 bc bb 82 89 3d 77 60 2e bd b2 91 07 3e
       -0.021971077 0.06714388 -0.042572465 0.13239172
0000c0 e3 7c 4a bc 51 2b 04 3e 5d 12 e7 bc b5 02 83 bc
       -0.012358877 0.12907149 -0.028206998 -0.015992502
0000d0 af 4b 02 3e b4 25 ea bc a1 27 f7 3c 4e 61 7c 3d
       0.12724183 -0.028582431 0.030170264 0.061616234
0000e0 bc 89 01 3c ed b3 93 bc 2c 5f be 3d 82 2f b0 3d
       0.007906374 -0.018030131 0.09295496 0.086028114
0000f0 32 46 30 3d 9f f1 77 3c 40 4c 3c 3d c1 2e c1 3d
       0.043035693 0.015133291 0.045971155 0.09432746
000100 63 de 0a 3c c7 1a 65 bc 9a 90 02 3e 55 29 56 3e
       0.008475873 -0.013983435 0.12750474 0.20914204
000110 f1 8f 4d 3e f2 09 31 3e 97 3a bb bd 97 01 09 3c
       0.2007444 0.1728895 -0.091420345 0.008362195
000120 a1 2a 88 bd af df 4a bd 68 1c d1 bd 4d a5 ca bc
       -0.06648756 -0.049529728 -0.10210496 -0.024737025
000130 c4 91 bd bc 03 bc df bd 4c f0 31 bd 12 10 1d bd
       -0.023140796 -0.10924532 -0.043442056 -0.038345404
000140 83 2a 78 3d 6d 3e fb bb a8 c1 26 3e 1d ca 30 3e
       0.060587417 -0.007667354 0.16284811 0.172646
000150 b5 45 e1 3c 7b 71 6e 3d 21 c9 72 3d 3b 84 85 3d
       0.02749906 0.058213692 0.059273843 0.065193616
000160 2b ca 54 3d e0 2b 33 3e 5d f7 d3 3c e6 6c 01 be
       0.051950615 0.17497206 0.025874788 -0.12639198
000170 0e ab 36 bd 91 81 c4 bd 50 6f ec bd d8 ff 9f 3c
       -0.044596724 -0.09595025 -0.11544669 0.019531175
000180 86 fd 96 3d d5 96 87 3d 23 ae f5 3b db b6 d8 3c
       0.073725745 0.06620566 0.0074975654 0.02645438
000190 56 fb 5e 3e f8 ed 85 3e 54 fa 50 3e 77 a1 3f 3e
       0.21775565 0.26158118 0.20407993 0.18713938
0001a0 1a b7 82 3e bf 35 c0 3d 18 30 16 3c 55 95 0c 3d
       0.2553032 0.09385251 0.00916674 0.0343221
0001b0 96 da 2d 3d c4 f3 74 bc 82 5d 54 3c 59 ef a6 3c
       0.042444788 -0.014950696 0.012961747 0.020377802
0001c0 1b 45 6d 3b ad 32 82 3c 32 ec 8f 3c a6 0c 2c 3d
       0.003620452 0.015893305 0.017568681 0.04200425
0001d0 33 80 b8 3d fa cd c9 3b 4e 9e a2 3c f6 e4 cb 3d
       0.09008827 0.0061585875 0.019850876 0.0995578

BCBlocks.0.0.f2.1.block.1.ssnorm.running_mean f4 [120]
000000 69 d5 d4 3c c8 c7 ad 3c 2e fa 6b 3c 26 3c 4f 3c
       0.025980668 0.021213427 0.014402909 0.012648618
000010 78 6f 25 3c 26 70 2b 3d 36 6c a4 3c 0b 4f 41 3c
       0.010097377 0.041855 0.02007113 0.0117986305
000020 5e 47 39 3c de 84 1f 3c 9f 07 94 3a bf 50 2a 3c
       0.011308519 0.009736268 0.0011293775 0.010395228
000030 32 32 10 3c 16 ec f7 3b b0 57 13 3c 0f 62 f5 bc
       0.00880103 0.0075659854 0.008993074 -0.029953985
000040 ce 7a 28 bd 90 c7 27 bd e2 98 27 bd 42 ad 66 bd
       -0.04113274 -0.040961802 -0.040917285 -0.056317575
000050 a0 5f 28 38 e3 16 bf 37 ae bd ff b9 1c f2 7e b9
       4.014338e-05 2.2779632e-05 -0.00048778713 -0.0002431352
000060 17 9a 36 3b 4e a1 90 3d c6 cc 98 3d 05 b0 92 3d
       0.002786284 0.070620164 0.074609324 0.07162479
000070 48 10 91 3d 4d fe 83 3d 43 4b 8a b9 8c 25 bd 3c
       0.070831835 0.064449884 -0.00026377485 0.023089193
000080 58 9b 8f 3c d6 fa 82 3c cf 83 8f 3c d7 2b 5f bd
       0.017530128 0.015988749 0.017518906 -0.05448517
000090 e3 b4 84 bd 3b a7 78 bd 8c 87 6f bd 7b 3f 5b bd
       -0.06479814 -0.06070636 -0.058478877 -0.053527337
0000a0 d0 9b f2 3c 7c 33 ea 3c a3 20 da 3c 99 7a dd 3c
       0.029615313 0.028589003 0.02662689 0.027035998
0000b0 7f 1d f0 3c c1 9c 65 bc 29 3d 51 bc c5 0c 20 bc
       0.02931094 -0.014014424 -0.012770929 -0.0097686695
0000c0 c5 59 0f bc c3 82 07 bc 04 00 00 80 04 00 00 80
       -0.00874943 -0.008270922 -6e-45 -6e-45
0000d0 04 00 00 80 04 00 00 80 04 00 00 80 3a db c3 3c
       -6e-45 -6e-45 -6e-45 0.023908246
0000e0 a5 7c a9 3c 7e 22 b9 3c f3 9e c0 3c de 15 03 3d
       0.020689318 0.022599455 0.023513293 0.032003276
0000f0 04 00 00 80 04 00 00 80 04 00 00 80 04 00 00 80
       -6e-45 -6e-45 -6e-45 -6e-45
000100 04 00 00 80 17 dc 3e be 79 ac 2b be cb f4 0c be
       -6e-45 -0.18638645 -0.16765012 -0.13765256
000110 f9 49 05 be 89 d5 00 be 83 0a 18 3c 47 49 f5 3b
       -0.130165 -0.12581457 0.00927985 0.007485542
000120 c9 ca ed 3b 64 fa e6 3b 7c 82 bd 3b 77 3e a8 b9
       0.00725684 0.007048892 0.005783377 -0.00032089997
000130 b0 82 00 3b c2 06 40 3a 6c e2 87 3a 00 44 c9 3a
       0.0019609146 0.0007325226 0.0010367162 0.0015355349
000140 d8 a7 63 bd 77 c6 83 bd a6 dd 06 bd 52 c9 c5 bc
       -0.05557999 -0.064343385 -0.032926224 -0.024143849
000150 ea d9 aa bc d8 18 b0 3c ae 8d a5 3c 4e 6b a7 3c
       -0.020855863 0.021496221 0.02020916 0.020436909
000160 b9 23 a9 3c bc cc d0 3c 46 98 a5 3b e0 cd 6b 3c
       0.020646917 0.02548825 0.005053553 0.014392346
000170 5a 7c d5 3b 13 fd a5 3b a2 61 8c 3b d0 c0 b2 3c
       0.006515068 0.005065569 0.0042840997 0.021820456
000180 51 cd 48 3c ac c7 1a 3c 3d 07 13 3c 64 54 09 3c
       0.0122559825 0.00944702 0.008973894 0.008381937
000190 c1 5a b4 bc 7e 6e 04 39 ba a0 af 3b 79 6c 1c 3b
       -0.022015931 0.00012629663 0.0053597363 0.0023868366
0001a0 f3 e1 97 3a e1 50 62 bb 4d ff 83 3b 13 3a 40 3b
       0.0011587724 -0.003453307 0.004028237 0.002933149
0001b0 1c 1b 11 3b c1 16 5e 3b da 05 0f bc 00 5d 1c bc
       0.0022141403 0.0033888074 -0.008729422 -0.009543657
0001c0 07 db 25 bc 55 87 2b bc 20 d9 1c bc ad 98 8d 3c
       -0.010123021 -0.010469277 -0.009573251 0.017284716
0001d0 c4 9e b6 3c a2 0a c0 3c da e1 c3 3c 0d cd af 3c
       0.022292502 0.02344257 0.023911405 0.02146008

BCBlocks.0.0.f2.1.block.1.ssnorm.running_var f4 [120]
000000 a9 dc e0 3a 7d 65 c6 3a 39 9d 40 3a cd ad 17 3a
       0.0017155606 0.0015136447 0.0007347647 0.0005786091
000010 6b 4b de 39 6b 4d 2a 3c 76 66 c8 3b 9c 9c 57 3b
       0.0004239933 0.010394434 0.00611573 0.0032899743
000020 82 b4 2c 3b 15 78 02 3b 86 24 0e 3b e9 df 13 3b
       0.0026352708 0.0019908 0.002168925 0.002256388
000030 20 d8 e7 3a 2e c3 b2 3a 97 ee 9a 3a b2 01 2b 3b
       0.0017688312 0.001363849 0.0011820373 0.002609354
000040 c0 97 3f 3b 4e 5e 2d 3b fb cd 20 3b f9 1f 99 3b
       0.0029234737 0.0026453915 0.0024536836 0.004673001
000050 0d e3 f1 39 ed d5 b0 39 1a 2e 88 39 a8 86 71 39
       0.00046136268 0.00033728723 0.0002597429 0.00023033714
000060 73 f4 84 39 5d 23 aa 3a ca d1 b1 3a 88 4a 8f 3a
       0.0002535913 0.001298051 0.001356655 0.0010932246
000070 e0 0f 85 3a 71 cd 7e 3a b1 6d 7a 3b 75 7f 29 3b
       0.0010151826 0.0009719944 0.0038212354 0.0025863324
000080 6b f7 05 3b 4f fc d7 3a d8 4b b6 3a 2c 8d 98 3c
       0.0020441662 0.0016478392 0.0013908101 0.018622003
000090 f1 ba d7 3c a6 10 da 3c 47 b6 e4 3c df e5 db 3c
       0.026334258 0.026619267 0.027918948 0.02684301
0000a0 ed 46 cd 3a c2 35 b9 3a be ca a9 3a 3c 8b 9f 3a
       0.0015661396 0.0014130401 0.0012954099 0.0012172232
0000b0 e4 59 8b 3a 76 9d 82 39 ca 18 ab 39 40 97 55 39
       0.0010631648 0.0002491285 0.0003263413 0.00020369608
0000c0 91 a5 2a 39 87 86 0f 39 04 00 00 00 04 00 00 00
       0.00016274142 0.00013687658 6e-45 6e-45
0000d0 04 00 00 00 04 00 00 00 04 00 00 00 3b c5 c0 3a
       6e-45 6e-45 6e-45 0.0014707217
0000e0 37 a6 5d 3a 20 58 61 3a e1 d6 70 3a 0b c3 df 3a
       0.0008455249 0.00085962005 0.0009187293 0.0017071677
0000f0 04 00 00 00 04 00 00 00 04 00 00 00 04 00 00 00
       6e-45 6e-45 6e-45 6e-45
000100 04 00 00 00 51 49 03 3d 50 2b 01 3d 88 c2 b8 3c
       6e-45 0.03205234 0.031535447 0.022553697
000110 b1 28 a6 3c 4a ee b5 3c fb 09 7c 39 f1 2d 37 39
       0.020283075 0.022208352 0.00024036311 0.00017469354
000120 c8 bc 23 39 82 37 16 39 33 67 fb 38 6d 30 cf 3a
       0.00015615218 0.00014325793 0.00011987835 0.0015807279
000130 b6 e9 61 3a e9 8f 42 3a 10 e3 57 3a a4 c4 31 3a
       0.00086178945 0.0007421957 0.0008235434 0.0006781316
000140 29 7f 6c 3c 30 f5 af 3c f5 d1 11 3c d6 ac bb 3b
       0.014434614 0.02147922 0.008900155 0.0057273908
000150 f9 f5 94 3b 75 be 88 3a a4 26 7e 3a 07 73 6d 3a
       0.004545924 0.0010432737 0.0009695089 0.0009057973
000160 8b 89 6e 3a 67 87 9e 3a df 25 8f 3b 1c af 74 3b
       0.0009099475 0.0012094796 0.0043685283 0.0037335819
000170 6f 44 cb 3a 70 14 6a 3a ba 4e 09 3a 38 96 9a 3b
       0.0015508066 0.0008929437 0.00052378664 0.0047176145
000180 4a 3b 79 3b b2 6a 38 3b f9 f6 0f 3b 9f b3 f8 3a
       0.0038029724 0.0028139767 0.0021967276 0.001897443
000190 38 d7 00 3c ab 0d d7 3b e7 24 c9 3b a7 c9 b7 3b
       0.007863812 0.0065629086 0.0061384323 0.0056087556
0001a0 09 31 a6 3b aa cb f7 3a 91 26 bd 3a 10 6c 7c 3a
       0.0050717634 0.0018905301 0.0014431049 0.00096291397
0001b0 52 d0 60 3a 45 56 24 3a 81 9d 05 39 9f ad f0 38
       0.0008575964 0.00062689587 0.00012742543 0.00011476431
0001c0 e6 45 fe 38 ca 5c 02 39 14 b0 f6 38 81 08 e0 39
       0.000121246834 0.00012432333 0.00011762991 0.00042730945
0001d0 3d cd 0f 3a d7 6d 0b 3a fd 73 0e 3a ec 44 f8 39
       0.00054856 0.00053187966 0.0005434154 0.00047353597

BCBlocks.0.0.f1.0.block.0.weight f4 [24, 1, 1, 3]
000000 92 6b 81 3d 90 59 30 3d ac a3 5e 3d 07 cb 2a 3d
       0.063193455 0.043054163 0.05435531 0.04169753
000010 de 8d 70 bd 30 29 6f bd 2d 4c 09 bd 82 c8 d4 bd
       -0.058729045 -0.05838889 -0.033519913 -0.10389806
000020 c0 0b 15 3c b1 1d bc 3d 0e 4c 11 be 59 20 89 bd
       0.00909704 0.09185351 -0.14189169 -0.06695623
000030 6a 36 98 39 2c 7d 66 39 11 2e 46 37 e7 3b 5a 3b
       0.0002903224 0.0002198114 1.1812445e-05 0.0033299865
000040 ac 08 55 bb 5e 13 de bc 1e c0 71 bc c1 4f ad bb
       -0.003250639 -0.027108844 -0.014755277 -0.0052890484
000050 e0 9a 34 bc 60 ac 83 bd 8c 61 09 bd 02 77 c8 3c
       -0.011023253 -0.06429362 -0.033540294 0.02447081
000060 80 42 4d bc 26 74 8d bd d4 37 01 bd 08 40 f0 3b
       -0.012528062 -0.06906919 -0.031547382 0.007331852
000070 fa 9c 3d 3c 6e 1c 87 3d 59 5e 49 ba 1c f1 28 ba
       0.011573071 0.065972194 -0.00076816004 -0.00064446195
000080 8c fc 89 39 1b 18 9f b9 21 29 b9 bd e1 50 91 bc
       0.00026318838 -0.00030344803 -0.09041048 -0.017738761
000090 4f 50 51 3a 77 84 b6 38 0c 00 88 39 52 11 06 3d
       0.0007984684 8.70311e-05 0.00025939976 0.03273136
0000a0 46 e0 72 3d 18 62 51 3d 70 8d 13 3e 53 bf e5 bd
       0.059295915 0.05111894 0.14409423 -0.11218133
0000b0 5e fa ae 3d c8 d7 28 ba 18 2c 2b ba db 7a f2 b9
       0.085438475 -0.00064408453 -0.0006529703 -0.0004624937
0000c0 97 bf 8b 3c 7a 4f 93 bc 4b 83 99 bd 6b 49 00 3d
       0.01705913 -0.017982233 -0.07495745 0.031320017
0000d0 3f f4 11 bd 4d 71 e7 bc 12 15 c7 3b b6 0a 3a bd
       -0.03563332 -0.028252268 0.00607551 -0.04542037
0000e0 58 b6 6d bd 11 9d 41 be 1e 25 9c 3e b2 cd 98 bd
       -0.058035225 -0.18907572 0.30497068 -0.07461108
0000f0 97 e4 6f bd d3 8f c0 bd d6 7e df bc 29 9c a5 3b
       -0.05856761 -0.09402432 -0.02728216 0.005054016
000100 24 26 4d 3b 24 79 d1 39 77 f7 e0 3b fe 6e b5 3d
       0.003130325 0.00039953843 0.0068654376 0.08859061
000110 a2 03 5e 3d 9c 3b 93 ba 06 12 51 39 c2 c7 85 3a
       0.054202683 -0.0011232975 0.00019938507 0.0010206627

BCBlocks.0.0.f1.0.block.1.weight f4 [24]
000000 42 bc 3d 3e 90 80 ca 3d c8 56 24 3e 43 a5 41 3e
       0.18528846 0.098878026 0.1604873 0.18910699
000010 7f 56 63 b9 2a 4f 00 3d fe c4 a3 3c 5c e0 14 3e
       -0.0002168063 0.031325497 0.019991394 0.14538711
000020 86 7d 1e 3e 19 24 a8 3d 9d a7 60 3a d3 af 1f 3e
       0.15477571 0.0821001 0.0008569898 0.15594415
000030 25 0b 15 3a a1 7b 2d 3e 86 27 23 3e 26 4d 7d 3a
       0.00056855596 0.16941692 0.15933046 0.000966268
000040 d5 73 cc 3d c7 16 81 3d 03 50 00 3e b8 41 a0 3e
       0.09983031 0.063031726 0.12530522 0.3130014
000050 27 12 19 3e 6e 15 c5 3b dc 88 26 3e a3 40 ad 3a
       0.14948331 0.0060145175 0.16263145 0.0013218116

BCBlocks.0.0.f1.0.block.1.bias f4 [24]
000000 de 37 8e bb 49 9a c7 3b be 00 cb 3c a9 d2 28 3d
       -0.004340156 0.0060913903 0.024780627 0.041216526
000010 8e 76 98 b8 93 ce 4c bc 2a 86 2d bc 43 3d 36 bc
       -7.270007e-05 -0.012500423 -0.010591069 -0.011123004
000020 11 48 95 bb c7 33 54 3c b6 e6 89 b9 94 7b 0d bd
       -0.00455571 0.012951798 -0.0002630257 -0.03454168
000030 9b 9c 0e ba 97 69 0e 3c 80 e2 9d 3a 1d 4e 93 b9
       -0.0005440206 0.008692167 0.0012045652 -0.00028096224
000040 db e7 0f 3b 1f 52 b7 3a 66 b3 8d b9 14 3e 95 3c
       0.0021958265 0.0013986266 -0.00027027278 0.018218078
000050 f1 36 b4 3c ff 4b 4d 39 e0 18 27 bd d7 d4 d6 ba
       0.021998854 0.00019578634 -0.040795207 -0.0016390336

BCBlocks.0.0.f1.0.block.1.running_mean f4 [24]
000000 59 0f 0e 3b 9b 45 81 bb 85 14 08 bb df b5 57 bc
       0.0021676628 -0.003945065 -0.0020764184 -0.01316592
000010 d4 9e c0 b6 88 bd 9b bb 3d cd f4 3a 53 bf f9 bb
       -5.740536e-06 -0.0047528185 0.0018676888 -0.0076216846
000020 5f a9 85 3b 93 eb 95 3b 4d 7e a2 b7 5c 36 a2 bb
       0.0040790285 0.004575202 -1.9370718e-05 -0.004950328
000030 b7 ee 44 38 b0 54 a2 3c a2 4f e1 bb e0 3f af 38
       4.6952362e-05 0.019815773 -0.006875948 8.356548e-05
000040 df f7 cb bb 9f 1a 38 bb 31 c8 e3 3b e3 e7 1f 3b
       -0.006224617 -0.002809204 0.006951355 0.002439969
000050 eb 15 25 bd 23 12 93 39 07 12 08 3b 59 25 b1 36
       -0.040304106 0.00028051538 0.0020762698 5.279359e-06

BCBlocks.0.0.f1.0.block.1.running_var f4 [24]
000000 89 2b 7a 38 eb bc d4 38 76 3d a3 38 f4 74 8a 39
       5.964519e-05 0.000101441365 7.783894e-05 0.00026408548
000010 5f 7f 4e 2e 88 5c 81 37 52 e6 69 35 8d 2a 10 3a
       4.6952105e-11 1.5421087e-05 8.7134424e-07 0.00054995046
000020 27 98 29 38 85 34 c8 37 b2 1d 03 2c 85 d7 99 39
       4.0434443e-05 2.3866314e-05 1.8632704e-12 0.0002934301
000030 99 05 4f 2d ee 4d 35 3a fd 75 19 38 3c fc 96 2f
       1.1767831e-11 0.00069162145 3.6587928e-05 2.7464064e-10
000040 93 f1 f3 38 0c a0 03 38 a3 e5 39 38 19 65 b0 39
       0.0001163214 3.138189e-05 4.4321303e-05 0.0003364466
000050 28 30 0c 37 4e 8f 0c 32 0e 7e b0 37 61 39 fa 31
       8.3558625e-06 8.181656e-09 2.1039534e-05 7.282481e-09

BCBlocks.0.0.f1.1.weight f4 [24, 24, 1, 1]
000000 42 df dd 3d 54 ed ae 3c 6d 48 e9 ba a9 79 c7 bc
       0.10833599 0.021353401 -0.0017798074 -0.024350004
000010 b6 6f 5a b8 9e 9b 62 3c 5c 23 38 3c 9c 59 77 3c
       -5.207929e-05 0.013831047 0.011238899 0.015097048
000020 ec 23 99 bc 8e 0f cf 3c 9b a4 9a b9 84 b4 3e bd
       -0.018693887 0.025275972 -0.0002949581 -0.046558872
000030 ff b6 3e 3a 19 57 9e 3d 7c 45 17 bd f7 a9 6c 39
       0.00072751933 0.07731456 -0.0369315 0.0002257003
000040 7c 7c c5 bc 33 c0 e7 bb d7 c2 0e 3d 58 c3 04 3c
       -0.02410721 -0.0070724725 0.034853783 0.008103214
000050 da 00 55 3c 46 ec 5c 39 e6 b6 82 bd 16 93 7b b8
       0.013000691 0.00021068854 -0.06382541 -5.9980048e-05
000060 15 d6 aa bc 30 68 9c 3d 26 e7 c9 bc ed fc 9a bd
       -0.020854035 0.0763706 -0.024646353 -0.07567773
000070 53 87 61 b8 57 d8 73 3c c1 fb 28 3c 29 50 a2 3d
       -5.377021e-05 0.014883122 0.010313929 0.079254456
000080 ed c6 6f 3c ab e8 fc 3c 4a 88 c7 b9 68 31 f1 bc
       0.01463483 0.030872663 -0.0003805778 -0.029442504
000090 8b b8 3f b9 ba bf a3 3d 80 db cc 3d ce b2 c9 b8
       -0.00018283927 0.07995553 0.10002804 -9.617732e-05
0000a0 97 d4 25 bd ef 4d 66 ba 4e 78 f9 3d 29 53 d3 bd
       -0.040485945 -0.0008785417 0.121811494 -0.10318596
0000b0 54 1a 19 bc 85 d5 c7 ba d1 98 1a bc 6e a4 87 ba
       -0.009344656 -0.0015246129 -0.009435848 -0.0010348686
0000c0 99 fb d2 bb 38 c6 08 3b 55 01 55 3d 08 1b 88 3d
       -0.006438684 0.00208701 0.052003223 0.06645781
0000d0 55 9f 85 b9 e6 29 a4 bb d0 83 6e 39 5d 91 f4 bb
       -0.00025486448 -0.0050098775 0.00022746553 -0.0074636177
0000e0 e9 91 1e 3d 2e 97 97 3c 9f 48 4b b9 46 d2 64 bb
       0.03871337 0.018504705 -0.00019386642 -0.0034915372
0000f0 d5 2f 0a 3a c0 dc c5 3c 86 aa 2e 3d a9 63 11 b9
       0.000527141 0.024153113 0.042643093 -0.00013865404
000100 52 d8 51 bb a1 2f 70 3c 56 4f 3a 3b 41 ad cb 3d
       -0.0032019806 0.014659793 0.0028428636 0.09945155
000110 3b 2d 28 3c 27 93 bd ba aa f3 39 3d e5 dd 66 b9
       0.01026469 -0.001446341 0.04539839 -0.00022017171
000120 20 7b 18 bd 89 4f 1f bd 6f 3b 34 bd a6 35 67 bd
       -0.037226796 -0.03889421 -0.044001993 -0.056447648
000130 cc 96 81 b8 e2 20 36 bb 34 87 97 39 71 43 9b bd
       -6.1792874e-05 -0.0027790596 0.00028901699 -0.07581223
000140 47 29 ec bc 43 f1 16 bc 99 f5 c6 b9 c8 ce a0 3d
       -0.028828276 -0.009212795 -0.00037948487 0.078519404
000150 2e 9b 39 b7 66 83 cc bb e7 c4 07 be 5c 40 45 b9
       -1.106299e-05 -0.00624125 -0.13258706 -0.0001881136
000160 74 b9 c6 3c 69 b6 b4 3c f6 6e 43 3c 36 58 e9 bd
       0.024258353 0.022059636 0.011928311 -0.11393778
000170 f7 80 75 3c 34 c1 23 ba 21 c3 b3 3c d5 46 60 ba
       0.014984361 -0.0006246746 0.02194363 -0.00085554767
000180 c8 ac 07 bc 63 52 c8 3c cc 6b 06 bc fb 42 16 3d
       -0.00828094 0.024453348 -0.008204412 0.03668497
000190 2d 9d f2 36 10 5a 96 3a 53 09 ee 3a 29 37 98 3c
       7.2304597e-06 0.0011470933 0.0018160738 0.01858099
0001a0 68 4d d0 3c 46 85 59 3b b1 15 f3 b7 82 5e c1 bc
       0.025427535 0.003319101 -2.8977958e-05 -0.023604635
0001b0 75 6b a6 b9 58 ab 18 3c 51 5c d4 3c 34 48 0f 39
       -0.0003174205 0.009318195 0.025922926 0.0001366444
0001c0 c0 0d a8 bc 1b 64 2d 3c 2a 36 a1 3c 76 60 09 bc
       -0.020514369 0.010582949 0.019679148 -0.0083848145
0001d0 11 5c 2d 3d ad ce 73 bb 3c de 83 bb dc b4 08 b8
       0.04232413 -0.0037202046 -0.004024295 -3.2593365e-05
0001e0 a4 a4 09 bc 7a 81 5e 3c 64 ee b1 3c 49 2a d7 bd
       -0.00840107 0.013580674 0.021720119 -0.10506112
0001f0 d0 cb 23 38 22 ce c5 3c 04 6c 5b 3b c2 9f 76 bc
       3.9052044e-05 0.024146143 0.003348113 -0.015052738
000200 9c 96 84 bc f3 07 bb 3c ac 87 b9 b9 73 18 90 3d
       -0.016185097 0.022830939 -0.00035387033 0.07035913
000210 0c 0d 45 38 1a 9a 57 bd 00 7c c0 3c 54 46 71 b9
       4.698061e-05 -0.052637197 0.023496628 -0.0002300975
000220 86 0f 5b bc d7 9e d0 3c 72 30 e0 3c d5 79 75 be
       -0.0133704 0.025466366 0.02736685 -0.23972256
000230 67 8e e4 3c 59 4a 87 ba 66 8f 4d 3d 07 4f 16 ba
       0.027899934 -0.001032184 0.050185584 -0.0005733822
000240 b0 3a 50 bd 3d 12 39 3d 12 35 a5 3b 2d dd 24 bd
       -0.05083722 0.04518341 0.005041727 -0.040249992
000250 04 09 13 b8 8e 5e 10 3c ef e5 8c 3c eb e5 c7 3d
       -3.5055928e-05 0.008811606 0.017199485 0.0976065
000260 ba b9 b7 bc 6f 04 ed bb d0 c8 f4 38 ff 5b 80 bc
       -0.022427429 -0.0072331945 0.00011672231 -0.015668867
000270 45 10 10 ba 77 ca 05 bc b9 ac 5e 3d ee 22 7e 39
       -0.00054955884 -0.008165947 0.05436394 0.0002423634
000280 c6 4b 9e 3b 63 3b 39 3c 9b 5b 10 3d ff db e1 bd
       0.0048308102 0.011305663 0.03524361 -0.11028289
000290 11 8b 94 bb 94 4d 79 ba bd 19 90 3c 27 b2 31 39
       -0.0045331796 -0.0009510156 0.017590398 0.00016946402
0002a0 9a e9 ae 3c c6 d7 db bc a1 ad 7d 3d 7c d7 a4 bd
       0.021351624 -0.026836287 0.061933164 -0.08048913
0002b0 f5 04 af 38 ae 7f 42 3b 2b 28 e2 3b 26 5a 8b 3c
       8.3455736e-05 0.0029678154 0.006901761 0.01701076
0002c0 d4 71 d8 3c e3 14 b1 bc c4 4b dd 39 57 3a 2f 3d
       0.026421465 -0.021616405 0.00042208855 0.042780247
0002d0 1d 64 f7 39 5c f4 8d 3c bd a4 d3 bd e9 c6 0b 39
       0.000471861 0.017328434 -0.10334156 0.00013330173
0002e0 e1 a1 2e 3d 44 1f f6 bc 4c bb cb bc be 8e b4 bc
       0.04263485 -0.030044205 -0.024869584 -0.022040721
0002f0 18 de 07 bd a1 39 ad 3a c7 d3 60 bd ca 44 ef 3a
       -0.03317079 0.0013216027 -0.054889467 0.0018254754
000300 71 f8 93 3c 35 92 89 3c 0b 56 b3 3b 1b 94 75 3c
       0.018062802 0.01679335 0.0054729036 0.014988924
000310 a8 a6 1b 38 9e 8f 90 3b d9 38 02 3c 14 5d 0f bc
       3.711009e-05 0.0044116518 0.007948124 -0.008750219
000320 33 16 be 3d ef 9c 9c 3c af 81 48 b9 9d 9c 17 bd
       0.09281578 0.0191178 -0.00019121797 -0.037014592
000330 3a 21 02 ba 2b 49 6b 3d 00 5c 3d 3d af 8a f7 b8
       -0.00049640576 0.057442825 0.046230316 -0.0001180371
000340 05 54 fd bc d1 9a a6 3b 5c c9 27 3d 51 e2 10 3d
       -0.030923853 0.0050843735 0.040963516 0.035372082
000350 10 a0 5c 3d c9 fa 61 bb 46 77 e5 3c 73 95 d3 b9
       0.053863585 -0.0034481755 0.028010976 -0.00040356404
000360 7a c3 82 3c 3c 97 41 3b 9f c4 ce 3b 51 73 45 bd
       0.015962351 0.0029539606 0.00631006 -0.048205677
000370 5f c6 d7 39 65 f2 36 3a fd ac f0 3a 42 1d ee bc
       0.00041155794 0.00069788686 0.0018362101 -0.029066686
000380 ab a3 6a 3c ae 01 71 bb 49 45 95 39 10 8e b6 3a
       0.014321248 -0.0036774683 0.00028471116 0.0013927836
000390 ff 4d 38 b9 40 40 19 3c f2 f0 5b 3c bf 5f 3b b9
       -0.00017576663 0.009353697 0.013424145 -0.00017869378
0003a0 79 bc 26 3c 70 77 2d 3b 1e 04 0c bd 00 32 8c 3c
       0.010176771 0.0026468895 -0.034183614 0.017113686
0003b0 d4 fa 98 bd 64 69 87 3a ce 9d c9 3c 47 1c b5 b9
       -0.07469717 0.0010331091 0.02461138 -0.00034544079
0003c0 16 93 1b be fd 00 56 bd c2 2a bd bd 62 57 83 bc
       -0.15192828 -0.052247036 -0.09236671 -0.016032878
0003d0 b2 77 47 b8 15 5d a1 3a 7b 2f 84 3c 2f f9 01 bd
       -4.7556772e-05 0.0012311066 0.016135922 -0.03173178
0003e0 12 70 2f 3b bb 7d 85 bc 6a d5 df 38 b2 37 33 3d
       0.002676968 -0.016295305 0.0001067322 0.043754287
0003f0 d9 8e cf 37 28 89 4d bd 4b 8e 47 3d 49 3f 56 b8
       2.4742842e-05 -0.05017963 0.048719686 -5.1080515e-05
